Assets/TFModels/ppo1.onnx (onnx, 309439 bytes, 13 tensors)

network_body.observation_encoder.processors.0.normalizer.running_mean f4 [20]
0.605565 0.3034313 0.022529721 0.17586906 0.668394 0.23778436 0.002923513 0.16194822
0.72139686 0.18666431 0.0038364904 0.16779521 0.65607476 0.25605875 0.0023320653 0.23198634
0.61925197 0.29381138 0.0063045123 0.23268887
00000000: 4f06 1b3f 595b 9b3e 4090 b83c 0517 343e
00000010: df1b 2b3f be7d 733e 6998 3f3b c1d5 253e
00000020: 77ad 383f ee24 3f3e a16d 7b3b 82d2 2b3e
00000030: 84f4 273f 221a 833e 90d5 183b d48d 6d3e
00000040: 4c87 1e3f 726e 963e 1596 ce3b fe45 6e3e

network_body.observation_encoder.processors.1.normalizer.running_mean f4 [12]
0.3219121 0.34195396 0.24476932 0.31925854 0.32531604 0.34213784 0.23811957 0.31276625
0.32298777 0.33694294 0.25235632 0.32648018
00000000: aad1 a43e 9714 af3e cfa4 7a3e db75 a33e
00000010: d38f a63e b12c af3e 9ed5 733e e622 a03e
00000020: a75e a53e c983 ac3e d934 813e 6928 a73e

network_body.observation_encoder.processors.2.normalizer.running_mean f4 [3]
0.090326436 0.032913778 -0.104293734
00000000: 11fd b83d 99d0 063d f497 d5bd

network_body._body_endoder.seq_layers.0.weight f4 [256, 35]
0.13414882 -0.08902312 0.17535394 0.0021398969 0.11319201 -0.18793207 -0.06811864 -0.14471768
0.072412744 0.1263461 0.37148494 0.1192708 0.0032184776 -0.021482568 0.017019771 -0.026974922
0.11995201 0.2935565 -0.04566309 -0.015481118 -0.07567155 0.085276134 0.005306574 -0.2378482
0.25102755 0.06923238 -0.05904759 -0.3338991 -0.1856662 0.2021686 0.4768278 0.15163794
0.45378456 0.44346634 0.23188265 0.14027384 0.17624502 0.045842048 0.019358713 -0.26742798
-0.12799376 0.024855828 0.1563909 0.013395565 0.20532753 0.1350613 -0.012522849 0.08998346
0.030133782 -0.2756843 -0.06390571 -0.20491156 -0.43832442 0.097988114 -0.055246726 0.1083636
0.15713401 -0.0045515164 -0.05982257 0.022560937 0.12269402 0.034011263 -0.055864573 0.20831718
-0.29760304 -0.08749111 0.2095328 -0.14738186 0.05578046 -0.07548604 -0.10553925 -0.060194034
0.0201682 0.10757073 -0.075964846 -0.021124983 -0.35619155 0.21578792 -0.1939672 -0.051673513
-0.010811473 -0.007806792 0.295032 0.0655582 0.07064389 -0.13973857 0.054732278 -0.28020847
0.081509046 0.32438692 -0.090039514 0.050823864 0.12921995 0.095870785 -0.3485528 -0.057090756
0.05286945 -0.026893178 0.0640405 0.0186888 0.043495182 0.24657051 0.15055649 0.06429855
0.11529806 -0.016723447 -0.06297761 0.15683448 -0.10968304 -0.13708349 0.026458038 -0.081809655
0.00532707 0.13418987 -0.2859507 -0.010796384 -0.06941684 -0.011132031 0.30761167 -0.099638745
0.12094842 0.02678462 0.05525853 -0.13528879 -0.15721601 -0.12840888 0.09310584 0.02536531
0.099313326 -0.002624156 -0.064495064 -0.092798196 -0.10988486 -0.029056698 0.16710827 0.052088134
0.29015675 -0.24194016 0.021461194 0.19625822 -0.13080746 -0.11930163 0.061202418 -0.11756457
0.17573614 0.18888137 -0.1731648 0.35954547 -0.03704448 -0.061423562 0.05205535 0.07849034
0.14548863 0.04028323 0.103539 0.22760995 -0.13094035 -0.12030127 0.22411758 0.11659903
0.30679306 -0.25293592 -0.013623009 0.13596654 0.006728505 -0.15535736 -0.28921267 0.2992882
-0.30902588 0.057122245 -0.1900838 -0.07068271 0.25441435 -0.010622413 -0.14355184 0.09680191
0.046943534 -0.09979622 -0.11636085 0.14854683 -0.15107891 0.34651613 0.1526256 0.11568264
-0.08649187 0.2473279 -0.12441556 -0.26441547 0.04223967 -0.101931855 0.08793743 0.06590343
-0.03863355 -0.16844538 0.04403401 0.25241432 0.14081843 0.19246122 -0.20858675 0.25666666
0.19931288 0.037431635 -0.17351152 -0.25656012 0.26200938 0.1864682 0.07732118 -0.11003803
-0.24095985 0.18147793 0.2930104 -0.00442522 -0.049673248 0.06881982 -0.116235614 -0.10799304
-0.049624115 -0.02184302 0.076865904 -0.10067224 0.08704481 -0.45796153 0.083756946 0.17566909
0.26357377 0.00038554662 0.2091207 0.18892042 0.050446447 -0.029984836 0.038123358 -0.043613642
-0.126703 -0.044048227 0.06842957 -0.16269223 0.05957529 0.0034995992 -0.0729428 -0.12291009
0.0199752 0.10889355 -0.17863917 0.11546791 0.05901042 -0.0106839845 0.11888286 -0.05417433
-0.17292836 0.09049434 0.11955364 -0.25422177 0.043191087 0.0042030797 -0.12913874 0.29148918
00000000: 4f5e 093e c151 b6bd fc8f 333e 833d 0c3b
00000010: 36d1 e73d 4471 40be c981 8bbd df30 14be
00000020: 224d 943d df60 013e 4633 be3e 4044 f43d
00000030: 18ed 523b 36fc afbc 0c6d 8b3c 83fa dcbc
00000040: 66a9 f53d 0a4d 963e 3809 3bbd 84a4 7dbc
00000050: b0f9 9abd 41a5 ae3d c5e2 ad3b 7b8e 73be
00000060: af86 803e b5c9 8d3d e3db 71bd d3f4 aabe
00000070: 481f 3ebe 4905 4f3e c622 f43e fa46 1b3e
00000080: 7356 e83e 050e e33e a572 6d3e f2a3 0f3e
00000090: 9379 343e dfc4 3b3d 2a96 9e3c 52ec 88be
000000a0: cc10 03be 739e cb3c f024 203e 1279 5b3c
000000b0: 6141 523e 824d 0a3e a32c 4dbc 4049 b83d
000000c0: 1fdb f63c 7e26 8dbe ffe0 82bd 56d4 51be
000000d0: 0f6c e0be fead c83d 644a 62bd bced dd3d
000000e0: bde7 203e e324 95bb 8308 75bd b7d1 b83c
000000f0: 0147 fb3d 654f 0b3d 40d2 64bd 1951 553e
00000100: 6d5f 98be 8a2e b3bd c48f 563e 45eb 16be
00000110: 0d7a 643d 6d98 9abd f624 d8bd 058e 76bd
00000120: c837 a53c 0b4e dc3d 7593 9bbd 4d0e adbc
00000130: bd5e b6be 82f7 5c3e 569f 46be 9ba7 53bd
00000140: 9b22 31bc 1ed0 ffbb 6f0e 973e 6143 863d
00000150: bead 903d a117 0fbe f42e 603d 7c77 8fbe
00000160: 37ee a63d 0b16 a63e a366 b8bd af2c 503d
00000170: 3c52 043e e757 c43d 8375 b2be ffd7 69bd
00000180: a38d 583d 154f dcbc aa27 833d 4119 993c
00000190: 0128 323d fb7c 7c3e 7b2b 1a3e f5ae 833d
000001a0: 6421 ec3d 9cff 88bc 68fa 80bd 3899 203e
000001b0: 80a1 e0bd 9d5f 0cbe 87be d83c d28b a7bd
000001c0: b48e ae3b 1269 093e 2168 92be 51e3 30bc
000001d0: 6b2a 8ebd 1f63 36bc 477f 9d3e 660f ccbd
000001e0: ceb3 f73d 6b6b db3c c556 623d 2589 0abe
000001f0: 3cfd 20be 9e7d 03be 46ae be3d e9ca cf3c
00000200: c964 cb3d 08fa 2bbb fd15 84bd fb0c bebd
00000210: 500b e1bd 5008 eebc 6e1e 2b3e 5e5a 553d
00000220: 6d8f 943e 29bf 77be 63cf af3c eaf7 483e
00000230: 64f2 05be 6a54 f4bd 63af 7a3d b1c5 f0bd
00000240: 2df4 333e 1e6a 413e 1d52 31be 5816 b83e
00000250: f4bb 17bd 4697 7bbd fe37 553d 8bbf a03d
00000260: f9fa 143e 0700 253d 410c d43d 9512 693e
00000270: 3a15 06be 8360 f6bd 147f 653e 79cb ee3d
00000280: fb13 9d3e d180 81be 0b33 5fbc d03a 0b3e
00000290: ca7a dc3b 0016 1fbe af13 94be 4e3c 993e
000002a0: a438 9ebe 04f9 693d 54a5 42be 19c2 90bd
000002b0: 9942 823e a109 2ebc 41ff 12be 1440 c63d
000002c0: dd47 403d f661 ccbd 994e eebd a91c 183e
000002d0: 6eb4 1abe 906a b13e e349 1c3e 05eb ec3d
000002e0: a622 b1bd 8643 7d3e 96cd febd 7761 87be
000002f0: 8103 2d3d a6c1 d0bd 8a18 b43d 61f8 863d
00000300: 373e 1ebd f27c 2cbe 025d 343d 733c 813e
00000310: b532 103e 8e14 453e c497 55be d069 833e
00000320: ad18 4c3e ea51 193d 01ad 31be d95b 83be
00000330: 1826 863e 85f1 3e3e 915a 9e3d 9e5b e1bd
00000340: 2ebe 76be 5ad5 393e 7605 963e 7001 91bb
00000350: 2d76 4bbd 68f1 8c3d f00c eebd 742b ddbd
00000360: a842 4bbd 22f0 b2bc df6b 9d3d 3f2d cebd
00000370: 8d44 b23d ef79 eabe c388 ab3d 99e2 333e
00000380: 24f3 863e 3123 ca39 bd23 563e 5b74 413e
00000390: efa0 4e3d c2a2 f5bc 3d27 1c3d 38a4 32bd
000003a0: 6ebe 01be ea6b 34bd cd24 8c3d cb98 26be
000003b0: 3805 743d 8859 653b 0963 95bd 49b8 fbbd
000003c0: 08a3 a33c 9503 df3d 30ed 36be 717a ec3d
000003d0: e9b4 713d e10b 2fbc db78 f33d e7e5 5dbd
000003e0: 2214 31be 1955 b93d 8ad8 f43d 5b29 82be
000003f0: 23e9 303d fdb9 893b f23c 04be 123e 953e

network_body._body_endoder.seq_layers.0.bias f4 [256]
-0.012411576 -0.008643047 -0.06574872 -0.062113576 -0.017514525 -0.036542453 -0.01249292 0.028581906
-0.03344329 -0.037562184 -0.01014246 -0.013274414 0.026253067 -0.025514498 0.022194201 -0.016679881
0.00846617 -0.040408414 -0.0323161 -0.036282424 -0.04652833 -0.034205526 0.0025758091 -0.014130193
0.014641408 -0.0024267123 0.060304884 -0.036270566 -0.07420154 0.020899784 -0.015390868 -0.02356108
0.015377066 0.00929268 -0.041565187 -0.06803442 -0.003553841 -0.036633812 -0.0077583515 -0.029662972
-0.0065761553 0.011649371 0.0325148 0.023335928 -0.029953055 -0.0313561 -0.034128375 0.021878263
-0.052596364 0.0343172 -0.050469548 -0.052574914 0.0155203985 -0.047982015 0.017340558 0.015702745
0.024314025 -0.02621892 -0.042812306 -0.009689081 -0.0010096579 -0.02385751 -0.036105257 0.0060987826
-0.0017561197 -0.035655137 -0.014595398 -0.029033981 -0.024553461 -0.02424662 -0.034986977 0.02292029
0.03198505 -0.019083297 -0.0062342733 -0.049650222 0.002586884 -0.012271123 -0.061534155 -0.039078664
-0.0019296479 -0.036514223 -0.006850955 -0.029883862 -0.04763737 -0.024440898 -0.029191962 -0.018618483
-0.029431567 -0.026496002 0.025046961 -0.0034933994 0.0040516616 0.005333608 0.010665231 0.007141986
-0.0058728526 -0.04976534 -0.04462886 -0.0047773346 -0.056362074 -0.025484974 -0.0050524245 -0.008061895
-0.047193944 0.0043063466 -0.024960076 0.0019647318 -0.052599605 0.010791678 -0.019299299 0.029566025
0.0032798976 -0.040053632 -0.04567967 -0.058187805 -0.020660324 0.00663488 -0.026631288 0.0044339714
0.011651039 0.017078675 -0.0021114293 -0.042382587 -0.006842518 -0.014318317 0.0039651613 0.0060283407
-0.070746236 -0.05232146 0.015868155 0.005855241 -0.037399717 -0.021698628 -0.029187018 0.007650024
-0.0065806126 0.016066529 -0.03449491 -0.01434881 0.0018385526 -0.02031983 -0.02209954 -0.019774588
0.012915302 -0.0488503 0.0019129675 -0.013687844 -0.0035931293 -0.012370346 -0.010913272 -0.032879017
-0.03727553 -0.040035345 -0.008415615 -0.01802556 0.031084329 0.012259668 -0.05948123 0.0036779945
-0.0068617878 -0.040683564 0.05380554 -0.0042450707 0.00736088 0.0024558005 0.016213588 -0.00093823206
-0.021393282 -0.038613826 -0.011284933 -0.048545275 -0.0225446 0.015627146 -0.023621423 -0.011744483
0.004570014 -0.012857313 -0.05526577 -0.026875978 -0.0043750904 -0.049172048 -0.041862436 -0.051478487
0.0004400851 0.011644796 -0.025184533 0.0077857296 -0.019516693 -0.045689847 -0.03955251 -0.015113356
-0.054333046 0.023278527 0.010154076 0.010307021 -0.0016764025 -0.04278607 -0.0091117965 -0.06677574
-0.023196993 -0.023365783 0.029932206 -0.022626815 -0.033050384 -0.0323619 -0.0146911 0.01233233
-0.0066041155 -0.0134619055 -0.04909529 -0.028910339 -0.038085375 -0.0011345497 -0.02583457 0.00047748955
-0.059621748 0.028262658 -0.060906317 -0.017515412 0.012985106 -0.048085846 -0.016487872 -0.017145691
0.023695135 -0.029338984 -0.014531566 -0.05554247 -0.014071799 -0.024268404 0.0018925741 -0.015393137
0.0060085054 -0.05302613 -0.019515049 -0.010909364 -0.034078516 -0.049451973 -0.008425841 0.013740095
0.0040504816 -0.051818263 -0.0020367145 -0.021523787 0.029531205 0.00048144927 0.04362275 0.024940187
0.0068696556 0.003901548 -0.012734772 -0.020167053 -0.017653376 -0.02852157 -0.015064301 -0.027765458
00000000: ec59 4bbc 919b 0dbc 44a7 86bd ce6a 7ebd
00000010: 9f7a 8fbc 8aad 15bd 1baf 4cbc 9a24 ea3c
00000020: d5fb 08bd ceda 19bd 902c 26bc ee7c 59bc
00000030: ac10 d73c c803 d1bc 9dd0 b53c 3fa4 88bc
00000040: b1b5 0a3c 4b83 25bd e35d 04bd e19c 14bd
00000050: 7d94 3ebd 181b 0cbd e8ce 283b 5382 67bc
00000060: 84e2 6f3c 7a09 1fbb 4102 773d 7290 14bd
00000070: faf6 97bd 0636 ab3c fb29 7cbc 2b03 c1bc
00000080: 17f0 7b3c 5340 183c 4240 2abd a155 8bbd
00000090: 8fe7 68bb 560d 16bd c539 febb c3ff f2bc
000000a0: ca7c d7bb 01dd 3e3c 3d2e 053d fd2a bf3c
000000b0: 1c60 f5bc 416f 00bd 32ca 0bbd 0b3a b33c
000000c0: 496f 57bd 3190 0c3d 28b9 4ebd cb58 57bd
000000d0: 4549 7e3c ca88 44bd c90d 8e3c 0ba3 803c
000000e0: 352e c73c 0fc9 d6bc f55b 2fbd f4be 1ebc
000000f0: 7f56 84ba d370 c3bc 1be3 13bd 4cd8 c73b
00000100: 992d e6ba 1f0b 12bd 8921 6fbc acd8 edbc
00000110: 5724 c9bc d9a0 c6bc 814e 0fbd 55c3 bb3c
00000120: c102 033d 9354 9cbc e048 ccbb 085e 4bbd
00000130: b688 293b d20c 49bc 3d0b 7cbd f310 20bd
00000140: 3dec fcba f08f 15bd fa7d e0bb 00cf f4bc
00000150: 671f 43bd 4738 c8bc fb23 efbc ca85 98bc
00000160: 781a f1bc 250e d9bc 492f cd3c 84f1 64bb
00000170: cdc3 843b 8cc5 ae3b 39bd 2e3c 5207 ea3b
00000180: 0f71 c0bb bed6 4bbd c0cc 36bd 308b 9cbb
00000190: ebdb 66bd ddc5 d0bc cf8e a5bb 0a16 04bc
000001a0: 704e 41bd 411c 8d3b 1379 ccbc bbc2 003b
000001b0: af72 57bd 94cf 303c 9019 9ebc 7334 f23c
000001c0: 8df3 563b 470f 24bd 9b1a 3bbd 5656 6ebd
000001d0: d73f a9bc 6869 d93b dc29 dabc d94a 913b
000001e0: 00e4 3e3c 94e8 8b3c e85f 0abb 5d99 2dbd
000001f0: 3437 e0bb 6097 6abc 2fee 813b 6389 c53b
00000200: 67e3 90bd 074f 56bd effd 813c 52dd bf3b
00000210: 7230 19bd 52c1 b1bc 9d19 efbc 0dad fa3b
00000220: 2ea2 d7bb f49d 833c 894a 0dbd 4517 6bbc
00000230: 97fb f03a c675 a6bc 180a b5bc 51fe a1bc
00000240: b49a 533c 4117 48bd 8abc fa3a fb42 60bc
00000250: b57a 6bbb feac 4abc 95cd 32bc 26ac 06bd
00000260: 3aae 18bd 1afc 23bd a6e1 09bc 57aa 93bc
00000270: 90a4 fe3c c6dc 483c 97a2 73bd 820a 713b
00000280: d9d8 e0bb cfa3 26bd 3363 5c3d 3c1a 8bbb
00000290: 8933 f13b 7ff1 203b 5cd2 843c b0f3 75ba
000002a0: f740 afbc 8829 1ebd 71e4 38bc 69d7 46bd
000002b0: 74af b8bc 8004 803c b781 c1bc ef6b 40bc
000002c0: 0ec0 953b 7ba7 52bc 5c5e 62bd 032b dcbc
000002d0: eb5c 8fbb a168 49bd f277 2bbd 1bdb 52bd
000002e0: 39bb e639 d0c9 3e3c cb4f cebc 6f1f ff3b
000002f0: 79e1 9fbc 4725 3bbd d001 22bd 029e 77bc
00000300: 548c 5ebd 9cb2 be3c 485d 263c c8de 283c
00000310: bcba dbba 7240 2fbd a549 15bc b8c1 88bd
00000320: 9f07 bebc 9969 bfbc 6334 f53c df5b b9bc
00000330: d75f 07bd e98d 04bd f1b2 70bc 8b0d 4a3c
00000340: 5667 d8bb 538f 5cbc 2518 49bd 60d5 ecbc
00000350: 69ff 1bbd 2cb5 94ba 05a3 d3bc 9057 fa39
00000360: ef35 74bd 1787 e73c e778 79bd 7b7c 8fbc
00000370: 7bbf 543c aaf5 44bd 9311 87bc 1f75 8cbc
00000380: 4d1c c23c 4f58 f0bc ce15 6ebc 8080 63bd
00000390: 678d 66bc 88ce c6bc 4010 f83a 7f33 7cbc
000003a0: ffe2 c43b ed31 59bd 06de 9fbc 30bd 32bc
000003b0: ea95 0bbd 278e 4abd 8a0c 0abc 231e 613c
000003c0: e7b9 843b 633f 54bd 667a 05bb a752 b0bc
000003d0: 6deb f13c 076b fc39 c5ad 323d 5d4f cc3c
000003e0: d91a e13b 1db1 7f3b 81a5 50bc 6035 a5bc
000003f0: d09d 90bc 11a6 e9bc 42d0 76bc 6374 e3bc

network_body._body_endoder.seq_layers.2.weight f4 [256, 256]
-0.07910583 -0.06697603 -0.017744113 0.025314372 -0.055466752 0.06034371 -0.07457701 0.113574564
-0.06978667 -0.07640706 0.031081166 -0.019989822 -0.009967621 -0.08693102 0.0085102515 -0.059992436
-0.082039945 0.0022754392 -0.024783721 -0.09343136 0.009385083 -0.017573388 -0.029488897 0.029140038
0.06319585 0.09978673 -0.08387161 0.009251511 -0.04233828 0.006831607 0.04084344 0.040616732
-0.048732426 0.057817094 -0.02061169 -0.010382891 0.07097069 0.108407505 -0.09715193 -0.12526213
-0.054341353 0.0052983495 -0.045468464 -0.009066785 0.05203258 -0.06329081 0.082385376 -0.080239624
-0.082595065 0.016382024 -0.04549944 0.046677116 0.064489305 0.0056143627 0.051085617 0.011393077
0.013149568 -0.043196466 0.08560134 0.07825954 -0.027131697 -0.03190737 0.011909134 -0.14640561
0.020308701 0.10008136 -0.10154218 0.10929734 -0.13727775 0.036689784 -0.011767112 0.025862506
0.023343878 -0.07625475 -0.05791452 -0.08128939 -0.004046678 -0.010672845 0.08166787 -0.062140174
-0.0074637476 0.055876207 -0.03372405 0.034005653 -0.039336644 0.033374 0.0108383335 0.08804265
-0.033948917 -0.018551135 -0.05896706 0.033363644 0.07183792 0.055111483 0.122686625 -0.07346179
-0.003467433 -0.040461432 -0.0019106383 -0.0039023 -0.0017195304 -0.018603664 0.080017135 -3.701762e-05
-0.1118927 0.02713177 -0.08054228 -0.007898825 0.05842237 0.04736099 0.02148952 -0.026596388
0.024033742 -0.01131266 -0.04433136 0.086465016 0.06006722 0.112130366 0.039616335 -0.111739196
-0.0050080004 -0.020073147 -0.028258393 -0.11779489 0.021290323 -0.09842933 -0.09826125 -0.045909658
0.073311344 -0.01688241 0.08541123 0.052211024 -0.0006816882 -0.120216504 0.035229255 -0.029521413
-0.030480227 -0.070569344 -0.0763272 0.11163096 -0.038466632 -0.004643235 -0.12515879 0.061206523
-0.08476604 0.046817426 0.015102349 0.043940183 -0.016211806 0.06675809 0.048213854 -0.10643658
-0.033599984 -0.010544598 -0.02957833 0.12039373 -0.047848582 -0.038346317 0.0039087194 0.060092144
-0.087124355 -0.018689176 -0.08696796 0.043796208 -0.034999363 -0.0022043856 -0.16149235 -0.046883717
0.12538345 -0.08126217 0.02357771 -0.051857937 0.15860198 0.07222484 0.03251367 0.032297976
0.08048634 0.003247718 -0.06609416 0.045844074 -0.04871286 0.07818846 0.07795686 -0.0010648842
0.08324743 -0.044296086 -0.0016611948 0.00019822887 -0.008347487 0.011886035 -0.06304052 -0.0034709913
-0.034467068 -0.067118175 -0.048804276 -0.07494399 -0.08262744 -0.005236743 -0.04331025 -0.018518018
0.002660686 -0.02153903 -0.06993402 0.060286123 -0.03961711 -0.132012 -0.025771035 0.047490384
0.08868294 -0.04793989 -0.075863786 -0.014095148 -0.06564615 0.0590234 0.061034147 0.090977065
-0.061399672 0.0693274 0.008480408 0.06854613 0.030960392 0.010528402 -0.0034391694 -0.10488129
-0.047884822 -0.024969598 -0.045996837 0.011670978 -0.0901098 -0.16660303 0.11561211 0.06474507
0.078031875 -0.034698084 0.026225952 -0.04136247 0.07588713 0.120161474 0.18768609 -0.03385534
-0.0848487 -0.08571139 0.09248197 -0.04426364 0.10220789 -0.04681873 -0.040370557 0.0003342788
0.09962961 0.017305758 -0.044530842 0.10458061 -0.08464218 -0.07989943 0.14326966 0.018010108
00000000: 3d02 a2bd bb2a 89bd 1a5c 91bc 1660 cf3c
00000010: 1b31 63bd f72a 773d d5bb 98bd c899 e83d
00000020: 50ec 8ebd 4e7b 9cbd ee9d fe3c b2c1 a3bc
00000030: 3c4f 23bc e408 b2bd 956e 0b3c a1ba 75bd
00000040: 8f04 a8bd 891f 153b 3b07 cbbc f158 bfbd
00000050: e4c3 193c 11f6 8fbc b392 f1bc 17b7 ee3c
00000060: d36c 813d fc5c cc3d e1c4 abbd a693 173c
00000070: e76a 2dbd acdb df3b 734b 273d bb5d 263d
00000080: a79b 47bd 9ed1 6c3d d9d9 a8bc 001d 2abc
00000090: 1559 913d c104 de3d 97f7 c6bd b744 00be
000000a0: 0a95 5ebd c79d ad3b 243d 3abd da8c 14bc
000000b0: 1d20 553d 9d9e 81bd aab9 a83d ac54 a4bd
000000c0: 9a27 a9bd 9833 863c 9f5d 3abd 8130 3f3d
000000d0: f812 843d b0f8 b73b 273f 513d 07aa 3a3c
000000e0: 4971 573c c7ee 30bd c14f af3d 8a46 a03d
000000f0: 4b43 debc 4db1 02bd 871e 433c 5aeb 15be
00000100: 6f5e a63c 75f7 cc3d 59f5 cfbd 49d7 df3d
00000110: 8a92 0cbe 0748 163d d8ca 40bc 9bdd d33c
00000120: a93b bf3c 732b 9cbd c737 6dbd 0d7b a6bd
00000130: ff99 84bb 28dd 2ebc 7c41 a73d b286 7ebd
00000140: 7492 f4bb 73de 643d 3b22 0abd 8349 0b3d
00000150: 761f 21bd 2db3 083d 4493 313c b44f b43d
00000160: 050e 0bbd 8df8 97bc 7287 71bd 51a8 083d
00000170: c21f 933d 94bc 613d 2043 fb3d 2373 96bd
00000180: df3d 63bb e3ba 25bd 626e faba bbbd 7fbb
00000190: de61 e1ba b666 98bc 06e0 a33d 5e43 1bb8
000001a0: 0028 e5bd 7243 de3c 5af3 a4bd 136a 01bc
000001b0: 4c4c 6f3d 99fd 413d ca0a b03c abe0 d9bc
000001c0: 69e2 c43c bc58 39bc cd94 35bd 9214 b13d
000001d0: 0c09 763d 9ba4 e53d bd44 223d 85d7 e4bd
000001e0: 271a a4bb 7170 a4bc 257e e7bc 733e f1bd
000001f0: 0b69 ae3c 5195 c9bd 323d c9bd c40b 3cbd
00000200: 4224 963d fb4c 8abc 15ec ae3d 3adb 553d
00000210: 52b3 32ba 1234 f6bd 8d4c 103d e4d6 f1bc
00000220: abb1 f9bc a986 90bd 6f51 9cbd c69e e43d
00000230: 308f 1dbd 4726 98bb a029 00be b1b3 7a3d
00000240: d199 adbd a1c3 3f3d d86f 773c 9ffa 333d
00000250: 9fce 84bc 77b8 883d e47b 453d 6cfb d9bd
00000260: 23a0 09bd 40c3 2cbc 414e f2bc fd90 f63d
00000270: e0fc 43bd 0711 1dbd b714 803b 2e23 763d
00000280: 416e b2bd 0b1a 99bc 421c b2bd a763 333d
00000290: 7e5b 0fbd 7477 10bb 405e 25be 2409 40bd
000002a0: 8564 003e c86c a6bd 0b26 c13c fd68 54bd
000002b0: 8f68 223e 9eea 933d 0e2d 053d e24a 043d
000002c0: 06d6 a43d abd7 543b 605c 87bd ffc6 3b3d
000002d0: 2387 47bd 4521 a03d d9a7 9f3d 9693 8bba
000002e0: a17d aa3d d06f 35bd 73bc d9ba a8db 4f39
000002f0: e6c3 08bc a5bd 423c 631b 81bd 9279 63bb
00000300: 572d 0dbd 4175 89bd fee6 47bd 3c7c 99bd
00000310: 9338 a9bd fc98 abbb 1766 31bd 19b3 97bc
00000320: e75e 2e3b 9f72 b0bc 9139 8fbd 95ee 763d
00000330: 8d45 22bd 272e 07be c71d d3bc 4785 423d
00000340: 679f b53d 9e5c 44bd 795e 9bbd 56ef 66bc
00000350: 7d71 86bd 85c2 713d f1fe 793d 2f52 ba3d
00000360: 397e 7bbd 86fb 8d3d 69f1 0a3c ea61 8c3d
00000370: a6a0 fd3c 527f 2c3c b063 61bb 00cc d6bd
00000380: e022 44bd 0b8d ccbc 2e67 3cbd a137 3f3c
00000390: 7d8b b8bd fc99 2abe 0bc6 ec3d 1099 843d
000003a0: 2dcf 9f3d 941f 0ebd cfd7 d63c b16b 29bd
000003b0: b66a 9b3d 3817 f63d c830 403e e6ab 0abd
000003c0: 28c5 adbd 7489 afbd 3067 bd3d ca4d 35bd
000003d0: 5f52 d13d ffc4 3fbd 995b 25bd 2442 af39
000003e0: 9c0a cc3d cec4 8d3c f965 36bd 5c2e d63d
000003f0: e158 adbd 50a2 a3bd 48b5 123e ef89 933c

network_body._body_endoder.seq_layers.2.bias f4 [256]
-0.018904196 -0.033246137 -0.0015014474 -0.0073614465 -0.007327388 -0.00010286391 -0.021574656 0.0022657102
0.0091700535 0.019462826 0.008841892 -0.01766056 -0.025972467 0.020425495 0.0072422037 0.027579889
-0.026565056 -0.007935965 -0.0113375345 -0.023630973 0.008635341 -0.01182422 0.016027398 -0.023833755
-0.021628382 -0.0048506325 0.0036759516 0.0023029826 0.0031897223 0.018102245 0.009719192 -0.016748372
0.007080784 0.0113431765 -0.020483363 0.004316627 -0.019160764 0.008520543 -0.034718826 0.012014637
-0.018420473 -0.024848511 -0.015293223 -0.028721698 -0.0039042055 -0.016625369 -0.018500315 -0.03886634
0.008946812 0.0011298248 -0.0236715 -0.0085608335 -0.03446738 -0.021927096 0.00146922 0.004475715
-0.018663868 -0.038301684 -0.0038178065 0.0050016674 -0.007112825 -0.0027068183 -0.010138659 -0.021738844
-0.008181495 -0.020857377 -0.020717703 0.004740694 0.0040843757 -0.0171359 -0.02083015 -0.017556254
-0.010129372 -0.009501541 -0.019782936 0.0003864717 -0.02006133 0.0071944618 -0.017800516 0.001167392
0.0016927834 -0.029060466 -0.039116632 -0.053769 -0.04232928 -0.03578995 -0.010630775 -0.016140971
-0.039962716 -0.021396197 -0.015269762 -0.006560117 -0.00036671464 -0.01891212 0.013225377 -0.023011329
-0.028828938 -0.041543964 0.013581489 -0.023590874 -0.0031337142 0.018343924 0.032587927 -0.011467444
-0.020332947 -0.02318372 -0.017282566 0.0069408035 -0.043245796 -0.022738602 0.009861696 -0.006979602
-0.013981869 0.008387919 0.0010773626 -0.016083578 0.0097046355 0.005167344 -0.040357266 -0.022924075
-0.007410719 -0.0128778005 -0.013179336 -0.008277466 -0.024672406 0.022151321 -0.016296024 -0.02181153
-0.0125216115 0.00068180764 -0.002213992 -0.03225273 -0.0003512351 -0.03484307 -0.0015537159 0.010784502
-0.0013235658 -0.015769513 -0.037742425 -0.012012151 -0.013444761 -0.009460995 -0.0044115772 -0.015692648
0.009007933 -0.034144003 0.004921034 -0.021175181 -0.0006088635 -0.026267435 -0.005109009 -0.00768686
-0.014647494 -0.022287678 -0.020655246 -0.00042955327 -0.041339315 -0.05044594 -0.033575647 0.002404536
-0.021596108 0.010554401 -0.045687515 -0.0125413565 -0.0010403187 0.030918997 0.00551901 -0.0031261365
-0.004940787 0.0014125577 -0.023543771 -0.041545082 -0.017929304 -0.018547343 -0.018334663 6.194279e-05
-0.0019401731 -0.0069452426 0.007663595 -0.022123195 -0.023840647 -0.017137116 -0.0075302715 -0.011965516
0.00352737 0.01794838 -0.01502633 -0.014171414 -0.02714618 0.0007671557 -0.008373537 -0.016890267
-0.008667681 -0.0020857751 0.0026658925 -0.022865798 -0.015415985 -0.020362165 -0.015136324 -0.040032867
-0.0045893067 -0.02361453 -0.017049424 0.0065187253 0.0110364305 -0.033335846 -0.010037101 -0.01770131
0.00095025357 -0.0067647183 -0.011722382 0.006952944 -0.0020451474 0.009835686 0.024877122 -0.018531187
0.010525107 -0.024193853 -0.018359208 -0.006612183 -0.047986887 -0.02522651 0.00717502 -0.011609359
0.0058088293 -0.008558387 -0.009134264 -0.01563458 -0.008333286 -0.009590599 0.004189142 -0.02264072
-0.01572299 -0.03647444 -0.032768283 -0.012618164 -0.015010541 0.0021704577 0.00021092362 -0.007599036
-0.039760377 0.011152791 -0.006214262 -0.0031505201 -0.030263746 -0.015919412 0.0026303842 -0.030896686
-0.00968146 -0.015360726 -0.028825322 -0.003215844 -0.044039916 -0.021744428 -0.0110671995 -0.016569158
00000000: f9dc 9abc 1a2d 08bd 37cc c4ba 4a38 f1bb
00000010: 961a f0bb a4b8 d7b8 55bd b0bc 4f7c 143b
00000020: fe3d 163c 8170 9f3c 95dd 103c e1ac 90bc
00000030: 36c4 d4bc 5e53 a73c 0250 ed3b 38ef e13c
00000040: f69e d9bc da05 02bc 11c1 39bc be95 c1bc
00000050: 3f7b 0d3c 60ba 41bc e44b 833c 023f c3bc
00000060: 012e b1bc 0ef2 9ebb 3ce8 703b a3ed 163b
00000070: a90a 513b 294b 943c 3f3d 1f3c e233 89bc
00000080: ec05 e83b bbd8 393c bacc a7bc 7e72 8d3b
00000090: 09f7 9cbc bf99 0b3c 5435 0ebd 0ad9 443c
000000a0: 88e6 96bc 1b8f cbbc 6d90 7abc c449 ebbc
000000b0: b3dd 7fbb ed31 88bc f98d 97bc 5032 1fbd
000000c0: a695 123c a116 943a bcea c1bc bd42 0cbc
000000d0: ab2d 0dbd 74a0 b3bc d892 c03a 05a9 923b
000000e0: f8e4 98bc 3ae2 1cbd 2a34 7abb 07e5 a33b
000000f0: b312 e9bb e064 31bb 9e1c 26bc a915 b2bc
00000100: ad0b 06bc 17dd aabc 2cb8 a9bc d357 9b3b
00000110: 3ad6 853b 9660 8cbc fea3 aabc 22d2 8fbc
00000120: aaf5 25bc 5aac 1bbc d30f a2bc 5a9f ca39
00000130: a957 a4bc 85bf eb3b 63d2 91bc 2d03 993a
00000140: 63e0 dd3a 3710 eebc c338 20bd e23c 5cbd
00000150: 7861 2dbd 7c98 12bd b42c 2ebc 123a 84bc
00000160: f2af 23bd 1447 afbc 062e 7abc 40f6 d6bb
00000170: 9b43 c0b9 97ed 9abc 40af 583c 4182 bcbc
00000180: aa2a ecbc 012a 2abd e584 5e3c a641 c1bc
00000190: 005f 4dbb ff45 963c eb7a 053d f2e1 3bbc
000001a0: 4891 a6bc c9eb bdbc 2b94 8dbc ae6f e33b
000001b0: 8122 31bd 4e46 babc f392 213c 25b5 e4bb
000001c0: 3614 65bc 7b6d 093c 4a36 8d3a b5c1 83bc
000001d0: 3100 1f3c d352 a93b a94d 25bd 45cb bbbc
000001e0: 9ed5 f2bb 69fd 52bc 24ee 57bc 359e 07bc
000001f0: c91d cabc b076 b53c 3d7f 85bc 18ae b2bc
00000200: 7227 4dbc 56bb 323a 9f18 11bb 701b 04bd
00000210: fa25 b8b9 9bb7 0ebd 0ea6 cbba 7bb1 303c
00000220: 807b adba 112f 81bc cd97 1abd 9dce 44bc
00000230: 6a47 5cbc 4a02 1bbc fe8e 90bb de8d 80bc
00000240: 0296 133c 95da 0bbd a040 a13b 9377 adbc
00000250: 239c 1fba ce2e d7bc 7969 a7bb 0ee2 fbbb
00000260: 0bfc 6fbc a694 b6bc 3135 a9bc aa35 e1b9
00000270: 6a53 29bd 67a0 4ebd 9e86 09bd 6b95 1d3b
00000280: 52ea b0bc 5eec 2c3c d522 3bbd 437a 4dbc
00000290: 4e5b 88ba d649 fd3c d0d8 b43b dedf 4cbb
000002a0: 53e6 a1bb 9225 b93a dede c0bc 2d2b 2abd
000002b0: 7ae0 92bc 99f0 97bc 9332 96bc 48e7 8138
000002c0: 684d feba eb94 e3bb e51e fb3b b43b b5bc
000002d0: 764d c3bc 2363 8cbc 7fc0 f6bb 030b 44bc
000002e0: 732b 673b 7b08 933c ff30 76bc 382f 68bc
000002f0: aa61 debc f31a 493a 2931 09bc 755d 8abc
00000300: e402 0ebc 80b1 08bb 41b6 2e3b 0e51 bbbc
00000310: 5493 7cbc 8ece a6bc 58fe 77bc 81f9 23bd
00000320: e561 96bb 4273 c1bc 3cab 8bbc 089b d53b
00000330: 25d2 343c 2b8b 08bd a772 24bc 5602 91bc
00000340: 701a 793a 92aa ddbb 3c0f 40bc 86d5 e33b
00000350: e107 06bb db25 213c 1bcb cb3c b7ce 97bc
00000360: 8071 2c3c 3032 c6bc 0d66 96bc 03ab d8bb
00000370: e68d 44bd d3a7 cebc 6e1c eb3b 2e35 3ebc
00000380: fe57 be3b 7a38 0cbc e1a7 15bc 1714 80bc
00000390: 5688 08bc e321 1dbc 1245 893b 0879 b9bc
000003a0: 80cd 80bc 3966 15bd 0938 06bd 6abc 4ebc
000003b0: c6ee 75bc 3d3e 0e3b 612b 5d39 5601 f9bb
000003c0: c7db 22bd 32ba 363c 02a1 cbbb f578 4ebb
000003d0: adeb f7bc 6d69 82bc 8662 2c3b 0c1b fdbc
000003e0: fd9e 1ebc 8eab 7bbc 1523 ecbc e9c0 52bb
000003f0: 3363 34bd 5f21 b2bc 3353 35bc 0bbc 87bc

action_model._continuous_distribution.log_sigma f4 [1, 2]
-0.09388558 0.022267468
00000000: 1547 c0bd 446a b63c

action_model._continuous_distribution.mu.weight f4 [2, 256]
0.0058103176 0.014542637 0.030384453 -0.00645301 -0.0028522597 -0.010575704 0.0014182978 -0.027221141
-0.03098716 -0.025569703 -0.05806508 -0.010159 0.017498892 -0.0609875 -0.03900184 -0.017847838
-0.005473087 0.022434248 0.01859111 -0.0040989406 -0.0035110505 -0.005827256 0.06844796 0.026563272
0.00074938376 -0.0109210145 -0.016817883 -0.013131778 -0.011906594 -0.02421096 -0.025650483 0.029362986
-0.028202482 -0.0270608 0.013355816 -0.015715662 0.011199512 -0.032088846 0.011350023 -0.010833447
-0.01222675 0.02115191 0.052057084 0.018178008 0.003204346 0.011990644 -8.6594424e-05 0.008155596
-0.07596178 -0.046512105 0.0038027235 -0.0060611605 -0.0004896532 0.004079654 -0.018234855 -0.021865161
0.036287826 -0.01661037 -0.037392914 -0.006703629 0.003450089 0.02225228 -0.039279032 0.0018230856
0.007569719 0.014944613 0.0019584002 0.012972424 -0.043581065 0.008870666 0.020863414 0.00019747684
0.00080913096 -0.020148853 0.007191921 -0.0064743906 0.036426917 -0.035683207 0.0024226704 0.026704682
-0.00032630263 0.013018579 -0.005955812 0.020613618 0.013197722 0.009432564 -0.02258708 0.03688627
-0.012871147 0.0023709368 -0.004253714 -0.054854188 -0.019653417 -0.008987628 -0.031867508 0.006728584
0.0013218111 0.021891618 -0.042520013 -0.02676337 -0.013395658 -0.058305465 -0.03387004 -0.015148296
0.011211007 0.0026691272 0.020660425 0.040292658 0.011120425 0.05767017 -0.0019274742 0.00041667637
-0.029430382 -0.030425906 -0.017637277 0.025437975 -0.04227012 -0.004412896 0.026057867 0.0069426564
-0.0033792965 0.0014232735 0.00018638761 0.042852562 0.0054112687 -0.028543146 -0.0007002929 0.032595992
-0.005831726 -0.0031916907 -0.040611543 -0.0038782165 -0.0028526487 0.002918247 -0.018193044 -0.058641087
-0.06276004 0.012484436 0.007845526 -0.0021411502 -0.0016792717 -0.027161028 -0.019672982 -0.00998728
0.0024865125 0.010892519 -0.014751061 -0.035752412 -0.03920912 -0.021136347 0.005970711 -0.004847737
0.06318626 0.008425451 0.034520984 0.002336706 0.0032763882 0.0048760693 -0.021832248 -0.00071082194
0.0006818256 -0.011935422 -5.2325777e-05 -0.006799516 -0.025606696 -0.06874972 -0.06950623 -0.0024144752
-0.0066171363 -0.05718803 0.004389906 0.023209652 0.017860956 0.019631531 0.0063355193 0.044259816
-0.03233402 0.013093881 -0.028290793 0.04337681 0.034185637 -0.0026218768 -0.028809896 0.015477561
-0.037465315 -0.030850194 0.01723276 0.004000908 -0.0010153425 -0.021716956 -0.016682908 -0.023060163
-0.014325666 -0.003729899 -0.015406157 0.0076443655 -0.013392004 0.0022314126 0.027975552 -0.005419632
-0.04076457 -0.00071760523 0.006492001 0.004975168 -0.055058397 0.064299986 -0.016862907 0.0086154025
-0.027866228 -0.0010246005 0.0068199164 -0.033577595 -0.015129897 -0.003131266 -0.034216557 -0.014470086
-0.01797483 0.018590985 -0.0024612348 -0.03472394 0.02116753 0.017174471 -0.055738587 -0.012451608
0.01285857 0.0026619872 0.0024236874 0.017598199 -0.013582978 0.026286999 0.010219995 0.0069051078
0.0017314195 0.02930898 0.014141879 0.010977719 0.010758211 -0.0016664292 -0.0196551 -0.04841447
0.009416607 -0.056828298 -0.010843598 -0.0026648662 0.012168189 0.0017438538 -0.00089725986 0.025416942
0.022372795 -0.015351234 0.015291013 -0.040103845 0.015611217 -0.03814523 0.025757365 -0.0009879668
00000000: 7a64 be3b 3e44 6e3c d1e8 f83c c573 d3bb
00000010: faec 3abb b845 2dbc 2de6 b93a dffe debc
00000020: c9d8 fdbc 8e77 d1bc a6d5 6dbd ef71 26bc
00000030: d659 8f3c 07ce 79bd 65c0 1fbd a135 92bc
00000040: 9557 b3bb 07c8 b73c 624c 983c 6850 86bb
00000050: a719 66bb 91f2 bebb 722e 8c3d 389b d93c
00000060: 4b72 443a 0eee 32bc a8c5 89bc ab26 57bc
00000070: e013 43bc 1056 c6bc f620 d2bc a58a f03c
00000080: e408 e7bc 9cae ddbc 5ad2 5a3c 22be 80bc
00000090: 287e 373c 986f 03bd 72f5 393c c57e 31bc
000000a0: b552 48bc c546 ad3c cf39 553d 0cea 943c
000000b0: 0100 523b 6874 443c 079a b5b8 0d9f 053c
000000c0: da91 9bbd 7a83 3ebd 1d37 793b b39c c6bb
000000d0: 125c 00ba 9eae 853b 4361 95bc 911e b3bc
000000e0: 8ba2 143d 7812 88bc 5029 19bd 1eaa dbbb
000000f0: e31a 623b 6a4a b63c 0de3 20bd 9af4 ee3a
00000100: 680b f83b 40da 743c 8158 003b 4a8a 543c
00000110: 0f82 32bd 4556 113c c0e9 aa3c c911 4f39
00000120: dc1b 543a 350f a5bc 35aa eb3b 2027 d4bb
00000130: 6434 153d 8e28 12bd aac5 1e3b c7c3 da3c
00000140: 9913 abb9 e14b 553c f928 c3bb e4dd a83c
00000150: 423b 583c 0a8b 1a3c 8a08 b9bc 0f16 173d
00000160: 81e1 52bc b861 1b3b bd62 8bbb c9ae 60bd
00000170: 3400 a1bc d840 13bc 8187 02bd 747b dc3b
00000180: 9f40 ad3a 0d56 b33c 7729 2ebd db3e dbbc
00000190: 7679 5bbc b6d1 6ebd 50bb 0abd 8f30 78bc
000001a0: 5fae 373c 86ec 2e3b 0d40 a93c ea09 253d
000001b0: 7132 363c 8e37 6c3d 4da3 fcba 5b75 da39
000001c0: fc17 f1bc c03f f9bc 0d7c 90bc 4d63 d03c
000001d0: 6f23 2dbd 0e9a 90bb 4f77 d53c 397f e33b
000001e0: 3077 5dbb 228d ba3a 0b71 4339 2b86 2f3d
000001f0: 0351 b13b 51d3 e9bc dc93 37ba 6083 053d
00000200: 1018 bfbb af2b 51bb 4a58 26bd ad29 7ebb
00000210: 81f3 3abb 0f40 3f3b 9409 95bc a331 70bd
00000220: 5688 80bd 858b 4c3c 858a 003c 8a52 0cbb
00000230: 021b dcba ce80 debc 3c29 a1bc b0a1 23bc
00000240: c2f4 223b 8976 323c 6fae 71bc 1f71 12bd
00000250: be99 20bd 2226 adbc f4a5 c33b c4d9 9ebb
00000260: cc67 813d e70a 0a3c e065 0d3d 6c23 193b
00000270: acb8 563b 6fc7 9f3b 8bd9 b2bc 7456 3aba
00000280: 8bbc 323a ca8c 43bc 6078 5bb8 79ce debb
00000290: 22c5 d1bc a7cc 8cbd 4859 8ebd 2c3c 1ebb
000002a0: 90d4 d8bb ff3d 6abd 33d9 8f3b 2b22 be3c
000002b0: 2451 923c 4ed2 a03c 309a cf3b c849 353d
000002c0: ad70 04bd b887 563c 18c2 e7bc e2ab 313d
000002d0: 3d06 0c3d cbd3 2bbb bb02 ecbc 9995 7d3c
000002e0: 3b75 19bd 8cb9 fcbc b82b 8d3c 0d1a 833b
000002f0: 3e15 85ba c2e7 b1bc 98aa 88bc abe8 bcbc
00000300: 33b6 6abc 5271 74bb 1b6a 7cbc 967d fa3b
00000310: 236a 5bbc e43c 123b fc2c e53c 2b97 b1bb
00000320: c0f8 26bd ac1d 3cba daba d43b bc06 a33b
00000330: ea84 61bd b6af 833d 1424 8abc 9e27 0d3c
00000340: b747 e4bc e34b 86ba 9b79 df3b a988 09bd
00000350: 63e3 77bc ed35 4dbb a926 0cbd f113 6dbc
00000360: f33f 93bc 1f4c 983c ab4c 21bb b13a 0ebd
00000370: 8767 ad3c 7ab1 8c3c 254e 64bd d401 4cbc
00000380: c0ac 523c bc74 2e3b bad6 1e3b 192a 903c
00000390: 248b 5ebc d557 d73c c471 273c 3e44 e23b
000003a0: ccf0 e23a 6319 f03c 57b3 673c e4db 333c
000003b0: 3543 303c 166c daba bb03 a1bc 404e 46bd
000003c0: 1d48 1a3c cac4 68bd 59a9 31bc 09a5 2ebb
000003d0: 155d 473c 0692 e43a 1736 6bba 3137 d03c
000003e0: 2747 b73c be83 7bbc 2887 7a3c ee43 24bd
000003f0: 31c6 7f3c 2c3e 1cbd 1c01 d33c aa7e 81ba

action_model._continuous_distribution.mu.bias f4 [2]
0.012580939 0.01049843
00000000: 4820 4e3c 9b01 2c3c

onnx::Div_71 f4 [20]
0.4887302 0.45974118 0.14840187 0.20475867 0.47079167 0.42572746 0.053999625 0.14571989
0.4483131 0.38964325 0.06182852 0.1726096 0.47501728 0.4364556 0.048245393 0.16310447
0.4855716 0.45550764 0.07915652 0.17133676
00000000: d83a fa3e 3263 eb3e a9f6 173e 42ac 513e
00000010: 9b0b f13e f3f8 d93e b62e 5d3d 9837 153e
00000020: 4b89 e53e 527f c73e e73f 7d3d 92c0 303e
00000030: 7735 f33e 1c77 df3e f69c 453d dc04 273e
00000040: d79c f83e 4c38 e93e d01c a23d e772 2f3e

onnx::Div_74 f4 [12]
0.46721056 0.47436532 0.42995158 0.4001926 0.4684938 0.4744266 0.4259338 0.39697346
0.46761915 0.47266614 0.43436587 0.40380305
00000000: 3936 ef3e 03e0 f23e 9d22 dc3e 0be6 cc3e
00000010: 6bde ef3e 0be8 f23e ff13 da3e 1b40 cb3e
00000020: c76b ef3e 4c01 f23e 3465 de3e 46bf ce3e

onnx::Div_77 f4 [3]
0.4870018 0.0408272 0.61393166
00000000: 4d58 f93e 6c3a 273d a02a 1d3f
