Assets/TFModels/ppo3.onnx (onnx, 309439 bytes, 13 tensors)

network_body.observation_encoder.processors.0.normalizer.running_mean f4 [20]
0	0x3ef78e6f	0.48350856
1	0x3eed857e	0.4639091
2	0x3ccf911b	0.025337746
3	0x3e78ef4b	0.24310033
4	0x3f3616b1	0.71128374
5	0x3e5db25c	0.2165007
6	0x3b0fb73c	0.0021929285
7	0x3e37dab0	0.17954516
8	0x3f38f67a	0.72251093
9	0x3e450e70	0.19243789
10	0x3b421d23	0.0029619418
11	0x3e3a447f	0.18190192
12	0x3f2221ee	0.6333302
13	0x3e8fd77f	0.28094098
14	0x3b7b03b4	0.0038301768
15	0x3e576b49	0.2103702
16	0x3f236557	0.6382651
17	0x3e8c1ece	0.27367252
18	0x3b9097f8	0.0044126473
19	0x3e62c5e0	0.22145796

network_body.observation_encoder.processors.1.normalizer.running_mean f4 [12]
0	0x3e845ebe	0.25853533
1	0x3f025618	0.5091262
2	0x3e39eeaa	0.1815745
3	0x3e8243d8	0.25442386
4	0x3e897613	0.26847896
5	0x3f018475	0.5059274
6	0x3e326f73	0.17425327
7	0x3e7e9d1e	0.24864623
8	0x3e818fdd	0.2530507
9	0x3f0157bf	0.50524515
10	0x3e42d71c	0.1902737
11	0x3e860573	0.26176032

network_body.observation_encoder.processors.2.normalizer.running_mean f4 [3]
0	0xbd29c06c	-0.041443273
1	0x3d0b76c6	0.034048818
2	0xba268f13	-0.0006353717

network_body._body_endoder.seq_layers.0.weight f4 [256, 35]
0	0x3e0f4230	0.13990092
1	0x3f014cba	0.505077
2	0x3cbc968b	0.023021003
3	0xbdcb0987	-0.099139266
4	0xbe785a5f	-0.24253224
5	0x3e7d0b7d	0.24711414
6	0xbdb4c960	-0.08827472
7	0xbe3e155a	-0.18562832
8	0xbd9cf91d	-0.07664702
9	0xbd994b4f	-0.07485067
10	0x3cf8e288	0.030381456
11	0x3c0d06cd	0.008607578
12	0xbd22daba	-0.039759375
13	0xbe07a5c6	-0.13246831
14	0x3df61ab3	0.12016811
15	0xbc65b5ba	-0.014020378
16	0xbe8060e7	-0.2507393
17	0x3d0943fe	0.033512108
18	0x3de7f936	0.1132683
19	0xbc7fc0de	-0.015609948
20	0x3e67f6f5	0.226528
21	0x3ddea248	0.108707964
22	0x3d939718	0.07206553
23	0xbe39190e	-0.18075964
24	0x3de93d2c	0.11388621
25	0xbd83d4fa	-0.064371064
26	0xbd4c7f96	-0.049926363
27	0x3c2e72b8	0.010647468
28	0xbec85b87	-0.3913233
29	0x3c679653	0.014134961
30	0x3ea7dc4e	0.32785267
31	0x3da11d3c	0.07866904
32	0xbe38593b	-0.18002789
33	0x3e885b1d	0.26632014
34	0xbd9dc3f7	-0.07703393
35	0xbc9f2cee	-0.019430604
36	0x3d08edbc	0.033429846
37	0xbeab5491	-0.33462957
38	0xbe8269f3	-0.25471458
39	0xbea31ed5	-0.3185946
40	0xbb56a7b9	-0.003275378
41	0x3c29bfff	0.010360717
42	0xbdd0441b	-0.1016924
43	0x3eef9329	0.46791962
44	0x3e416dbb	0.18889515
45	0x3eaa1d7c	0.3322562
46	0x3ddc71dd	0.10763905
47	0x3d49db06	0.049281143
48	0xbd0d81b4	-0.034547523
49	0x3dfd2f26	0.123625085
50	0x3dd91ad6	0.10600822
51	0x3d97fb23	0.074209474
52	0x3e2471bd	0.16059013
53	0xbe8f907b	-0.28039917
54	0xbe113f2e	-0.14184257
55	0x3e88782b	0.2665418
56	0xbe8272a7	-0.25478098
57	0xbe027eaa	-0.12743631
58	0x3d060b95	0.03272589
59	0x3e61bfa4	0.22045761
60	0x3d378432	0.044803806
61	0x3ac75973	0.0015209153
62	0xbdb5cbb2	-0.088767424
63	0xbe9eb57b	-0.30997834
64	0xbe81efed	-0.2537836
65	0x3e554886	0.20828447
66	0x3d4ec471	0.05048031
67	0xbc1bb43c	-0.00950342
68	0x3e636538	0.2220658
69	0x3c457bfe	0.012053488
70	0xbc6a3987	-0.014295942
71	0xbced913f	-0.028999923
72	0x3e51b4d0	0.2047913
73	0x3e18fa3b	0.14939205
74	0x3ec8ab6c	0.39193285
75	0x3e48f2cb	0.19623868
76	0xbbdc7637	-0.0067279595
77	0xbe875f48	-0.2643988
78	0xbd7fc75f	-0.062445994
79	0xbe1b03a3	-0.15138106
80	0xbd78eae3	-0.06077088
81	0xbbdc0556	-0.0067145033
82	0xbd052b01	-0.032511715
83	0x3db5d0b5	0.08877698
84	0xbe8f10b1	-0.27942422
85	0x3e0506aa	0.12990823
86	0x3e5431c4	0.20722109
87	0xbdc005ae	-0.09376083
88	0xbc0340a4	-0.008011017
89	0x3e373d5f	0.17894505
90	0xbe0f9b67	-0.14024125
91	0xbe46e034	-0.19421464
92	0x3d803da4	0.06261757
93	0xbe5b43dd	-0.21412607
94	0xbd9ead3f	-0.07747888
95	0x3dd7916a	0.105257824
96	0xbeb3f7ab	-0.35149893
97	0x3e416ecb	0.1888992
98	0xbe47968f	-0.19491027
99	0x3e36b4dd	0.17842431
100	0x3e0fb8ff	0.14035414
101	0x3c031fef	0.008003219
102	0xbbcbf0f0	-0.0062237903
103	0x3e7ae1d3	0.24500208
104	0xbdc99cd5	-0.098443665
105	0xbda4cc68	-0.080468
106	0xbe9e2a7d	-0.3089179
107	0x3d954508	0.07288557
108	0x3dd3b858	0.10337895
109	0x3e8a22de	0.26979727
110	0x3cd6e754	0.026233353
111	0x3e07ab02	0.13248828
112	0xbe6a0acf	-0.22855686
113	0xbe18db6e	-0.14927456
114	0x3cdc561c	0.026896529
115	0x3d925912	0.07145895
116	0xbe5a8bdc	-0.21342415
117	0x3e222226	0.15833339
118	0xbeb3e21b	-0.35133442
119	0xbe68899f	-0.22708748
120	0x3e0b065f	0.13576649
121	0xbbeed882	-0.0072889933
122	0xbd2aa767	-0.041663554
123	0xbe0becef	-0.13664602
124	0x3e14e5d5	0.14540799
125	0xbe5542cd	-0.20826264
126	0xbd61c813	-0.055122446
127	0xbe354f1f	-0.17705964
128	0x3eab9347	0.335108
129	0xbcab1c15	-0.020887414
130	0xbd8bd4e2	-0.068277135
131	0x3e8f24b7	0.279577
132	0xbdf6b60e	-0.12046443
133	0xbe6aaf3b	-0.22918408
134	0x3e26c055	0.16284306
135	0x3d7bf7e4	0.061515704
136	0x3d1e3fcb	0.038635056
137	0x3e0665a7	0.13124715
138	0xbe70d4b8	-0.23518646
139	0x3df6c374	0.120489985
140	0x3e093c7e	0.13401982
141	0x3e0ef5c3	0.13960938
142	0xbe20ea32	-0.15714338
143	0x3d1b0384	0.03784515
144	0x3e369085	0.17828567
145	0xbdc6ad2e	-0.09701
146	0x3db1f7cd	0.086898424
147	0xbdf76c58	-0.12081212
148	0x3d4faee4	0.050703898
149	0xbd4f13db	-0.050556045
150	0xbd3b22ef	-0.045687612
151	0x3ec4a7d1	0.38409284
152	0x3c33a2d2	0.010964112
153	0xbe03d4e2	-0.12874177
154	0x3dd699a9	0.10478527
155	0x3d96ee17	0.07369631
156	0xbd8c90f1	-0.06863583
157	0xbeca3fd7	-0.3950183
158	0x3e1dcc56	0.15409979
159	0xbe655dd7	-0.22399078
160	0xbd0b8ae6	-0.03406801
161	0x3e0f9dd9	0.14025058
162	0xbe006771	-0.1253946
163	0x3e703eab	0.23461406
164	0xbdb7d6e9	-0.08976538
165	0xbe32b001	-0.17449953
166	0x3e2deeec	0.16985673
167	0x3d297ce0	0.041378856
168	0x3e59a9d5	0.21256192
169	0xba83b6b5	-0.0010048958
170	0x3c16533d	0.009175119
171	0x3d1c34fc	0.038136467
172	0xbdd5447e	-0.104134545
173	0x3e3a90f8	0.18219364
174	0xbd8e27cd	-0.06941185
175	0x3e87661a	0.26445085
176	0x3d8de0ad	0.06927619
177	0x3e07dada	0.13267079
178	0xbccce378	-0.02501081
179	0x3e8fec79	0.28110102
180	0xbc46dbe6	-0.012137389
181	0xbde72ff5	-0.11288444
182	0xbf06a731	-0.52598864
183	0x3de6031b	0.11231061
184	0x3eb868b8	0.36017394
185	0xbe15d1b8	-0.14630783
186	0x3c3553da	0.011067355
187	0xbd183940	-0.037163973
188	0xbe498ee1	-0.1968341
189	0xbd5c6d82	-0.053815372
190	0xbd0b7668	-0.034048468
191	0x3e9f148d	0.31070367
192	0x3e8cdeda	0.27513772
193	0x3e538a0c	0.2065813
194	0xbe5533a9	-0.20820488
195	0x3d923834	0.07139626
196	0x3d32da2a	0.04366509
197	0xbcc99fee	-0.024612393
198	0x3b207cc1	0.0024488422
199	0x3c0f9b45	0.0087650465
200	0xbab64fe6	-0.001390931
201	0xbd1539f5	-0.036432225
202	0x3e0bf00c	0.1366579
203	0x3d15854a	0.036504067
204	0xbd18bf69	-0.037291918
205	0xbe521839	-0.20517053
206	0x3c562531	0.013070391
207	0xbe85d3fe	-0.261383
208	0xbe430747	-0.19045745
209	0x3e849ecb	0.259024
210	0x3d79d921	0.060998086
211	0xbdfd33a4	-0.12363365
212	0xbde14086	-0.10998635
213	0x3e489733	0.19588928
214	0xbde460c0	-0.11151266
215	0xbdef959e	-0.11698459
216	0x3dbd00c1	0.092286594
217	0xbd168fbf	-0.03675818
218	0x3db9d13d	0.09073112
219	0xbdada7da	-0.08479281
220	0xbdfb4b62	-0.122702375
221	0x3e2cb53b	0.16866009
222	0x3dadc6f5	0.08485214
223	0x3ceba560	0.02876538
224	0x3cffdaa3	0.031232184
225	0xbe724422	-0.23658803
226	0xbe06b8ba	-0.13156405
227	0xbdc9c1c7	-0.09851413
228	0x3e121290	0.14264894
229	0x3dac085c	0.08400032
230	0xbe4663e6	-0.19374046
231	0x3caf273c	0.021381013
232	0x3e154081	0.14575388
233	0xbe0c4238	-0.13697135
234	0x3c7913c2	0.015202465
235	0x3db21003	0.0869446
236	0xbdba6cb7	-0.09102767
237	0xbe8711ec	-0.2638086
238	0xbe78968a	-0.24276176
239	0xbecd3d21	-0.400857
240	0xbcc6c0d5	-0.024261871
241	0x3e5b001d	0.21386762
242	0xbdc7a1cb	-0.097476564
243	0xbd4412a6	-0.047869347
244	0x3dcbe8ae	0.099564895
245	0xbe901a51	-0.28145078
246	0xbe5a4baa	-0.21317926
247	0xbb8f6d59	-0.004377049
248	0x3d327415	0.043567736
249	0xbe3bc64e	-0.18337366
250	0xbd63e1f0	-0.055635393
251	0x3d38b2b9	0.04509232
252	0xbcd5a591	-0.026079925
253	0xbe138af5	-0.14408477
254	0x3e0fdd0f	0.14049171
255	0xbee1d785	-0.4410974

network_body._body_endoder.seq_layers.0.bias f4 [256]
0	0xbbe63cb0	-0.0070262775
1	0xbc2ab780	-0.010419726
2	0xbb9eee10	-0.0048501566
3	0xbd74acfc	-0.059735283
4	0xbc52f47d	-0.012875673
5	0xbca5e826	-0.020252299
6	0xbc129efe	-0.0089490395
7	0xbc6e1df5	-0.0145335095
8	0x3bbeebe2	0.0058264593
9	0xbd7a4a5b	-0.061106067
10	0xbcdc95a8	-0.02692683
11	0xbd18d61d	-0.03731357
12	0xbcc493cb	-0.023996254
13	0xbd403f51	-0.046935383
14	0x3c4d6ee0	0.012538642
15	0xbcbf9b5e	-0.023389515
16	0x3bbf3cf5	0.005836124
17	0xbd210214	-0.039308622
18	0xbc9b0aa8	-0.01892598
19	0xbc95bdd8	-0.018279001
20	0x3a440423	0.0007477423
21	0x3ae67636	0.0017582837
22	0x3bb032bb	0.0053771413
23	0xbc43b751	-0.0119455615
24	0x3c2c0213	0.010498541
25	0xbccbd022	-0.024879519
26	0xbd3c10da	-0.04591451
27	0x3c0c56bc	0.008565601
28	0xbdd7c4ae	-0.105355605
29	0x3ca3b4ca	0.019983668
30	0xbcd4c8c9	-0.025974648
31	0x3bb9a6e2	0.005665646
32	0x3c63fd59	0.013915383
33	0x3b321331	0.0027172084
34	0x3c2c2527	0.010506905
35	0xbc8e9fb5	-0.017410139
36	0x3ba53898	0.005042147
37	0xbcfe1645	-0.031016478
38	0xbcc82a8a	-0.024434347
39	0xbd218252	-0.039430924
40	0xbccb01b2	-0.024781082
41	0xbd23c3b8	-0.039981574
42	0xbc41f579	-0.01183831
43	0xbc225546	-0.009908026
44	0x3c6982f6	0.014252415
45	0xbd2165ff	-0.03940391
46	0xbd816dbf	-0.063197605
47	0xbc482e56	-0.012218079
48	0xbb232015	-0.0024890949
49	0xbbcda66d	-0.006275943
50	0xbd5efd27	-0.054440644
51	0xbd87bfde	-0.06628393
52	0xbc8febc4	-0.017568476
53	0xbcc70b1b	-0.024297288
54	0x3c2b0585	0.010438328
55	0x3c01f45e	0.007931797
56	0x3cc1a545	0.023638377
57	0xbcb22f88	-0.02175118
58	0xbd01b15c	-0.031663284
59	0x3c47bfb2	0.0121917
60	0xbcc22332	-0.023698423
61	0xbba6a410	-0.0050854757
62	0x3c9f2059	0.019424604
63	0x3d413585	0.04717018
64	0x3b6f23a7	0.0036489756
65	0xbb98b6ef	-0.0046604793
66	0xbd26410b	-0.040589374
67	0x3a6059f3	0.00085583254
68	0x3c98b51c	0.018641047
69	0xbc393c8c	-0.011305939
70	0x3be22f32	0.006902599
71	0xbc792db2	-0.0152086485
72	0xba097ebb	-0.00052450196
73	0xbca09267	-0.01960106
74	0xb8f2bb7d	-0.00011574382
75	0xbc8564c8	-0.016283408
76	0x3bbd0639	0.005768564
77	0x3be84995	0.00708885
78	0xbced4c8c	-0.028967164
79	0x3adb7bed	0.0016745307
80	0xbd21c257	-0.039491978
81	0xbc8f32f6	-0.017480355
82	0xbc51aea8	-0.012797989
83	0x3b5c0db5	0.0033577506
84	0x3ca039b4	0.019558765
85	0xbcbdf5e4	-0.023188539
86	0xbc8b3e14	-0.016997375
87	0xbbe21a57	-0.0069001126
88	0xbc1a7063	-0.009426209
89	0xbd00c1b9	-0.03143475
90	0xbd24f15c	-0.04026924
91	0xbad72278	-0.0016413471
92	0xbccc92bc	-0.024972312
93	0xbbe885b5	-0.0070960172
94	0xbd020271	-0.03174061
95	0xbc48c9a0	-0.012255102
96	0xbc1bb7b2	-0.009504246
97	0xbcd65d0f	-0.02616742
98	0x3c799e66	0.015235519
99	0x3a3876bf	0.00070367375
100	0x3c1d2737	0.009591869
101	0xbb707080	-0.003668815
102	0xbba69a3b	-0.0050843037
103	0xba9adc49	-0.0011814918
104	0xbce62134	-0.028092004
105	0xbc23cfe4	-0.009998295
106	0x3a975fe4	0.0011548963
107	0xbbc7da72	-0.0060990388
108	0x3b117d36	0.0022199876
109	0x3c13d364	0.009022567
110	0x3c866c0a	0.016408939
111	0xbd1d76a3	-0.03844322
112	0xbcab162c	-0.020884596
113	0xbb578ff3	-0.0032892197
114	0xbd563bd6	-0.052303158
115	0x3b44b819	0.0030016957
116	0x3b81ae56	0.00395755
117	0xbc929328	-0.017892435
118	0xbd106f84	-0.0352626
119	0x3d30e71a	0.043189146
120	0xbcd721af	-0.026261179
121	0xbb4b77d7	-0.0031046772
122	0xbd0244f3	-0.031804036
123	0xbd3d7591	-0.0462547
124	0xbd517796	-0.051139437
125	0xbc776e58	-0.015101992
126	0xbc209e49	-0.009803363
127	0xbd2d0a23	-0.042245995
128	0x3c14d028	0.009082831
129	0xbcc5cd60	-0.024145782
130	0xbb9a23dc	-0.004703982
131	0xbc32c737	-0.010911754
132	0xbcb03cdc	-0.021513395
133	0x3b44818f	0.002998445
134	0x39f1eae0	0.00046142098
135	0xbcc0ea4d	-0.023549223
136	0xbc64ae4d	-0.013957572
137	0xbcaa434a	-0.020784039
138	0x3c8cefb9	0.017204152
139	0xbcda2989	-0.026631134
140	0x3bf60315	0.0075076916
141	0xbc2a41df	-0.010391681
142	0xbbb64396	-0.005562256
143	0x3c49df51	0.012321309
144	0x3c35e93b	0.01110297
145	0xbd954180	-0.07287884
146	0xbcd52ba6	-0.02602179
147	0xbce7794a	-0.028256077
148	0xbcd3ce7a	-0.025855292
149	0xbca40145	-0.020020137
150	0xbbbfe847	-0.005856547
151	0xbcfd6491	-0.030931743
152	0xbd942817	-0.07234209
153	0xbcc2872e	-0.0237461
154	0xbce7cf2a	-0.028297026
155	0x3b3bb599	0.0028642176
156	0xbd3eec16	-0.046611868
157	0x3c4dadd5	0.012553652
158	0x3bf84c0d	0.0075774253
159	0xbd105148	-0.035233766
160	0xbd944821	-0.0724032
161	0xbd131aef	-0.035914358
162	0xbcf5c9db	-0.030003479
163	0xbb0deb38	-0.0021655094
164	0xbd02b04a	-0.031906404
165	0xbca85788	-0.02054955
166	0xbc9909f3	-0.018681502
167	0xbd2c785f	-0.042106982
168	0xbc35a00f	-0.011085524
169	0xbc0e7607	-0.008695132
170	0x3c03df6a	0.0080488715
171	0xbd0c217f	-0.034211632
172	0xbc949da6	-0.018141579
173	0x3bfb0ed6	0.0076616807
174	0xbd531c1f	-0.05154049
175	0x3c2333a1	0.00996104
176	0xbba2f8ae	-0.0049734926
177	0xbd2b4ba0	-0.04182017
178	0xbc8dcadc	-0.017308645
179	0xbd1ca4e4	-0.03824319
180	0xbabad106	-0.0014252968
181	0xbcda4cd5	-0.026647964
182	0x3bce5a37	0.0062973755
183	0x3cf58974	0.02997277
184	0x3b7d4b2c	0.0038649542
185	0x3c454920	0.01204136
186	0x3c43b6cc	0.011945438
187	0xbc5584c6	-0.013032144
188	0x3cd2ad1b	0.025717309
189	0xbc9e2a9a	-0.019307423
190	0xbc663597	-0.014050863
191	0x3bb7c5e5	0.0056083077
192	0x3c6019d5	0.013678034
193	0x3cb3df7c	0.021957152
194	0xbc8bad0e	-0.017050292
195	0x3c141dc9	0.009040304
196	0xbd36ec7d	-0.044659127
197	0xbd089284	-0.033342853
198	0xbc728bb7	-0.014803818
199	0xbd491498	-0.049091905
200	0x3bf4fdbb	0.007476536
201	0xbd03954d	-0.032124806
202	0xbc178209	-0.009247311
203	0xbca42a74	-0.020039774
204	0xbbfc7068	-0.0077038296
205	0xbd73021d	-0.059328187
206	0xbadf0211	-0.0017014166
207	0x3afe270f	0.0019390302
208	0xbc34acf3	-0.011027562
209	0x3b84110c	0.0040303525
210	0xbc64beab	-0.013961474
211	0x3bdffb1e	0.0068353554
212	0x3c68ce56	0.014209351
213	0xbc0907c8	-0.008363672
214	0x3be89dcb	0.0070988885
215	0x3c59fa3e	0.013304291
216	0xbd1b22e0	-0.037875056
217	0xbc6cfc02	-0.01446438
218	0x3cbfcdfb	0.023413649
219	0xbcbbe841	-0.022937896
220	0xbcd7fac6	-0.026364695
221	0xb96ec219	-0.00022769756
222	0x3c51d7eb	0.0128078265
223	0xbb8262c9	-0.0039790613
224	0x3bc2c6a6	0.005944091
225	0xbd0b8775	-0.03406473
226	0x3cb8006b	0.022461137
227	0xbc4b3b47	-0.01240427
228	0xbd2ed55b	-0.04268394
229	0x3b9a56d1	0.0047100564
230	0xbc3247fd	-0.010881421
231	0x3c5c4023	0.013443026
232	0x3b80125c	0.0039084386
233	0xbc54c3cc	-0.012986135
234	0xbbdac7d4	-0.0066766534
235	0xbc33a96b	-0.010965685
236	0xbd2a9ab6	-0.04165145
237	0x3c0e634d	0.008690667
238	0xbca66bda	-0.0203151
239	0xbcfe8f2d	-0.03107413
240	0x3a3c8e40	0.0007192828
241	0x3be0aae9	0.0068563116
242	0x3be8e7ca	0.0071077095
243	0xbd3d1dc8	-0.04617098
244	0xbcc32628	-0.023821905
245	0xbd3c212c	-0.045930073
246	0xbcdd41dd	-0.027008945
247	0x3ce97d1c	0.02850204
248	0xbc27e5cd	-0.01024766
249	0x3c80af62	0.015708629
250	0xbc2144a5	-0.009843026
251	0x3bf6b1d3	0.0075285225
252	0xbc23cfbf	-0.009998261
253	0xbd495b76	-0.04915949
254	0xbce89885	-0.02839304
255	0xbc2cc129	-0.0105441

network_body._body_endoder.seq_layers.2.weight f4 [256, 256]
0	0x3ce06fd3	0.027397072
1	0x3dc46246	0.09589057
2	0x3d95b032	0.07308997
3	0x3ddb6040	0.107117176
4	0xbc95a8f7	-0.018269045
5	0xbd63c38d	-0.055606414
6	0x3d2d6ffa	0.042343117
7	0x3d97e6d8	0.07417077
8	0xbdc847ce	-0.09779321
9	0xbd85885d	-0.0652015
10	0xbd409746	-0.047019266
11	0xbdb69c2f	-0.089165084
12	0x3d7e2725	0.06204905
13	0x3c2a84a8	0.010407604
14	0x3d0cfe66	0.0344223
15	0xbcc0242f	-0.023454754
16	0xbe2f0fe7	-0.1709591
17	0xbdd0b6b6	-0.10191099
18	0x3dc2634e	0.09491597
19	0x3be80a6b	0.00708132
20	0x3d136f78	0.035994977
21	0xbd5ba5b4	-0.053624824
22	0xbdb74a0c	-0.0894967
23	0x3d27a2b2	0.040926643
24	0xbd79345d	-0.060840953
25	0x3da2ba00	0.07945633
26	0xbdd48ee9	-0.103788204
27	0xbcf3a52a	-0.029741842
28	0xbc3b9390	-0.011448756
29	0x3d9d4054	0.07678285
30	0xbd54f3c1	-0.051990274
31	0xbda85ba9	-0.08220608
32	0x3d247085	0.04014637
33	0x3dd2da8d	0.102955915
34	0xbdcf9a26	-0.10136823
35	0xbe4d0d7c	-0.20024675
36	0xbc8b266d	-0.016986096
37	0x3bdc2656	0.006718437
38	0x3d7ccde5	0.061719794
39	0xbe28534d	-0.16438027
40	0xbd1d1a95	-0.03835543
41	0x3dd4915c	0.103792876
42	0x3d0ac8ad	0.033882786
43	0x3ccf12ac	0.025277458
44	0xbc843edc	-0.016143255
45	0xbe0e3b0c	-0.13889712
46	0xbd0a4a96	-0.033762537
47	0x3da8b2be	0.08237217
48	0x3e02e83b	0.12783901
49	0x3ccaaee9	0.024741607
50	0x3a135a15	0.0005621028
51	0xbdc33cb7	-0.09533065
52	0x3ce647d3	0.02811042
53	0xbdd9d541	-0.10636378
54	0x3cf10963	0.029423421
55	0xbc107184	-0.008816127
56	0x3e0afdd3	0.13573389
57	0x3abce612	0.0014411828
58	0xbc0ceaec	-0.008600932
59	0x3bf52d2b	0.007482191
60	0x3d20ab7e	0.039226048
61	0x3d52e248	0.05148533
62	0x3dc02249	0.093815394
63	0x3dc0ae93	0.094082974
64	0x3d28dda3	0.041226994
65	0x3d1c4e76	0.038160764
66	0xbd5c95ed	-0.053853918
67	0xbc3b2caa	-0.011424223
68	0xbd180617	-0.037115183
69	0xbd22283d	-0.039589155
70	0xbca21cd9	-0.019789146
71	0xbc9562d1	-0.018235596
72	0xbd008ad1	-0.031382386
73	0xbdb29f51	-0.087217934
74	0x3b935ce9	0.0044971597
75	0xbd7ce4c0	-0.06174159
76	0xbca6ac98	-0.020345971
77	0xbcfa87c2	-0.030582312
78	0xbd7a13d1	-0.061054055
79	0xbd859a86	-0.06523614
80	0xbcbd5cad	-0.02311548
81	0xbd720898	-0.059090227
82	0x3c9283ba	0.017885078
83	0xbc3679d9	-0.011137449
84	0x3cf0e840	0.02940762
85	0xbd92b6f6	-0.07163803
86	0x3de98813	0.11402907
87	0xbc961789	-0.01832177
88	0x3d85d20a	0.065342024
89	0xbcaa3087	-0.020775093
90	0xbd09f523	-0.033681046
91	0xbca5b96c	-0.020230018
92	0x3da471fc	0.08029553
93	0x3c4fe623	0.012689146
94	0xbd557f1f	-0.052123185
95	0x3dcee812	0.10102858
96	0x3d348867	0.044075396
97	0xbc5c535b	-0.013447608
98	0x3dc489e2	0.095966116
99	0xbcaccece	-0.021094706
100	0x3c98dc8a	0.018659849
101	0xbd1f7f20	-0.038939595
102	0xbe0201ba	-0.12695971
103	0x3bcc47bf	0.0062341387
104	0xbdc16d23	-0.09444644
105	0x3d1068a2	0.035256036
106	0x3d1646ef	0.03668874
107	0xbe4926fc	-0.19643778
108	0xbcee8a81	-0.029118778
109	0xbd470ab1	-0.04859418
110	0xbba6cbdd	-0.0050902204
111	0x3dad042e	0.08448063
112	0xbba90e90	-0.0051592067
113	0xbe2f9a53	-0.17148714
114	0x3e03cb10	0.12870431
115	0xbe26948d	-0.16267605
116	0x3dce0837	0.100601606
117	0x3d1ce727	0.03830638
118	0xbccd784a	-0.025081772
119	0xbcab3b90	-0.020902425
120	0x3dbec9d9	0.09315843
121	0xbdb12b68	-0.08650857
122	0x3d310951	0.043221775
123	0xbc119833	-0.008886385
124	0xbdbd43c3	-0.0924144
125	0xbc566a2f	-0.01308684
126	0x3bddd3f0	0.0067696497
127	0xbe04f783	-0.12985043
128	0xbb4fe59f	-0.0031722558
129	0xbdc26a63	-0.09492948
130	0x3d1205ab	0.035649937
131	0x3ce1a992	0.027546678
132	0xbddba083	-0.107239746
133	0xbd0d0eea	-0.03443805
134	0x3c96d166	0.018410396
135	0x3df5b523	0.1199744
136	0x3d6c2d3b	0.057660323
137	0xbd638007	-0.05554202
138	0x3d895308	0.0670529
139	0x3daaf542	0.083475605
140	0x3bcd9b3a	0.006274608
141	0x3d4dfe66	0.05029144
142	0xbcc556f3	-0.024089312
143	0x3d7bedfb	0.061506253
144	0x3b845c17	0.0040392983
145	0x3d1ba7fe	0.038002007
146	0xbdc3f0a9	-0.09567387
147	0xbc02de89	-0.007987627
148	0x3d0de933	0.034646224
149	0xbdadb89d	-0.08482478
150	0xbca483ba	-0.020082343
151	0x3d04a6f5	0.032385785
152	0x3d2b7e13	0.04186828
153	0x3c820509	0.015871542
154	0xbd13dd73	-0.036099862
155	0xbc747d69	-0.014922478
156	0xbb3fadcb	-0.0029247876
157	0x3df0ae76	0.11752026
158	0xbe0d346c	-0.13789529
159	0xbd9d7d11	-0.0768987
160	0xbcae65c7	-0.021288766
161	0xbc59676a	-0.013269285
162	0xbe2a8fb3	-0.1665638
163	0xbd6d7816	-0.05797585
164	0x3d5db44f	0.054127034
165	0x3c9c7ed0	0.019103438
166	0xbda96dd5	-0.08272902
167	0x3d012553	0.031529736
168	0xbc8e77d2	-0.01739112
169	0x3c44dabe	0.012015043
170	0xbe1685e6	-0.14699516
171	0x3d8132dc	0.06308529
172	0x3d7cca1f	0.061716195
173	0x3e06f8ff	0.13180922
174	0x3deef670	0.11668098
175	0xbcc70515	-0.024294415
176	0xbda575bd	-0.080790974
177	0xbd113641	-0.03545213
178	0xbe4fb0f7	-0.2028235
179	0xbdf07a88	-0.11742121
180	0xbbcc1a12	-0.0062286938
181	0x3c985e1f	0.018599568
182	0xbd8d6c0c	-0.06905374
183	0x3d36a842	0.044594057
184	0x3e1ef606	0.15523538
185	0xbc8a154e	-0.016855862
186	0xbbce2811	-0.0062913974
187	0xbdacbf56	-0.08434932
188	0xbdd7c704	-0.10536006
189	0xbd20f246	-0.03929355
190	0xbde3a790	-0.111159444
191	0x3d9402c5	0.07227091
192	0xbdcdda0d	-0.100513555
193	0xbd8926df	-0.06696867
194	0xbd43850f	-0.047734316
195	0xbd837fad	-0.064208366
196	0xbd16c9c3	-0.03681351
197	0xbce2cded	-0.027686084
198	0x3da11a34	0.07866326
199	0x3d2c81bc	0.04211591
200	0xbce38f4b	-0.027778288
201	0x3d6650cf	0.05622941
202	0xbdcc68ff	-0.09980964
203	0xbd4f4f36	-0.05061265
204	0xbdd72f88	-0.10507113
205	0xbcacd0b9	-0.02109562
206	0x3dd64afa	0.104635194
207	0x3db92e4f	0.09042036
208	0xbd98a471	-0.0745324
209	0x3ca51ee3	0.02015633
210	0x3bebf8f2	0.0072013075
211	0xbc01f410	-0.007931724
212	0x3e0812c5	0.1328841
213	0xbd26579c	-0.040610895
214	0xbd09a190	-0.033601344
215	0x3c0e474c	0.008683991
216	0xbd323a03	-0.043512356
217	0xbd800f66	-0.06252937
218	0x3d5de3d4	0.054172352
219	0xbd9d6d32	-0.07686843
220	0x3d3452c1	0.044024233
221	0xbbb1fc91	-0.0054317196
222	0xbd022c18	-0.031780332
223	0x3d9b96fc	0.07597157
224	0xbe2e7c32	-0.17039564
225	0xbced0349	-0.02893223
226	0x3da7acee	0.081872806
227	0xbbd06071	-0.006359153
228	0xbd5dd9c3	-0.054162752
229	0x3e122547	0.14272033
230	0x3ca9d40e	0.020730998
231	0xbdc4e827	-0.09614592
232	0x3df58acf	0.11989366
233	0x3c009e9e	0.007850317
234	0x3def22d2	0.11676563
235	0x3e07bd87	0.13255893
236	0x3d3723ed	0.044711996
237	0xbd790990	-0.060800135
238	0xbdbe9a52	-0.09306778
239	0x3ca8f45f	0.020624338
240	0xbdc512c5	-0.09622721
241	0x3d870067	0.065918736
242	0x3dc818a6	0.09770326
243	0xbc63b685	-0.0138984965
244	0xbdbbc01d	-0.09167502
245	0xbd693888	-0.056938678
246	0x3d9685db	0.0734975
247	0x3d1090c3	0.035294306
248	0xbdbe0503	-0.092783
249	0xbd68ed34	-0.05686684
250	0xbd0a0d1d	-0.033703912
251	0x3d4c141a	0.049823858
252	0x3d013c14	0.031551436
253	0xbd27aa3f	-0.040933844
254	0x3e19c195	0.15015252
255	0xbd52bbe0	-0.051448703

network_body._body_endoder.seq_layers.2.bias f4 [256]
0	0x3c3373fb	0.010952945
1	0x3bace0e9	0.005275835
2	0x3abd8bbf	0.0014461203
3	0xbbb40dce	-0.0054948097
4	0xbac8dd67	-0.0015324772
5	0xbd190a0e	-0.037363105
6	0x3cf6dff1	0.03013608
7	0xbc88b2a5	-0.016686747
8	0xbbff25f1	-0.0077865054
9	0xbc528a3b	-0.0128503395
10	0xbd049d2a	-0.032376446
11	0xbc187634	-0.009305526
12	0xbc387448	-0.011258192
13	0x3c62f82c	0.013853114
14	0xbb5e9d19	-0.003396815
15	0xbc87270e	-0.016498115
16	0xbce8d308	-0.02842094
17	0xbd16f867	-0.03685799
18	0x3ce2645c	0.027635746
19	0x3c5169e4	0.012781594
20	0xbbe5978d	-0.0070065917
21	0xbcc32aa3	-0.023824042
22	0xbca7914e	-0.020455029
23	0xbc8215be	-0.015879508
24	0xbc95f358	-0.018304512
25	0xbc1ab0ea	-0.009441594
26	0xbcc98c43	-0.024603015
27	0xbbab3c8e	-0.0052257245
28	0x3c2aea2a	0.010431806
29	0xbd1f09d1	-0.03882772
30	0xbcf10443	-0.029420977
31	0x3b224146	0.0024758144
32	0x3cdacbf9	0.02670859
33	0xbca831b5	-0.020531515
34	0xbc64ec5c	-0.013972368
35	0x3c17df0c	0.009269487
36	0xbc96cd7e	-0.018408533
37	0xbc968b79	-0.018377053
38	0xbcbe6b02	-0.023244385
39	0xbb870f49	-0.004121695
40	0x3b23fec3	0.0025023676
41	0xbc82d42c	-0.015970312
42	0xbc75db14	-0.015005846
43	0xbcc14198	-0.023590848
44	0xbc85eece	-0.016349223
45	0xbce1dd8c	-0.027571462
46	0xbd05a89c	-0.0326315
47	0xbc44e001	-0.012016297
48	0x3bb527b4	0.0055284146
49	0xbb81a348	-0.003956232
50	0x3aa0cd14	0.0012268149
51	0xbc85de4d	-0.016341353
52	0xbcdff8a0	-0.027340233
53	0xbc033128	-0.008007325
54	0xbc2339f0	-0.009962544
55	0xbbb1b59d	-0.0054232613
56	0xbc55b4f8	-0.013043635
57	0xbcc2ce41	-0.02377999
58	0xbc0652b3	-0.008198428
59	0xbcc03d56	-0.023466747
60	0xbcd29e7b	-0.025710335
61	0xbd0f8e21	-0.035047654
62	0xbcfc5d21	-0.030806126
63	0xbb4a66f7	-0.0030884126
64	0xbced0d9e	-0.028937157
65	0xbcdc22a8	-0.026871994
66	0xbd000ad0	-0.03126031
67	0x3b88b535	0.004171992
68	0xbcfd42b7	-0.030915601
69	0xbc5f6875	-0.013635744
70	0xbcc085e6	-0.023501348
71	0xbd07d166	-0.033158682
72	0xbb5d275f	-0.003374539
73	0xbce361df	-0.02775663
74	0xbcb0d7a5	-0.021587202
75	0x3cc4c91f	0.024021683
76	0xbcaa5971	-0.020794602
77	0xbcaf1bb6	-0.021375518
78	0xbb758511	-0.0037463347
79	0xbcd54004	-0.026031502
80	0xbc83fe52	-0.01611248
81	0xbd009e25	-0.03140082
82	0xbc2a0a05	-0.010378365
83	0xbcad2b9d	-0.02113896
84	0x3b220569	0.0024722463
85	0xbc9d7268	-0.019219592
86	0xbce62bfb	-0.028097143
87	0xbc438be9	-0.011935213
88	0x3c592631	0.013253734
89	0xbd121a73	-0.035669755
90	0xbca8565f	-0.020548997
91	0xbc4bca52	-0.012438374
92	0xbd365696	-0.04451617
93	0x3c8fc568	0.017550185
94	0xbcb12cd0	-0.021627814
95	0xbc7266c0	-0.014795005
96	0xbbc54eeb	-0.0060213706
97	0xb98bdd34	-0.00026676955
98	0xbced04ba	-0.028932918
99	0xbc9f722d	-0.019463623
100	0xbc81d459	-0.015848326
101	0xbcab488d	-0.020908618
102	0xbbba7fdc	-0.0056915116
103	0xbc48e2f3	-0.01226114
104	0xbcc38dad	-0.023871267
105	0xbc9ecad5	-0.019383827
106	0xbcc4f1d4	-0.024041094
107	0x3cc56df8	0.024100289
108	0x3a949323	0.0011335354
109	0xbb2ef305	-0.0026695144
110	0x3c3e5e10	0.011619106
111	0x3914cb72	0.00014190169
112	0xbb9cd69e	-0.0047863265
113	0xbc182f02	-0.009288551
114	0xbc814b86	-0.015783083
115	0xbc74b582	-0.014935853
116	0xbccd434f	-0.02505651
117	0xbd1ef07f	-0.038803574
118	0xbc4ad0a1	-0.012378843
119	0xbc004252	-0.007828312
120	0x3cae2063	0.021255678
121	0x3c5d1adb	0.013495172
122	0xbba20e7f	-0.0049455757
123	0xbcc1e7da	-0.023670126
124	0x3be922c4	0.00711474
125	0xbbcbcd30	-0.0062195286
126	0xbbdba46a	-0.0067029493
127	0xbcade6fa	-0.021228302
128	0x3a820434	0.0009919466
129	0x3c4488fb	0.011995549
130	0x3b6b9111	0.003594462
131	0xbcb9479a	-0.02261715
132	0xbc222d5a	-0.009898508
133	0x3bd5df40	0.0065268576
134	0x3b7f5fb1	0.0038966949
135	0xbcf10179	-0.029419648
136	0xbcd6d53b	-0.026224723
137	0xbc9e5687	-0.019328369
138	0xbcbeddba	-0.023299087
139	0xbce5e61b	-0.028063824
140	0xbcd464ee	-0.025927033
141	0xbc19203d	-0.009346065
142	0xbcb7374e	-0.022365239
143	0xbc0c7ed5	-0.008575161
144	0xbcaf319b	-0.021385958
145	0xbb1be787	-0.0023789124
146	0xbc157560	-0.009122223
147	0x3a1ba9ae	0.0005938065
148	0xbcc06204	-0.023484237
149	0xbceb7ce0	-0.028746068
150	0xbce02e99	-0.02736597
151	0xbcfac980	-0.03061366
152	0xbcac4bca	-0.021032233
153	0x3a73d4aa	0.0009301404
154	0x3c169a43	0.009192052
155	0xbab2ba33	-0.0013635814
156	0xbca3ec09	-0.020010011
157	0xbc9aa0ac	-0.018875442
158	0xbcfaa9e9	-0.030598598
159	0xbc6f6389	-0.014611133
160	0xbb56387e	-0.003268748
161	0xbcc900c0	-0.02453649
162	0x3c1e3a85	0.009657507
163	0xbc896e2f	-0.016776172
164	0xbcaad534	-0.020853616
165	0xbbcbd624	-0.006220596
166	0xbb1e42fa	-0.0024148808
167	0xbbb1f50e	-0.005430824
168	0xbd03e905	-0.032204647
169	0x3caa9728	0.02082403
170	0xbcd255c3	-0.02567566
171	0x3c86c109	0.016449468
172	0xbc726863	-0.014795396
173	0xbc9303bc	-0.017946117
174	0x3ca1e765	0.019763658
175	0xbcc3f884	-0.023922212
176	0xbc47321e	-0.012157945
177	0xbd16f6f7	-0.036856618
178	0x39fdf9fb	0.0004844217
179	0xbc8c0199	-0.017090606
180	0xbc843668	-0.016139224
181	0xbc82296a	-0.015888888
182	0xbd171ff5	-0.03689571
183	0xbca50bbf	-0.020147203
184	0xbcc13363	-0.023584073
185	0xbbf96890	-0.007611342
186	0xbae1152b	-0.0017172446
187	0xbc83aac5	-0.01607264
188	0xbc148265	-0.009064292
189	0xbcab3154	-0.020897545
190	0xbbcf188d	-0.0063200654
191	0xbb09a3f0	-0.0021002255
192	0xbb8da8e3	-0.0043231114
193	0xbd18a2b0	-0.037264526
194	0xbd082d6f	-0.033246454
195	0xbcd27691	-0.025691302
196	0x3c1ff4ac	0.009762924
197	0xbcf09d8e	-0.029372003
198	0x3b751cb9	0.0037401153
199	0xbbf92722	-0.007603542
200	0xbcc5b662	-0.024134818
201	0xbc967209	-0.018364923
202	0xbc78c297	-0.015183113
203	0xbc20cadd	-0.009813991
204	0xbb99b3c4	-0.004690619
205	0xbcc262df	-0.023728786
206	0x3bbbe854	0.005734483
207	0xbcc2f5dc	-0.023798876
208	0xbd1d7387	-0.038440254
209	0xbd0a5b68	-0.033778578
210	0xbd02d808	-0.031944305
211	0xbd014c9e	-0.03156721
212	0xbb62eb68	-0.0034625176
213	0xbca96751	-0.020679148
214	0xbb97fd3e	-0.004638343
215	0xbbb23439	-0.0054383543
216	0xbc75980e	-0.014989866
217	0xbd0f25eb	-0.03494827
218	0xbd2f5deb	-0.042814177
219	0xbb9aa5a2	-0.004719452
220	0xbb28bb30	-0.0025746338
221	0xbca27889	-0.019832866
222	0xbc8e2af2	-0.017354462
223	0xbcaf367e	-0.021388289
224	0xbb3c7d5c	-0.0028761243
225	0xbc2375a1	-0.009976775
226	0xbb716c0f	-0.003683809
227	0xbccf26b5	-0.025287012
228	0xbcbc5019	-0.022987412
229	0x3ba9b3fe	0.0051789274
230	0xbc929339	-0.017892467
231	0xbb533436	-0.0032227165
232	0xbc054d03	-0.008136037
233	0xbca010d9	-0.019539284
234	0xbc4b0d4b	-0.012393306
235	0xbc447dae	-0.011992855
236	0xbcf2d037	-0.0296403
237	0xbcc53bba	-0.024076331
238	0x3cfb6be5	0.030691097
239	0xbc3f1964	-0.011663768
240	0xbd1eab7d	-0.038737763
241	0xbbaa0121	-0.005188123
242	0x3aca7ed7	0.0015449178
243	0xbc7da426	-0.015481031
244	0xbd3edd39	-0.046597693
245	0xbc95e01e	-0.018295344
246	0xbc27a171	-0.010231362
247	0xbce2803e	-0.027649041
248	0xbc073ef1	-0.0082547525
249	0xbba90626	-0.0051582037
250	0xbcb17922	-0.021664206
251	0xbd060329	-0.032717858
252	0xbd26fbec	-0.040767595
253	0xbcb301ec	-0.021851502
254	0xbc516454	-0.012780268
255	0xbac3e9fc	-0.0014947052

action_model._continuous_distribution.log_sigma f4 [1, 2]
0	0xbe176d9b	-0.14787905
1	0x3d747b07	0.05968764

action_model._continuous_distribution.mu.weight f4 [2, 256]
0	0x3cc66403	0.024217611
1	0x3b1a7502	0.0023568277
2	0x3b79cf17	0.003811782
3	0x3ba0da52	0.0049088383
4	0x3a5c4ffd	0.0008404253
5	0xbd1266b3	-0.035742473
6	0x3daec2db	0.085332595
7	0x3ccb7c56	0.024839561
8	0x3aca3187	0.0015426137
9	0x3c5c38c6	0.01344127
10	0xbc82e270	-0.015977114
11	0xbbf1f505	-0.007383945
12	0xbc2387fa	-0.00998115
13	0xbb2ed0d2	-0.002667476
14	0x3ae2b770	0.00172971
15	0x3b857337	0.0040725726
16	0xbb9b2307	-0.0047344
17	0xbcc332d0	-0.02382794
18	0x3c41ec33	0.011836099
19	0xbdbd2882	-0.09236242
20	0xbcd1949d	-0.02558356
21	0xbbde64c7	-0.006786916
22	0xbd30121c	-0.04298602
23	0x3b31aab5	0.0027109806
24	0x3c1785a0	0.009248167
25	0xbb1e0799	-0.0024113415
26	0xbcaa1ab2	-0.020764682
27	0x3d3b59cb	0.04573993
28	0x3b145402	0.002263308
29	0x3c5347d2	0.012895541
30	0xbca57c80	-0.020200968
31	0xbd0aaa3a	-0.033853747
32	0x3d263505	0.040577907
33	0x3c51550f	0.012776627
34	0xbc5125c1	-0.012765349
35	0xbbd2935a	-0.006426257
36	0x3b51fb4e	0.0032040658
37	0xbd89c522	-0.06727053
38	0x3bac1ed5	0.005252699
39	0x3cdc9c21	0.026929917
40	0xbd055ea5	-0.032560963
41	0xba9dc0f7	-0.0012035657
42	0xbac29f7e	-0.0014848558
43	0x3ba62a59	0.005070966
44	0xbc2f6bce	-0.010706855
45	0x3b5ef6b7	0.0034021565
46	0x3b2dbc79	0.0026510044
47	0x3c0e0c3b	0.008669908
48	0x3bdcb21d	0.0067351
49	0x3cf30c6d	0.029669011
50	0xbd43df56	-0.04782041
51	0xbb878320	-0.0041355044
52	0xbd166e70	-0.036726415
53	0x3c8460e2	0.016159479
54	0xbd22040b	-0.039554637
55	0xbc395b90	-0.011313334
56	0x39edd5a0	0.00045363326
57	0xbcac11a4	-0.021004505
58	0xbd221cf8	-0.039578408
59	0xbc9059e9	-0.017620998
60	0xbd39c39d	-0.045352567
61	0xbc6217a6	-0.013799584
62	0xbd1a97d4	-0.03774245
63	0x3cf8c75c	0.0303685
64	0xbb595160	-0.0033160076
65	0x3c243ea2	0.010024698
66	0xbb3c65c3	-0.0028747178
67	0x3c4db4b1	0.012555287
68	0x3bd6b217	0.0065519917
69	0x3b006126	0.0019589155
70	0x3c6059bc	0.013693269
71	0x3aef1693	0.001824098
72	0xbca13318	-0.019677684
73	0x3bac8dbc	0.0052659195
74	0x3c1f0162	0.0097049195
75	0x3cf30b25	0.0296684
76	0xbd842ff0	-0.06454456
77	0xbc0c8d5c	-0.008578625
78	0xbc8f7ddb	-0.017516067
79	0xbb555135	-0.0032549624
80	0x3aa18421	0.0012322703
81	0x3c0b689e	0.008508829
82	0xbb3e822a	-0.0029069283
83	0xbc87f0e4	-0.016594358
84	0x3a43a1af	0.00074627524
85	0x3a8c22d3	0.0010691531
86	0xbcc3cdc7	-0.023901833
87	0x3b2cb8a9	0.0026355183
88	0xbd9bb01d	-0.0760195
89	0xbcba135b	-0.022714308
90	0xbd0daf44	-0.034590974
91	0x3bc1d686	0.0059154658
92	0xbc8a3ad4	-0.016873755
93	0xbcae3174	-0.021263815
94	0xbb0627e3	-0.0020470552
95	0x3c1e8633	0.00967555
96	0xbd7f29f2	-0.06229586
97	0xbd0c2e04	-0.03422357
98	0xbba63261	-0.0050719236
99	0xbd2e4a24	-0.042551175
100	0xb966df82	-0.00022017772
101	0x3b5196fb	0.003198086
102	0x3b4ba608	0.0031074304
103	0x3c698ec5	0.01425523
104	0xbc94989d	-0.018139178
105	0x3c7706d0	0.015077308
106	0xbc8f4896	-0.017490666
107	0x3cfd1c12	0.030897174
108	0xbc7d5e96	-0.015464446
109	0x3cb01753	0.021495497
110	0x3dc0e1e3	0.094180845
111	0x3c712426	0.014718091
112	0xbd1a9ba2	-0.03774608
113	0xbb5a1a43	-0.0033279813
114	0x3ba23b2f	0.004950903
115	0x3b7452a6	0.0037280708
116	0xbaa063bb	-0.0012236753
117	0xbc0912a3	-0.00836626
118	0x3af65a72	0.0018795265
119	0x3b717530	0.003684353
120	0x3d414438	0.0471842
121	0x3cb34812	0.021884952
122	0xb82cd789	-4.120873e-05
123	0xbd1513ac	-0.036395714
124	0x3caf78cb	0.021419903
125	0xbd18bde1	-0.037290458
126	0x3c5ed5cf	0.013600781
127	0xbc87a69f	-0.016558943
128	0x3c819f04	0.015822895
129	0x3c1d11b1	0.0095867375
130	0xb6ecee3a	-7.0610813e-06
131	0xbc031c48	-0.008002348
132	0x3c2a2497	0.0103847
133	0xbd8ba6b2	-0.06818904
134	0x3a2ed7c6	0.0006669726
135	0xbc321bff	-0.010870933
136	0xba37557a	-0.0006993633
137	0xba00a364	-0.00049071596
138	0xbd0d6318	-0.03451833
139	0xbc8c7c20	-0.017149031
140	0xbcb07482	-0.02153993
141	0xbc202b3e	-0.009775935
142	0xbd9bc271	-0.07605446
143	0x3b846c38	0.004041221
144	0xbd0fed19	-0.035138223
145	0xbcb414f3	-0.021982646
146	0xbb14c8c8	-0.0022702683
147	0x3d036784	0.032081142
148	0xbd8b0960	-0.067888975
149	0xbab1ff50	-0.0013580117
150	0xbc17bffe	-0.009262083
151	0xb995c430	-0.00028565666
152	0xbc7694d8	-0.015050136
153	0x3bc1295a	0.005894822
154	0xb992bee3	-0.00027989512
155	0x3cfb4a1b	0.030674985
156	0xbae59b10	-0.0017517526
157	0xbcd756d4	-0.02628652
158	0xbcbc3512	-0.022974525
159	0x3c3f1b0c	0.011664163
160	0x3ce7eed0	0.028312117
161	0xbd7ef538	-0.062245578
162	0x3c58a7c2	0.01322359
163	0xbc6a15c2	-0.014287414
164	0x3a3a4ea6	0.00071070564
165	0x3bb1e628	0.005429048
166	0xbbbd0905	-0.0057688975
167	0xbc377e07	-0.011199481
168	0xbc9ccb29	-0.019139843
169	0x3d2c4fda	0.04206834
170	0xba674835	-0.00088227104
171	0x3cbca98e	0.023030069
172	0x3abebaaf	0.0014551486
173	0xbbe00011	-0.0068359454
174	0x3d5abb06	0.053401016
175	0xbc67647e	-0.01412308
176	0xbb801db2	-0.00390979
177	0xbb0630ea	-0.0020475932
178	0x3c5e21f3	0.013557899
179	0x3c466694	0.0121094175
180	0xbd8ba7c5	-0.06819109
181	0x3a71e614	0.0009227705
182	0xbcc1b9a7	-0.023648096
183	0xbb2313b5	-0.0024883572
184	0x3a6733fb	0.00088196964
185	0x3c014f10	0.007892385
186	0xbd2c680d	-0.042091418
187	0x3bd5ee09	0.00652862
188	0xbb11f199	-0.0022269248
189	0xbd2c2d96	-0.04203566
190	0x3d0e2806	0.034706138
191	0x3bfbe71d	0.007687463
192	0xbd35ddc5	-0.04440095
193	0x3ca18451	0.019716414
194	0x3bbaa0db	0.005695445
195	0xbd2a9672	-0.041647382
196	0x3d20875b	0.039191585
197	0xbb66f89c	-0.0035243398
198	0x3c699a99	0.01425805
199	0x3c1101c3	0.008850518
200	0x3bcba582	0.0062147984
201	0x3c44b370	0.012005672
202	0x3c42f5ae	0.011899395
203	0x3c143c58	0.00904759
204	0x3a892279	0.0010462544
205	0xbd0b4db0	-0.034009635
206	0x3d2f0ad8	0.04273495
207	0xbd15e610	-0.036596358
208	0x3a20bd6a	0.00061317405
209	0x3c1adc6f	0.0094519695
210	0xbc514715	-0.012773295
211	0xbd05ae61	-0.032637004
212	0x3b56c4a4	0.0032771016
213	0xbd175d2a	-0.036954083
214	0x3b591ba4	0.0033128047
215	0xbb27967b	-0.002557187
216	0xbd048d7d	-0.032361496
217	0xbc2e00cd	-0.010620308
218	0xbc24b5b2	-0.010053085
219	0xbd5013a4	-0.05079998
220	0xbd58bd50	-0.052914917
221	0xbbd608ac	-0.0065317955
222	0xba4cfbdb	-0.0007819512
223	0xbd9c21dd	-0.076236464
224	0xbb4b83a3	-0.0031053803
225	0xbbc0ea99	-0.005887341
226	0x3cbde8f6	0.023182373
227	0xbd387709	-0.045035396
228	0xbac88e82	-0.001530126
229	0x3d759c55	0.059963543
230	0xbd1f13f0	-0.038837373
231	0x3c2556ed	0.0100915255
232	0x3b2b6912	0.0026155156
233	0xbc05d25e	-0.008167831
234	0x3b6c29eb	0.0036035727
235	0xbccb9d9b	-0.024855426
236	0x3c3d4f3a	0.011554534
237	0xbd78a503	-0.060704242
238	0xbbbc0582	-0.0057379613
239	0x3a7101f5	0.0009193712
240	0x3b2ae398	0.0026075598
241	0x3cdda4cc	0.02705612
242	0xbc37d5be	-0.011220394
243	0xbcb38bf3	-0.021917319
244	0xbc94d893	-0.018169677
245	0xbc8d74d6	-0.017267626
246	0xbb8b5635	-0.00425222
247	0x3c292b1a	0.010325218
248	0x3bbb5408	0.0057168044
249	0x3c8b9798	0.017040059
250	0xbd4437f8	-0.04790494
251	0xbadc2470	-0.0016795527
252	0xb8d3b52f	-0.00010095012
253	0xbcc49854	-0.023998417
254	0xbb80606d	-0.003917745
255	0x3d0f32f5	0.034960706

action_model._continuous_distribution.mu.bias f4 [2]
0	0x3cd8f79d	0.026485259
1	0x3c69c861	0.014268965

onnx::Div_71 f4 [20]
0	0x3effdc78	0.49972892
1	0x3eff5538	0.49869704
2	0x3e20ec6f	0.15715192
3	0x3e69c3ef	0.22828649
4	0x3ee8057f	0.45316693
5	0x3ed2df62	0.41186053
6	0x3d3fa4ae	0.04678791
7	0x3e0f560d	0.1399767
8	0x3ee540e5	0.44776073
9	0x3ec9d6be	0.39421648
10	0x3d5ea069	0.054352198
11	0x3e180de1	0.14849044
12	0x3ef6bb1d	0.4818963
13	0x3ee61f8f	0.44945952
14	0x3d7d0ac7	0.061777856
15	0x3e210f0f	0.157284
16	0x3ef6048b	0.4805034
17	0x3ee445b1	0.4458442
18	0x3d87c240	0.06628847
19	0x3e277a3f	0.16355227

onnx::Div_74 f4 [12]
0	0x3ee02b52	0.4378305
1	0x3efff535	0.49991766
2	0x3ec55f93	0.3854948
3	0x3eb98822	0.36236674
4	0x3ee2e711	0.44316915
5	0x3efffb8f	0.4999661
6	0x3ec2375e	0.37932867
7	0x3eb6c54b	0.35697398
8	0x3ede98f7	0.43476078
9	0x3efffc87	0.4999735
10	0x3ec8f82a	0.39251834
11	0x3ebcb21b	0.36854634

onnx::Div_77 f4 [3]
0	0x3f0efca8	0.5585427
1	0x3d28e71b	0.041236024
2	0x3f3837b1	0.7195998
