Experimentos/results/sac4/KartAgent/KartAgent-949940.onnx (onnx, 93578 bytes, 14 tensors)

network_body.observation_encoder.processors.0.normalizer.running_mean f4 [20]
0.04091635 0.07578467 0.0014411415 0.06630939 0.026850067 0.22822674 0.00614985 0.14879158
0.030605065 0.11451116 0.0055887667 0.10799834 0.021724515 0.43542492 0.019621218 0.35349065
0.018402224 0.54399145 0.0049992544 0.31245065
00000000: e797 273d fe34 9b3d afe4 bc3a 38cd 873d
00000010: acf4 db3c 45b4 693e ae84 c93b d25c 183e
00000020: 79b7 fa3c d484 ea3d f921 b73b 3c2e dd3d
00000030: 9cf7 b13c 04f0 de3e adbc a03c bafc b43e
00000040: 43c0 963c 0643 0b3f c9d0 a33b 88f9 9f3e

network_body.observation_encoder.processors.1.normalizer.running_mean f4 [12]
0.0028464913 0.050814737 0.00022106718 0.007523369 0.0028149143 0.054608643 0.00020948701 0.007739928
0.0028759679 0.046629403 0.00022738236 0.007339964
00000000: 338c 3a3b 1d23 503d 45ce 6739 9886 f63b
00000010: 6d7a 383b 50ad 5f3d bea9 5b39 399f fd3b
00000020: bc7a 3c3b 79fe 3e3d 7d6d 6e39 1584 f03b

network_body.observation_encoder.processors.2.normalizer.running_mean f4 [3]
-0.11098743 0.03404747 0.05213605
00000000: 614d e3bd 5c75 0b3d 9c8c 553d

network_body._body_endoder.seq_layers.0.weight f4 [128, 35]
-0.18789071 0.15910354 0.15449232 -0.16854852 0.04863302 0.010861814 0.27602708 -0.26516575
0.01093278 -0.4577565 -0.20990987 -0.29371795 0.15094662 0.5917433 -0.35765484 -0.08438412
-0.3735039 -0.41423446 0.10803014 0.24697116 -0.12568712 0.12485955 -0.100401804 0.10533723
-0.22068958 -0.48317477 0.13182355 0.09325674 -0.08849113 0.40359345 0.10239847 -0.29815552
-0.30556732 -0.05430502 -0.15661696 0.041277733 0.14485377 0.33410215 0.06524977 0.010990886
0.23215151 -0.032886103 -0.38920313 0.032406002 0.16870321 -0.19020654 -0.5755659 0.14451347
0.02731766 -0.33581236 -0.103125095 0.15000302 -0.07148366 -0.12508076 -0.23081538 -0.18962507
-0.032013535 -0.29284212 0.057864852 0.5101956 0.25536087 -0.11817038 0.050228897 -0.26469705
-0.06270674 -0.2810564 -0.020276908 -1.1314602 0.75824416 1.154548 0.21439841 -0.41338602
0.17818978 0.110076785 0.19969453 -0.14578883 -0.22841832 0.33363432 0.04522039 0.11988829
0.13630815 0.46703646 0.1373877 -0.14146772 0.08292638 -0.12917674 -0.07729656 0.14372796
-0.20214666 -0.057477534 -0.15555376 -0.21677133 -0.0768599 -0.14882562 -0.01953542 -0.2446078
0.26333833 -0.099530414 0.2878773 -0.43341815 0.1023562 -0.06981041 -0.10444028 0.18544397
0.31394663 -0.09422754 -0.2426367 -0.34641072 -0.15312989 -0.05184016 -0.027154801 0.00079522387
0.10480719 -0.24837118 -0.12640922 -0.010967041 -0.34220606 -0.42513746 0.18652044 0.3156598
-0.12569402 0.10430829 0.1226843 -0.1627907 -0.41019383 -0.25015816 -0.072410546 -0.079325564
0.36212832 -0.28552172 -0.18320185 0.20470792 0.15039648 -0.054581545 0.023319554 0.3159796
0.029696995 0.4497974 -0.1834221 -0.17540994 -0.07139561 -0.30258065 0.0019625777 -0.046206966
0.22683738 -0.11677306 -0.19164708 -0.3668888 0.0017972584 -0.0042292685 0.12804316 -0.05188072
0.026111446 0.091047905 0.076126106 0.0248917 -0.31371358 -0.10272577 0.13501887 0.1952415
0.68101656 0.20783755 -0.106158994 0.14982636 -0.20249908 -0.10566409 0.06528326 -0.2933745
0.010069009 0.06076505 0.19926617 0.14633241 1.2453389 0.001409705 -0.57088643 -0.17714624
0.43607923 0.15975931 -0.0587154 0.02220839 -0.059570167 0.39821705 0.05968744 0.12767622
-0.31427756 0.070220426 -0.5799315 0.11075305 0.05064047 -0.11078661 -0.2933427 -0.05863313
-0.14699328 0.2176558 0.26388025 0.107771754 -0.007209288 0.05237446 -0.40697682 -0.07628631
-0.2120647 0.13123296 -0.4240352 0.00639543 -0.4532725 0.082781486 -0.4020834 0.18106133
0.881369 0.1554438 0.05501389 0.1459429 -0.13708466 0.3371565 -0.0019149437 -0.079772554
-0.11710955 -0.7289789 -0.11840707 -0.10273185 -0.25734395 0.14023334 -0.21277821 0.13443758
0.4307869 -0.20151988 -0.1601674 0.17069937 0.4332214 -0.25244346 0.31406003 0.10506033
-0.12132822 0.11484555 -0.002388349 0.026458563 0.36044967 0.24075173 -0.22240092 0.10847052
-0.17994286 -0.22881407 0.24535815 -0.044476885 -0.44054553 -0.1037668 0.07775805 -0.08546608
0.13105397 0.005413636 -0.115459576 -0.40827644 -0.048837002 -0.0746613 -0.054762237 0.0460875
00000000: 6c66 40be 0aec 223e 3c33 1e3e fc97 2cbe
00000010: 6b33 473d c0f5 313c 6c53 8d3e cec3 87be
00000020: 671f 333c 0f5f eabe 9df2 56be 3362 96be
00000030: c091 1a3e 7d7c 173f 891e b7be 95d1 acbd
00000040: e73b bfbe 8a16 d4be e83e dd3d 02e6 7c3e
00000050: 20b4 00be 5db6 ff3d 769f cdbd 0cbb d73d
00000060: 73fc 61be af62 f7be c1fc 063e 64fd be3d
00000070: d63a b5bd cda3 ce3e 4ab6 d13d d7a7 98be
00000080: 5273 9cbe f16e 5ebd 3260 20be d712 293d
00000090: 8c54 143e 700f ab3e aca1 853d 1e13 343c
000000a0: 20b9 6d3e 94b3 06bd a245 c7be 28bc 043d
000000b0: 89c0 2c3e 81c5 42be 4958 13bf 57fb 133e
000000c0: 49c9 df3c 99ef abbe 4033 d3bd 649a 193e
000000d0: 0666 92bd 2c15 00be de5a 6cbe 132d 42be
000000e0: a020 03bd 67ef 95be b203 6d3d 2e9c 023f
000000f0: a9be 823e 5003 f2bd d1bc 4d3d 5f86 87be
00000100: 646c 80bd a0e6 8fbe c21b a6bc b0d3 90bf
00000110: 4a1c 423f 3bc8 933f 428b 5b3e 55a7 d3be
00000120: 6277 363e f06f e13d b97c 4c3e ab49 15be
00000130: 7ee6 69be 1ed2 aa3e 0439 393d fe87 f53d
00000140: 5d94 0b3e 671f ef3e 5caf 0c3e eadc 10be
00000150: 4ed5 a93d e846 04be a94d 9ebd 6c2d 133e
00000160: 89ff 4ebe 906d 6bbd 7c49 1fbe 4ef9 5dbe
00000170: b968 9dbd be65 18be bf08 a0bc 787a 7abe
00000180: 48d4 863e 9ad6 cbbd a764 933e fce8 ddbe
00000190: 21a0 d13d c3f8 8ebd c9e4 d5bd 06e5 3d3e
000001a0: 9dbd a03e 5efa c0bd c175 78be bf5c b1be
000001b0: 15ce 1cbe 5956 54bd bf73 debc 9276 503a
000001c0: 27a5 d63d 0455 7ebe 6b71 01be 1baf 33bc
000001d0: a235 afbe 9eab d9be 37ff 3e3e 299e a13e
000001e0: efb5 00be 969f d53d e841 fb3d 9bb2 26be
000001f0: ed04 d2be bb14 80be fb4b 94bd 7175 a2bd
00000200: e268 b93e e72f 92be 4499 3bbe f49e 513e
00000210: 8901 1a3e e690 5fbd a608 bf3c 14c8 a13e
00000220: 1d47 f33c d84b e63e 01d3 3bbe aa9e 33be
00000230: dd37 92bd daeb 9abe 979e 003b 8443 3dbd
00000240: 0f48 683e b726 efbd 223f 44be d9d8 bbbe
00000250: fc91 eb3a ad95 8abb bf1d 033e e180 54bd
00000260: ace7 d53c 5377 ba3d 01e8 9b3d aee9 cb3c
00000270: 119f a0be e361 d2bd 6342 0a3e 63ed 473e
00000280: 1a57 2e3f 5ed3 543e e369 d9bd 156c 193e
00000290: eb5b 4fbe 6a66 d8bd 3bb3 853d 2f35 96be
000002a0: 7cf8 243c c6e4 783d 6e0c 4c3e 2ad8 153e
000002b0: 4467 9f3f dac5 b83a 9d25 12bf d365 35be
000002c0: c745 df3e f297 233e 8f7f 70bd 5fee b53c
000002d0: d9ff 73bd 1be3 cb3e d17a 743d 8ebd 023e
000002e0: fde8 a0be bacf 8f3d 6476 14bf 7fd2 e23d
000002f0: 626c 4f3d 17e4 e2bd 0431 96be 4b29 70bd
00000300: 6885 16be 29e1 5e3e 501b 873e 70b7 dc3d
00000310: e43b ecbb 9a86 563d 445f d0be ff3b 9cbd
00000320: 7d27 59be ef61 063e 241b d9be c190 d13b
00000330: 5513 e8be 5789 a93d e0dd cdbe 2468 393e
00000340: 66a1 613f a92c 1f3e 3f56 613d 0e72 153e
00000350: ec5f 0cbe c79f ac3e d9fe faba cb5f a3bd
00000360: 22d7 efbd 5c9e 3abf 687f f2bd 1465 d2bd
00000370: 96c2 83be 5499 0f3e 88e2 59be 01aa 093e
00000380: 1a90 dc3e 3a5b 4ebe ec02 24be d1cb 2e3e
00000390: 32cf dd3e 4540 81be 7acc a03e df29 d73d
000003a0: ee7a f8bd 2534 eb3d d985 1cbb a1bf d83c
000003b0: dc8c b83e 9f87 763e 11bd 63be cb25 de3d
000003c0: f142 38be 3c4e 6abe 2b3f 7b3e 652d 36bd
000003d0: 2f8f e1be b083 d4bd 9d3f 9f3d d708 afbd
000003e0: 0333 063e df64 b13b 1276 ecbd 9c09 d1be
000003f0: 4f09 48bd 06e8 98bd 5e4e 60bd 3fc6 3c3d

network_body._body_endoder.seq_layers.0.bias f4 [128]
-0.10269285 0.35843828 -0.013786074 -0.023284482 0.03231937 -0.09622322 0.07346716 0.29110393
0.11981917 -0.0074336524 0.15995911 -0.05953025 -0.008611106 -0.04626952 0.048412908 -0.072693266
-0.025424387 -0.1083826 -0.1559093 -0.031938802 0.23527788 -0.28499135 0.03195686 0.031701233
0.019895155 -0.20790787 0.14470695 -0.120446704 0.22729377 0.284538 0.1311927 0.036176637
-0.12255977 -0.07989683 -0.20614225 0.12062384 0.12319224 0.30655867 0.04189596 0.077990636
0.21357264 -0.23936796 0.32695538 -0.17634945 -0.10188577 -0.17025897 -0.14697693 -0.11914913
0.04217378 0.29432166 0.39556345 0.18547761 -0.23609541 0.27500072 -0.20792222 0.085425235
0.27349052 -0.23140076 -0.1360547 0.33175272 -0.036363665 -0.18758123 0.136319 0.18970662
-0.073908344 -0.1744847 0.3177233 0.081486575 -0.14801405 0.20053935 0.1831325 0.30307242
-0.07404574 0.017465813 -0.08951819 0.1788512 0.49059233 0.0813943 -0.053456627 0.025595022
-0.3180658 -0.06623595 0.06970647 -0.13275437 -0.057627726 -0.26614612 0.054253135 0.27122298
0.084234595 -0.017180493 -0.10461533 0.24558984 -0.012401912 0.0453831 0.12594958 0.027817963
-0.11154107 -0.064136505 -0.013373704 0.24861908 0.47236738 -0.10663233 -0.19342661 0.056808796
-0.15880263 -0.1248696 0.1060426 0.11481372 -0.18496247 -0.12586959 0.15452127 0.04191574
-0.4146484 -0.03795797 -0.24645823 -0.083246216 0.3518585 0.37377208 -0.089641884 -0.034028567
-0.13297528 0.10765511 -0.21917033 -0.19506328 -0.018493019 -0.09753617 0.048648853 -0.076768
00000000: a150 d2bd 3985 b73e fcde 61bc 19bf bebc
00000010: 5161 043d ae10 c5bd f375 963d 930b 953e
00000020: c163 f53d ff95 f3bb 52cc 233e fed5 73bd
00000030: 9915 0dbc 1c85 3dbd 9d4c 463d 35e0 94bd
00000040: ce46 d0bc b2f7 ddbd b0a6 1fbe 43d2 02bd
00000050: afec 703e 63ea 91be 32e5 023d 27d9 013d
00000060: 2afb a23c cde5 54be 0f2e 143e c3ac f6bd
00000070: b3bf 683e f7ae 913e 6157 063e f42d 143d
00000080: 9e00 fbbd f3a0 a3bd f416 53be a209 f73d
00000090: 374c fc3d 42f5 9c3e 199b 2b3d 8eb9 9f3d
000000a0: c9b2 5a3e e01c 75be b266 a73e f394 34be
000000b0: 7da9 d0bd 5e58 2ebe 1f81 16be 7604 f4bd
000000c0: 6abe 2c3d 54b1 963e 4b87 ca3e d8ed 3d3e
000000d0: ffc2 71be e5cc 8c3e 90e9 54be 6df3 ae3d
000000e0: f306 8c3e 52f4 6cbe ec51 0bbe 7edb a93e
000000f0: 11f2 14bd 4b15 40be 3597 0b3e 7442 423e
00000100: 425d 97bd 1eac 32be a1ac a23e 6fe2 a63d
00000110: ff90 17be 305a 4d3e 1687 3b3e 4f2c 9b3e
00000120: 4ba5 97bd 7714 8f3c 5055 b7bd c524 373e
00000130: eb2e fb3e 0eb2 a63d 56f5 5abd a7ac d13c
00000140: 85d9 a2be b7a6 87bd 44c2 8e3d c3f0 07be
00000150: 0d0b 6cbd 4e44 88be 8938 5e3d bddd 8a3e
00000160: 3083 ac3d 1bbe 8cbc 9040 d6bd e77b 7b3e
00000170: 6431 4bbc a1e3 393d edf8 003e 7fe2 e33c
00000180: a56f e4bd 005a 83bd 611d 5bbc 0096 7e3e
00000190: 23da f13e 0d62 dabd a011 46be 57b0 683d
000001a0: 289d 22be a2bb ffbd dd2c d93d 7523 eb3d
000001b0: cd66 3dbe f5e3 00be d33a 1e3e d7af 2b3d
000001c0: cc4c d4be d179 1bbd 8c5f 7cbe fe7c aabd
000001d0: cc26 b43e 0e5f bf3e 2a96 b7bd 8a61 0bbd
000001e0: ac2a 08be 487a dc3d 306e 60be abbe 47be
000001f0: ac7e 97bc 0bc1 c7bd 0544 473d 8b38 9dbd

network_body._body_endoder.seq_layers.2.weight f4 [128, 128]
0.2595018 -0.28882408 -0.44508082 -0.0016651573 -0.11687033 -0.18601164 0.07630388 -0.41651484
0.15045404 0.1750879 -0.24728085 0.15143815 0.3300447 0.034381114 0.284393 -0.106399775
0.098241955 0.26201117 -0.07814895 0.32528076 0.08346978 -0.115606986 0.078298524 -0.5588524
0.16390364 0.2673093 -0.8665776 0.12356939 0.4416648 -0.63716096 -0.26127025 -0.16999574
-0.109909706 -0.06484247 -0.16540545 0.40063965 -0.105613984 -0.5797669 -0.42067978 0.39226076
0.2151194 0.1578371 -0.13284984 -0.2932549 0.23071542 0.2897792 0.05879463 -0.101241566
-0.15834512 -0.030456482 -0.6123473 0.015614311 0.071185045 -0.04410322 0.4243062 -0.17291577
-0.16668926 0.0748961 -0.40527973 -0.3285786 0.20448299 -0.116500236 -0.4639624 -0.010424542
-0.4516368 0.16154847 -0.1275045 -0.091633655 -0.062026065 -0.059929915 -0.400539 -0.63170695
0.22881699 0.27911246 -0.83262 -0.11389126 -0.47091964 -0.06799641 -0.12896663 0.2457724
0.16772494 0.09614738 -0.24723984 0.12355713 -0.40690812 -0.060951516 -0.05564434 0.20069724
-0.5593129 0.16098635 -0.16246586 -0.31789038 -0.08119196 0.2625631 -0.067696124 0.041966207
-0.13020645 0.02228892 0.15112323 -0.1343133 -0.12697059 -0.16140074 -0.17998585 0.13110091
-0.15288723 0.20674507 0.04956807 -0.00073576724 0.26412746 -0.11900563 -0.20519976 -0.08650446
-0.09972137 -0.33072767 0.08109174 0.12858137 -0.28522265 -0.5661854 0.02596973 -0.22552459
-0.05671884 -0.12803479 0.18434225 0.035484653 0.0841532 -0.0066109886 -0.09814943 -0.052488703
-0.08215581 -0.32622275 -0.040126253 -0.13705792 -0.11647417 -0.48730928 0.046766866 -0.4080459
0.042800404 0.16421643 -0.25346053 0.13796943 0.16421625 0.10431444 -0.037800476 -0.22477098
0.06386954 0.015268207 0.06120366 0.09614159 0.31314877 0.112958 0.04464117 -0.23108537
-0.07561309 0.17890514 -0.22645468 -0.1021209 -0.021885926 -0.15783884 -0.15658274 0.047757763
0.13488308 -0.09146425 0.06297088 -0.111630015 -0.24088295 -0.3386817 -0.17697302 0.18334232
-0.47855982 0.5158098 -0.035097394 -0.22726713 0.21912615 -0.050155614 0.124000944 0.14206794
-0.1926249 -0.12024678 -0.49062997 -0.0054273405 -0.11737232 -0.18717489 0.15756527 0.14066705
0.020627111 0.43735254 -0.37872273 -0.8532618 0.1682306 -0.012151101 0.031557545 -0.2867217
0.05707725 -0.061490014 -0.58885324 -0.28585005 0.021144072 -0.24575683 -0.17935792 -0.198578
0.24017197 -0.07557304 0.11752547 -0.16157034 -0.2441383 0.18211651 -0.17465012 -0.1835971
0.35393414 -0.0007213324 -0.28558916 -0.11476229 -0.20632535 0.13968268 0.09935025 0.23818009
-0.18845859 0.040533658 -0.004010868 -0.17784707 -0.13738874 0.27298585 -0.447027 -0.01389813
0.091744706 0.016361302 -0.31267375 -0.39942595 -0.4351001 0.2808134 0.04024498 0.07159965
-0.27946132 0.07707989 0.2414775 0.071358904 -0.10933709 0.15121952 -0.2437043 -0.006754301
-0.115593836 -0.20562308 0.11284785 0.30112305 -0.7840111 -0.5514932 0.22797284 -0.26878113
0.23544553 -0.24452165 0.08194632 -0.124685526 -0.07527569 0.001195046 0.10208054 -0.1952504
00000000: 6cdd 843e c0e0 93be a2e1 e3be 6841 daba
00000010: b659 efbd d679 3ebe 3545 9c3d 6f41 d5be
00000020: a010 1a3e 3e4a 333e 3137 7dbe 9a12 1b3e
00000030: 9efb a83e 36d3 0c3d f69b 913e 20e8 d9bd
00000040: 1433 c93d 5426 863e 8f0c a0bd 338b a63e
00000050: 34f2 aa3d 5bc3 ecbd fa5a a03d f310 0fbf
00000060: 5bd6 273e c4dc 883e 08d8 5dbf f311 fd3d
00000070: e321 e23e fb1c 23bf 37c5 85be 5d13 2ebe
00000080: 5718 e1bd 21cc 84bd 0c60 29be a420 cd3e
00000090: 254c d8bd 9b6b 14bf 5763 d7be 67d6 c83e
000000a0: 4348 5c3e 0ca0 213e ca09 08be 8225 96be
000000b0: aa40 6c3e f05d 943e a3d2 703d bd57 cfbd
000000c0: 3925 22be df7f f9bc cbc2 1cbf 2bd3 7f3c
000000d0: 77c9 913d 94a5 34bd aa3e d93e d510 31be
000000e0: 97b0 2abe 2063 993d d380 cfbe 743b a8be
000000f0: fd63 513e ad97 eebd 7b8c edbe b3cb 2abc
00000100: f03c e7be f66c 253e 8a90 02be 6daa bbbd
00000110: 0b0f 7ebd 1279 75bd 7313 cdbe 8cb7 21bf
00000120: 004f 6a3e d4e7 8e3e 9626 55bf d23f e9bd
00000130: 611c f1be b441 8bbd d40f 04be c3ab 7b3e
00000140: 16c0 2b3e ebe8 c43d 712c 7dbe 850b fd3d
00000150: 4356 d0be 4ca8 79bd 52eb 63bd 9483 4d3e
00000160: 212f 0fbf 9bd9 243e 735d 26be 87c2 a2be
00000170: f847 a6bd ac6e 863e 44a4 8abd c2e4 2b3d
00000180: d754 05be 4197 b63c 0cc0 1a3e 6d89 09be
00000190: 9404 02be 3c46 25be 364e 38be 513f 063e
000001a0: 788e 1cbe fbb4 533e e307 4b3d 81e0 40ba
000001b0: b73b 873e 39b9 f3bd e31f 52be 4029 b1bd
000001c0: b83a ccbd 2355 a9be 6d13 a63d d6aa 033e
000001d0: b408 92be 87f1 10bf 79be d43c ebef 66be
000001e0: 0452 68bd 8d1b 03be 37c4 3c3e 5b58 113d
000001f0: 8358 ac3d fea0 d8bb 9102 c9bd 65fe 56bd
00000200: 4e41 a8bd ab06 a7be 6d5b 24bd e958 0cbe
00000210: 028a eebd 9a80 f9be 9d8e 3f3d 64eb d0be
00000220: 7a4f 2f3d 5a28 283e 94c5 81be dc47 0d3e
00000230: 4e28 283e cfa2 d53d acd4 1abd 5d2a 66be
00000240: 09ce 823d 8027 7a3c b0b0 7a3d e2e5 c43d
00000250: 0955 a03e 8656 e73d a9d9 363d a5a1 6cbe
00000260: 09db 9abd e932 373e bce3 67be c324 d1bd
00000270: 1d4a b3bc 81a0 21be 3a57 20be a59d 433d
00000280: ca1e 0a3e 9c51 bbbd e0f6 803d 479e e4bd
00000290: 05aa 76be b067 adbe 6a38 35be 17be 3b3e
000002a0: cb05 f5be 1c0c 043f 49c2 0fbd b7b8 68be
000002b0: 9b62 603e f96f 4dbd 35f4 fd3d 427a 113e
000002c0: 763f 45be f243 f6bd da33 fbbe d5d7 b1bb
000002d0: e660 f0bd c6aa 3fbe ca58 213e 060b 103e
000002e0: 30fa a83c acec df3e f2e7 c1be 5e6f 5abf
000002f0: a444 2c3e 6915 47bc 7c42 013d 30cd 92be
00000300: d6c9 693d f4dc 7bbd 16bf 16bf f05a 92be
00000310: 5536 ad3c aea7 7bbe 9aa9 37be 0858 4bbe
00000320: a4ef 753e 0ac6 9abd 32b1 f03d b272 25be
00000330: 64ff 79be c07c 3a3e 7bd7 32be e100 3cbe
00000340: db36 b53e cc17 3dba be38 92be 7e08 ebbd
00000350: f446 53be fa08 0f3e 2578 cb3d 7be5 733e
00000360: 4afb 40be 9f06 263d 996d 83bb 8b1d 36be
00000370: a2af 0cbe cdc4 8b3e b9e0 e4be fbb4 63bc
00000380: a6e4 bb3d 2308 863c c616 a0be 8f81 ccbe
00000390: 71c5 debe c6c6 8f3e ecd7 243d d6a2 923d
000003a0: 8e15 8fbe 10dc 9d3d e145 773e 9e24 923d
000003b0: 20ec dfbd 4ad9 1a3e 9f8d 79be 2f53 ddbb
000003c0: 76bc ecbd db8e 52be c61c e73d cd2c 9a3e
000003d0: f4b4 48bf a92e 0dbf b671 693e ae9d 89be
000003e0: a218 713e e263 7abe 79d3 a73d 205b ffbd
000003f0: 242a 9abd 17a3 9c3a 9a0f d13d b9ef 47be

network_body._body_endoder.seq_layers.2.bias f4 [128]
-0.20334117 -0.05708879 0.1273525 -0.009508708 0.032986574 -0.07420658 0.015159422 0.17480175
-0.06457556 0.020382868 -0.080948904 0.03347172 -0.07936932 -0.07203757 -0.3079982 -0.017140495
-0.10017113 0.29713437 -0.18017046 -0.07710545 0.098730914 0.17376974 -0.016948547 -0.17993955
0.24975087 0.12459524 -0.058910564 -0.14193466 -0.1758142 -0.06040262 -0.40200517 0.13187853
0.021988925 -0.108579844 0.0077856285 -0.0973943 -0.43179873 -0.1629283 -0.18099241 -0.20077011
-0.26568443 -0.1497648 0.090381645 -0.20731328 0.08817747 0.012629984 0.070593424 -0.089654386
-0.2525165 -0.18397611 -0.22982179 -0.10492288 0.058871582 -0.059461553 -0.045662053 0.17323449
-0.27000704 -0.15061015 -0.061422348 0.016454944 0.23376243 -0.40872538 -0.03109703 0.13749908
-0.040507678 0.23103489 0.11892454 0.08078418 -0.25660706 0.03147931 -0.14384459 -0.2402972
0.1072436 0.11991788 0.010066182 -0.13211817 0.056387864 -0.48772168 -0.31271705 -0.15844251
-0.0014155747 -0.10365106 0.08198333 0.021551766 -0.21953581 -0.16289155 -0.11073891 0.09343142
0.05988536 0.087504275 -0.0365061 0.045350667 -0.03974036 -0.14480543 -0.045120288 0.13032468
-0.1010794 -0.27572986 -0.22672494 -0.14840557 0.15783395 -0.19001816 0.06290073 -0.10245916
-0.13669294 -0.16177145 -0.070510045 -0.20298973 -0.20032825 -0.17228131 -0.017552186 0.118521735
0.11038954 -0.042705577 -0.10905496 -0.27002823 0.07415741 -0.08864156 -0.03917539 -0.17313324
-0.19952586 0.15940437 -0.45471498 -0.06540226 0.17516206 -0.09648337 -0.13706222 -0.08929767
00000000: ab38 50be efd5 69bd b268 023e 69ca 1bbc
00000010: ee1c 073d 9ff9 97bd 395f 783c 3bff 323e
00000020: 3140 84bd f9f9 a63c 8ac8 a5bd a419 093d
00000030: 628c a2bd 6f88 93bd f1b1 9dbe 396a 8cbc
00000040: 8526 cdbd ff21 983e 9b7e 38be 76e9 9dbd
00000050: 6f33 ca3d b2f0 313e aed7 8abc 1342 38be
00000060: b1be 7f3e ca2b ff3d 344c 71bd 5257 11be
00000070: a308 34be bd68 77bd 9fd3 cdbe 2a0b 073e
00000080: 1e22 b43c 1c5f debd 961e ff3b aa76 c7bd
00000090: b914 ddbe add6 26be 1356 39be ae96 4dbe
000000a0: ca07 88be f25b 19be 031a b93d ef49 54be
000000b0: 6496 b43d feed 4e3c 4993 903d b89c b7bd
000000c0: d849 81be 3c64 3cbe 6756 6bbe cfe1 d6bd
000000d0: 5423 713d f58d 73bd 2208 3bbd 6264 313e
000000e0: 5d3e 8abe 8c39 1abe 0096 7bbd 85cc 863c
000000f0: 6b5f 6f3e 7444 d1be 33bf febc 8fcc 0c3e
00000100: 61eb 25bd 6994 6c3e b68e f33d 2d72 a53d
00000110: 0062 83be 73f0 003d ff4b 13be 7810 76be
00000120: 88a2 db3d 8197 f53d a1ec 243c fc49 07be
00000130: f6f6 663d a8b6 f9be 731c a0be c13e 22be
00000140: ce8a b9ba 0247 d4bd e0e6 a73d 548d b03c
00000150: ffcd 60be 0bcd 26be 15cb e2bd f958 bf3d
00000160: 5a4a 753d 7135 b33d 6c87 15bd 9fc1 393d
00000170: cac6 22bd e047 14be 0dd0 38bd d573 053e
00000180: b702 cfbd 772c 8dbe 952a 68be a1f7 17be
00000190: 399f 213e 1f94 42be 19d2 803d 1cd6 d1bd
000001a0: 3cf9 0bbe 6aa7 25be 9267 90bd 8adc 4fbe
000001b0: d922 4dbe 836a 30be 9ac9 8fbc 86bb f23d
000001c0: e913 e23d 0bec 2ebd 3558 dfbd 2441 8abe
000001d0: d7df 973d b589 b5bd 6076 20bd d749 31be
000001e0: 8250 4cbe e63a 233e 67d0 e8be 9ff1 85bd
000001f0: af5d 333e 1399 c5bd 0a5a 0cbe b2e1 b6bd

action_model._continuous_distribution.mu.weight f4 [2, 128]
-0.18477431 0.24389009 0.4541684 -0.5390433 -0.1775843 0.3875233 0.4165907 0.1810004
-0.09889405 0.25699827 -0.1597489 -0.14885308 -0.14129505 -0.5433196 -0.26770678 0.0027109913
0.3515966 0.19712245 0.0733104 -0.16656427 0.28519395 0.25497898 -0.21547881 -0.457113
0.14961918 0.4029288 -0.12228414 -0.47340822 -0.3727485 -0.524846 -0.15354577 0.18548584
-0.108416945 -0.047319885 0.17668676 -0.32944402 -0.21248771 0.21765353 0.070684694 -0.16108134
-0.2030028 -0.057099767 0.11742119 0.034390464 0.22767054 0.23443429 0.27849445 0.2234388
0.40961987 0.012050325 0.39942145 0.11216704 0.3257415 0.13270417 0.12802778 -0.13796882
-0.10879129 -0.15781079 0.041570716 -0.14534333 0.070216134 -0.39910847 -0.04347277 0.019551912
-0.3608796 0.020230534 -0.28206536 -0.49565777 0.13857293 -0.10999855 0.051683582 -0.12237341
0.18371524 0.14917889 -0.0032979047 0.4843206 -0.28635228 -0.07044227 -0.17330681 -0.5346958
0.39823356 -0.053476747 -0.02971144 0.05676587 -0.23301849 -0.13164867 0.35822532 -0.5313322
-0.0075315605 0.16445689 0.4035913 0.05295391 -0.09247219 0.115410976 0.0679286 0.12145761
0.14002012 -0.39842638 -0.32749093 -0.36048666 0.39812773 -0.28742504 0.37223214 0.35054427
-0.34266877 0.24096827 0.49315315 -0.35204044 -0.30487755 0.15027258 -0.11844255 0.26737893
0.23035775 0.09239379 -0.30376512 -0.09149085 -0.18864754 0.1445412 0.21693665 0.0845591
-0.10297931 0.2068515 0.09435694 0.023854129 -0.3759282 0.004952912 0.04998138 0.17220384
-0.38260975 0.4027491 0.017389644 -0.09997798 0.13764624 -0.2053879 -0.17938256 0.18116605
-0.26287374 0.090035014 0.060396336 -0.050546322 0.40553987 -0.1507378 -0.055929095 0.1273163
-0.015567497 0.04201977 -0.4836877 -0.23685981 -0.05130154 0.17257959 -0.31472597 -0.13280053
0.023258898 0.022079501 0.05691458 -0.0943541 -0.013932825 0.3352981 0.36485115 -0.17268434
-0.082142994 0.26810998 0.32389155 -0.05460628 0.00052916654 -0.06756658 -0.08172443 -0.17235227
0.32308716 -0.034566306 -0.024949031 0.32113594 0.06228092 -0.077931516 -0.15439704 -0.3696529
-0.2218294 0.40000308 0.037802964 -0.18157499 -0.35105032 0.37493017 0.3732475 -0.031227164
0.27081403 0.040529996 -0.12873803 -0.20460765 0.2930515 0.2879539 0.13114496 -0.16398661
0.055086076 0.18947469 0.290977 -0.002434831 0.30583012 -0.23937218 -0.20312744 0.34969822
0.074444294 0.2449516 -0.046128087 -0.32068935 0.19679847 0.1640381 -0.21311295 0.11692609
0.019238148 -0.12430173 -0.48996043 -0.11998678 0.014463034 0.092433654 -0.12605758 -0.046912808
-0.13428468 -0.021857163 -0.05550442 -0.113702945 -0.083416045 0.36319026 -0.17587672 0.09286451
0.39404702 -0.20458354 0.0052063493 0.10779224 0.29573056 0.29550046 0.18991019 0.017025305
0.21686515 -0.33849403 0.2691668 0.4367516 -0.21351317 0.3146758 0.1339793 0.035537157
0.04967925 -0.11212109 0.040346213 0.24450317 -0.07131705 -0.11822371 -0.04912975 -0.073144525
0.1576894 0.10165711 0.2743373 -0.20269376 0.25978094 0.43773368 0.14452426 -0.157848
00000000: 7a35 3dbe 53be 793e c388 e83e befe 09bf
00000010: a9d8 35be 7469 c63e 604b d53e 2b58 393e
00000020: f788 cabd 4795 833e 3795 23be f16c 18be
00000030: a6af 10be fe16 0bbf dd10 89be e3aa 313b
00000040: 7804 b43e 78da 493e c323 963d d38f 2abe
00000050: f104 923e 9b8c 823e 7aa6 5cbe b70a eabe
00000060: c535 193e af4c ce3e 1b70 fabd 9062 f2be
00000070: e4d8 bebe 4f5c 06bf 1a3b 1dbe 00f0 3d3e
00000080: b409 debd 7fd2 41bd 60ed 343e e3ac a8be
00000090: 6196 59be 91e0 5e3e 23c3 903d 82f2 24be
000000a0: f7df 4fbe 72e1 69bd 857a f03d 04dd 0c3d
000000b0: 7722 693e 8b0f 703e d396 8e3e 24cd 643e
000000c0: b2b9 d13e ba6e 453c f880 cc3e d5b7 e53d
000000d0: 97c7 a63e 9ae3 073e b719 033e b347 0dbe
000000e0: f8cd debd 2799 21be 0e46 2a3d e2d4 14be
000000f0: 7acd 8f3d f257 ccbe 8110 32bd 552b a03c
00000100: 36c5 b8be 81ba a53c df6a 90be dbc6 fdbe
00000110: 10e6 0d3e eb46 e1bd 2ab2 533d e99e fabd
00000120: d91f 3c3e 5ac2 183e a921 58bb dff8 f73e
00000130: c49c 92be 0944 90bd 5777 31be d3e1 08bf
00000140: 45e5 cb3e 6f0a 5bbd 6865 f3bc 5483 683d
00000150: 669c 6ebe e9ce 06be 4f69 b73e 6305 08bf
00000160: 4fcb f6bb 6367 283e 85a3 ce3e 33e6 583d
00000170: 0f62 bdbd 975c ec3d 261e 8b3d c4be f83d
00000180: 6f61 0f3e 8bfe cbbe e4ac a7be b591 b8be
00000190: 66d7 cb3e 6029 93be 3695 be3e 8a7a b33e
000001a0: 4872 afbe 63c0 763e 927e fc3e a53e b4be
000001b0: e918 9cbe 0ee1 193e 0292 f2bd e4e5 883e
000001c0: e7e2 6b3e f538 bd3d 1a87 9bbe 8e5f bbbd
000001d0: d22c 41be 9c02 143e a424 5e3e 522d ad3d
000001e0: d1e6 d2bd e1d0 533e 363e c13d bc69 c33c
000001f0: a979 c0be 0a4c a23b 47b9 4c3d 3456 303e
00000200: 6de5 c3be 2135 ce3e ba74 8e3c 41c1 ccbd
00000210: 23f3 0c3e 3551 52be 10b0 37be 9883 393e
00000220: 6397 86be 4764 b83d 2662 773d a909 4fbd
00000230: eca2 cf3e 035b 1abe e815 65bd 345f 023e
00000240: d10e 7fbc ec1c 2c3d eaa5 f7be 618b 72be
00000250: 9021 52bd b4b8 303e c323 a1be ddfc 07be
00000260: 7289 be3c 12e0 b43c 431f 693d b93c c1bd
00000270: 8146 64bc 31ac ab3e c5cd ba3e 2ad4 30be
00000280: 963a a8bd b645 893e 1dd5 a53e d6aa 5fbd
00000290: c4b7 0a3a 5960 8abd 235f a7bd 1d7d 30be
000002a0: ae6b a53e 6695 0dbd e961 ccbc ee6b a43e
000002b0: 471a 7f3d 8f9a 9fbd 421a 1ebe 2543 bdbe
000002c0: 3f27 63be 34cd cc3e 48d7 1a3d cbee 39be
000002d0: debc b3be d9f6 bf3e 4c1a bf3e 1cd0 ffbc
000002e0: 23a8 8a3e c802 263d e7d3 03be ab84 51be
000002f0: d90a 963e b26e 933e dd4a 063e 1bec 27be
00000300: f0a1 613d a705 423e f0fa 943e b091 1fbb
00000310: c495 9c3e fb1d 75be a400 50be a50b b33e
00000320: 4076 983d 98d4 7a3e cef0 3cbd 6531 a4be
00000330: 8a85 493e 9bf9 273e 483a 5abe f276 ef3d
00000340: 5299 9d3c e891 febd 18dc fabe a1bb f5bd
00000350: 5df6 6c3c db4d bd3d 3d15 01be a527 40bd
00000360: ec81 09be cb0d b3bc 9a58 63bd 17dd e8bd
00000370: 08d6 aabd 13f4 b93e 0719 34be c02f be3d
00000380: 88c0 c93e 597e 51be 069a aa3b 2ec2 dc3d
00000390: ff69 973e d64b 973e d177 423e a778 8b3c
000003a0: e611 5e3e 174f adbe 3bd0 893e e89d df3e
000003b0: 32a3 5abe 301d a13e df31 093e 698f 113d
000003c0: 787c 4b3d be9f e5bd 1242 253d 0a5f 7a3e
000003d0: ac0e 92bd 461f f2bd 473c 49bd cccc 95bd
000003e0: 5479 213e 9a31 d03d f075 8c3e f48e 4fbe
000003f0: 0202 853e a11e e03e 2bfe 133e e8a2 21be

action_model._continuous_distribution.mu.bias f4 [2]
0.058169466 -0.017981084
00000000: 1b43 6e3d 114d 93bc

action_model._continuous_distribution.log_sigma.weight f4 [2, 128]
0.04422026 -0.04725555 -0.016482666 -0.12697293 -0.06743081 0.039974533 0.021079471 0.005752783
0.067444116 0.06439284 0.03420608 0.017567957 0.0031821157 0.010089388 -0.043341715 0.011740687
0.14728718 0.030742418 -0.13430604 -0.07781723 0.041810926 0.054421633 0.03642942 0.08806484
0.07957299 0.057944022 0.011372943 -0.04257692 0.009997241 0.079516225 -0.02948495 -0.0013985961
-0.021998307 -0.018281618 -0.021793228 -0.007838611 0.37984142 -0.013487722 -0.040156215 0.06991144
0.030344028 -0.018677015 -0.020277737 0.012294428 0.0045490563 0.098875165 0.08883748 0.004432153
-0.07005223 0.1505008 0.032847364 -0.010776359 0.048511963 0.001369284 0.0011552214 -0.02234929
-0.052415717 -0.024124688 -0.012757053 -0.0041629123 -0.06069446 0.097912654 -0.0011142258 0.015104778
0.10513873 -0.1511289 0.012755498 0.009466052 0.0921536 -0.009285159 -0.0039529693 0.03267497
-0.034799978 0.17199846 -0.10691785 0.07394796 0.06769127 0.27312008 -0.009375463 -0.030452205
-0.036592823 0.0049789846 0.042212717 -0.03594774 -0.012965513 0.033403482 0.0517804 0.05945225
-0.008201136 0.13732184 -0.00967207 -0.02554982 -0.042244367 -0.030747848 0.0026865317 0.053320937
0.026786918 0.03036151 -0.009880505 0.10321027 -0.04390868 -0.034797333 0.03674353 0.026161207
0.021125544 0.07115973 -0.011656567 -0.02390892 0.008305784 0.019211326 -0.10556516 0.02839498
0.0025474702 0.0054601785 0.029074028 0.04132688 0.062197633 0.020877384 0.007972675 0.32628405
0.041082926 -0.035690024 -0.027846389 0.039874423 0.109196 0.022249034 0.043019656 -0.014094703
0.011864522 -0.042080946 0.032003995 -0.0022470397 -0.004691478 0.086950146 0.028639704 -0.025429415
0.013847848 0.039244052 0.041242782 -0.0221704 -0.0889072 -0.018759577 -0.024055162 0.016789306
0.0456264 0.018335635 0.0718604 0.037994336 0.01724668 -0.027823528 0.04066115 0.03982386
-0.04988479 0.020985732 -0.019617792 -0.002168177 0.008380421 -0.01917726 0.057589434 0.012971535
-0.028110193 0.09937393 0.03361025 -0.0021574404 0.39254603 0.011069046 -0.013614088 0.031031683
0.001620465 0.006585641 -0.011403967 0.0396377 0.001023344 -0.012172188 0.006476158 0.007858657
0.04017462 0.13269986 0.019685341 0.017902572 0.11822122 0.015509787 0.050761353 -0.019465996
-0.014519133 -0.00080081326 0.014265972 0.015507514 -0.020735852 0.009627515 -0.02639666 0.031751215
-0.017482726 -0.034966756 -0.009642702 -0.010618615 -0.024585122 0.021827063 0.009375479 0.015107164
-0.015269831 0.022823298 -0.14933717 -0.013648843 -0.008074885 0.50312924 -0.026092373 -0.074368276
-0.05132872 -0.0076110885 0.03324291 0.012244979 -0.01611415 0.008920922 0.044082537 -0.023025306
0.0052439943 0.12800385 0.00460784 0.027099783 0.024372015 -0.018515185 0.017457338 0.05827446
-0.005632042 0.0710875 0.04552452 -0.035213295 -0.036545932 0.0458872 0.056810908 0.039345223
-0.002829767 0.14433333 -0.0031770673 0.01618984 0.00062607694 0.04683481 -0.08075218 0.012999726
-0.04834013 -0.018223902 -0.007439555 0.028376145 0.004466418 0.0021989797 0.004297607 0.40711886
0.010004951 -0.009842005 0.026267193 0.03168593 0.039512 0.08933634 0.007282556 0.005238151
00000000: 4e20 353d 098f 41bd a806 87bc 3105 02be
00000010: 2a19 8abd 56bc 233d dbae ac3c d781 bc3b
00000020: 2420 8a3d 65e0 833d ad1b 0c3d adea 8f3c
00000030: 0b8b 503b f64d 253c 1587 31bd 035c 403c
00000040: 73d2 163e 86d7 fb3c 8687 09be a45e 9fbd
00000050: ef41 2b3d 38e9 5e3d 0437 153d 575b b43d
00000060: 2af7 a23d b656 6d3d 9555 3a3c 2365 2ebd
00000070: 78cb 233c 67d9 a23d 6c8a f1bc 1951 b7ba
00000080: cb35 b4bc 55c3 95bc b687 b2bc 846d 00bc
00000090: 937a c23e 9bfb 5cbc d87a 24bd bb2d 8f3d
000000a0: 0a94 f83c 8a00 99bc 7f1d a6bc 926e 493c
000000b0: 4010 953b 107f ca3d 6df0 b53d 983b 913b
000000c0: 8b77 8fbd e21c 1a3e f58a 063d 538f 30bc
000000d0: 7bb4 463d 8c79 b33a cc6a 973a dc15 b7bc
000000e0: ddb1 56bd 23a1 c5bc f502 51bc 0a69 88bb
000000f0: c19a 78bd 6e86 c83d 370b 92ba 087a 773c
00000100: f952 d73d 89c1 1abe 70fc 503c 8017 1b3c
00000110: 07bb bc3d c820 18bc e987 81bb 30d6 053d
00000120: 6c8a 0ebd 5d20 303e bff7 dabd 0772 973d
00000130: b8a1 8a3d 65d6 8b3e 8b9b 19bc e776 f9bc
00000140: 5be2 15bd c026 a33b 3ee7 2c3d f03d 13bd
00000150: 4e6d 54bc 17d2 083d af17 543d 3484 733d
00000160: 0f5e 06bc 199e 0c3e 9a77 1ebc db4d d1bc
00000170: 6e08 2dbd e9e2 fbbc 8610 303b 0e67 5a3d
00000180: 3d70 db3c b4b8 f83c d7e1 21bc e85f d33d
00000190: 97d9 33bd a687 0ebd 6280 163d 0750 d63c
000001a0: 7a0f ad3c 31bc 913d 30fb 3ebc a4dc c3bc
000001b0: fc14 083c 1261 9d3c 8c32 d8bd 979c e83c
000001c0: 75f3 263b 4ceb b23b a82c ee3c 6046 293d
000001d0: f2c2 7e3d 0c07 ab3c d39f 023c b40e a73e
000001e0: 9246 283d b42f 12bd 1c1e e4bc 5d53 233d
000001f0: 27a2 df3d 9b43 b63c 6135 303d 78ed 66bc
00000200: 6963 423c 125d 2cbd 9f16 033d 1243 13bb
00000210: f8ba 99bb eb12 b23d d09d ea3c 5951 d0bc
00000220: 16e2 623c 5fbe 203d 31ee 283d b39e b5bc
00000230: fa14 b6bd afad 99bc 550f c5bc ba89 893c
00000240: bfe2 3a3d 9d34 963c 8c2b 933d f39f 1b3d
00000250: e948 8d3c 2bee e3bc 4e8c 263d 581e 233d
00000260: fe53 4cbd 45ea ab3c 7eb5 a0bc f917 0ebb
00000270: 094e 093c a119 9dbc e6e2 6b3d 9086 543c
00000280: 5947 e6bc 8f84 cb3d e7aa 093d d863 0dbb
00000290: cbfb c83e f25a 353c a00d 5fbc 2836 fe3c
000002a0: c865 d43a 5ccc d73b b4d7 3abc 245b 223d
000002b0: ba21 863a db6d 47bc f335 d43b 99c1 003c
000002c0: 248e 243d 79e2 073e 2743 a13c 6aa8 923c
000002d0: f81d f23d c31c 7e3c 23eb 4f3d 2777 9fbc
000002e0: a8e1 6dbc abed 51ba d3bb 693c 3a13 7e3c
000002f0: 3cde a9bc babc 1d3c cf3d d8bc 900d 023d
00000300: ef37 8fbc 4d39 0fbd 6cfc 1dbc b3f9 2dbc
00000310: bd66 c9bc abce b23c 9c9b 193c 0a84 773c
00000320: 502e 7abc edf7 ba3c d8eb 18be 669f 5fbc
00000330: 864c 04bc 14cd 003f acbf d5bc 654e 98bd
00000340: 103e 52bd 7066 f9bb b829 083d 2a9f 483c
00000350: d201 84bc 0f29 123c e48f 343d 919f bcbc
00000360: d0d5 ab3b 7113 033e 5dfd 963b 5d00 de3c
00000370: d2a7 c73c 28ad 97bc b102 8f3c 33b1 6e3d
00000380: fe8c b8bb 5396 913d eb77 3a3d d13b 10bd
00000390: 30b1 15bd 37f4 3b3d 8eb2 683d 7528 213d
000003a0: 9d73 39bb 1ecc 133e 5836 50bb 8ea0 843c
000003b0: 501f 243a dcd5 3f3d 6661 a5bd cefc 543c
000003c0: 4d00 46bd 4b4a 95bc 83c7 f3bb 1775 e83c
000003d0: 085b 923b c21c 103b f1d2 8c3b e271 d03e
000003e0: ceeb 233c 5c40 21bc 4c2e d73c 1bc9 013d
000003f0: 56d7 213d f9f5 b63d 82a2 ee3b cca4 ab3b

action_model._continuous_distribution.log_sigma.bias f4 [2]
-0.55252403 -0.59767187
00000000: 3772 0dbf 0601 19bf

onnx::Div_66 f4 [20]
0.1981048 0.26465645 0.037948444 0.08446796 0.16164683 0.4196902 0.0781853 0.15542741
0.17224742 0.3184322 0.07455619 0.12720335 0.14578432 0.49581364 0.13869868 0.22674565
0.13440374 0.49806136 0.0705356 0.20046052
00000000: fcdb 4a3e 0d81 873e d46f 1b3d 8afd ac3d
00000010: bf86 253e a2e1 d63e 9d1f a03d 5d28 1f3e
00000020: a161 303e 8c09 a33e eab0 983d 9841 023e
00000030: 7c48 153e 49db fd3e 0707 0e3e 0330 683e
00000040: 22a1 093e e601 ff3e f874 903d 8645 4d3e

onnx::Div_69 f4 [12]
0.05328606 0.21962044 0.014901219 0.022509238 0.052990094 0.2272179 0.014507753 0.02261643
0.05356028 0.21084678 0.015111535 0.022312818
00000000: 7c42 5a3d 2ee4 603e 3e24 743c 4b65 b83c
00000010: 240c 593d cfab 683e edb1 6d3c 1746 b93c
00000020: 0662 5b3d 38e8 573e 5f96 773c 5fc9 b63c

onnx::Div_72 f4 [3]
0.6993242 0.026316212 1.051796
00000000: e906 333f 1995 d73c 40a1 863f
