Experimentos/results/ppo7/KartAgent/KartAgent-3049986.onnx (onnx, 309439 bytes, 13 tensors)

network_body.observation_encoder.processors.0.normalizer.running_mean f4 [20]
0.48218393 0.47435153 0.030817142 0.25463235 0.6991571 0.23774286 0.0022921385 0.20406441
0.76751345 0.18416588 0.0029993716 0.17636792 0.6463493 0.2809064 0.005747902 0.21202943
0.68221897 0.25605115 0.0021599983 0.2045112
00000000: d0e0 f63e 34de f23e 3b74 fc3c 2c5f 823e
00000010: f6fb 323f dd72 733e b437 163b 43f6 503e
00000020: c37b 443f fb95 3c3e 1b91 443b cb99 343e
00000030: 2677 253f f7d2 8f3e e658 bc3b 3e1e 593e
00000040: e7a5 2e3f 2319 833e c28e 0d3b 626b 513e

network_body.observation_encoder.processors.1.normalizer.running_mean f4 [12]
0.2748704 0.52324456 0.17007037 0.24590515 0.2686618 0.53752786 0.15937518 0.23752864
0.28267246 0.5047544 0.18179566 0.25535282
00000000: d0bb 8c3e 5bf3 053f ed26 2e3e 8fce 7b3e
00000010: 0a8e 893e 6d9b 093f 3f33 233e b53a 733e
00000020: 72ba 903e 9637 013f a428 3a3e 9bbd 823e

network_body.observation_encoder.processors.2.normalizer.running_mean f4 [3]
-0.06795309 0.03561032 0.08401898
00000000: fd2a 8bbd 20dc 113d 2512 ac3d

network_body._body_endoder.seq_layers.0.weight f4 [256, 35]
-0.14034493 -0.24115118 -0.25749207 0.05766599 0.3343024 0.052336466 0.038407847 -0.2719607
-0.09044615 -0.1268546 -0.15255441 0.19904646 0.24324238 0.12425563 -0.086839624 0.031655166
0.085260764 0.21436249 0.044461474 0.29048917 0.05289176 0.019908676 -0.15435688 0.05864746
-0.034731444 0.05100756 -0.001790577 0.13092634 -0.1488262 0.19255055 0.038908187 -0.16639937
0.1417383 -0.026982507 0.13599503 0.350321 -0.026544342 0.1759926 0.27704775 0.21122713
0.07905806 0.34175602 0.19826865 -0.040753193 -0.25578526 0.19449265 0.021879764 0.092178136
-0.121906 -0.35513905 -0.2771794 -0.09683119 -0.19960052 -0.22074243 -0.021194471 0.09898091
0.014496714 0.062286187 0.029802192 0.103680804 0.2592442 -0.22037148 -0.06755408 -0.020444043
-0.021728402 -0.033465203 0.2803593 -0.019952295 0.44305652 0.1482374 -0.35114208 -0.028121853
-0.046264373 0.011902946 -0.20201662 0.011184439 -0.08408206 -0.086656265 0.14445555 -0.015544427
-0.10314782 0.17563204 0.14219745 0.19557996 0.38785073 0.1316258 0.21161026 0.17417568
0.00450274 0.22212914 -0.11809398 -0.14221168 -0.029566305 -0.10365002 -0.115839235 -0.0128296185
0.1318687 -0.09256235 0.4596503 0.11806791 0.08678007 -0.029473996 -0.118890084 0.18811558
-0.048604704 -0.15266906 -0.076463684 -0.3056965 -0.38592497 0.28261766 -0.050060347 0.022067888
0.14155014 0.26393503 0.22450541 0.02680636 -0.08972812 0.2619809 -0.15978506 0.08323042
0.32948494 -0.33228645 -0.21904336 0.25697303 -0.04683866 -0.017167052 0.34178445 -0.22674827
0.028076494 0.08837991 -0.14247411 0.12657626 0.06803269 -0.099412575 0.0007509211 -0.066328466
0.3049218 0.11877523 -0.20232062 -0.09739069 -0.10157874 -0.08243274 -0.2605812 0.0057218033
0.019637354 -0.22833925 0.34214112 0.17119685 0.052162383 -0.24069002 0.2671503 0.10206064
0.2292653 0.09672323 -0.07276292 -0.0799275 -0.16343309 -0.16905873 -0.057428323 -0.21810342
0.07934868 0.009220542 -0.14228053 -0.08865892 0.2130391 -0.30833915 0.034853064 0.04056664
0.31847426 0.06269024 -0.06510093 -0.054057777 0.053528402 0.15344612 0.39685237 0.10538291
-0.15364647 -0.25392953 -0.1375949 0.022824395 -0.055285566 -0.019138547 -0.15440924 0.2366977
0.0051560537 0.13301195 -0.11265889 -0.034192964 0.31790093 0.055500112 0.020345606 0.16329984
0.42068848 0.06773367 0.15453584 0.019310387 0.0672577 -0.14096199 -0.036864284 -0.29233122
0.40198454 -0.060789455 0.023730965 -0.12028571 0.22827856 0.18735914 -0.043599937 0.44505125
0.00922926 -0.2643959 0.23435396 0.12549266 0.22080949 -0.15857692 -0.03406191 0.08957124
-0.028775977 -0.19215836 -0.06914406 0.034293927 0.14481416 0.21461996 0.14793071 0.23567094
-0.08322323 0.18277712 0.065319665 0.23552936 0.07472242 -0.14811192 -0.2682552 0.07528086
-0.15290968 -0.35623282 -0.017858827 -0.14708178 0.20446873 -0.05499056 0.041045383 -0.11570611
0.04955868 0.012389833 -0.31109676 0.26084048 0.10531625 0.0493487 -0.041885428 -0.21026021
-0.0499497 -0.062702425 -0.10706698 0.3031195 -0.027562957 -0.015561417 0.056568984 0.22999975
00000000: 95b6 0fbe 56f0 76be 00d6 83be 2c33 6c3d
00000010: af29 ab3e c35e 563d 8c51 1d3d 6f3e 8bbe
00000020: d53b b9bd 2ce6 01be 3937 1cbe d6d2 4b3e
00000030: 8814 793e bc79 fe3d f9d8 b1bd d9a8 013d
00000040: 329d ae3d d781 5b3e 3c1d 363d ffba 943e
00000050: 08a5 583d 8517 a33c bb0f 1ebe 5238 703d
00000060: 8f42 0ebd 4eed 503d cbb1 eaba 8e11 063e
00000070: e565 18be f92b 453e 315e 1f3d 9964 2abe
00000080: d823 113e 6b0a ddbc 4842 0b3e 465d b33e
00000090: 8573 d9bc 6737 343e 34d9 8d3e ed4b 583e
000000a0: 31e9 a13d a5fa ae3e f006 4b3e d2ec 26bd
000000b0: 49f6 82be 1529 473e 313d b33c e4c7 bc3d
000000c0: daa9 f9bd c9d4 b5be 75ea 8dbe 6e4f c6bd
000000d0: 1464 4cbe 4e0a 62be 07a0 adbc 81b6 ca3d
000000e0: a083 6d3c cd1f 7f3d ba23 f43c 9a56 d43d
000000f0: a8bb 843e 10a9 61be cb59 8abd 447a a7bc
00000100: c3ff b1bc cf12 09bd 418b 8f3e ff72 a3bc
00000110: 4ed8 e23e 8ccb 173e e5c8 b3be cd5f e6bc
00000120: b67f 3dbd 9304 433c 72dd 4ebe f03e 373c
00000130: 3733 acbd d778 b1bd 28ec 133e 0dae 7ebc
00000140: 2a3f d3bd e3d8 333e 359c 113e 1d46 483e
00000150: 5f94 c63e eac8 063e 5cb0 583e 1c5b 323e
00000160: b98b 933b d275 633e 42db f1bd f09f 11be
00000170: 0935 f2bc 7646 d4bd 1f3d edbd 5233 52bc
00000180: 9708 073e 5491 bdbd 4957 eb3e 97cd f13d
00000190: c0b9 b13d 7373 f1bc a57c f3bd 5fa1 403e
000001a0: ba15 47bd 4755 1cbe fe98 9cbd 4084 9cbe
000001b0: f597 c5be 43b3 903e 140c 4dbd b7c7 b43c
000001c0: 85f2 103e 7e22 873e bfe4 653e 0399 db3c
000001d0: 60c3 b7bd 5c22 863e b29e 23be b674 aa3d
000001e0: 40b2 a83e 7321 aabe e74c 60be f891 833e
000001f0: e5d9 3fbd eba1 8cbc 5ffe ae3e b330 68be
00000200: ad00 e63c 8700 b53d bce4 11be 359d 013e
00000210: b954 8b3d d298 cbbd 76d9 443a 38d7 87bd
00000220: b61e 9c3e 6e40 f33d 232d 4fbe c574 c7bd
00000230: 8408 d0bd 7fd2 a8bd e66a 85be f77d bb3b
00000240: 84de a03c c4d1 69be 1f2d af3e 3a4e 2f3e
00000250: 39a8 553d 7277 76be edc7 883e 2b05 d13d
00000260: 86c4 6a3e d416 c63d ba04 95bd 07b1 a3bd
00000270: 015b 27be bb1d 2dbe f639 6bbd 8156 5fbe
00000280: 9081 a23d c211 173c fdb1 11be cf92 b5bd
00000290: ec26 5a3e a1de 9dbe 16c2 0e3d 3529 263d
000002a0: 0f0f a33e be63 803d a353 85bd b06b 5dbd
000002b0: 9940 5b3d fb20 1d3e 3c30 cb3e ffd2 d73d
000002c0: 8055 1dbe 0d03 82be ade5 0cbe 3afa ba3c
000002d0: 1e73 62bd 71c8 9cbc 751d 1ebe e260 723e
000002e0: 1df4 a83b 4934 083e b4b9 e6bd ec0d 0cbd
000002f0: e9c3 a23e 1654 633d d4ab a63c 1338 273e
00000300: 7b64 d73e f3b7 8a3d a53e 1e3e d130 9e3c
00000310: 68be 893d 5758 10be 01ff 16bd 70ac 95be
00000320: ebd0 cd3e 5dfe 78bd 7167 c23c 5b58 f6bd
00000330: dbc1 693e 13db 3f3e d995 32bd c2dd e33e
00000340: 5236 173c e65e 87be 7cfa 6f3e 2681 003e
00000350: e21b 623e fd61 22be 8084 0bbd 2071 b73d
00000360: 99bb ebbc 29c5 44be 679b 8dbd ca77 0c3d
00000370: 2a4a 143e 56c5 5b3e 267b 173e b953 713e
00000380: f170 aabd ed29 3b3e 51c6 853d 9c2e 713e
00000390: 1108 993d a7aa 17be bf58 89be da2c 9a3d
000003a0: 5b94 1cbe 2664 b6be ad4c 92bc 9b9c 16be
000003b0: 4060 513e c83d 61bd 341f 283d 53f7 ecbd
000003c0: 0bfe 4a3d bafe 4a3c 1348 9fbe e28c 853e
000003d0: 0cb0 d73d dd21 4a3d 0e90 2bbd 744e 57be
000003e0: 0e98 4cbd 216a 80bd ef45 dbbd 7b32 9b3e
000003f0: b6cb e1bc 50f5 7ebc e1b4 673d 0e85 6b3e

network_body._body_endoder.seq_layers.0.bias f4 [256]
-0.029075466 -0.013430644 -0.116405696 0.0303236 -0.08687197 -0.022685468 -0.029871225 -0.051824022
-0.041161157 -0.021918615 -0.08832354 0.018609019 -0.011315369 0.017594012 -0.02621208 0.04795852
-0.031944867 -0.02968938 -0.0675802 -0.0200731 -0.01962837 0.022023648 -0.0077708154 -0.08890347
-0.067966394 -0.016195077 -0.026069716 -0.048245035 -0.044317298 -0.06739249 -0.06683619 0.07514779
-0.009266291 0.020713901 -0.0094448365 0.029759336 0.04435051 -0.02076879 -0.017336806 -0.06808758
0.0009044406 0.044902842 -0.018397972 -0.0364754 -0.1587388 -0.0057038646 0.0154187055 -0.019648489
0.02342771 0.09771486 -0.021966146 0.019737078 -0.013679389 -0.025512388 -0.06262353 -0.023907477
-0.04002979 -0.0273278 -0.06176176 -0.06845872 0.0040329993 0.044169556 0.0037227233 0.03113302
-0.02624661 -0.08959958 0.015416933 0.07874466 0.017770607 0.024802092 -0.11944071 0.017929731
-0.010304244 -0.016791712 -0.08487902 -0.06279813 -0.01590209 -0.0101865465 0.004524675 0.04462206
0.04196767 -0.030430602 -0.14518484 -0.040828805 0.035095677 -0.06597921 0.004119148 0.054705072
-0.049617164 -0.04144842 -0.06726091 -0.0014917947 0.07296795 -0.06574115 -0.020123024 -0.051592756
-0.037925605 0.014543282 -0.08234943 -0.033388786 -0.02659614 -0.04316018 -0.05552796 -0.04313777
-0.07769604 -0.076145366 -0.008106949 -0.0720106 -0.008860484 0.036998123 -0.009029619 -0.043333188
-0.052219633 -0.016729558 -0.07206874 0.014035317 -0.020987457 -0.014566923 -0.019849977 -0.069207095
0.042033613 -0.18289919 -0.077796705 0.005825943 -0.062016748 0.025641644 -5.180195e-05 -0.046054937
-0.033893578 -0.09634086 0.030625803 -0.038546402 0.0013709066 0.060734514 -0.01504224 0.028273547
-0.025832685 -0.019449504 -0.044570588 -0.019579606 -0.064979084 -0.05300162 -0.013940485 0.063175656
-0.021886133 -0.037589353 -0.09497231 -0.053139687 0.014895432 0.02724852 -0.058811855 -0.039401736
-0.028061694 0.0034578857 0.006755689 -0.018024532 -0.041839685 -0.0628119 -0.0100716045 0.009146917
-0.039028075 -0.047217123 -0.0050004167 -0.021379625 -0.058505688 0.01462052 0.008591549 -0.05712688
-0.10233118 -0.022880536 -0.054685436 -0.06269036 -0.09933177 -0.038646404 -0.09202271 -0.028889842
-0.032003127 -0.0377065 0.0059593986 -0.108173184 0.034953825 0.0061842725 0.025579887 -0.0843357
-0.029468106 -0.054880265 -0.071032695 -0.041897446 -0.019524034 -0.0070119384 0.009460651 0.020390596
-0.08215054 -0.037248053 0.040216196 -0.034852903 0.03123443 -0.050446495 0.026702022 -0.034067392
-0.024546197 -0.08588651 -0.02609296 -0.097389676 0.09293624 -0.07142288 -0.00036837262 0.011681429
0.011033148 -0.045380455 -0.026215138 -0.048421603 -0.03494837 -0.0147682335 0.02634302 -0.06749236
-0.102772355 -0.060578763 -0.03877312 -0.027578268 -0.06809513 -0.033842217 -9.8508586e-05 0.019511826
-0.08138404 -0.035191257 -0.09895987 -0.0042783595 -0.037070636 -0.031488422 -0.064179346 0.04524188
-0.044165477 -0.012632925 -0.075243935 -0.051639326 -0.041409884 -0.009095103 -0.031004926 0.023428697
-0.020704059 0.012385457 -0.05783721 0.021469932 -0.020033192 -0.0079792645 -0.04674588 -0.0016735225
-0.0869256 -0.007138798 -0.04728544 -0.1032867 -0.050975397 -0.06762371 -0.02287504 0.016834678
00000000: ac2f eebc 340c 5cbc 1c66 eebd 3369 f83c
00000010: eee9 b1bd e0d6 b9bc 80b4 f4bc 6d45 54bd
00000020: 9a98 28bd ab8e b3bc f9e2 b4bd f171 983c
00000030: 1964 39bc 5121 903c b7ba d6bc 2770 443d
00000040: 9fd8 02bd 2537 f3bc 7d67 8abd 5870 a4bc
00000050: adcb a0bc f06a b43c 53a2 febb 0613 b6bd
00000060: f731 8bbd 8aab 84bc 2890 d5bc 969c 45bd
00000070: 0e86 35bd 1305 8abd 6ae1 88bd 16e7 993d
00000080: a4d1 17bc 33b0 a93c 84be 1abc dac9 f33c
00000090: e1a8 353d 4f23 aabc eb05 8ebc 8071 8bbd
000000a0: fb17 6d3a 0bec 373d 58b7 96bc 3b67 15bd
000000b0: 6d8c 22be 7ce7 babb bd9e 7c3c def5 a0bc
000000c0: 78eb bf3c bb1e c83d 59f2 b3bc a7af a13c
000000d0: 841f 60bc 5bff d0bc c440 80bd 9dd9 c3bc
000000e0: 47f6 23bd 8dde dfbc e6f9 7cbd 1634 8cbd
000000f0: 4027 843b 23eb 343d eff8 733b ad0a ff3c
00000100: 2103 d7bc fc7f b7bd 4e97 7c3c e144 a13d
00000110: aa93 913c c22d cb3c 559d f4bd 5fe1 923c
00000120: 22d3 28bc c68e 89bc 0dd5 adbd 4e9c 80bd
00000130: 1a45 82bc 79e5 26bc ba43 943b 9fc5 363d
00000140: 4be6 2b3d 9949 f9bc 56ab 14be 1b3c 27bd
00000150: 7cc0 0f3d 1c20 87bd ebf9 863b 6d12 603d
00000160: 5e3b 4bbd d2c5 29bd 17c0 89bd 5388 c3ba
00000170: 3870 953d 4ca3 86bd 0ad9 a4bc ed52 53bd
00000180: e157 1bbd f246 6e3c d1a6 a8bd aec2 08bd
00000190: 26e0 d9bc bbc8 30bd 4971 63bd 3bb1 30bd
000001a0: 1a1f 9fbd 1af2 9bbd 02d3 04bc 4b7a 93bd
000001b0: 902b 11bc 588b 173d f8f0 13bc 247e 31bd
000001c0: 41e4 55bd 6d0c 89bc c798 93bd 63f4 653c
000001d0: e3ed abbc 1aaa 6ebc 6b9c a2bc 73bc 8dbd
000001e0: 702b 2c3d ed49 3bbe e153 9fbd 8de7 be3b
000001f0: 4605 7ebd 6d0e d23c ec45 59b8 1aa4 3cbd
00000200: fed3 0abd 5b4e c5bd f7e2 fa3c d5e2 1dbd
00000210: feaf b33a c1c4 783d ba73 76bc ed9d e73c
00000220: 119f d3bc 9154 9fbc a68f 36bd 6965 a0bc
00000230: c113 85bd 3a18 59bd a266 64bc 3d62 813d
00000240: 8c4a b3bc 4bf7 19bd d880 c2bd 00a9 59bd
00000250: f80b 743c 4a38 df3c b3e4 70bd b763 21bd
00000260: a3e1 e5bc b29d 623b d45e dd3b 2fa8 93bc
00000270: 1760 2bbd 87a3 80bd 5f03 25bc f3dc 153c
00000280: e7db 1fbd be66 41bd 89da a3bb 5324 afbc
00000290: a9a3 6fbd e88a 6f3c 91c3 0c3c e0fd 69bd
000002a0: 0293 d1bd f66f bbbc d6fd 5fbd ce63 80bd
000002b0: 746e cbbd b14b 1ebd 6776 bcbd 64aa ecbc
000002c0: b615 03bd 2272 1abd 0f47 c33b e789 ddbd
000002d0: be2b 0f3d 70a5 ca3b e98c d13c 32b8 acbd
000002e0: 1967 f1bc 21ca 60bd 9779 91bd a89c 2bbd
000002f0: def0 9fbc 67c4 e5bb d900 1b3c 2e0a a73c
00000300: 8b3e a8bd 6a91 18bd bdb9 243d ebc1 0ebd
00000310: 59df ff3c fca0 4ebd 33be da3c 408a 0bbd
00000320: 1b15 c9bc 44e5 afbd e7c0 d5bc 3d74 c7bd
00000330: 5b55 be3d 2946 92bd 2322 c1b9 7763 3f3c
00000340: 60c4 343c dbe0 39bd 21c1 d6bc bb55 46bd
00000350: 0626 0fbd 76f6 71bc 51cd d73c 6f39 8abd
00000360: 507a d2bd 7021 78bd 90d0 1ebd d2eb e1bc
00000370: 7675 8bbd 239e 0abd 6596 ceb8 44d7 9f3c
00000380: adac a6bd b524 10bd 79ab cabd 7b31 8cbb
00000390: 61d7 17bd 01fa 00bd 7670 83bd 8d4f 393d
000003a0: dce6 34bd 54fa 4ebc 7e19 9abd c283 53bd
000003b0: 699d 29bd a003 15bc 0bfe fdbc 8aed bf3c
000003c0: 8f9b a9bc 5fec 4a3c b6e6 6cbd b6e1 af3c
000003d0: a61c a4bc 76bb 02bc 9c78 3fbd 195a dbba
000003e0: 0d06 b2bd 94ec e9bb 61ae 41bd fa87 d3bd
000003f0: 94cb 50bd 4d7e 8abd 7064 bbbc e1e8 893c

network_body._body_endoder.seq_layers.2.weight f4 [256, 256]
0.040603537 0.055015452 -0.0015473368 -0.03780988 0.006540032 -0.05944683 -0.0048795897 0.057080805
-0.0004805171 -0.07483366 -0.018288264 -0.107246496 0.017352115 0.053028602 -0.10391061 -0.18597287
0.012908287 0.05839119 -0.043861132 -0.033783272 -0.15774964 -0.041145567 0.017990882 0.009753412
-0.058379404 -0.16630642 -0.046522807 -0.03629635 0.006001249 -0.053662192 0.022682777 -0.02439135
0.045085993 -0.14543128 0.07616858 0.0075324965 -0.011833048 -0.31937248 -0.058150493 0.054769933
0.038122986 -0.08011357 -0.03334106 0.024998054 0.0520625 -0.06302037 0.038865436 -0.026424665
-0.04863933 -0.14269997 -0.09057796 0.029682234 0.028245026 0.030389095 -0.096861124 -0.04931003
-0.06513525 0.15459906 -0.00040273974 -0.096023835 -0.033076968 0.06727028 -0.010166979 -0.013493529
0.010216514 -0.11186863 -0.03140471 0.02100136 0.012866569 -0.01416099 -0.06625616 -0.032379713
-0.019982934 0.049846534 0.057989225 -0.07537478 0.07411635 -0.086043105 -0.051518705 -0.085079536
-0.05433186 0.04295182 0.11978896 0.020479137 0.09209549 -0.010303875 0.05703238 0.052280564
-0.11809194 -0.09580651 0.0050446237 -0.032282338 -0.09290119 -0.01713483 0.04319598 -0.13186705
-0.100574136 0.03478696 -0.10813027 -0.08350868 0.047097355 -0.101416826 0.022150492 -0.04207652
0.068301015 -0.008851279 0.024195801 -0.037703756 0.0025647543 -0.29568273 -0.14439371 0.013120856
-0.01682244 -0.0076106214 -0.13447596 -0.04478155 -0.0253709 -0.031328123 0.0063769165 -0.004108432
-0.22337264 -0.038548335 -0.12742306 0.056141447 -0.0017281806 -0.04760809 -0.17133845 0.022935601
-0.11379015 0.08609169 -0.027684325 -0.068442516 -0.0066140927 -0.12617706 0.036502212 0.028737158
-0.12108932 -0.05788635 -0.078658625 0.08132291 -0.027297799 -0.036819734 0.011412203 -0.07988668
0.10138912 -0.06737359 -0.053175356 0.03418421 -0.052331343 -0.047887824 0.16571037 -0.066016264
0.040960986 -0.090175 -0.07016039 -0.085705034 -0.01616105 0.07974638 -0.052533854 0.0034378355
0.024338428 0.016213605 -0.0028888953 0.033824246 0.055806596 -0.03768483 -0.08431788 0.099290796
-0.03544746 -0.016835496 0.010565679 0.0020230575 -0.0021954607 -0.06219098 0.03545386 -0.08251553
-0.20900007 -0.14777218 0.05791993 0.01951487 -0.14991753 -0.16469482 0.09428952 -0.018374395
-0.05273088 -0.018366352 0.00695663 -0.12012981 0.022229968 0.092642434 -0.08808074 -0.1458148
-0.06829477 -0.072743595 -0.079115815 -0.079782754 0.06591291 0.1022545 -0.10039535 -0.046119772
0.06390545 0.0042783613 0.058251932 -0.013396648 -0.08315597 0.069919325 0.014175199 -0.093048245
-0.082071684 0.06285249 -0.10482402 0.055658713 0.021501075 -0.06697858 -0.17703009 0.052278884
-0.074254334 0.010718803 -0.12103858 -0.03924587 0.14257082 0.1765637 -0.039449494 -0.06958802
0.08947626 -0.03295902 -0.06198693 -0.09359458 -0.022981497 -0.038672097 -0.067704976 -0.22598249
0.0677089 -0.12041397 -0.061114244 -0.083090395 -0.10522582 -0.063640736 0.08296267 -0.118721545
0.0065986193 0.04863843 0.13548924 -0.07013798 -0.092188984 0.053004216 0.044709083 -0.09171822
0.0034680155 0.09295938 0.175795 -0.024673445 0.04664525 0.023439517 -0.18064852 0.00767542
00000000: e54f 263d e257 613d 02d0 caba 88de 1abd
00000010: c44d d63b 857e 73bd f7e4 9fbb 90cd 693d
00000020: eaed fbb9 6442 99bd 45d1 95bc 0da4 dbbd
00000030: 0626 8e3c 8534 593d 16cf d4bd ac6f 3ebe
00000040: 487d 533c 9a2b 6f3d bba7 33bd 5460 0abd
00000050: 1f89 21be 4188 28bd 9d61 933c c6cc 1f3c
00000060: 3e1f 6fbd 3b4c 2abe b38e 3ebd 7bab 14bd
00000070: 20a6 c43b e3cc 5bbd 3bd1 b93c 5ed0 c7bc
00000080: 17ac 383d f0eb 14be 46fe 9b3d 29d3 f63b
00000090: 67df 41bc ca84 a3be 362f 6ebd 7056 603d
000000a0: d926 1c3d 9512 a4bd a390 08bd b8c8 cc3c
000000b0: 7d3f 553d d310 81bd 5d31 1f3d 8a78 d8bc
000000c0: 093a 47bd f11f 12be f080 b9bd 2828 f33c
000000d0: 1d62 e73c 8df2 f83c 205f c6bd 50f9 49bd
000000e0: a165 85bd 374f 1e3e d026 d3b9 25a8 c4bd
000000f0: b77b 07bd 00c5 893d 6793 26bc f613 5dbc
00000100: 2a63 273c 611b e5bd 3aa2 00bd 0b0b ac3c
00000110: 4dce 523c 7f03 68bc 4fb1 87bd 97a0 04bd
00000120: 40b3 a3bc e12b 4c3d 1c86 6d3d 185e 9abd
00000130: 50ca 973d 5e37 b0bd 4705 53bd 2e3e aebd
00000140: 168b 5ebd 3fee 2f3d ea53 f53d ddc3 a73c
00000150: 8f9c bc3d 96d1 28bc c99a 693d 2524 563d
00000160: 30da f1bd 3436 c4bd 5f4d a53b 7c3a 04bd
00000170: fb42 bebd 585e 8cbc 45ee 303d 2808 07be
00000180: d0f9 cdbd c57c 0e3d 6773 ddbd 9906 abbd
00000190: 28e9 403d a0b3 cfbd f374 b53c 6e58 2cbd
000001a0: 67e1 8b3d f404 11bc 4636 c63c 416f 1abd
000001b0: 7015 283b ba63 97be f2db 13be dcf8 563c
000001c0: 37cf 89bc 8562 f9bb 11b4 09be dc6c 37bd
000001d0: a2d6 cfbc eb51 00bd 74f5 d03b 07a0 86bb
000001e0: ccbb 64be dce4 1dbd 317b 02be 93f4 653d
000001f0: 1e84 e2ba b300 43bd 5973 2fbe 71e3 bb3c
00000200: cf0a e9bd d750 b03d 3dca e2bc 972b 8cbd
00000210: 08bb d8bb 8f34 01be 5883 153d 306a eb3c
00000220: adfd f7bd 3d1a 6dbd c617 a1bd a08c a63d
00000230: a29f dfbc 4ad0 16bd 40fa 3a3c a19b a3bd
00000240: 19a5 cf3d 2afb 89bd 67ce 59bd be04 0c3d
00000250: 6459 56bd 0626 44bd fbaf 293e 8933 87bd
00000260: b5c6 273d acad b8bd 40b0 8fbd 1f86 afbd
00000270: 2e64 84bc 1252 a33d bd2d 57bd 4f4d 613b
00000280: 6261 c73c 65d2 843c 9f53 3dbb 4b8b 0a3d
00000290: 7595 643d 695b 1abd daae acbd f958 cb3d
000002a0: 5b31 11bd 98ea 89bc ab1b 2d3c 4695 043b
000002b0: b8e1 0fbb f8bb 7ebd 1138 113d e7fd a8bd
000002c0: 1d04 56be 9751 17be 733d 6d3d a6dd 9f3c
000002d0: fb83 19be c2a5 28be dd1a c13d e685 96bc
000002e0: 56fc 57bd 0875 96bc 71f4 e33b 9e06 f6bd
000002f0: 9f1b b63c 51bb bd3d ad63 b4bd 7a50 15be
00000300: 21de 8bbd 98fa 94bd 7907 a2bd 2465 a3bd
00000310: 59fd 863d cf6a d13d 149c cdbd 16e8 3cbd
00000320: dce0 823d 7f31 8c3b 9499 6e3d 9d7d 5bbc
00000330: ad4d aabd dd31 8f3d 183f 683c 1490 bebd
00000340: 3315 a8bd ceb8 803d faad d6bd 64fa 633d
00000350: 0623 b03c 112c 89bd 6047 35be 6222 563d
00000360: a812 98bd eb9d 2f3c 13e3 f7bd 47c0 20bd
00000370: 16fe 113e 1dcd 343e cb95 21bd 2a84 8ebd
00000380: 543f b73d 0a00 07bd 02e6 7dbd 84ae bfbd
00000390: b143 bcbc a266 1ebd e8a8 8abd f467 67be
000003a0: f7aa 8a3d 999b f6bd ee52 7abd 4c2b aabd
000003b0: a280 d7bd 1356 82bd 55e8 a93d 4824 f3bd
000003c0: 3b39 d83b 1739 473d b1bd 0a3e 80a4 8fbd
000003d0: 94cd bcbd f31a 593d df20 373d c3d6 bbbd
000003e0: a547 633b 7d61 be3d 9b03 343e f71f cabc
000003f0: 170f 3f3d 3b04 c03c edfb 38be 1782 fb3b

network_body._body_endoder.seq_layers.2.bias f4 [256]
-0.091703355 -0.021721784 0.018970456 0.06479482 -0.04058618 -0.090807036 -0.0335775 -0.04910781
-0.0030884645 -0.09145831 0.07099423 -0.05713755 0.021127021 -0.032913096 -0.083726816 -0.06491489
0.027458942 -0.06872119 -0.05406558 -0.042239618 -0.08632033 -0.045366585 -0.0045352634 -0.081595354
-0.05763088 -0.02188165 -0.042788565 -0.035655726 -0.021986522 -0.09750859 0.011703817 -0.068407625
-0.064395905 -0.020552402 -0.0585391 -0.069142275 -0.027307754 -0.055190578 -0.052744567 -0.030793402
-0.054921683 -0.10474534 -0.03689391 -0.056030992 -0.0014888484 -0.105932765 -0.065400064 -0.099450156
-0.07621101 -0.006427677 0.037384436 -0.014834637 0.006708647 0.0051414515 -0.022735074 -0.041876815
-0.06546805 -0.037317038 -0.045289677 -0.053809147 -0.01441323 -0.029188083 0.019391976 0.035286807
-0.034164574 -0.019471036 0.046355147 -0.012369299 -0.05369438 -0.013574973 -0.014220228 -0.027435144
-0.039613906 -0.06792953 -0.030059762 -0.10617515 0.008350475 -0.016872734 -0.10310411 -0.04458011
-0.053723365 -0.07023248 -0.034280755 -0.011118283 -0.07380784 -0.036634855 0.020362627 -0.065830745
-0.012138309 -0.061819043 0.07666849 -0.038450394 -0.034304753 -0.041038226 -0.00022363034 -0.020936882
-0.016786074 -0.006623151 -0.040230643 -0.02733316 -0.02346553 -0.018793544 0.004748913 -0.041591357
-0.019012917 -0.09564903 -0.06320689 0.0059723984 0.021424694 -0.008423341 -0.030978289 -0.03441993
-0.010662636 0.03654971 -0.03548709 0.05250809 -0.051619593 -0.016784642 -0.048974786 -0.024357421
-0.062225427 -0.041296013 -0.081045285 -0.024894157 -0.007506362 -0.05641577 0.026057443 -0.048149176
-0.0029079395 0.038950875 -0.0065698912 -0.05296869 -0.026837926 -0.033162974 0.042781983 -0.03534676
0.019939097 -0.029256664 -0.047239263 -0.05274434 -0.041618064 -0.0382211 -0.053557366 -0.03980287
-0.0279942 -0.08722673 0.02291632 -0.034644764 -0.007782274 -0.015222182 -0.041522536 -0.085473396
-0.051626883 -0.13467203 -0.07781775 -0.0021729947 -0.097888306 0.006706802 -0.047768716 -0.036013182
-0.029087428 -0.07320807 -0.064894475 -0.057155248 -0.052215904 -0.024148189 -0.033055726 -0.081049204
-0.08048751 0.0010283536 -0.059774496 -0.014270332 0.007432246 -0.046434224 -0.007197336 -0.048867512
-0.04343997 -0.023469277 -0.037814964 -0.07724434 -0.033725206 -0.03390465 -0.07382332 -0.10210437
-0.026355334 0.052420262 -0.07180066 -0.016667627 -0.046964202 -0.0109506175 -0.05488541 -0.09281469
-0.061270203 -0.023389984 -0.003690506 -0.10215882 -0.041523535 -0.015714476 0.01125926 -0.034667328
0.004024733 0.017056191 -0.006408023 -0.057472188 -0.09809265 -0.037745174 -0.029633362 -0.059362955
-0.037751302 -0.049840476 -0.074645974 -0.078575484 -0.05386442 -0.017904805 -0.07582663 -0.032921977
-0.030904718 -0.07125329 0.007980979 -0.006645702 -0.008314445 -0.0895073 -0.03484179 -0.021279348
-0.022575844 -0.068994105 -0.020409228 0.01893591 0.01792763 -0.01626575 -0.071741804 0.049614444
-0.10006405 -0.023397934 -0.06986114 -0.053357165 -0.008403487 -0.05195064 -0.026505278 -0.05900695
-0.048147194 -0.030042721 -0.084061876 -0.06457706 -0.009315678 -0.030957052 0.0013317403 -0.08072833
-0.013941075 -0.0120848 -0.036114212 -0.064844 -0.055975534 -0.07518357 -0.091856495 -0.03978763
00000000: f8ce bbbd e2f1 b1bc ee67 9b3c 26b3 843d
00000010: b23d 26bd 0af9 b9bd 9088 09bd 4525 49bd
00000020: d667 4abb 7f4e bbbd 6c65 913d 1009 6abd
00000030: 9312 ad3c e2cf 06bd f778 abbd 19f2 84bd
00000040: 93f1 e03c b2bd 8cbd df73 5dbd 7303 2dbd
00000050: b7c8 b0bd 50d2 39bd 8c9c 94bb 771b a7bd
00000060: 5c0e 6cbd 2541 b3bc 1043 2fbd bd0b 12bd
00000070: 141d b4bc 95b2 c7bd 5ec1 3f3c 4c19 8cbd
00000080: 00e2 83bd 835d a8bc b2c6 6fbd 779a 8dbd
00000090: 83b4 dfbc 840f 62bd b00a 58bd 7242 fcbc
000000a0: 8ff5 60bd ba84 d6bd 121e 17bd c180 65bd
000000b0: 7625 c3ba 47f3 d8bd 78f0 85bd 86ac cbbd
000000c0: 8514 9cbd 439f d2bb 6c20 193d fa0c 73bc
000000d0: 36d4 db3b 9f79 a83b e83e babc 0687 2bbd
000000e0: 1d14 86bd c0d9 18bd ab81 39bd fb66 5cbd
000000f0: 7825 6cbc d91b efbc ecdb 9e3c e688 103d
00000100: 27f0 0bbd b981 9fbc e5de 3d3d 9aa8 4abc
00000110: a3ee 5bbd 9069 5ebc f6fb 68bc abbf e0bc
00000120: 3142 22bd a31e 8bbd e43f f6bc 5b72 d9bd
00000130: 6ed0 083c b038 8abc 3f28 d3bd a299 36bd
00000140: 080d 5cbd 0cd6 8fbd fa69 0cbd 7529 36bc
00000150: 9128 97bd 6e0e 16bd 86cf a63c 45d2 86bd
00000160: c2df 46bc f735 7dbd 5f04 9d3d 297e 1dbd
00000170: 2483 0cbd b317 28bd 507e 6ab9 d383 abbc
00000180: f382 89bc 0407 d9bb e3c8 24bd cbe9 dfbc
00000190: c83a c0bc ebf4 99bc c59c 9b3b b35b 2abd
000001a0: fac0 9bbc a3e3 c3bd 9d72 81bd 1cb4 c33b
000001b0: d782 af3c 0e02 0abc 2ec6 fdbc eafb 0cbd
000001c0: 56b2 2ebc 26b5 153d e95a 11bd b912 573d
000001d0: 116f 53bd f27f 89bc c999 48bd 3789 c7bc
000001e0: 17e0 7ebd 0226 29bd 12fb a5bd d5ee cbbc
000001f0: eef7 f5bb 3914 67bd 6b76 d53c 1238 45bd
00000200: 2193 3ebb f48a 1f3d 3e48 d7bb b2f5 58bd
00000210: 36db dbbc e6d5 07bd 293c 2f3d c4c7 10bd
00000220: 5157 a33c acab efbc f57d 41bd 730a 58bd
00000230: b477 2abd ba8d 1cbd f85e 5bbd 5608 23bd
00000240: 1854 e5bc eea3 b2bd 02bb bb3c abe7 0dbd
00000250: 7202 ffbb 7566 79bc 8913 2abd ad0c afbd
00000260: b676 53bd 77e7 09be ea5e 9fbd cd68 0ebb
00000270: aa79 c8bd bcc4 db3b 21a9 43bd 8f82 13bd
00000280: c248 eebc 1dee 95bd 65e7 84bd 9f1b 6abd
00000290: 58e0 55bd 6cd2 c5bc 7165 07bd 20fd a5bd
000002a0: a3d6 a4bd d2c9 863a 1ad6 74bd 1cce 69bc
000002b0: 338a f33b d031 3ebd a1d7 ebbb 4d29 48bd
000002c0: 1cee 31bd a442 c0bc dde3 1abd 4832 9ebd
000002d0: 7123 0abd 9adf 0abd ae30 97bd 191c d1bd
000002e0: 24e7 d7bc a1b6 563d 390c 93bd 8c8a 88bc
000002f0: 895d 40bd 386a 33bc 86cf 60bd a115 bebd
00000300: 77f6 7abd 5a9c bfbc 6bdc 71bb a538 d1bd
00000310: 9514 2abd a5bb 80bc c278 383c 54ff 0dbd
00000320: e8e1 833b 6db9 8b3c 65fa d1bb f567 6bbd
00000330: cde4 c8bd af9a 1abd aac1 f2bc 9226 73bd
00000340: 1ca1 1abd 8725 4cbd fddf 98bd 2fec a0bd
00000350: f0a0 5cbd 19ad 92bc fe4a 9bbd 32d9 06bd
00000360: e42b fdbc 3fed 91bd a7c2 023c 30c4 d9bb
00000370: 4f39 08bc 9a4f b7bd 44b6 0ebd 0752 aebc
00000380: faf0 b8bc c84c 8dbd 4131 a7bc 7b1f 9b3c
00000390: f7dc 923c c03f 85bc 5eed 92bd 8438 4b3d
000003a0: 61ee ccbd 06ad bfbc 5b13 8fbd 0b8d 5abd
000003b0: c7ae 09bc 32ca 54bd 9921 d9bc 46b1 71bd
000003c0: fe35 45bd 271c f6bc a228 acbd fa40 84bd
000003d0: c9a0 18bc a599 fdbc ca8d ae3a e554 a5bd
000003e0: 1b69 64bc 53ff 45bc 7fec 13bd eecc 84bd
000003f0: 9a46 65bd d8f9 99bd 421f bcbd 5bf8 22bd

action_model._continuous_distribution.log_sigma f4 [1, 2]
-0.74411863 -0.3405753
00000000: 8f7e 3ebf e35f aebe

action_model._continuous_distribution.mu.weight f4 [2, 256]
-0.02618318 0.05518476 0.033887934 -0.030443138 0.0016685164 -0.019699229 -0.0033989209 -0.057917085
-0.035173375 0.0102037415 0.02153139 -0.012975068 0.043876894 -0.09230321 -0.00032442942 0.0034225106
0.03667029 0.044384304 -0.06801098 0.013534935 0.007401067 -0.021457952 -0.00043419554 -0.07783438
-0.04649471 0.044525288 -0.003499493 0.06833967 -0.004135174 0.012327883 0.00095112267 -0.011188763
-0.006856125 -0.0035109115 -0.020918265 -0.006340842 0.07470385 -0.03195282 -0.055505097 -0.00045589215
0.004509399 -0.012320105 0.004863638 -0.040991 0.068221755 0.0046144407 0.05259495 -0.05106349
0.0059812176 -0.01723602 -0.07085882 -0.16533233 0.018551866 -0.047374494 0.025299316 -0.04036539
-0.014916523 0.0217867 -0.00046037257 0.07133479 -0.06423732 0.0018941235 0.008068345 -0.028884307
0.05635976 0.0016293356 0.04929292 0.019917788 0.0072844294 0.0067840484 0.05086597 -0.09019397
-0.00064324983 -0.017376598 0.002113073 -0.012930786 0.06382537 -0.018723259 -0.04661403 0.07569117
-0.050395716 -0.0639735 0.0519634 -0.12636949 0.07250468 0.028661704 -0.036197748 -0.023522185
0.0044885483 0.019040551 -0.018042862 0.00068798655 -0.07515666 -0.102138914 0.018690083 -0.010234391
0.005352515 0.0015288708 -0.080576986 -0.032618783 -0.0017634758 0.049431007 -0.026788551 -0.052817047
-0.0017844898 -0.015326916 0.0067993784 0.0074230004 -0.04191037 -0.0014077873 -0.0287342 -0.10387656
0.10643637 -0.041027147 -0.025625376 -0.009674724 -0.016015632 0.0009557796 -0.022814967 0.0065616844
-0.0223856 -0.038861655 -0.015969276 -0.0084982375 0.00032750025 -0.0503891 -0.08725152 0.026675131
-0.002320813 0.018578889 0.004489787 0.013805322 0.0021326863 0.011398714 -0.015201217 -0.058104303
-0.109704316 0.033604335 -0.028197212 -0.05857765 0.07712701 -0.10038686 0.034768842 -0.02195718
0.0142543195 -0.03824219 0.0010582843 -0.07592345 0.0028973971 0.0006613264 0.0054276017 0.019262955
0.05017378 -0.01812935 -0.027086731 -0.0016330978 0.0011912329 -0.0010876075 0.044661827 0.03859305
0.005676297 0.063599735 0.054197945 0.064345814 -0.034027863 0.06834328 -0.043827742 -0.035369046
-0.008307989 0.119525135 -0.024330338 -0.0027389736 -0.12993786 -0.0061097383 -0.08209609 -0.06614793
-0.027723799 0.0013301888 0.0138352895 0.0032477223 -0.0013300024 0.029307557 0.029913533 -0.016066093
-0.001474576 -0.05176897 -0.053644214 -0.016448453 -0.01752493 0.009541207 -0.10310451 0.0160015
-0.05364399 -0.030055586 0.02026632 0.00038299878 -0.07729625 -0.048627272 0.056549516 0.082171835
-0.0013089704 0.0032941024 0.00017521832 0.029879522 -0.05769297 0.044621263 0.0061308406 0.038349636
-0.026277002 -0.01571228 -0.033826247 -0.008577531 -0.014205885 -0.08641656 -0.06173369 0.0015572624
-0.043417893 0.00020723061 0.022238106 -0.03145714 0.0010044707 -0.022681871 0.023752596 0.010911461
-0.048102107 -0.038262513 0.0024598725 0.10129613 0.001679485 -0.054610826 -0.0040498967 0.038380224
-0.03571634 -0.010102613 -0.05745319 0.031069098 0.002611044 0.0025159412 0.104972735 -0.06474677
-0.041479934 0.019618282 -0.014552058 0.10245554 -0.0006448024 -0.071384914 0.00074017496 0.0024485877
0.08745806 -0.04721302 0.061429985 -0.009323408 0.009121958 -0.0073628416 0.03042798 -0.00743681
00000000: 1c7e d6bc 6a09 623d 13ce 0a3d e363 f9bc
00000010: 1fb2 da3a 4760 a1bc 6ec0 5ebb 773a 6dbd
00000020: f511 10bd 982d 273c 9962 b03c 6195 54bc
00000030: 42b8 333d 7709 bdbd 2e18 aab9 334c 603b
00000040: 9633 163d 51cc 353d 5749 8bbd a2c1 5d3c
00000050: a684 f23b 96c8 afbc bda4 e3b9 a267 9fbd
00000060: 3d71 3ebd 2660 363d c057 65bb abf5 8b3d
00000070: 5b80 87bb e4fa 493c c354 793a 1351 37bc
00000080: 58a9 e0bb 5217 66bb c85c abbc d7c6 cfbb
00000090: 55fe 983d f6e0 02bd 5059 63bd cf04 efb9
000000a0: 95c3 933b 44da 49bc 275f 9f3b 2ee6 27bd
000000b0: d9b7 8b3d bc34 973b cd6d 573d f327 51bd
000000c0: 17fe c33b 8e32 8dbc 6e1e 91bd e14c 29be
000000d0: 15fa 973c c20b 42bd 8340 cf3c 2e56 25bd
000000e0: 6f64 74bc 057a b23c 295e f1b9 f917 923d
000000f0: db8e 83bd 3d44 f83a 1731 043c c89e ecbc
00000100: 7ed9 663d 6e8f d53a 5fe7 493d a12a a33c
00000110: 39b2 ee3b b94c de3b d658 503d 9eb7 b8bd
00000120: c49f 28ba 5e59 8ebc 7b7b 0a3b a6db 53bc
00000130: e0b6 823d 8561 99bc 5aee 3ebd f903 9b3d
00000140: bd6b 4ebd 8a04 83bd 93d7 543d 0167 01be
00000150: 557d 943d f3cb ea3c 1744 14bd 99b1 c0bc
00000160: ac14 933b eefa 9b3c a0ce 93bc ff59 343a
00000170: bceb 99bd 352e d1bd f21b 993c 26ae 27bc
00000180: 2664 af3b 6464 c83a 8c05 a5bd 469b 05bd
00000190: 6e24 e7ba 2b78 4a3d aa73 dbbc b056 58bd
000001a0: 8be5 e9ba bf1d 7bbc 52cd de3b a43c f33b
000001b0: 35aa 2bbd 8185 b8ba fc63 ebbc 3cbd d4bd
000001c0: 50fb d93d 150c 28bd 4fec d1bc bc82 1ebc
000001d0: 3733 83bc 488d 7a3a 74e6 babc 6603 d73b
000001e0: 0162 b7bc 662d 1fbd 00d2 82bc 313c 0bbc
000001f0: 57b4 ab39 cd64 4ebd edb0 b2bd ce85 da3c
00000200: c818 18bb c132 983c 101f 933b b82f 623c
00000210: 8ac4 0b3b acc1 3a3c 860e 79bc c7fe 6dbd
00000220: a8ac e0bd b3a4 093d d7fd e6bc 1eef 6fbd
00000230: c4f4 9d3d a097 cdbd c669 0e3d 8bdf b3bc
00000240: f38a 693c d8a3 1cbd 21b6 8a3a c17d 9bbd
00000250: 42e2 3d3b dd5c 2d3a 06da b13b 58cd 9d3c
00000260: 0683 4d3d 0184 94bc fee4 ddbc ab0d d6ba
00000270: 2523 9c3a 0d8e 8eba 52ef 363d bf13 1e3d
00000280: 3b00 ba3b 9440 823d aafe 5d3d bdc7 833d
00000290: cd60 0bbd 90f7 8b3d b884 33bd 22df 10bd
000002a0: 3b1e 08bc 98c9 f43d 6b50 c7bc 5a80 33bb
000002b0: 6e0e 05be 3334 c8bb ff21 a8bd 9178 87bd
000002c0: 051d e3bc bb59 ae3a 69ad 623c bdd7 543b
000002d0: 7a53 aeba 6716 f03c 3a0d f53c 0a9d 83bc
000002e0: 8f46 c1ba b30b 54bd 09ba 5bbd e8be 86bc
000002f0: 7190 8fbc b952 1c3c 7528 d3bd 9415 833c
00000300: cdb9 5bbd 2237 f6bc 8e05 a63c 3acd c839
00000310: 7f4d 9ebd 642d 47bd 77a0 673d b549 a83d
00000320: c291 abba dee1 573b cfba 3739 e6c5 f43c
00000330: 774f 6cbd c9c4 363d 38e5 c83b 8214 1d3d
00000340: de42 d7bc 0ab7 80bc 648d 0abd c688 0cbc
00000350: cdbf 68bc 2afb b0bd 77dc 7cbd 0e1d cc3a
00000360: f6d6 31bd 0b4c 5939 b02c b63c 34d9 00bd
00000370: 72a8 833a 55cf b9bc ce94 c23c fcc5 323c
00000380: b706 45bd 27b9 1cbd d035 213b 5874 cf3d
00000390: 2a22 dc3a 9aaf 5fbd ffb4 84bb 9534 1d3d
000003a0: 4c4b 12bd 6e85 25bc 0954 6bbd 9f84 fe3c
000003b0: 0d1e 2b3b 7de2 243b f2fb d63d f499 84bd
000003c0: dde6 29bd 85b6 a03c c16b 6ebc 36d4 d13d
000003d0: f507 29ba 4132 92bd 4d08 423a 7c78 203b
000003e0: 361d b33d 7162 41bd 029e 7b3d 35c1 18bc
000003f0: 4474 153c fe43 f1bb 1944 f93c 7cb0 f3bb

action_model._continuous_distribution.mu.bias f4 [2]
-0.00068577635 -0.08781562
00000000: acc5 33ba add8 b3bd

onnx::Div_71 f4 [20]
0.49968392 0.49934357 0.17282347 0.22817495 0.4586247 0.42570162 0.047826096 0.1563561
0.42241862 0.38762358 0.054695994 0.15189332 0.47809747 0.4494532 0.07559125 0.1562217
0.46561784 0.4364457 0.04643579 0.1691382
00000000: 92d6 ff3e f6a9 ff3e a3f8 303e b2a6 693e
00000010: dbd0 ea3e 90f5 d93e 4ce5 433d d01b 203e
00000020: 4147 d83e 9976 c63e e808 603d ec89 1b3e
00000030: 31c9 f43e bb1e e63e 96cf 9a3d 95f8 1f3e
00000040: 7665 ee3e d075 df3e 7433 3e3d 9032 2d3e

onnx::Div_74 f4 [12]
0.44645125 0.49946132 0.3756992 0.3535159 0.4432647 0.49858958 0.3660279 0.34493867
0.45030162 0.49997783 0.3856786 0.36246666
00000000: 4295 e43e 65b9 ff3e a55b c03e 0900 b53e
00000010: 97f3 e23e 2247 ff3e 0268 bb3e cd9b b03e
00000020: ef8d e63e 18fd ff3e aa77 c53e 3b95 b93e

onnx::Div_77 f4 [3]
0.63334316 0.040783104 0.77900076
00000000: c722 223f 2f0c 273d 986c 473f
