Experimentos/results/ppo8/KartAgent/KartAgent-73636.onnx (onnx, 309439 bytes, 13 tensors)

network_body.observation_encoder.processors.0.normalizer.running_mean f4 [20]
00000000: 97ff fb3e b329 0f3e 754e 783b 305c bc3d
00000010: 5217 dc3e fc64 5a3e 8072 b63b 8f38 163e
00000020: 84e8 df3e 1884 573e ddf5 133c bc9a 143e
00000030: dbf7 683e 30b4 e83e 6fb9 623c 93e6 943e
00000040: 89ef 593e 895c f23e 5ccd 473c 2933 903e
0.49218437 0.1398075 0.003788856 0.09197271 0.42986542 0.21327585 0.0055678487 0.14670013
0.43732083 0.21046484 0.009030786 0.14512151 0.227508 0.45449972 0.013838156 0.29082164
0.21282782 0.47336224 0.012194958 0.28164032

network_body.observation_encoder.processors.1.normalizer.running_mean f4 [12]
00000000: 2ae6 d23d 3c33 fc3d 1852 af3e 1262 bc3e
00000010: 6021 da3d 7fdd fa3d c036 ad3e db8b ba3e
00000020: 759c ca3d 7861 003e 3316 b13e c8fa bd3e
0.102978066 0.1231446 0.3424232 0.36793572 0.10650897 0.12249278 0.33830833 0.36434826
0.09893123 0.12537181 0.3458725 0.37105393

network_body.observation_encoder.processors.2.normalizer.running_mean f4 [3]
00000000: 7b24 d93d a042 073d 9165 513f
0.10602661 0.033022523 0.81795603

network_body._body_endoder.seq_layers.0.weight f4 [256, 35]
00000000: 5320 23be 0ecc 7c3d 9e70 ce3c b6ba 66bd
00000010: b268 e43b ee77 3e3e 8ea8 1f3d 92de 773e
00000020: 91c8 efbd 5131 d33d 7fb1 a7bd c8a8 2bbd
00000030: 8bc4 c33d 1df7 7cbd 4d82 e23c 6882 c3bd
00000040: 58c2 c83d 80fa be3d 7479 143d f309 0dbe
00000050: 4f3b 71be 25a5 8bbd 8490 993d 339c ac3d
00000060: 4c40 d4bd f71b 04be 2131 8cbd 5e46 a0be
00000070: 6eb4 063c 791a 0abf 6e31 e43d 6465 393e
00000080: 8be3 2e3a 69d2 b7bc 3cf5 833d c23d 343e
00000090: 3d6c 0cbe d9f4 183e c426 693c f9e9 9a3d
000000a0: 498e f03e afad b33d 78da 7e3e be96 253e
000000b0: 90b1 1f3e 95e9 1ebe 7193 9cbe c878 bfbd
000000c0: 4244 d5be 739f de3d 19a3 28be e7b3 95be
000000d0: 2881 65bd 49ad dabd b876 eebd d7e9 b4bd
000000e0: b4d0 8bbd 380b 953c 411d 8ebe 076f 06bd
000000f0: de62 9b3e 2def 9ebb e86a 553e d078 b53e
00000100: f8f5 31bc 72e2 fd3c 9fb0 243e 1197 d3bb
00000110: 436b efbd 113f bcbe 70ae 1cbe 3426 87be
00000120: 7f64 3c3e 8823 0b3e 8cd6 c3be 89a2 32be
00000130: fd0f a83d 95b0 4e3b 3f16 afbd 7bfe f3bd
00000140: 3c3c 89be 8da7 803e f47d 893e 1966 543e
00000150: f56a 923d b002 21bd edff 4fbe e87b 9a3d
00000160: 314e dfbc fea4 2c3e 2179 05be 94e6 2b3f
00000170: a17e 4bbe d8e4 1b3c 5115 82bd 5808 9abe
00000180: 5238 0a3e 7903 81bb 89c8 37be e1c1 afbe
00000190: 5307 863d 985b 0cbd 07ef 5cbd d8c0 ebbe
000001a0: 3120 9f3d 36a6 59ba 895c fdbd 40dc 0bbe
000001b0: ef81 963e 98da 73be 1ea9 4d3d a18f 47be
000001c0: 8782 333d 255c 17bd 8048 083e 8c6a 123e
000001d0: f085 663e cc33 203f 1837 853d 8738 2c3e
000001e0: 3960 3f3d 62ce b43e 8dd9 563d 54ce 843e
000001f0: 5f40 eabd e89b d0bd 4c69 e83c 53c8 e3bc
00000200: 4a5f 7abe 9daf 4b3c 8bdb 753e b05d 09be
00000210: 507a 253e 125b febd 1460 1c3e 5e03 67be
00000220: b4cb cc3b 9764 7e3e 96aa 6fbd fb44 b33c
00000230: 69e6 593e 92a7 88bd 46ba 673e f136 753d
00000240: 957e 953e c8df 123e 2bf7 2dbd fa06 bc3d
00000250: b1a1 833e c2fe 59bd c850 943e e5fc a83c
00000260: ffe8 cb3d dd76 ac3d cd0a 403e c6d2 5bbd
00000270: 6cd8 123e c41c 0b3e 2150 6cbd 830d fdbb
00000280: 5e4e a43e 3b87 cb3b a448 f9bc 76f5 543e
00000290: 1dfa 8cbd 361c 983d 0f78 ecbd 0276 ac3e
000002a0: 905d 5b3e e57a 7fbd 65f9 09be bbb2 5dbd
000002b0: b509 58be 1240 19be 2d3c 2abd b7a6 d83e
000002c0: eb9a 883d 1f7a c2bd 7591 f43c 1331 12be
000002d0: e1c0 92be 196c cbbb 81a2 b13c de2d 6d3e
000002e0: 6bdb 9b3e adf8 093d e118 613e d1e6 4ebc
000002f0: e3d1 313e 7468 af3e 8a70 85bd a74a b2bd
00000300: 1582 0fbe 778b 9b3e f09f ec3d 574b be3d
00000310: 8d01 5abe 64e7 6d3d 2862 773d b4d2 39bd
00000320: fa33 c4bd e737 3ebe b328 af3d a740 d5bd
00000330: 4980 913e bc49 513d 7e13 8cbe a950 b9bb
00000340: b10a ccbd e907 003e bc2d 383e 1af2 c13d
00000350: e730 cd3d d304 8f3d 84b0 6a3e 21b2 343c
00000360: f40a 3a3e ec8a 31be 0804 e73d 2bbc 863d
00000370: bb9f 823e 2871 6dbd 1baa e3bc 4654 c53c
00000380: 5697 663e 8617 793d 4742 37bd b18d 7c3c
00000390: a045 c7bd 4ae0 1b3e 0d5c 69b9 1a59 b2bd
000003a0: 8038 703c 215a 743e 296e 35bd ef25 353d
000003b0: 70fe 55be ca96 fcbd 58f3 1a3e 8894 8ebd
000003c0: 2f2c 153e 9a70 e6bd 0365 48bd 5c41 843d
000003d0: fcbc fbbd e92b 073e d434 ea3d dfa8 24be
000003e0: d7d8 29be 1117 083e 7b3c 8f3e f956 10bb
000003f0: c034 c63e 893c 04be 20d7 b33d 5979 19be
-0.159303 0.06171804 0.025200184 -0.056330405 0.0069704885 0.18600437 0.038979106 0.24205998
-0.11708177 0.10312141 -0.081881516 -0.04190901 0.09558972 -0.061759103 0.027650023 -0.095463574
0.09802693 0.09325123 0.03624864 -0.13773327 -0.2355778 -0.06818608 0.07498267 0.0842823
-0.10363826 -0.12901293 -0.06845308 -0.31303686 0.008221729 -0.53946644 0.111422405 0.18105084
0.000667148 -0.022439199 0.06443259 0.17601684 -0.13713165 0.14937152 0.014230434 0.07564158
0.46983555 0.08773362 0.24888027 0.16170785 0.15595078 -0.15518792 -0.3058124 -0.09349209
-0.4165364 0.10870256 -0.16468467 -0.29238817 -0.056031376 -0.10677583 -0.116437376 -0.08833664
-0.06826916 0.018193826 -0.27756694 -0.032820728 0.30348867 -0.0048502893 0.20841563 0.35443735
-0.010861866 0.030991767 0.16083 -0.0064572175 -0.116903804 -0.36766866 -0.15300918 -0.26396334
0.18397711 0.13587773 -0.38249624 -0.17444815 0.082061745 0.0031538357 -0.08549165 -0.11913773
-0.26803768 0.2512783 0.26853907 0.20742072 0.07149307 -0.039309204 -0.20312472 0.075431645
-0.027258964 0.16859815 -0.13034488 0.6714871 -0.19872524 0.00951501 -0.06351722 -0.3008449
0.13498047 -0.0039371816 -0.17947592 -0.34327605 0.06544366 -0.034267038 -0.05393889 -0.46045566
0.07769812 -0.00083026604 -0.12371165 -0.13658237 0.29396006 -0.23813856 0.05021011 -0.19488384
0.043825652 -0.03695311 0.13308907 0.14298457 0.2251203 0.62579036 0.06504649 0.16818438
0.046722624 0.35313708 0.052453566 0.25938666 -0.11438059 -0.10185987 0.028370522 -0.027805483
-0.24450412 0.012432006 0.2400953 -0.13414645 0.1615994 -0.12419714 0.15271026 -0.22559878
0.0062498692 0.2484306 -0.058512293 0.021883478 0.21279301 -0.066725865 0.22629651 0.05986685
0.29198137 0.14343178 -0.042472046 0.09181018 0.25709298 -0.05322147 0.2896788 0.020628402
0.0995655 0.08421109 0.1875412 -0.053667806 0.14340371 0.13585192 -0.057693604 -0.007722558
0.3209104 0.006211189 -0.030430146 0.20796761 -0.06883643 0.07427256 -0.11546337 0.33683783
0.2142241 -0.06237306 -0.13474043 -0.05412553 -0.21097453 -0.14965847 -0.041561294 0.42314693
0.06670173 -0.09495949 0.029854516 -0.14276533 -0.2866278 -0.0062079546 0.021683933 0.23162028
0.3044084 0.03368442 0.21982147 -0.012628273 0.17365222 0.3425938 -0.06515606 -0.08705645
-0.14014466 0.3037984 0.11553943 0.09291714 -0.21289654 0.058082 0.060396343 -0.045366958
-0.09580226 -0.18576013 0.08552685 -0.10412722 0.28418186 0.05109571 -0.2735862 -0.0056553674
-0.09962977 0.12503017 0.17986196 0.09470005 0.10019093 0.06983342 0.22918898 0.011028797
0.18168241 -0.1733815 0.11280066 0.06578859 0.2551249 -0.057969242 -0.027791074 0.024088036
0.22518668 0.06081345 -0.04474094 0.015414641 -0.09730077 0.15222278 -0.00022254903 -0.08708401
0.014661908 0.23862506 -0.04429451 0.04422563 -0.20897841 -0.12333448 0.15131891 -0.06961924
0.14567636 -0.11251946 -0.048924457 0.06457779 -0.12291905 0.13200344 0.114358574 -0.16080044
-0.16586624 0.13290049 0.2797583 -0.0022024496 0.3871212 -0.12913717 0.08781266 -0.14987697

network_body._body_endoder.seq_layers.0.bias f4 [256]
00000000: 83f8 f0bc fd8d d3bb 2d54 efba 34b6 2a3a
00000010: edf0 8a3b 800d 973b eb2a 25bc de78 a8bb
00000020: c4f8 993c 3ef8 5dbc bb27 a6bc cd11 b0bb
00000030: ac03 13bc 7b9d 193b 48c2 8dbc e609 adbc
00000040: d371 98bc 2cc6 37bc 8b65 89bb 318b a2bb
00000050: 3cb6 2ebc f95c 513b 2e66 bebb a068 293b
00000060: 63ac 9039 69fe 03bc 1b6c 25bb 778c 1dbc
00000070: d50f ccbb 33a4 2bbc cbd3 92bc 6737 d6bb
00000080: 1290 8dbb 234c b539 2439 91bb 3666 00bb
00000090: f0c3 9dbc 5508 56bc be85 723a c78a 31bb
000000a0: bfe6 093b edc3 82bc 17a5 82bc aecd f8bb
000000b0: 3cca 27bc 1212 bdbb 9a4f 95bc ae69 9dba
000000c0: f54a f4bc 7b40 14bb e2ba 40bc d294 27bc
000000d0: e5f8 9fbc 1954 91bb 9b1c 063a 0ba1 69ba
000000e0: 88c6 0a3c 0f44 61bc ce6b 09bc 6218 0a3c
000000f0: 3164 ec35 f6d9 83bc b830 89bc 55b6 9ebc
00000100: 36dd a9bc cf42 b6bb ca5a 5cbc bde8 c7ba
00000110: 6a22 c7ba fef4 29bc ab80 763b f99d 4a3c
00000120: 3d91 933a 7ede ee3b 90b1 7eba ad0b b03a
00000130: 78aa ff3b 6c68 daba e35b 0e3c 9cb3 5cbb
00000140: 055c 92bc 77c1 e4bb b4fa 823c bf9e 913c
00000150: b58b 0dbc 7f4b 15bc 7c48 5c3c 65ab 94bc
00000160: a872 27bc b1d3 74bc 1c62 43bc b384 5bbc
00000170: 93e9 06bc bb75 79bb 9be1 923b ed83 eeba
00000180: 20e1 ca3c a0e1 473b 8033 88bb db32 2ebc
00000190: 2a41 6abc f238 053b 5a1f e23b b7d7 e13b
000001a0: b97f 1ebc 8204 68bc 87e7 b837 289e 55bc
000001b0: bbc1 04bc c0a3 95bc 7eac 9e3b 466c b7bb
000001c0: 540d 49bb c99c 2abc 9763 c8bb 2f8a 12bc
000001d0: 6519 7ebb 7c14 70bb ee14 69bc 8c87 813b
000001e0: d77e 473b 973a b4bb 72b4 8abc 4348 fbbb
000001f0: 757a c2bb 34ba 05bc 9436 6ebc 8e45 76bb
00000200: d34d abbc 2f31 d9bc 6eea c13b 9447 00b9
00000210: fa2f 3bbb 7d35 25bc b4a8 39bc 0cea f1bb
00000220: b3a0 1abc 4e05 90bc 7442 003c 162e c4bb
00000230: 91d2 4ebc 6331 13bc 9464 34bc e6df 863b
00000240: f99f ecbb ed24 c1bc a167 9d3a 2e5e 173b
00000250: 6743 9fb8 ddca 1d3b d0c1 82bc 59e4 03bc
00000260: 7353 933b 7320 98bc 4d1e 97bc aa2f 46bc
00000270: 9e33 b6bb d61b b1bb 68ab d6bc b6eb aebc
00000280: c0a6 243c 6b0b b33b 1bf0 62bc 8c43 8cbc
00000290: c14e 29bc dc89 abbc 1dec 03bc 2783 143d
000002a0: be48 9f3b a055 91bb 4bf3 95bc 7a68 76bc
000002b0: aacc 1bbc 618c 0cba 9fc3 86bc 70a6 82bb
000002c0: ddc7 3a3c 3ec6 4fbc 59d4 8cbb a134 92bb
000002d0: 6197 503c b890 5cba 533d a2bc ee25 283c
000002e0: 3c3d e0ba ba64 1abb ebd8 fe3b fbac 85bc
000002f0: f002 b83b 6b8f 15bb 5d90 1ebb 7c30 05bd
00000300: 59b0 71bc 0bff 83bc eee0 32bc 8c66 fdba
00000310: 6b7f 39bc 690b 55bc 662a 593a 193b 063c
00000320: a57a d1bc 914a ee3b 6832 1cbc f7d2 46bb
00000330: afda f0bb 646c 9fba c3e5 22bc d874 883a
00000340: f5a5 d6ba 0a78 96bc 2ff4 c5bb ffde 9b3b
00000350: aab2 80bc f76d 6fbc 2782 a43b 35e7 b0bb
00000360: 5f88 af3b 2f10 b23a 871f 933a 8faa ebbc
00000370: 835d aebb 20db 523c 3cc8 19bc e03c 2bbc
00000380: 586f 433b 804c 92bc 6c32 933b 09c9 f0bb
00000390: 702b af3b 2a9a b7bc 6e83 adbb 274c 10bb
000003a0: 00f1 a93b 88b1 60bc 00b8 21bc 36d6 debb
000003b0: ae35 893c 0bc1 6bbc db41 02bc ba89 903b
000003c0: a781 04bc 0109 2d3c 85a2 62bb 237c ed3b
000003d0: e3a6 32bc 6f45 09bc 974f 68bc 6050 1dbb
000003e0: 83c6 0e3c 03eb 093c c9a5 adbc 7075 33ba
000003f0: cf51 dbba 7f04 23bc a523 32bb d300 953b
-0.029415375 -0.0064561353 -0.0018259339 0.0006512136 0.0042401464 0.0046097636 -0.010081033 -0.0051413616
0.018795379 -0.013547955 -0.020282617 -0.005373216 -0.008973043 0.0023439813 -0.017304555 -0.021122884
-0.018608963 -0.011216681 -0.004193013 -0.0049604406 -0.010663565 0.0031946285 -0.0058105206 0.0025849715
0.00027594258 -0.008056262 -0.0025241438 -0.009616009 -0.0062274733 -0.01047616 -0.017923256 -0.006537366
-0.004320153 0.00034579737 -0.0044318605 -0.0019592172 -0.01925847 -0.01306351 0.00092514965 -0.0027090774
0.0021042076 -0.015962565 -0.015947862 -0.0075928783 -0.0102410875 -0.0057699764 -0.018226434 -0.0012009644
-0.029820899 -0.0022621441 -0.011763306 -0.010228353 -0.019527862 -0.004435074 0.0005115957 -0.0008912242
0.008470185 -0.013749137 -0.008387519 0.008428665 1.761253e-06 -0.016095143 -0.016746864 -0.019374052
-0.020735364 -0.0055621634 -0.01344938 -0.0015251857 -0.0015192751 -0.010373352 0.0037613313 0.012366765
0.0011258494 0.0072897067 -0.000971579 0.0013431214 0.007802304 -0.00166632 0.0086889 -0.0033676391
-0.017866144 -0.0069810706 0.015988685 0.017775891 -0.008639266 -0.009112238 0.013445016 -0.018148134
-0.010220207 -0.014943049 -0.011925247 -0.013398337 -0.008234399 -0.0038064558 0.0044824607 -0.0018197276
0.024765551 0.0030499473 -0.00415653 -0.010632242 -0.014297763 0.0020328132 0.00690071 0.0068921703
-0.009674006 -0.014161231 2.2042323e-05 -0.013038196 -0.00810283 -0.018266559 0.00484234 -0.005597624
-0.003067811 -0.010413357 -0.0061153877 -0.008944078 -0.003877246 -0.0036633303 -0.014226181 0.003952926
0.0030440593 -0.0055001485 -0.016931746 -0.0076685264 -0.005935008 -0.00816207 -0.01453938 -0.003757808
-0.020911133 -0.02651271 0.005917839 -0.00012233696 -0.0028562532 -0.010083553 -0.011331726 -0.007382637
-0.009437728 -0.017580654 0.007828344 -0.005986939 -0.012623445 -0.008983943 -0.011010308 0.0041160462
-0.0072212187 -0.023577178 0.0012009033 0.0023096907 -7.5942655e-05 0.0024077215 -0.015961558 -0.008050048
0.004496032 -0.01857016 -0.018447066 -0.012096325 -0.0055603525 -0.0054049296 -0.02620478 -0.02135263
0.010049522 0.0054640076 -0.013851191 -0.017122053 -0.010333718 -0.02093976 -0.008051899 0.03625789
0.0048609665 -0.004435256 -0.018304488 -0.015039558 -0.009509245 -0.0005361494 -0.016450701 -0.003987126
0.01140019 -0.012681542 -0.0042977748 -0.0044618403 0.012731404 -0.0008413899 -0.019804632 0.010262949
-0.0017108093 -0.0023558573 0.0077773235 -0.016317835 0.0056155846 -0.002282108 -0.0024194934 -0.03251694
-0.014751517 -0.016112825 -0.010917885 -0.001933293 -0.011321883 -0.013003209 0.0008284211 0.008192801
-0.025571177 0.0072720726 -0.009533502 -0.0030338147 -0.007350288 -0.001216304 -0.009942475 0.0010410799
-0.0016376363 -0.018367786 -0.006041072 0.004756808 -0.015710194 -0.01461362 0.005020398 -0.005398656
0.005356833 0.0013585145 0.0011224606 -0.028767852 -0.005321206 0.012869626 -0.0093861185 -0.010451525
0.0029821005 -0.017858744 0.0044920947 -0.007348184 0.0053457543 -0.022412378 -0.0052952087 -0.0022018047
0.0051862 -0.013714202 -0.009870529 -0.0068004383 0.01674923 -0.014389287 -0.0079502715 0.0044109495
-0.008087552 0.010561229 -0.0034581732 0.0072474643 -0.010904047 -0.008378371 -0.014179132 -0.0024004206
0.008714321 0.008417848 -0.021197217 -0.00068458077 -0.0016732755 -0.009949802 -0.002718189 0.0045472174

network_body._body_endoder.seq_layers.2.weight f4 [256, 256]
00000000: cd7e 863d 11b2 263d 7307 4f3d b58b 303d
00000010: 77bf 28bd 9ad5 2238 69fc edbd 6460 343b
00000020: f293 fc3c fe66 f33d 5304 80bd 5865 95bd
00000030: bb03 0abd d279 f8bc b6af 843d 4fee b3bb
00000040: 8c4f edbc 4dd8 013d c874 57bd f922 b5bd
00000050: 9227 6239 97e0 ee3d 6c25 00be 6a74 cb3c
00000060: 5514 e1bd 696a b3bb 117e 00be 2a52 c33b
00000070: 1c81 0dbe 014f 013d 0635 1e3d 2029 fa3b
00000080: 9ef5 efbd c69e 073e 0209 0a3e 4206 c9bd
00000090: bb80 65bd c1ad fdbc 25e8 e2bb 123a 69bc
000000a0: 6ac2 c0bc 7bda f73d 8e97 b5bd ef9f 6bbd
000000b0: 3b42 983d 56ec 0b3d cf45 303d c9d3 e0bc
000000c0: 4d07 58bd acdb b03b 38ab 60bd 7913 10bd
000000d0: 3bd5 dc3c 7c2b 31bd 360a 3d3d f73c 7abd
000000e0: 22ba 893d 4298 f23d 6ef9 1d3e b13f 77bd
000000f0: 97fd a13c aae9 4fbd 1917 a2bd 7acd 3cbc
00000100: cdd7 363b 21d3 943d be86 ba3c 0e03 65ba
00000110: e0c7 7bbd 77de 433c 3887 2f3d 4829 15bd
00000120: 1db8 c53d 31f9 2bbc f39d 893d 05d3 13bd
00000130: ff41 163a 68d0 9bbd d524 063e 2caa 63bd
00000140: a54c 3bbd 32b9 a4bd 55ac 19bd b19d 32bc
00000150: ada8 85bc ddcc 81bd 5037 19bd 1ad7 0fbe
00000160: a0b1 9dba c16f 48bd 901c 053e 7a73 f73c
00000170: 4e35 e33c 0654 963b 6eb7 c0bc 3eed 51bd
00000180: 2cab 21bd 0401 96bd 9a3a 9a3c 0ca0 4f3d
00000190: ce07 40be e041 24bd 2400 c5bd ff75 403c
000001a0: d24d 303d 2e50 8f3c 2831 a73d 2254 22bc
000001b0: 03ac 54bc 28e7 8f3d 953e 4ebc f130 adbd
000001c0: 4a1d 8e3c 939b a53c 5450 32bd e06f 363d
000001d0: 8bd5 5e3d d82b 89bd 6c72 73bc a377 623d
000001e0: c0ef 07bb b7c7 9dbd 40e0 5fbd 6cba 0c3d
000001f0: 4cbd a8bd cc8a bb3c 8ab7 393d 9993 e93b
00000200: 8cdd afbd 15a0 813d 69b8 29bd 91df f8bd
00000210: b3ce 08bd 4ac3 a8bc 15bf d13c b00d 18bc
00000220: 3246 8bbd a3be 74bd 7267 f33c d641 ecbd
00000230: 5b83 963d 65ca 053e 8a12 f439 5002 77ba
00000240: 256f 8b3c 9078 d63a 383d 4dbd 806c 9f3b
00000250: 3a96 c8bd f7d5 0b3b c055 593b ffc6 103d
00000260: 27d8 d7bd 34da 9dbc 3956 023b 448d 6ebd
00000270: 1ec2 48bd 731e 413d 01af bebb e45e 9dbd
00000280: 39fc 97bd 6779 96bd e716 b5bd d866 8cbd
00000290: 32d7 e33d db34 ab3d cb66 babd a6bf be3b
000002a0: 7c07 853c 13f1 993c 4e2c 733d 2e1f 9ebd
000002b0: c043 a83d 6d60 1d3e d5ef 49bd 5a53 1abd
000002c0: f271 aa3c bab7 37bd 25b0 383c 2eca ce3c
000002d0: 0ca8 48bd dc36 b33c dd31 10bc b414 78bd
000002e0: 29e2 2b3d 856f a6bc 9cfb a9bd 5561 8fbc
000002f0: d19c a2bc fa10 09be 33db 99bc 734e 91bc
00000300: fc68 4bbd d074 1dbc af5a f13d 11ca 9abd
00000310: e1f5 2b3c 19ee 39bd 1f4d 573d 5506 263e
00000320: 85e1 34bd abbb 15be 9dc1 223d f3e8 57bd
00000330: 06ae 453d 4353 73bd da48 5cbd 0d93 153d
00000340: 1a93 b3bc b721 d0ba e483 553d a748 e83b
00000350: 6a99 91bd 82fa cf3d ac72 11be 67e3 3a3c
00000360: d01d 843a 2d6b a5bb a1e5 783b bc50 4ebb
00000370: 7613 0fbd 0a73 953d 1d5e 2bbd d2bb 3d3d
00000380: 9804 9abb 4356 a63c e9ac 373e 3fe2 723d
00000390: 2cef f1bc 77c0 443e 229e 123e 2a29 b23c
000003a0: 5d29 ff3c 7cc6 143e 1123 14bd a996 a0bd
000003b0: 82a9 b8bd c6e7 143c 50ae 823d 42d5 4cbc
000003c0: 1461 083c aafa 6b3d fb2a b33b 5c07 46bd
000003d0: ef6a 31bd 75a8 efbd 6d69 3cbd 6a7b d8bd
000003e0: c7a5 2a3d 2d38 90bd 57ca 0e3d 0e39 3e3d
000003f0: 6580 86bd 55aa 063e 2985 5bbd a99a 5ebd
0.06567154 0.04069716 0.050544214 0.043101985 -0.04119822 3.882274e-05 -0.11620409 0.0027523274
0.030832265 0.118848786 -0.06250825 -0.072947204 -0.033694964 -0.030331526 0.06478827 -0.005491055
-0.028968595 0.03170042 -0.052601606 -0.08844561 0.0002156778 0.11663931 -0.12514275 0.024835784
-0.10990206 -0.0054753316 -0.1254809 0.0059607225 -0.13818783 0.031569485 0.038624786 0.007634297
-0.1171677 0.13244161 0.13479999 -0.09815647 -0.05603097 -0.030966641 -0.0069246464 -0.014235036
-0.023530204 0.12102219 -0.088667974 -0.05752557 0.074345075 0.034160934 0.043035325 -0.027444737
-0.052741338 0.0053972807 -0.054850787 -0.03517482 0.026957145 -0.04325436 0.046152316 -0.061093297
0.06724955 0.11845447 0.15427181 -0.060363475 0.019774241 -0.05075995 -0.07914562 -0.011523599
0.0027899623 0.07266832 0.022769328 -0.0008736112 -0.061469913 0.011954895 0.042853564 -0.036416322
0.096542574 -0.010496424 0.067195795 -0.036089916 0.000573188 -0.0760811 0.13099988 -0.05558221
-0.04572739 -0.08043136 -0.037517864 -0.010901854 -0.016315782 -0.06337903 -0.037406266 -0.14046898
-0.0012031086 -0.0489347 0.12999177 0.03020643 0.027735379 0.004587653 -0.023524966 -0.051251642
-0.039469883 -0.073244125 0.018826772 0.050689742 -0.18752977 -0.040101886 -0.096191674 0.011746882
0.043042965 0.017494287 0.08163673 -0.009907754 -0.012980464 0.070265114 -0.012588163 -0.084566005
0.01734795 0.020215785 -0.043533638 0.044540286 0.05440287 -0.06697816 -0.014858823 0.055289876
-0.0020742267 -0.07704108 -0.05465722 0.034357473 -0.082392305 0.022893332 0.045341052 0.0071281907
-0.085871786 0.06329361 -0.041435633 -0.12152017 -0.03340025 -0.020600934 0.02560381 -0.009280607
-0.06800498 -0.059752118 0.029712413 -0.11535995 0.07349273 0.13065489 0.0004655312 -0.0009422647
0.017020771 0.0016362835 -0.05010721 0.004865229 -0.097942784 0.002133725 0.0033162683 0.035346027
-0.10539275 -0.019269086 0.0019887818 -0.05824019 -0.04901325 0.04714818 -0.005819202 -0.076841146
-0.074211545 -0.073473744 -0.08842259 -0.068555534 0.111250296 0.08359691 -0.091016375 0.005821186
0.01623892 0.018791711 0.059368424 -0.07720791 0.08216047 0.15368815 -0.049300987 -0.037677146
0.020806286 -0.04485295 0.011272465 0.025242891 -0.048988387 0.021876745 -0.008800951 -0.06056662
0.04196373 -0.020316849 -0.08299944 -0.017502466 -0.019850167 -0.13385382 -0.01878128 -0.017737603
-0.049660668 -0.00961037 0.11784875 -0.07558072 0.010495634 -0.045393083 0.052563783 0.16213353
-0.044160385 -0.14622371 0.039735425 -0.052712392 0.048261665 -0.059405576 -0.053780414 0.03651719
-0.02192073 -0.0015879188 0.052127734 0.007088739 -0.071093395 0.101552024 -0.142039 0.011406756
0.0010079686 -0.0050481767 0.0037978666 -0.0031481227 -0.03493067 0.072973326 -0.0418378 0.046321698
-0.0047002546 0.020304805 0.17937054 0.059297796 -0.029532991 0.19214045 0.14318135 0.021748144
0.031147653 0.14528841 -0.036166254 -0.07841236 -0.09016706 0.009088462 0.06380904 -0.0125020165
0.0083239265 0.0576121 0.00546777 -0.048346862 -0.04331487 -0.117020525 -0.04599898 -0.10570414
0.041662004 -0.07041965 0.034860935 0.04644113 -0.06567458 0.13150914 -0.05359379 -0.054346714

network_body._body_endoder.seq_layers.2.bias f4 [256]
00000000: e5f4 35bb 584e 0a3c 3cb4 bf3b 8531 23bc
00000010: cc42 8cbc c8e2 43bc 7318 71bc 6582 fbbb
00000020: caea 2abb 4eac 343c ba84 20b9 5818 22bc
00000030: 4549 04bc 096e 6dbc 4647 33bc 7f90 bf3b
00000040: d276 46bc 0240 053a 971e 4ebc 2538 15bc
00000050: 1b7f ffbb 66c8 02b9 78b5 ccbb 29bb 453b
00000060: a0b3 e9bb 25f6 45bb 8386 d53b 1c92 4dbc
00000070: 878c cfbc 9d9e b5b9 bad3 e3bb efbd bd3b
00000080: ddb4 07bb 21bb f93a f1c9 71bb 6d68 37bc
00000090: 2eb9 59bc 064c 60bb fa08 efbb 28a3 a13b
000000a0: 02af 15bc c826 1cbb 9875 a5bb c7d1 a539
000000b0: 3019 01bc bc64 303b e4d6 06bb 2538 0bbc
000000c0: d10f f5bb 28b2 bcbb 1441 77bb beae 53bc
000000d0: 0e01 66bc f069 d3ba c78d 12bc a8c3 52bc
000000e0: cb2c 23bc 12f9 093c 6614 d2bb e4b4 6e3b
000000f0: b619 75bc 0d5d 5fbc b2a3 48ba 3543 0fbc
00000100: 4599 8ebb 364b 0ebb b736 51bc 977b f8b9
00000110: 3e85 35ba 5bc8 c239 b75b afbb 9e5c 9bbb
00000120: 2755 59bc 7998 1bbc 5619 10bc c922 7ebc
00000130: 7c16 70bb e68d 1bbc 748c 8abc 7dc6 b23b
00000140: 2a6c 63bc ca55 3ebc cf2f 1fbb d753 80bc
00000150: d1db 37bc 4c2e c9bb a992 aeb9 c0b8 3ebb
00000160: bc89 f6bb 82aa b0bb 761c 36bc 0b3c afbb
00000170: e578 18bc 30f8 aebb 8f40 ceba cb3b cb3b
00000180: f2cd 27bb a452 00bc dcdc 76bb c0fe 5ebb
00000190: f594 893a f1b4 09bc 98cb 38bc 7be9 d13a
000001a0: 7dc5 85bb b05b e6bb ba95 453c bb3a 35bb
000001b0: 13b6 34bc a15e 043c 16f5 48ba b475 03bc
000001c0: c470 123c d766 1fba 299b 33ba 68ba 0dbc
000001d0: 5e7b f13b 24c1 e5bb e1fe a83b 0a21 273b
000001e0: b2a3 77bc 0aa9 37bc 9e23 48bc b5bc e6bb
000001f0: 82fb cbbb 855a 43bc 5de9 c3b9 d4e0 cebb
00000200: 6a37 d7ba eb82 04ba 034f 98bb 1f5a 0abc
00000210: c42d dd3a d84d 77bb f7c0 01ba 502a 3abc
00000220: 9cfa 6fb9 f908 9abc 068e 23bc aad0 bdbb
00000230: 2422 7cbc 72f1 bcbc 21ab 8cbb 4d3b 943b
00000240: 6539 2bbc a7b4 73bc 35a5 bebb 400b 88bb
00000250: 0ff5 f43a 5a91 38bc 836c 2dbc 9b28 a9bb
00000260: a994 b1bb 5a3b dabb 67f1 9cbb 218b 08bc
00000270: 6710 04bc 6012 aabb 1914 0abb edb1 cb3b
00000280: 9594 1dbc 0a35 49bb 7417 83bb 7570 ddba
00000290: c2d7 fabb 7320 b13b bd78 f8ba 607a 86bc
000002a0: 6d83 6ebc 11c0 313c 8750 7b3a 9dfe ffba
000002b0: 2e1e d1bb 6215 7b3a 832f 09bc 2286 13bb
000002c0: a03a 70bc c7c8 ba3a fb3f c7bc 2ebf 5ebc
000002d0: 68b6 0fbc f05c 92ba 8055 e7bb b59b 1bbc
000002e0: e60f bdbb b347 10bc ab0f 8cbc 2eb1 c2bb
000002f0: eef5 60bc d382 b13b e0ce 26bc 6c49 c7bb
00000300: 9188 313a 4b3c 16bc 8343 acbb 6618 43bc
00000310: 6d3a abbc 71c2 e9bb 4073 60bb 0822 7e3b
00000320: e879 29bb 0c87 1cbc 2fc5 03bb e346 c4bb
00000330: 349a 12bc 1ac5 8abb c22d d3bb e8e3 2aba
00000340: 6dfa 583b 6caa e1ba b26e 41bc 658f 20bc
00000350: 57f6 b53b 31b9 54bb 42b1 c53a 4397 29bb
00000360: a5b8 67bc 4fec 69bc cc65 d3bb 7247 883b
00000370: 9af0 6abc 6f98 4d3a 5499 dc3b 9ac2 a1bc
00000380: 9eaa 7fbb 79f0 2fbc b104 80bc f1b3 9ebb
00000390: a9e8 443b 8caa a2b9 d3f8 0b3c 30ac 71bc
000003a0: 1c76 463b 6d59 a03b 0c76 2bbc aafe a739
000003b0: 1475 01bc ba15 34bc d386 41bc 992a c438
000003c0: 1a0f 333c 3147 8abc cf93 623b c9e7 95bb
000003d0: 0fff 38ba 5e28 2bbb 8116 6cbc b640 6cbc
000003e0: f162 b63b 16eb b3bb df14 febb 7462 f3b9
000003f0: 0744 dfbb cc97 87bb e5b1 17bb 11aa bebb
-0.0027764377 0.00844153 0.005850343 -0.009960537 -0.017121695 -0.011955924 -0.014715302 -0.0076754563
-0.0026079887 0.011027409 -0.00015308234 -0.009893499 -0.008074109 -0.014491566 -0.010942286 0.0058460827
-0.01211329 0.0005083085 -0.012580535 -0.009107624 -0.0077971346 -0.0001247242 -0.0062472187 0.003017137
-0.0071320087 -0.0030206528 0.006516279 -0.012547042 -0.025335563 -0.00034641186 -0.00695273 0.005790464
-0.0020707168 0.0019052961 -0.0036894048 -0.011194331 -0.013288779 -0.0034225 -0.0072947713 0.00493278
-0.009135963 -0.0023826826 -0.0050494187 0.0003162755 -0.00787954 0.002691551 -0.0020574862 -0.008497273
-0.007478692 -0.0057585426 -0.0037727999 -0.01292008 -0.014038337 -0.0016129594 -0.008944935 -0.012864031
-0.00995941 0.008421199 -0.006411123 0.0036423737 -0.014959743 -0.013633025 -0.0007653787 -0.008744051
-0.0043517672 -0.002171231 -0.012769393 -0.00047394328 -0.00069244567 0.0003715184 -0.0053515094 -0.0047412654
-0.013264931 -0.0094968015 -0.008795103 -0.015511223 -0.0036634495 -0.00949428 -0.016912676 0.0054557906
-0.013880769 -0.011617133 -0.002428997 -0.015664978 -0.011221842 -0.006139552 -0.00033297137 -0.0029101819
-0.0075237434 -0.00539142 -0.011115184 -0.005347734 -0.009306167 -0.005339645 -0.0015735793 0.0062021962
-0.002560493 -0.007832203 -0.0037668264 -0.0034026355 0.0010496663 -0.008404956 -0.011279009 0.0016015017
-0.0040823803 -0.007029973 0.012059623 -0.0027653414 -0.011029738 0.008079202 -0.0007665915 -0.008023668
0.008938018 -0.0006080693 -0.0006851429 -0.0086504 0.007369443 -0.0070115495 0.005157337 0.002550187
-0.015114712 -0.011209736 -0.012215523 -0.0070415386 -0.0062250504 -0.011923437 -0.00037367168 -0.0063134227
-0.0016419713 -0.00050549087 -0.004648091 -0.008444338 0.0016874601 -0.0037735607 -0.00049497135 -0.011362627
-0.00022886175 -0.018803107 -0.0099825915 -0.005792697 -0.015388999 -0.023064349 -0.004292861 0.0045236708
-0.010450696 -0.014874614 -0.005818034 -0.0041517317 0.0018688756 -0.011265123 -0.010584953 -0.0051623113
-0.005419333 -0.0066599073 -0.0047895196 -0.008333952 -0.008060551 -0.0051901788 -0.0021069108 0.0062162788
-0.009617944 -0.003070178 -0.0040005986 -0.0016894477 -0.007655115 0.0054054796 -0.0018956881 -0.016415775
-0.014557702 0.010849015 0.00095868896 -0.0019530837 -0.0063817715 0.00095780764 -0.008373144 -0.002251037
-0.014662415 0.001425051 -0.0243225 -0.0135953855 -0.008771516 -0.0011166614 -0.007059753 -0.009497573
-0.0057697175 -0.008806157 -0.017097315 -0.0059415316 -0.013730509 0.005417207 -0.010181159 -0.0060817506
0.0006772364 -0.009169648 -0.0052570715 -0.0119076725 -0.020901883 -0.007133775 -0.0034248382 0.0038777608
-0.0025860015 -0.009553682 -0.0020106544 -0.0059898957 -0.008947898 -0.004234922 -0.0064446637 -0.0006518946
0.003310825 -0.0017216927 -0.011806177 -0.009799813 0.0055530476 -0.0032459015 0.0015082734 -0.0025877513
-0.014143144 -0.014277532 -0.006451344 0.0041589076 -0.01433959 0.0007842844 0.0067321453 -0.019746114
-0.0039011608 -0.0107384855 -0.015627237 -0.004843228 0.0030045903 -0.00031026115 0.008543211 -0.014750525
0.00302828 0.004893473 -0.010465156 0.00032042462 -0.007901449 -0.010991508 -0.01181193 9.353943e-05
0.010928893 -0.01687965 0.0034572964 -0.00457475 -0.00070570497 -0.002611659 -0.014409662 -0.014419725
0.005565994 -0.005490671 -0.007753953 -0.00046421925 -0.0068135294 -0.0041379686 -0.0023146805 -0.0058186133

action_model._continuous_distribution.log_sigma f4 [1, 2]
00000000: 382c fe3c c7e4 663c
0.031026945 0.014092631

action_model._continuous_distribution.mu.weight f4 [2, 256]
00000000: 49d4 b83a af63 5ebc 75f5 c1bc 430f 9d3b
00000010: 2b61 b83a 8c96 363c 3961 4f3c e44c cc3b
00000020: ae8a 76ba 34bb e93a 41ed 56bc 68fe 5dbb
00000030: 0d0a c9bb 68f8 e13b a810 3abb eaa1 e8bc
00000040: f065 2e3c 5e03 d8ba b6fd f4bb 89cf b03b
00000050: 505e 96bb fa95 973a 7911 cdbb 7a77 aa3b
00000060: 617f cc3a 8eff 0b3c f23d c3bc 30ee 8f3b
00000070: 3281 2bbb 4db1 daba 98a0 883c 9195 a6bc
00000080: 54f2 1f3c ace5 bdbb 9641 bd3b 37ea 1dbc
00000090: 6207 f43b c35f 2dbc 6f71 5d3c ac9b 75bc
000000a0: 3681 0fba 71f8 8cbb d043 81bb cefd 02bc
000000b0: 59e5 2dbc 007b 0b3b 2043 c2b8 02a0 c03c
000000c0: c274 e9bb ef78 b9bb 05cf 2d3c 99a0 45bb
000000d0: daf8 eabb fcde 033d 0045 a7bb 0bf4 9c3c
000000e0: 1f31 79bc e947 18bb 31a8 93bc e77b 55bc
000000f0: 1361 d43b 408f 893b 6f8a 8fbb 3c65 19b9
00000100: a104 cc3b 0c8d f5bb 764f 9fbb a290 b83b
00000110: 4dc0 f23b d131 2ebc f23f a4bc f102 e83b
00000120: 5132 b5bb 579c 943c c209 3c3c 3230 033b
00000130: ab2f 9e3b e979 91bb 0d23 9e3b 50fa 5dbc
00000140: 1353 113c 27df 3bbb b9ed acbc 2db0 d6bb
00000150: d0d2 413b 4c7a 8ebc cdf7 b3b9 61a8 133c
00000160: 9390 f33b e824 30bc e079 35bb fe66 babb
00000170: b3d9 f6bb abe0 70bc e7e9 ff3b 2a36 3cbd
00000180: 41bf 8e3c bec5 5a3b 6938 53bc 5277 b4bc
00000190: 1a24 8f3b 41ef 713c b315 93b9 b0a2 02bc
000001a0: e2d1 82bb 47d4 f93a 789e 2bbc 9eae b8bb
000001b0: ba5d 2b3c 6585 73bc dbcf a5bb 1fd8 01bb
000001c0: dacf f6bc 3cb8 2dbc 730c 98bc ab08 dbbb
000001d0: abc3 f5bb b96d cf3b 9236 6cbc 71d5 0ebb
000001e0: e78d 2cbb 7740 d739 0cf6 16bb ef9c cf3c
000001f0: 67a6 933c e12f c3ba 1cda e4b9 8c72 81bc
00000200: 36f1 823b 8fb1 36bc 3795 23bc c3df ac3b
00000210: 067b 74bc 6686 81bc 6783 95bc 6301 9b3c
00000220: 1c4f 1e3c 00c4 f739 c8a9 1f3c 12ef e6ba
00000230: 7cb8 50bc fee7 693b 7e81 8a3c c17d fabb
00000240: 3d1d 923b e6a0 db3b a607 5ebb 6480 d0b9
00000250: 462c d3bc 46ec 123c 09f3 01bb be8a e63b
00000260: dd77 963b 1ca5 1c3c 8a3a f53a fd69 4abc
00000270: 6f17 5f3c 0e9d f93c 395a aebb 471d 223c
00000280: efa3 9a3c e9f3 54bb 8c70 cb3c e352 a2bc
00000290: 7722 d83b 6ee3 f3bb 5721 85bc b222 d43a
000002a0: 5826 623b 8c28 5cbc fb71 6c3c f636 edba
000002b0: b18d 0e3b f5b5 7dbc 3749 50bc 5a34 783c
000002c0: 1f3d 11bc 0e36 13bc 5990 563c 0f36 093b
000002d0: b2a5 26bc 7892 803b 5214 bc3c 2b78 703b
000002e0: 536f aebc c766 633b e294 393b cd36 e43c
000002f0: 9ebe 223c 0131 ab3c 5463 6a3b ba09 fc3a
00000300: 3697 4c3c b23a babb c3c4 373c 8d28 dd3c
00000310: 32b9 58bb f3cb c43c 2ab8 9e3c a251 dd3b
00000320: ce2e e23a c297 54bb ab2d 71bc ba09 4bbc
00000330: 408a f1ba e813 5a3c 904c 1fbc 9253 edbc
00000340: 897c 81bc 5fcd 493b 94db 833b 49d1 a53b
00000350: ece2 3dbc 2d69 843c 2f02 11bc b335 863c
00000360: ca9b 173c 4353 f3ba a6bc fa3b 733c 56bc
00000370: 9182 f23a b4c7 a13c aabf 8dbc fc85 2ebb
00000380: 15ce 813b ed32 823c 4ea9 653c c374 aa3c
00000390: a74e 9bbc b3fd 5abc 48e9 b5bc cbd6 f73b
000003a0: 4423 dcbc c3d6 5e3a 1857 353b 464e 88bc
000003b0: 77fd 8f3c 7236 c33a f599 d63b 62b2 993c
000003c0: 9b9b ee3b dd37 963a c328 e4bc 3c95 993c
000003d0: cf4a 0cbc 6ca2 d4bb 5b62 98bb 4e1e 9f3b
000003e0: d3c6 b63b daba 08bc 5eb6 f9bb 5cdc 85bb
000003f0: 8ee0 89bb 3980 b1bc a67c 8dbc 14cd 2abb
0.0014101352 -0.013573571 -0.023676613 0.004793079 0.0014067044 0.011144292 0.012657457 0.006234752
-0.000940482 0.001783228 -0.013118089 -0.0033873562 -0.0061352313 0.0068960674 -0.0028391276 -0.02839752
0.010644421 -0.0016480496 -0.0074765338 0.005395834 -0.0045888796 0.0011565082 -0.0062581864 0.005202231
0.0015601927 0.008544816 -0.023833249 0.004392408 -0.0026169536 -0.001668492 0.01667814 -0.02033499
0.009762365 -0.0057952013 0.0057756407 -0.009638361 0.007447169 -0.010581913 0.013515814 -0.014990728
-0.0005474271 -0.0043020775 -0.0039448515 -0.007995082 -0.010613763 0.002128303 -9.263144e-05 0.023513798
-0.0071245143 -0.0056601684 0.010608439 -0.0030155538 -0.0071707787 0.032195076 -0.005104661 0.019159338
-0.015209465 -0.0023236221 -0.018024536 -0.013030029 0.0064812987 0.004197985 -0.0043805162 -0.0001462893
0.0062261377 -0.0074936207 -0.0048617674 0.005632476 0.007408178 -0.010631994 -0.020050023 0.007080429
-0.00552968 0.018140955 0.011476936 0.002001774 0.00482746 -0.0044395817 0.0048259557 -0.013548449
0.008869904 -0.0028666945 -0.021109449 -0.0065517635 0.0029575117 -0.0173923 -0.00034326166 0.009012313
0.007433006 -0.010750987 -0.0027691051 -0.005688547 -0.007533276 -0.0147020025 0.0078098658 -0.045950092
0.017425181 0.0033382024 -0.012891867 -0.022029553 0.0043683173 0.014766515 -0.00028054192 -0.007973358
-0.003992305 0.0019060456 -0.010474794 -0.0056360504 0.010459358 -0.014863347 -0.0050601787 -0.0019812656
-0.030128408 -0.010603007 -0.018560624 -0.006684383 -0.007500132 0.0063302186 -0.014417307 -0.0021794701
-0.0026329698 0.00041056026 -0.002303484 0.025343386 0.018023683 -0.0014891588 -0.00043650053 -0.01580169
0.0039960397 -0.011150732 -0.009984306 0.005275698 -0.014921909 -0.015811156 -0.018251134 0.01892156
0.009662416 0.00047257543 0.009745069 -0.0017618856 -0.012739297 0.0035691257 0.01690745 -0.0076443856
0.004459052 0.00670253 -0.003387907 -0.0003976851 -0.025777947 0.008967465 -0.0019828698 0.0070355823
0.0045919255 0.0095608495 0.0018709463 -0.012354371 0.013616427 0.030470397 -0.005320814 0.009894676
0.018876998 -0.0032494015 0.02483394 -0.019814914 0.0065959054 -0.007442883 -0.01625125 0.0016184656
0.0034507718 -0.0134374015 0.014431472 -0.0018098045 0.0021751935 -0.0154852765 -0.012712768 0.0151492
-0.00886467 -0.008985056 0.013095939 0.0020936762 -0.010171341 0.0039237104 0.022958908 0.003669272
-0.021293318 0.0034698711 0.00283175 0.027858162 0.009933142 0.02089739 0.003576477 0.0019228973
0.012487223 -0.0056832666 0.011216345 0.026996875 -0.003306937 0.024023032 0.019374926 0.006754116
0.001725638 -0.0032439088 -0.014720361 -0.012392456 -0.0018428043 0.01331041 -0.009722844 -0.028970513
-0.015806453 0.0030792577 0.0040239785 0.005060349 -0.011589747 0.016163433 -0.008850618 0.016383028
0.009253452 -0.0018564243 0.007651883 -0.013075936 0.0018502047 0.019748546 -0.017303307 -0.0026630154
0.0039613345 0.015893424 0.014017416 0.02080763 -0.018958403 -0.013366151 -0.022205964 0.007563447
-0.026872285 0.000850063 0.002767032 -0.016638886 0.017576916 0.0014893545 0.006549115 0.018761817
0.007281733 0.001146074 -0.027851468 0.018747918 -0.008562758 -0.0064890888 -0.0046503968 0.0048559075
0.005577901 -0.00834533 -0.007620617 -0.004085107 -0.004207677 -0.021667587 -0.017271351 -0.0026062177

action_model._continuous_distribution.mu.bias f4 [2]
00000000: 8805 a1bb fdc7 cdbb
-0.0049139895 -0.006279944

onnx::Div_71 f4 [20]
00000000: caf9 ff3e a990 b13e 1f19 7c3d eaa7 003e
00000010: de79 fd3e 02bc d13e 1a94 983d 83fd 293e
00000020: d9fc fd3e 35b8 d03e 78e3 c13d 9bf2 273e
00000030: 8ba6 d63e e0f1 fe3e 385d ef3d 0910 493e
00000040: d892 d13e b6a4 ff3e d4e7 e03d 5933 413e
0.4999526 0.3468068 0.061547395 0.12564054 0.4950704 0.4096375 0.07450123 0.16600613
0.4960697 0.4076554 0.09467214 0.1640114 0.41923937 0.4979391 0.11687702 0.19635023
0.40932345 0.49930352 0.10981718 0.18867244

onnx::Div_74 f4 [12]
00000000: af9f 9b3e 5b41 a83e 34f6 f23e 5cfc eb3e
00000010: 05f5 9d3e 37df a73e 8440 f23e 1f3c eb3e
00000020: 1ce1 983e dd8d a93e 868a f33e 6e90 ec3e
0.30395266 0.32862362 0.47453463 0.46090972 0.30850998 0.32787487 0.47314847 0.45944306
0.29859245 0.33116046 0.47566622 0.4620394

onnx::Div_77 f4 [3]
00000000: 1b27 763f 61b6 183c ce72 963f
0.9615342 0.009320826 1.1753786
