Experimentos/results/ppo8/KartAgent/KartAgent-999978.onnx (onnx, 309439 bytes, 13 tensors)

network_body.observation_encoder.processors.0.normalizer.running_mean f4 [20]
0	0x3d820280	0.06348133
1	0x3efdd4cc	0.49576414
2	0x3cbce738	0.023059472
3	0x3e876fb6	0.26452416
4	0x3d336013	0.043792795
5	0x3e3b7d46	0.18309507
6	0x3b137592	0.0022500497
7	0x3e36e0bd	0.17859168
8	0x3d9cbca1	0.076531656
9	0x3e5b7e18	0.2143482
10	0x3b54ccb3	0.0032470643
11	0x3e43804d	0.19091912
12	0x3d37c11a	0.04486189
13	0x3e8f5924	0.27997696
14	0x3b979ee9	0.004627098
15	0x3e533d31	0.20628811
16	0x3d79cdde	0.060987346
17	0x3e83cddc	0.25742996
18	0x3bb84219	0.005623114
19	0x3e60ac6a	0.21940771

network_body.observation_encoder.processors.1.normalizer.running_mean f4 [12]
0	0x3ce53133	0.027977562
1	0x3eeedb3c	0.46651638
2	0x3bb8746c	0.005629113
3	0x3d6146bc	0.0549991
4	0x3cda4dec	0.026648484
5	0x3eefb24d	0.4681572
6	0x3bb36036	0.0054741157
7	0x3d600e29	0.054701004
8	0x3cf02b9e	0.029317673
9	0x3eeaa7f0	0.4583125
10	0x3bb735a4	0.0055911113
11	0x3d608390	0.054812968

network_body.observation_encoder.processors.2.normalizer.running_mean f4 [3]
0	0xbe571ef8	-0.21007907
1	0x3d431125	0.047623772
2	0x3ea429c7	0.32063124

network_body._body_endoder.seq_layers.0.weight f4 [256, 35]
0	0x3d9e13d6	0.07718627
1	0xbd2292f0	-0.03969091
2	0xbe6ab8a1	-0.22921993
3	0xbea57af2	-0.32320362
4	0x3c27a515	0.01023223
5	0x3e90414c	0.28174818
6	0x3ec58f33	0.38585815
7	0xbe47e0e8	-0.19519389
8	0xbde6e4fc	-0.11274144
9	0xbe1bcb62	-0.15214303
10	0xbc8cd280	-0.017190218
11	0x3e542e4f	0.2072079
12	0xbe86c209	-0.26319912
13	0xbd852c98	-0.06502646
14	0x3d0597fa	0.03261564
15	0x3c94a87a	0.018146742
16	0xbc2a673e	-0.010400591
17	0xbe181474	-0.14851552
18	0xbe71ed1b	-0.23625605
19	0x3da9c454	0.082894
20	0x3e90e3d7	0.28298828
21	0xbe28a004	-0.16467291
22	0xbd67f530	-0.056630313
23	0xbe8c2e8d	-0.27379265
24	0xbdc36030	-0.09539831
25	0xbbf374dc	-0.007429702
26	0x3eaea5ab	0.3411077
27	0xbe060169	-0.13086475
28	0x3c4a8cf8	0.012362711
29	0x3df61abf	0.1201682
30	0x3ddbf856	0.10740726
31	0x3a8710a5	0.0010304643
32	0xbea914bc	-0.33023632
33	0x3da01db5	0.07818166
34	0xbe3e8827	-0.18606625
35	0xbcf3d562	-0.029764835
36	0xbd1e851c	-0.03870116
37	0xbdb1fab0	-0.08690393
38	0xbc84e9ca	-0.01622476
39	0x3d182b3c	0.037150607
40	0xbd3bf2ff	-0.045886036
41	0xbe16bb0e	-0.14719793
42	0xbc80ea07	-0.015736593
43	0xbbc1e7bd	-0.005917518
44	0x3de1fe27	0.11034804
45	0xbdd81b1f	-0.10552048
46	0xbda4fef0	-0.08056438
47	0xbd64db56	-0.055873238
48	0xbd40c1bf	-0.04705977
49	0xbe44c39f	-0.19215249
50	0x3e231c15	0.15928681
51	0xbe7e0ca1	-0.24809505
52	0xbe6fa4be	-0.23402688
53	0xbd3fb3c6	-0.046802305
54	0x3d166fd4	0.03672774
55	0xbe72320f	-0.23651908
56	0xbec87c72	-0.39157444
57	0xbddc7580	-0.10764599
58	0x3d8c34c9	0.068460055
59	0xbe4dfbd9	-0.20115604
60	0x3c8e7551	0.017389925
61	0x3e88e70e	0.2673878
62	0xbcda830c	-0.026673816
63	0x3d467db9	0.048459742
64	0x3e80a2fd	0.2512435
65	0x3e446722	0.19179967
66	0x3e07f951	0.132787
67	0x3dac8163	0.08423116
68	0x3e579b0f	0.21055244
69	0x3e32f639	0.17476739
70	0xbe5933f5	-0.21211226
71	0x3e60015a	0.21875516
72	0xbd742536	-0.0596058
73	0x3e9f405f	0.311038
74	0x3ddee15d	0.108828284
75	0x3e2406e2	0.1601825
76	0xbcceebd0	-0.025258929
77	0xbd2cf2bb	-0.042223673
78	0x3d33262b	0.04373757
79	0x3d9e518e	0.07730399
80	0x3d6a0a0d	0.05713849
81	0x3e5a574c	0.21322364
82	0xbe15ad3f	-0.1461687
83	0x3e886cb1	0.26645425
84	0x3e113248	0.14179337
85	0x3e6bc4e5	0.23024328
86	0xbe957f70	-0.2919879
87	0x3dba7100	0.09103584
88	0xbe415cba	-0.18883029
89	0xbdb76634	-0.089550406
90	0xbe02574c	-0.12728614
91	0x3ea69732	0.32537228
92	0xbe2f7903	-0.17136006
93	0xbde85878	-0.11344999
94	0x3de446a8	0.11146289
95	0xbe981850	-0.2970605
96	0xbaecf780	-0.0018079132
97	0x3cd42f96	0.025901597
98	0xbe388871	-0.18020798
99	0xbb3effc4	-0.0029144147
100	0xbe3f72df	-0.18696164
101	0x3e93aa99	0.28841093
102	0x3e5b8f98	0.21441495
103	0xbe0ce4d3	-0.13759165
104	0x3e0ac9c6	0.13553533
105	0x3e193820	0.14962816
106	0x3e1f05fc	0.15529627
107	0xbe0c1420	-0.13679552
108	0x3e7504f0	0.23927665
109	0x3cd51c02	0.026014332
110	0xbce3ef4c	-0.027824067
111	0x3eb66bf6	0.35629243
112	0xbe877176	-0.2645375
113	0x3e9e0b08	0.3086779
114	0xbaab70b1	-0.0013079849
115	0xbde6d017	-0.11270159
116	0x3e7b2b43	0.24528222
117	0x3eb46c3e	0.35238832
118	0xbdc0a553	-0.09406533
119	0xbae2b5ea	-0.0017296646
120	0x3e04f2b6	0.12983212
121	0xbdd6557e	-0.10465525
122	0xbedd7b5b	-0.43258175
123	0x3e529c25	0.20567377
124	0xbbcb0b95	-0.006196449
125	0x3c668b80	0.014071345
126	0xbd064f5d	-0.03279053
127	0xbdfaf974	-0.12254611
128	0x3d80328d	0.06259642
129	0xbc9a235d	-0.01881569
130	0xbe3fbf12	-0.18725231
131	0x3e053106	0.13006982
132	0x3e08515e	0.13312289
133	0x3e518803	0.2046204
134	0x3c573def	0.013137325
135	0x3be3b8f5	0.006949539
136	0x3df4f64c	0.1196104
137	0xbe3c5165	-0.18390425
138	0x3dd88c53	0.1057364
139	0x3e858fc9	0.26086262
140	0x3e538fd4	0.20660335
141	0x3d8c561f	0.06852364
142	0x39c78f29	0.000380629
143	0x3dec4c12	0.11537947
144	0x3e82e888	0.25568032
145	0xbee35cca	-0.4440673
146	0x3e35411c	0.17700619
147	0xbdb6abfc	-0.08919522
148	0x3ed4d583	0.41569147
149	0xbe5cc03d	-0.21557708
150	0x3eb6592e	0.35614914
151	0x3e02f349	0.12788118
152	0xbb3a1b3a	-0.0028397576
153	0x3e08820b	0.13330857
154	0xbd879f7b	-0.06622215
155	0x3cb5d081	0.022194149
156	0x3ba1671b	0.004925621
157	0x3dabfff6	0.0839843
158	0x3e462939	0.19351663
159	0xbde7a337	-0.11310428
160	0xbe661d1a	-0.22472039
161	0x3e8f913e	0.28040498
162	0xbcf2c5a0	-0.02963525
163	0x3d1352ff	0.035967823
164	0x3e6c4d02	0.23076251
165	0x3e13a967	0.1442009
166	0xbb384c6b	-0.002812172
167	0x3e1e70b6	0.15472683
168	0xbdef909f	-0.11697506
169	0x3e83cb7d	0.25741187
170	0xbf039559	-0.5139976
171	0x3dab86e9	0.083753414
172	0xba22e723	-0.00062142516
173	0x3e91461f	0.2837381
174	0xbd7d2267	-0.061800387
175	0x3e2e8b23	0.17045264
176	0x3df227f1	0.118240245
177	0x3e0478b7	0.12936674
178	0xbe517f3c	-0.20458692
179	0xbcb8f7fc	-0.022579186
180	0x3df2d9bf	0.11857938
181	0xbdc14afb	-0.094381295
182	0x3bb41326	0.0054954467
183	0xbe261f71	-0.16222931
184	0x3ee1a632	0.4407211
185	0x3e248fea	0.16070524
186	0xbe328504	-0.17433554
187	0x3e7aff88	0.2451154
188	0x3e95d937	0.29267284
189	0x3ddd7bc1	0.1081462
190	0xbd02f76e	-0.03197425
191	0x3d695602	0.05696679
192	0x3e301abc	0.17197698
193	0x3dc58659	0.096447654
194	0xbdc79c51	-0.09746612
195	0x3e56034f	0.208997
196	0xbe832cd6	-0.25620145
197	0xbe1e7089	-0.15472616
198	0x3e8c4369	0.2739518
199	0xbe41ff3c	-0.1894502
200	0x3d2d6cda	0.042340137
201	0x3c9b9a3b	0.018994441
202	0xbe62948f	-0.22126983
203	0xbebd1318	-0.3692863
204	0x3df7ae82	0.120938316
205	0xbda27d7a	-0.07934089
206	0x3ec63c97	0.387181
207	0x3dd5d82d	0.10441623
208	0xbd9f6d51	-0.07784522
209	0x3e1bd650	0.15218472
210	0xbd8f3c92	-0.06993975
211	0xbe4a66ab	-0.19765727
212	0x3d98a7c8	0.07453877
213	0xbe0e9543	-0.13924126
214	0x3d62d3f5	0.05537792
215	0xbe30d4e6	-0.17268714
216	0xbde6d0ad	-0.112702705
217	0x3dc29cd6	0.0950257
218	0x3e18754e	0.14888498
219	0xbd47ef5e	-0.048812263
220	0x3c357342	0.011074843
221	0x3dffad35	0.124842085
222	0x3e0fce70	0.14043593
223	0xbcebf1fd	-0.028801912
224	0xbe2eed8e	-0.17082807
225	0x3ea4eb8b	0.32210955
226	0xbc840b8c	-0.016118787
227	0x3e545324	0.2073484
228	0xbd518b05	-0.05115797
229	0xbd572cae	-0.052532844
230	0xbd84a8a8	-0.06477481
231	0xbea1c571	-0.31595948
232	0x3e5de2ef	0.216686
233	0x3d0a3e3a	0.03375075
234	0x3e27c26c	0.1638276
235	0xbead8fa9	-0.33898667
236	0xbe65f776	-0.2245768
237	0x3ea7d78d	0.3278164
238	0xbdd4a02c	-0.10382113
239	0xbe851a79	-0.2599676
240	0x397dbbec	0.00024197967
241	0x3b86e75e	0.0041169366
242	0x3ed917c8	0.42400956
243	0x3e6526a1	0.22378017
244	0xbecad2e9	-0.39614037
245	0xbd2926be	-0.041296713
246	0xbe25f25d	-0.16205736
247	0x3d672f29	0.05644146
248	0xbc05b235	-0.008160164
249	0x3e55ab20	0.2086606
250	0x3c9abbbd	0.018888349
251	0xbd232d9f	-0.03983843
252	0xbe44b629	-0.19210114
253	0xbcaeec2f	-0.021352855
254	0xbe215bd9	-0.15757693
255	0x3e2a86a7	0.16652928

network_body._body_endoder.seq_layers.0.bias f4 [256]
0	0xbc290078	-0.010315053
1	0x3b150403	0.0022737987
2	0x3cf13ac9	0.029446976
3	0x3bf7d0ee	0.007562748
4	0xbc534b97	-0.01289644
5	0x3c3ab08a	0.011394629
6	0xbc327b9f	-0.010893731
7	0x3b6dfd93	0.0036314472
8	0xb9e40209	-0.00043489065
9	0xbb8f0247	-0.004364285
10	0x3cea8b1d	0.028630788
11	0xbcb21b6c	-0.021741591
12	0xbb2f39b5	-0.0026737277
13	0xbcf25e90	-0.029586107
14	0xbcb9a6cd	-0.022662545
15	0xbbe2d723	-0.006922619
16	0xb7c8d552	-2.3941193e-05
17	0xbc95c541	-0.018282535
18	0xbd257fc5	-0.040405054
19	0xbc61b24f	-0.013775422
20	0xbca2bc04	-0.019865043
21	0xbce05459	-0.02738397
22	0xbaf33e48	-0.001855799
23	0x3b272945	0.0025506776
24	0xbd156be2	-0.03647984
25	0xbc0d1ec6	-0.008613294
26	0xbc3f557d	-0.011678097
27	0xbcc41e9f	-0.023940383
28	0xbbde51fb	-0.006784675
29	0x3c8b5d85	0.017012367
30	0x3c114232	0.00886588
31	0xbc96c2b0	-0.018403381
32	0xbca690bc	-0.020332687
33	0xbbf3585a	-0.007426304
34	0xbd5f9b35	-0.054591376
35	0xbbd61a38	-0.0065338872
36	0xbd12da0d	-0.03585248
37	0xbb537584	-0.003226609
38	0xbd866b19	-0.06563396
39	0xbaa3ec52	-0.0012506342
40	0xbc09a70d	-0.008401644
41	0xbaf50b55	-0.0018695394
42	0xbc6247fe	-0.01381111
43	0xbc5a9a19	-0.013342404
44	0xbcca5c22	-0.024702135
45	0xbc5412c9	-0.012943932
46	0x3c82fd89	0.015990036
47	0xbccaf7c4	-0.024776347
48	0xbb91cea0	-0.0044496804
49	0x3c0dd976	0.008657804
50	0xbcf3f185	-0.029778251
51	0xbcd850a1	-0.026405634
52	0xbc0617d0	-0.008184388
53	0xbc1f9e4b	-0.00974233
54	0x3c072eaa	0.008250872
55	0xbc770b03	-0.015078309
56	0xbcceb386	-0.025232088
57	0xbcd39ca4	-0.025831528
58	0x3c8ea19e	0.01741105
59	0x3b7cf6e4	0.0038599307
60	0x3c211f5d	0.009834138
61	0xbc1670a8	-0.009182133
62	0x3cc8376e	0.024440493
63	0xbbcccd65	-0.006250071
64	0xbcb8fc0c	-0.022581123
65	0xbb8cd740	-0.0042981207
66	0xbb9662b8	-0.004589405
67	0xbcda6d2f	-0.02666339
68	0xbd08ff55	-0.03344663
69	0x3adfc16b	0.0017071193
70	0x3c7e7e1e	0.015532998
71	0xbd295f2b	-0.041350525
72	0xbc9a368f	-0.018824844
73	0xbcd415f5	-0.025889376
74	0xbbfc5e57	-0.007701676
75	0xbd316f07	-0.043318775
76	0xbca4dad1	-0.020123871
77	0xbc834011	-0.01602176
78	0xbcc1c549	-0.023653643
79	0xbc6d8d48	-0.014499016
80	0xbad79593	-0.0016447775
81	0xbc2496ec	-0.010045748
82	0x38af0d2b	8.347103e-05
83	0xbcd0ccb5	-0.025488237
84	0x3c6b5690	0.0143639
85	0x3cd4e806	0.025989544
86	0xba724372	-0.00092416175
87	0xbcb0572d	-0.021525944
88	0x3aef568c	0.0018260046
89	0xbd43af37	-0.04777452
90	0xbc8588cc	-0.016300581
91	0xbcb7bad0	-0.022427946
92	0xba7a1d11	-0.00095410744
93	0x3b48cf00	0.003064096
94	0x3b08eecc	0.0020894287
95	0xbc03c246	-0.008041924
96	0xbc9e5ec4	-0.019332297
97	0xbbfe1f94	-0.0077552292
98	0xbcef364b	-0.029200694
99	0xbc526bf2	-0.012843119
100	0xbbd1019b	-0.006378365
101	0xbc9675e1	-0.018366756
102	0xbd2e2095	-0.04251154
103	0xbd375afe	-0.04476451
104	0xbc0c1e90	-0.008552209
105	0xbd0ce4be	-0.034397833
106	0xbca923b4	-0.020646907
107	0xbc4ceffa	-0.012508387
108	0xbc15e575	-0.009148945
109	0x3b79ab02	0.0038096313
110	0xbbe0d083	-0.006860794
111	0x3c2eb499	0.010663175
112	0x3c8713d8	0.016488954
113	0xbbd73288	-0.006567303
114	0xbd1ec3c5	-0.03876092
115	0xbc9ca3e3	-0.019121116
116	0xbcd3b1c0	-0.025841594
117	0xbce736b3	-0.028224325
118	0xbba3ef9f	-0.0050029303
119	0xbc86a6f4	-0.016437031
120	0x3a3928cc	0.0007063269
121	0xbb9b8c3f	-0.0047469432
122	0x3bf46f5a	0.007459563
123	0x3cc7f3de	0.024408277
124	0xbd3af9d6	-0.04564842
125	0xbba43ab1	-0.0050118794
126	0xbca8bf29	-0.020598965
127	0xbb4ec946	-0.0031553074
128	0x3c673bab	0.014113347
129	0xbc9fff57	-0.019530935
130	0xbc615f75	-0.013755669
131	0xbc61e0b0	-0.01378648
132	0xbcf7d497	-0.030252738
133	0xbd55eca8	-0.052227646
134	0xbae8c4eb	-0.0017758881
135	0x3bfa75c1	0.007643432
136	0x3c726ba4	0.014796171
137	0xbb52465d	-0.0032085397
138	0xbc3671e7	-0.011135555
139	0xbd07f3c2	-0.03319145
140	0x3d00c9c5	0.031442422
141	0xbc973d9b	-0.018461993
142	0xbcde0aa5	-0.027104685
143	0x3c0df0b4	0.008663345
144	0xbc94e4c8	-0.018175498
145	0xbd5a7271	-0.053331796
146	0xbd186a84	-0.037210956
147	0xbb052556	-0.0020316443
148	0xbc014791	-0.007890598
149	0xbadabdff	-0.0016688703
150	0xbca08078	-0.019592509
151	0xbd25276d	-0.040320802
152	0x3c9a21ba	0.01881491
153	0x3c35f3d6	0.011105498
154	0xbb9dca9b	-0.004815412
155	0x3bf8049b	0.0075689084
156	0xbd182ce6	-0.037152193
157	0xbd7c3ebd	-0.06158327
158	0xbcbd51f8	-0.023110375
159	0xbcb0f2a0	-0.021600068
160	0xbc435df6	-0.0119242575
161	0xbced027f	-0.028931854
162	0xbcc161e3	-0.023606246
163	0xbd9cf950	-0.0766474
164	0xbca00186	-0.019531976
165	0x3c01920c	0.007908355
166	0xbc869b02	-0.016431335
167	0xbc3e0b4f	-0.011599376
168	0xbc34513c	-0.011005696
169	0xba588265	-0.00082591764
170	0xbc7eb1e1	-0.015545339
171	0x3c801abe	0.015637752
172	0xbb8067cd	-0.003918624
173	0x376faf91	1.4286387e-05
174	0xbccc405e	-0.024933036
175	0xbc94041e	-0.01806837
176	0xbc93f716	-0.018062156
177	0xbb59ede4	-0.0033253366
178	0xbd0fc860	-0.035103202
179	0xbac7ca26	-0.001524274
180	0xbba66d89	-0.0050789756
181	0xbcb68bfb	-0.022283545
182	0xbbc13bea	-0.005897035
183	0xbc408c78	-0.01175224
184	0x3c879c57	0.01655404
185	0xbc20f0d5	-0.009823044
186	0xbd38a9b8	-0.04508373
187	0x3cba40a7	0.022735907
188	0xba4e96c3	-0.00078807416
189	0xbd0f8437	-0.0350382
190	0x3bed5d47	0.0072437855
191	0xbc8fd178	-0.017555937
192	0xbba0c528	-0.0049063154
193	0x3aeeb963	0.0018213209
194	0x3c415e88	0.011802323
195	0xbc65622b	-0.014000456
196	0x3baf3b3a	0.0053476365
197	0xbc16bd50	-0.009200409
198	0x3bbd8acc	0.005784368
199	0xbbc36568	-0.0059630163
200	0xbc8c0461	-0.017091932
201	0xbc2464fe	-0.010033844
202	0xbc5c133b	-0.013432319
203	0xbcf2f7fb	-0.029659262
204	0x3cc0a4df	0.023516117
205	0xbc8f0e49	-0.017462866
206	0x3c1ff6e4	0.009763453
207	0xbccbeeef	-0.024894206
208	0xbd022b18	-0.03177938
209	0xbc9cb466	-0.01912899
210	0xbc8ce520	-0.017199099
211	0xbd3630d3	-0.044480156
212	0xbb287a97	-0.0025707835
213	0xbb1cc3df	-0.002392046
214	0xbc220dd0	-0.0098909885
215	0xbcee0c3e	-0.029058572
216	0xbd324c59	-0.043529842
217	0xbb0b03a9	-0.0021211898
218	0x3a1cdd66	0.00059839187
219	0xbabedd2d	-0.0014561765
220	0x3cf47380	0.029840231
221	0xbce423a9	-0.027849035
222	0xbd0ae2f7	-0.033907857
223	0xbc33fe89	-0.010985979
224	0xbc66e98e	-0.01409377
225	0xbccfa13b	-0.025345435
226	0x3b5fc259	0.003414294
227	0xbd114d2f	-0.035474
228	0xbd305358	-0.043048233
229	0xbd105012	-0.03523261
230	0xbc2bf507	-0.010495431
231	0xbc7cea0a	-0.015436659
232	0xbcda1939	-0.026623355
233	0xbcd7bcec	-0.026335202
234	0xbd060b82	-0.03272582
235	0xbc824c32	-0.015905473
236	0xbb28d447	-0.0025761293
237	0xbc8612e5	-0.016366431
238	0x3b5b12df	0.0033427996
239	0x3cbc63c5	0.022996793
240	0xbce11723	-0.027476853
241	0xbc6c4cc0	-0.0144225955
242	0x3c52316a	0.012829164
243	0xb991e945	-0.00027830355
244	0xbcca3dff	-0.024687765
245	0xbc98c548	-0.018648759
246	0xbc552253	-0.013008672
247	0xbd1229dc	-0.03568445
248	0xbd317983	-0.043328773
249	0x3c2f70d4	0.010708053
250	0xbce4f8d4	-0.027950682
251	0xbce3f146	-0.02782501
252	0xbad10e16	-0.0015949633
253	0xbc7078e6	-0.014677262
254	0xbc675c02	-0.0141210575
255	0x398eba25	0.0002722304

network_body._body_endoder.seq_layers.2.weight f4 [256, 256]
0	0x3d7b2194	0.06131132
1	0xbb3c4e74	-0.0028733285
2	0xbcdc8715	-0.02691988
3	0xbd831737	-0.06400912
4	0x3d5c15fb	0.0537319
5	0xbdc50b63	-0.096213125
6	0x3d0ef7e7	0.034904387
7	0x3d92ad76	0.07161991
8	0x3d6fbca1	0.0585295
9	0xbcef0d57	-0.029181166
10	0x3dcb2f0e	0.09921084
11	0x3b16b32d	0.002299498
12	0x3d8b90d7	0.068147354
13	0x3c971bb5	0.018445829
14	0x3b43c56d	0.0029872314
15	0xba916284	-0.0011091982
16	0xbcdf2428	-0.02723892
17	0x3db477e6	0.08811931
18	0xbdabba35	-0.083851255
19	0x3d8b8bf2	0.06813802
20	0xbd20d12a	-0.039261974
21	0x3cac346c	0.02102109
22	0x3cd7bab7	0.02633415
23	0xbc08bab3	-0.008345294
24	0x3d4aea43	0.049539816
25	0xbd065fdb	-0.03280626
26	0xbdad5f1b	-0.084654056
27	0x3c2cc312	0.010544555
28	0xbd6ba7ca	-0.057533063
29	0x3e18e4b5	0.14930995
30	0xbd1b6af8	-0.03794381
31	0x3d55427e	0.052065365
32	0xbc0e8ff5	-0.008701314
33	0x3b324172	0.0027199653
34	0xbd789bcc	-0.060695454
35	0x3e1f0d16	0.15532336
36	0xbcbce990	-0.02306059
37	0xbda3ad45	-0.07992033
38	0x3d1ffda6	0.039060257
39	0x3d42b462	0.047535308
40	0xbc7f020f	-0.015564456
41	0xbb66a703	-0.0035194762
42	0xbc8fdf1f	-0.017562447
43	0xbca123ea	-0.019670445
44	0xbcc1927b	-0.023629418
45	0xbde62d4d	-0.11239109
46	0x3d8d5585	0.06901077
47	0x3dad588e	0.08464156
48	0x3dcb104b	0.09915217
49	0xbd59a0cb	-0.05313186
50	0xbd30e801	-0.043190006
51	0xbd360461	-0.04443777
52	0xbdcf08e5	-0.10109118
53	0xbc3c853b	-0.011506374
54	0xbdab48de	-0.08363508
55	0xbc6171a5	-0.013760005
56	0x3b62bd0f	0.003459755
57	0x3da8d330	0.08243406
58	0xbde59902	-0.112108245
59	0xbd0d0f82	-0.034438618
60	0x3ce9460a	0.02847578
61	0x3d001222	0.031267293
62	0x3d868baf	0.06569611
63	0x3dd564bb	0.104196034
64	0xbd99433a	-0.074835256
65	0xbdaab070	-0.08334434
66	0x3cc99ff0	0.024612397
67	0xbd08e82f	-0.033424553
68	0xbd3120a2	-0.04324401
69	0x3dbd5e80	0.0924654
70	0x3cca6092	0.024704251
71	0xbcfdab04	-0.030965336
72	0x3d1c5371	0.038165513
73	0x3ca68517	0.020327134
74	0x3b9ddac3	0.004817338
75	0xbb4dc49f	-0.0031397713
76	0x3d299aab	0.04140727
77	0xbd6f88e8	-0.058480173
78	0x3d51a02f	0.051178154
79	0xbc48e371	-0.0122612575
80	0x3dc8d9ef	0.098071925
81	0xbd763ba7	-0.060115483
82	0x3db7278a	0.08943088
83	0x3e0b5b1d	0.13608976
84	0xbd81be53	-0.063351296
85	0x3d8855ba	0.06656976
86	0x3bd2e3ac	0.006435832
87	0x3dfd0ef4	0.12356368
88	0xbd21cdf7	-0.039503064
89	0x3d70b663	0.058767688
90	0xbd2c4caa	-0.0420653
91	0xbd199654	-0.03749688
92	0x3d4e9802	0.050437935
93	0xbd03aebe	-0.03214907
94	0x3cba6708	0.022754207
95	0xbd9bf83e	-0.07615708
96	0xbe29b728	-0.16573775
97	0xbd3b202e	-0.045684986
98	0x3cefaf08	0.029258266
99	0xbe0e9c23	-0.13926749
100	0x3d35c728	0.044379383
101	0xbd46c866	-0.04853096
102	0x3c068617	0.00821068
103	0xbe0fc7a2	-0.14040998
104	0xbe22dc33	-0.15904312
105	0xbdc231bb	-0.094821416
106	0x3d71c66a	0.059027113
107	0x3e369cd4	0.17833263
108	0xbc9ed899	-0.019390391
109	0xbda5d082	-0.0809641
110	0x3cca35bd	0.024683828
111	0x3cc3e179	0.023911225
112	0xbc18f66e	-0.009336097
113	0xbc068469	-0.00821028
114	0xbd902755	-0.07038752
115	0xbd70e0bf	-0.058808085
116	0x3cecb91f	0.028896866
117	0xbdbf9974	-0.09355441
118	0xbd04f6d4	-0.032461956
119	0x3c590a99	0.013247156
120	0x3df07d89	0.11742694
121	0x3c996827	0.018726422
122	0xbbdce0df	-0.006740674
123	0x3da6bb39	0.08141179
124	0xbcd71812	-0.026256595
125	0x3d933f06	0.07189755
126	0x3dd8331c	0.10556623
127	0x3d95c49d	0.07312892
128	0x3d14c9e2	0.036325343
129	0x3b9a548b	0.0047097853
130	0xbc1959b5	-0.009359767
131	0xba020d52	-0.00049610913
132	0x3cb85fef	0.022506682
133	0xbdae96f6	-0.08524887
134	0xbd22c043	-0.039734136
135	0x3d1dd23c	0.038530573
136	0x3d0456d0	0.032309353
137	0x3bacb810	0.0052709654
138	0x3cb9d796	0.022685807
139	0x3d831e10	0.06402218
140	0xbd252cc1	-0.040325884
141	0x3c8af55b	0.016962698
142	0xbc8730c4	-0.016502745
143	0xbdf04c3b	-0.1173329
144	0x3d6b2b62	0.05741442
145	0x3d1c9409	0.038227115
146	0xbd64dd3a	-0.05587504
147	0x3bead2a6	0.0071662245
148	0xbd320900	-0.043465614
149	0x3db26fd8	0.08712739
150	0xbd76608e	-0.060150675
151	0xbd45c6f0	-0.048285425
152	0xbc733634	-0.014844466
153	0x3bf1050a	0.007355337
154	0x3d9ffb59	0.07811613
155	0x3e27d4f6	0.16389832
156	0x3d8c5b93	0.06853404
157	0xbdafca8b	-0.08583554
158	0x3d10c61b	0.035345178
159	0xbc23f560	-0.010007232
160	0xbcec02ad	-0.02880987
161	0x3d0e7605	0.03478052
162	0x3bde8e8c	0.0067918953
163	0xbdd2c315	-0.10291115
164	0xbd0885c4	-0.033330694
165	0xbd7da854	-0.06192811
166	0x3d0970f2	0.03355498
167	0x3d783dfb	0.060605984
168	0x3cdbd94c	0.026837014
169	0xbdb8a985	-0.09016708
170	0xbdae48a4	-0.08509949
171	0xbc6eca3f	-0.014574586
172	0xbdbcbb75	-0.09215442
173	0xbd9374a6	-0.07199983
174	0x3dd5076b	0.104018055
175	0xbdb2dec0	-0.087338924
176	0xbdb2e252	-0.087345734
177	0x3c8fd4d8	0.017557546
178	0xbd38fb2c	-0.04516141
179	0xbe28f46b	-0.16499488
180	0xbb94b44f	-0.004538096
181	0xbb4fbc09	-0.003169777
182	0xbd31c48d	-0.043400336
183	0xbde62d82	-0.11239149
184	0x3d6280a4	0.055298463
185	0xbc31fd54	-0.010863621
186	0xbc492414	-0.012276668
187	0x3c4257ee	0.011861784
188	0xbdd09f4b	-0.10186633
189	0xbc096982	-0.008386971
190	0x3ac71d2b	0.0015191188
191	0xbbdf4ec9	-0.006814812
192	0xbc6d5930	-0.014486596
193	0x3c0ce9f4	0.008600701
194	0x3c9f1ef3	0.019423937
195	0x3ad23c18	0.0016039638
196	0x3c82ac66	0.015951347
197	0xbd0778c3	-0.03307415
198	0xbc5e3538	-0.013562493
199	0x3a2125cd	0.00061472954
200	0x3d8cb9ac	0.068713516
201	0xbccaddf1	-0.024764033
202	0x3e21586d	0.15756388
203	0xbd4b0dff	-0.049573895
204	0xbc4f6f6b	-0.012660841
205	0xbdb1844f	-0.08667814
206	0x3d2c491b	0.042061906
207	0xbcdaf324	-0.026727267
208	0xbda0863d	-0.07838104
209	0x3d82a34a	0.06378801
210	0xbc8b9ad4	-0.017041601
211	0xbd797652	-0.060903855
212	0x3d568a76	0.05237814
213	0xbcef2835	-0.029193977
214	0xbd899aa7	-0.06718951
215	0xbd2feae0	-0.042948604
216	0xbd409fee	-0.04702752
217	0xbb8012d5	-0.003908495
218	0xbd2bf9f0	-0.041986406
219	0x3d8f9835	0.07011453
220	0xbd656ad4	-0.056010082
221	0xbd9cc577	-0.07654851
222	0xbdc300a3	-0.09521606
223	0xbd4983b9	-0.049197886
224	0x3d16c111	0.036805216
225	0x3d5bc6b8	0.05365631
226	0x3d13bfb7	0.036071505
227	0x3d15e4ce	0.03659516
228	0x3d6290d6	0.055313908
229	0xbc255fcf	-0.010093643
230	0xbc6a11a1	-0.01428643
231	0x3de9c6d2	0.11414875
232	0x3d77db18	0.06051168
233	0xbd3589ca	-0.04432086
234	0xbcf62ede	-0.030051645
235	0x3ca333d9	0.019922184
236	0xbdc85caa	-0.09783299
237	0x3c32abd7	0.010905228
238	0xb9053d5a	-0.00012706724
239	0x3c893015	0.01674656
240	0xbd906749	-0.0705095
241	0xbded6edf	-0.115934126
242	0xbde7e97e	-0.11323832
243	0x3c7185b8	0.014741354
244	0x3d010dc5	0.031507272
245	0x3ce1fbba	0.027585853
246	0xbc80084a	-0.015628953
247	0xbd0f7385	-0.035022277
248	0xbc8ce78b	-0.017200252
249	0x3bcc3e15	0.0062329867
250	0xbe0092c7	-0.12555991
251	0xbc04c155	-0.008102735
252	0xbd05b6a9	-0.0326449
253	0xbcc8891e	-0.024479445
254	0xbdb3826b	-0.0876511
255	0xbdfcd4ca	-0.12345274

network_body._body_endoder.seq_layers.2.bias f4 [256]
0	0xbb984bd4	-0.0046477113
1	0xbcbbede7	-0.02294059
2	0xbc899b04	-0.01679755
3	0x3beeb63c	0.0072849076
4	0xbbabb8e7	-0.005240548
5	0xbd113deb	-0.03545944
6	0xbd1343a8	-0.035953194
7	0xbca2ce1f	-0.019873677
8	0x3b194532	0.002338719
9	0xbc86a466	-0.016435813
10	0xbd32337c	-0.04350613
11	0x3c47b935	0.012190153
12	0x3c0e6410	0.008690849
13	0xbb4e6dd3	-0.0031498566
14	0xbc89bf3b	-0.016814819
15	0xbd0239be	-0.03179335
16	0xbcfba416	-0.03071789
17	0xbb5fd910	-0.003415648
18	0x395cf254	0.00021071109
19	0x3b288f27	0.002572009
20	0xbcdfc69a	-0.02731638
21	0xbb81a973	-0.0039569675
22	0xbb84d261	-0.0040533994
23	0xbc77301d	-0.015087155
24	0x3c0ef36f	0.008725031
25	0x3ab54ae5	0.0013831524
26	0xbc97714e	-0.018486645
27	0xbae06b03	-0.0017121736
28	0xbcec5d96	-0.028853219
29	0xbca148b8	-0.019687995
30	0xbc2fa6cb	-0.010720919
31	0xbd01571b	-0.03157721
32	0xbbeb7f91	-0.007186838
33	0xbd3e8244	-0.04651095
34	0xbbfbb5d8	-0.0076815896
35	0x3bcbc7ab	0.0062188706
36	0xbc317393	-0.010830778
37	0xba766a5c	-0.0009400004
38	0xbc6a0d57	-0.014285407
39	0x3b87d84a	0.0041456567
40	0xbc9164b4	-0.017748214
41	0x3c018f0f	0.007907643
42	0xbd10ac7e	-0.03532075
43	0xbd1322a9	-0.035921726
44	0x3c2653fa	0.0101518575
45	0xbcba6f7f	-0.022758244
46	0x3d095d19	0.03353605
47	0xbc1f8349	-0.009735891
48	0xbc29acc4	-0.010356132
49	0xbc47013e	-0.012146292
50	0xbc52fc07	-0.012877471
51	0xbcc4cc70	-0.024023265
52	0xbb8e384c	-0.004340207
53	0x3bf495bf	0.00746414
54	0xbbdc8993	-0.0067302673
55	0x3ab7ba14	0.0014017248
56	0xb94cc6a6	-0.00019528958
57	0xbc01b99c	-0.007917788
58	0xbc8ff78e	-0.017574098
59	0xbcd67735	-0.02617989
60	0xbc8a70a2	-0.01689941
61	0x3aca160f	0.0015417951
62	0xbc5f648b	-0.013634811
63	0x3bb08b15	0.0053876736
64	0xbcf39c4f	-0.02973762
65	0xbc70c468	-0.014695264
66	0x3a88c4ff	0.0010434686
67	0xbb2c66df	-0.0026306433
68	0x3a2c5dbd	0.00065752474
69	0xbd17e914	-0.037087515
70	0xbc9b3d08	-0.01895
71	0xbadc6fee	-0.0016818026
72	0xbaa01120	-0.0012212135
73	0x3c4238c1	0.0118543515
74	0xbc50ee53	-0.012752133
75	0xbd0f58d2	-0.034996815
76	0x3c25d293	0.010121006
77	0xbc646eec	-0.013942461
78	0xbc0018b1	-0.007818387
79	0x3c065c14	0.008200664
80	0xbc724400	-0.01478672
81	0xbd2fd9ba	-0.04293225
82	0x3c32ee51	0.010921077
83	0x3ab42e83	0.0013746772
84	0xbcf484d0	-0.029848486
85	0xbd028768	-0.031867415
86	0xbcb88f3a	-0.022529233
87	0xbb181a1d	-0.0023208924
88	0xbce20732	-0.027591322
89	0xbcb655f5	-0.022257784
90	0x388a3df4	6.5918925e-05
91	0xbc1c6ec5	-0.009547894
92	0xbaf31950	-0.0018546972
93	0xbc22014b	-0.009888004
94	0x3b10d5e1	0.0022100138
95	0xbd21045b	-0.039310794
96	0xbc82d0bb	-0.015968671
97	0xbd160319	-0.036624048
98	0xbbf65217	-0.00751711
99	0xbd0ab4ed	-0.03386395
100	0xbd116f9c	-0.03550683
101	0xbd04a7ab	-0.032386463
102	0x3c5aec82	0.013362052
103	0x3a897ac5	0.0010488859
104	0xbcf72f3a	-0.030173887
105	0xbca5a2fc	-0.020219319
106	0xbce1d588	-0.02756764
107	0x3c25d73b	0.010122116
108	0xbbce487f	-0.0062952633
109	0x3b12cda4	0.0022400403
110	0xbbd47f49	-0.0064849
111	0xbc38e325	-0.011284624
112	0xbbdea016	-0.006793986
113	0xbcae7bc1	-0.021299245
114	0xbd16a2bc	-0.03677629
115	0xbc61b4ae	-0.013775988
116	0xbcc98032	-0.024597261
117	0xbb0d90bf	-0.0021601168
118	0xbb6415f7	-0.003480313
119	0xbd1d51dd	-0.03840815
120	0x3b9df42e	0.0048203683
121	0xbb89c39c	-0.0042042267
122	0xbc6e3f96	-0.014541527
123	0xbbea8e72	-0.007158094
124	0x3bd81475	0.0065942355
125	0x3c765ac1	0.015036286
126	0x3ccaff15	0.024779836
127	0xbb022bb5	-0.0019862477
128	0xbbe839ea	-0.007086982
129	0xbc632085	-0.013862734
130	0x3c2a0515	0.010377188
131	0x3b3629aa	0.002779583
132	0xb9d43f1d	-0.00040482814
133	0x396ac68e	0.00022389946
134	0xbcfafb6c	-0.030637465
135	0xbb2d895e	-0.0026479582
136	0xbd461eee	-0.04836934
137	0xbce2f4ef	-0.027704684
138	0xbc0c6f44	-0.00857145
139	0xbd007c22	-0.031368382
140	0xbbbb1be6	-0.005710113
141	0xbbeec9f6	-0.007287259
142	0xbc2c25c9	-0.010507056
143	0xbc65e881	-0.014032484
144	0xbcbd83dd	-0.023134166
145	0xbc8ae29a	-0.016953755
146	0xbbefa3bc	-0.00731322
147	0x3b9914f5	0.0046716877
148	0xbd080e36	-0.033216678
149	0xbc96b38f	-0.018396167
150	0x3b841905	0.004031303
151	0xbcf3e265	-0.02977104
152	0x3b9f4e09	0.0048615974
153	0xbcb27ed2	-0.021788988
154	0x3c4d7d3c	0.012542065
155	0xbd039141	-0.032120947
156	0xbc5037cf	-0.012708618
157	0x3a78ba33	0.0009488195
158	0xbc5e6e2b	-0.013576071
159	0xbc6e8577	-0.014558188
160	0xbc746db9	-0.014918738
161	0xbcaf88cd	-0.021427536
162	0xbc96a53e	-0.01838934
163	0xbc823b9f	-0.01589757
164	0x3c645eea	0.013938645
165	0xbc98e89a	-0.0186656
166	0x3ae2b2d8	0.0017295731
167	0xbb689942	-0.003549174
168	0xbc876f00	-0.016532421
169	0x3b87e70c	0.004147416
170	0xbc83daff	-0.016095636
171	0xbc89b6aa	-0.016810734
172	0x3a9f130d	0.0012136415
173	0xbd1f6965	-0.03891887
174	0xbc7aaebd	-0.01530045
175	0xba9d5c52	-0.0012005663
176	0x3b7bf5f0	0.003844615
177	0xbbd424ac	-0.006474098
178	0xbd1a8524	-0.03772463
179	0x3bb8bb81	0.0056375866
180	0x3c7c23a7	0.01538936
181	0xbb9d923c	-0.0048086923
182	0x3bd99476	0.0066400124
183	0xbb6e2796	-0.0036339513
184	0x3c3ba10a	0.011451969
185	0xbd1fde0f	-0.03903013
186	0xbce0f0d7	-0.027458591
187	0x3c177b88	0.009245761
188	0x3af9874c	0.0019037514
189	0xba678dd4	-0.0008833085
190	0xbcdb6e6f	-0.026786057
191	0xbb1e11ee	-0.0024119574
192	0xbc123bd5	-0.008925398
193	0xbb8b2b6f	-0.004247121
194	0xbbc56013	-0.006023416
195	0xbcd7001e	-0.026245173
196	0xbc85b68e	-0.0163224
197	0xbc79af73	-0.015239584
198	0xbb7f24b4	-0.003893179
199	0xbd09f214	-0.03367813
200	0xbc5ab81d	-0.01334956
201	0x3bbf01cf	0.005829073
202	0x3c505360	0.012715191
203	0xbc80ebee	-0.0157375
204	0xbbb6d016	-0.005579005
205	0x3c3562ba	0.0110709015
206	0xbbbca57f	-0.0057570334
207	0xbc905952	-0.017620716
208	0xbc56fb59	-0.013121449
209	0x3cc4f7e8	0.024043992
210	0xbcb0c16b	-0.021576604
211	0xb992e1c2	-0.00028015493
212	0xbc7bcae5	-0.015368198
213	0xbbc70d56	-0.006074588
214	0xbd0bc745	-0.034125585
215	0xbd1429a1	-0.036172513
216	0x3c182396	0.009285828
217	0xbd157545	-0.03648879
218	0xbd0958ca	-0.03353194
219	0xbccd5078	-0.025062785
220	0xbca3f356	-0.020013493
221	0xbca6bec5	-0.020354638
222	0x3c9ba7d8	0.019000933
223	0xbcd6b676	-0.026210051
224	0x3c7a123b	0.015263136
225	0xbc34fe76	-0.011046996
226	0xbba1423f	-0.004921227
227	0xbb1eeff9	-0.0024251922
228	0xbc960e63	-0.018317407
229	0xbc665d43	-0.014060321
230	0xba61be27	-0.0008611404
231	0xbc79c5d5	-0.015244921
232	0xbc56da33	-0.013113546
233	0xbc43ae11	-0.011943356
234	0xbb7b26a2	-0.0038322587
235	0xbb83c7d8	-0.004021626
236	0xbccac954	-0.024754204
237	0xbd02a201	-0.03189278
238	0x3c305ecb	0.010764788
239	0x3b2e197e	0.0026565487
240	0xbcb50d74	-0.022101142
241	0x3b59c7c3	0.003323064
242	0xbbacb347	-0.005270395
243	0x3c2dff21	0.0106199095
244	0xbbf98eb5	-0.007615889
245	0xbce1b1ad	-0.027550543
246	0x3babf63b	0.005247859
247	0xbc99a3ea	-0.018754918
248	0xbbc77fa6	-0.006088215
249	0xbbd87403	-0.0066056265
250	0xbcbe6e7b	-0.02324604
251	0xbc6a5113	-0.014301556
252	0x3c415525	0.011800085
253	0x3c7dc28c	0.015488278
254	0xbd1fad02	-0.038983352
255	0x3be9ccf5	0.0071350285

action_model._continuous_distribution.log_sigma f4 [1, 2]
0	0xbc964654	-0.018344082
1	0x3cf3c209	0.02975561

action_model._continuous_distribution.mu.weight f4 [2, 256]
0	0x3cdf30a1	0.027244868
1	0xbc907e13	-0.017638242
2	0xbd96b46d	-0.07358632
3	0xbcb8f254	-0.022576489
4	0xbcef83ee	-0.029237714
5	0xbcd103e4	-0.02551455
6	0x3c01ee8a	0.007930407
7	0x3c2800cd	0.010254097
8	0x3ce61965	0.02808828
9	0x3ad4bb62	0.0016230161
10	0xbb9a8062	-0.0047150115
11	0xbd7ca6b8	-0.061682433
12	0x3d493dc6	0.049131177
13	0xbcc88282	-0.024476293
14	0xbcc51270	-0.024056643
15	0xbbfd2c85	-0.0077262544
16	0xbc6a1404	-0.014286999
17	0x3ce92322	0.028459135
18	0x3be4dceb	0.0069843433
19	0xbcbfb572	-0.02340195
20	0x3c92028f	0.017823486
21	0x3c1eacde	0.009684769
22	0x3c942bb2	0.018087242
23	0xbce18e57	-0.027533693
24	0xbd1d18c4	-0.038353696
25	0x3d11d279	0.035601113
26	0x3bca02a8	0.0061648674
27	0x3d600f32	0.05470199
28	0xbc644fd7	-0.013935051
29	0xbb14f184	-0.0022726962
30	0xbc4a7891	-0.012357847
31	0xbb07b1d0	-0.002070535
32	0x3c71baa1	0.014753968
33	0x3c0214f8	0.00793957
34	0x3d0a4cdd	0.03376471
35	0x3d2305b4	0.03980036
36	0xbd14afe2	-0.036300547
37	0x3d13e7d4	0.03610976
38	0x3cb276af	0.021785108
39	0x3c22e9d6	0.009943446
40	0x3cee2045	0.029068122
41	0x3d80f90f	0.06297504
42	0x393f7613	0.00018259166
43	0x3c48120d	0.012211335
44	0x3d46f4a3	0.048573148
45	0x3c91579f	0.017741976
46	0x3cbc1ec5	0.02296389
47	0x3d434a57	0.047678318
48	0x3cec43d3	0.028840935
49	0xbc929dca	-0.017897505
50	0xbc9d7973	-0.01922295
51	0xbd21eb41	-0.039530996
52	0xbd10665b	-0.035253864
53	0xbd4e98a5	-0.050438542
54	0xbd09a238	-0.03360197
55	0x3c0abf03	0.008468392
56	0xbd40e021	-0.047088746
57	0xbc62b009	-0.013835915
58	0xbd10b5d7	-0.035329666
59	0x378ebcaa	1.7015573e-05
60	0xbcef87ba	-0.029239524
61	0x3c9f81f0	0.019471139
62	0x3d1ff683	0.03905345
63	0x3d8c7734	0.06858674
64	0xbc7f6067	-0.015586949
65	0xbc2944fa	-0.010331387
66	0x3cbe2d93	0.02321509
67	0x3ca53aaa	0.020169575
68	0xbd084ea0	-0.033278108
69	0xbc215ecf	-0.009849264
70	0xbce617c0	-0.028087497
71	0x3b74a3ee	0.0037329155
72	0xbc7a2360	-0.015267223
73	0xbd4ca54b	-0.049962323
74	0xbbbc8a22	-0.0057537714
75	0xbca17303	-0.019708162
76	0x3d2b62f4	0.041842416
77	0xbcaf400f	-0.02139285
78	0x3d21a4f6	0.03946396
79	0x3c8f30c2	0.017479304
80	0xbc87c1fc	-0.016571991
81	0xbce95920	-0.02848488
82	0x3d24067f	0.040045258
83	0xbd4d418c	-0.05011134
84	0xbc377794	-0.011197943
85	0xbce05243	-0.027382975
86	0xbc9726bf	-0.018451093
87	0xb8c1cfcc	-9.241662e-05
88	0xbc20045f	-0.009766667
89	0xbc640626	-0.0139174815
90	0xbaa4042d	-0.0012513452
91	0xbcb5d56f	-0.0221965
92	0x3d1ae0fc	0.037812218
93	0x3d09547e	0.033527844
94	0x3cc8b78f	0.02450159
95	0xbb111a59	-0.0022140949
96	0xbbca2248	-0.0061686374
97	0x3bf96c72	0.0076118046
98	0x3d7e512d	0.062089134
99	0x3b3f489e	0.002918757
100	0xbd0563fd	-0.03256606
101	0xbc8006e7	-0.015628291
102	0x3db2a952	0.087237015
103	0xbd3deaeb	-0.046366613
104	0x3bbba7ab	0.0057267747
105	0xbc65c9a0	-0.014025122
106	0x3c98945c	0.01862543
107	0xbd5869ad	-0.052835155
108	0x3cacc844	0.021091588
109	0xbcc84e79	-0.024451481
110	0x3d107a2a	0.035272755
111	0xbd125c67	-0.035732653
112	0xbd117ef4	-0.035521463
113	0xbcd4a91f	-0.02595955
114	0xbc9613f2	-0.018320058
115	0x3b3cbe3a	0.0028799907
116	0x3957949b	0.00020559358
117	0xbd6f2345	-0.058383245
118	0x3cc5e7e9	0.024158435
119	0xbc03186a	-0.008001426
120	0x3c84e256	0.016221207
121	0xbd1a016c	-0.037599012
122	0xbbee2e2d	-0.007268688
123	0xbcc34783	-0.02383781
124	0xbd0f99c1	-0.03505874
125	0xbd7a8486	-0.06116154
126	0x3d408ec7	0.047011163
127	0x3d82daf2	0.06389417
128	0x3c4c183e	0.012456952
129	0xbcaba226	-0.020951342
130	0x3cdd53fa	0.027017582
131	0xbd3a411a	-0.045472242
132	0xbccf39c1	-0.025296094
133	0x3bceaacd	0.006306982
134	0xbc0472c7	-0.008084006
135	0xbc58baaa	-0.013228098
136	0xbbe543ca	-0.0069966065
137	0xbcce1322	-0.025155608
138	0x3ca21b57	0.019788427
139	0x3c243dcb	0.010024498
140	0x3d17c8a8	0.037056595
141	0xbd058cb2	-0.03260488
142	0xbd1ca95d	-0.038247455
143	0x3cf60081	0.030029537
144	0x3c8c0a9a	0.017094899
145	0x3c25d504	0.010121588
146	0x3cf0f2f1	0.029412718
147	0xbbb8e7f1	-0.005642884
148	0xbca58c08	-0.020208374
149	0xbcbacd86	-0.02280308
150	0x3c361e4c	0.011115622
151	0xbcfca2b8	-0.03083931
152	0xbd896650	-0.06708968
153	0xbcdff02f	-0.027336208
154	0x3cbd92da	0.023141313
155	0xbcb60412	-0.022218738
156	0xbd0ae779	-0.033912156
157	0x3d185dee	0.037198953
158	0xbd0788c2	-0.033089407
159	0xbd24efbb	-0.040267687
160	0x3d09d196	0.033647142
161	0xbc53310f	-0.012890114
162	0x3c828c7b	0.015936127
163	0x3d080660	0.033209205
164	0x3d705616	0.058675848
165	0x3ccb795a	0.024838138
166	0x3cdd02b4	0.026978828
167	0x3d01e56f	0.031712946
168	0x3b918b33	0.0044416427
169	0x3d022689	0.03177503
170	0xbc744c10	-0.014910713
171	0x3d09b01b	0.033615213
172	0x3d8767b4	0.06611577
173	0xbb996c2f	-0.004682086
174	0xbd44d7cd	-0.048057366
175	0xbd5cf1c9	-0.05394152
176	0x3d4eac74	0.050457433
177	0x3d214b4d	0.039378453
178	0xbc3dfaf1	-0.011595474
179	0xbcb50a33	-0.02209959
180	0x3cb1a1b3	0.02168355
181	0xbcdbc94c	-0.026829384
182	0x3d4f0e5a	0.050550796
183	0x3cd1ca7c	0.025609247
184	0x3d400036	0.0468752
185	0xbb845e05	-0.0040395283
186	0x3bd99ce6	0.006641018
187	0xbd37221b	-0.04471026
188	0xbd742b8b	-0.05961184
189	0x3d0a3ce3	0.033749472
190	0xbcbdc186	-0.023163568
191	0xbcc7e4f4	-0.024401166
192	0x3d23105a	0.039810516
193	0x3c14d9e6	0.009085154
194	0x3b7308d6	0.0037084124
195	0xbcbe7b5b	-0.02325218
196	0xbc5b60b2	-0.013389753
197	0xbc9a6aeb	-0.01884981
198	0x3abda1d9	0.001446779
199	0x3d170f6d	0.036879946
200	0xbd2e6b5a	-0.042582847
201	0x3d18354f	0.037160214
202	0xbd835448	-0.0641256
203	0x3cd3f74a	0.025874753
204	0x3cdf458d	0.027254844
205	0xbd0ee5e7	-0.03488722
206	0xbd176d04	-0.0369692
207	0x3cdec6a5	0.02719433
208	0x3d222c26	0.039592884
209	0xbda00d03	-0.07814982
210	0x3c82450c	0.015902065
211	0xbc0deac9	-0.008661934
212	0xbc6c1bd3	-0.014410931
213	0x3d0d3e17	0.03448304
214	0x3c05115f	0.008121817
215	0x3c87c93f	0.016575454
216	0xbc92eeea	-0.017936189
217	0xbbbe5836	-0.0058088554
218	0xbc478cee	-0.012179596
219	0x3cba5abc	0.022748344
220	0xbc8e8dcc	-0.017401598
221	0x3ccc4b50	0.024938256
222	0x3cfbc896	0.030735295
223	0x3c8abfb1	0.016937109
224	0x3c9aa5c7	0.018877877
225	0x3c01eb0b	0.007929574
226	0x3cad0089	0.02111842
227	0x3bebfa1a	0.0072014453
228	0xbbe58421	-0.0070042764
229	0xbd01b690	-0.031668246
230	0xbd2fac28	-0.04288879
231	0x3c9114c1	0.017710092
232	0x3c925d0d	0.017866636
233	0xbcd32680	-0.025775194
234	0x3c588166	0.013214445
235	0x3cbb0d73	0.022833562
236	0x3bd72711	0.0065659364
237	0xbc342f2d	-0.010997576
238	0xbd1890e4	-0.037247553
239	0xbc92d22a	-0.01792248
240	0xbd1be0f2	-0.03805632
241	0xbc0ceef8	-0.008601896
242	0x3c9766c6	0.018481623
243	0x3d3b4435	0.045719344
244	0x3d0adbff	0.03390121
245	0x3b8402c3	0.0040286495
246	0x3be8e528	0.0071073957
247	0x3d0cc0aa	0.034363426
248	0x3d983f79	0.074339814
249	0x3c6bd624	0.014394317
250	0x3b9fc731	0.0048760404
251	0x3cb08bfe	0.021551128
252	0x3d23b255	0.039964993
253	0x3da63e27	0.08117323
254	0x3c1701eb	0.009216766
255	0x3c6ffe00	0.014647961

action_model._continuous_distribution.mu.bias f4 [2]
0	0xbb210877	-0.0024571696
1	0xbaf550e6	-0.0018716126

onnx::Div_71 f4 [20]
0	0x3e79ae47	0.24382888
1	0x3efffdb3	0.49998245
2	0x3e19b2ce	0.15009615
3	0x3e6cfb41	0.23142721
4	0x3e518c24	0.20463616
5	0x3ec603a3	0.3867465
6	0x3d421bd7	0.04738983
7	0x3e06f23c	0.13178343
8	0x3e881d6b	0.26584944
9	0x3ed21c3e	0.41037172
10	0x3d690f06	0.056899093
11	0x3e11618a	0.14197364
12	0x3e53f87c	0.20700258
13	0x3ee5e1ad	0.4489874
14	0x3d8b00a4	0.067872316
15	0x3e1e4122	0.15454534
16	0x3e750d59	0.23930873
17	0x3edfdae8	0.437217
18	0x3d9926e4	0.07478121
19	0x3e24d86f	0.16098188

onnx::Div_74 f4 [12]
0	0x3e28dec2	0.16491225
1	0x3eff6d1d	0.49887934
2	0x3d993caf	0.074822776
3	0x3db10e8c	0.08645353
4	0x3e24ecbe	0.16105935
5	0x3eff7b0c	0.49898565
6	0x3d97200e	0.07379161
7	0x3dafe488	0.08588511
8	0x3e2cbf6e	0.168699
9	0x3eff1be1	0.49825957
10	0x3d98b8e0	0.07457137
11	0x3dafc1ac	0.08581862

onnx::Div_77 f4 [3]
0	0x3f720509	0.94538933
1	0x3d6f62b2	0.058443733
2	0x3fa65ccf	1.2997073
