Experimentos/results/ppo8/KartAgent/KartAgent-849977.onnx (onnx, 309439 bytes, 13 tensors)

network_body.observation_encoder.processors.0.normalizer.running_mean f4 [20]
00000000: 2b3e 7e3d d4a6 f13e 166d b23c cc49 823e
00000010: 3b5e 3a3d bc3a 3d3e 6884 1b3b 1602 353e
00000020: c56b 983d 4aa7 5b3e b267 6f3b 0812 433e
00000030: ee4c 3a3d 0139 923e 308c a83b 84da 553e
00000040: ac6a 7c3d 73c6 843e 845d bd3b 6cd7 623e
0.062071007 0.47197592 0.021780532 0.25446928 0.04550002 0.18479437 0.0023730043 0.17676577
0.074424304 0.21450534 0.0036530313 0.19049847 0.045483522 0.28559116 0.005143665 0.20884138
0.061625168 0.25932655 0.00577897 0.2215249

network_body.observation_encoder.processors.1.normalizer.running_mean f4 [12]
00000000: adea e33c 5a27 e13e 17b8 9f3b c69b 543d
00000010: ea4f dc3c 77e7 e13e 0de7 9b3b 7993 533d
00000020: 2dbe eb3c d85b dd3e bfc0 9d3b 6dd8 533d
0.027821863 0.43975335 0.00487424 0.05190637 0.026893575 0.44121906 0.004757768 0.051654313
0.028777206 0.43234134 0.004814237 0.05172007

network_body.observation_encoder.processors.2.normalizer.running_mean f4 [3]
00000000: 23f2 68be 5c08 483d f913 b43e
-0.22748618 0.048836097 0.35171488

network_body._body_endoder.seq_layers.0.weight f4 [256, 35]
00000000: ebff a03d 3df1 2bbd 6621 69be 1531 a3be
00000010: c3fc 4e3c af06 903e 94ce c63e f415 45be
00000020: 6062 e9bd daac 1dbe 582f 90bc da8e 523e
00000030: 9367 87be 3699 7ebd f13b 0b3d d8aa ab3c
00000040: d6f7 0dbc 70af 17be 2d86 72be f74f a33d
00000050: 2ff7 903e cbee 27be b5c7 5ebd d86b 8abe
00000060: d681 c4bd 2fe0 dfbb 6ed2 af3e caad 02be
00000070: 4334 523c 146c f63d 876e e03d b442 9f3b
00000080: 5b52 a8be ced3 a23d c09c 3cbe 4c4f d6bc
00000090: b489 1dbd 3c6a a5bd ae7a 8fbc 359e 1e3d
000000a0: 724c 42bd b800 19be c029 61bc 3885 eaba
000000b0: 48d9 db3d f3d4 d4bd cc75 adbd 1dc8 56bd
000000c0: 519a 45bd 3984 45be 0f94 213e 610f 7cbe
000000d0: 7370 6dbe 815b 39bd b7d3 1d3d 70f5 70be
000000e0: 773c c7be ae7d d9bd d4c5 8b3d 2a33 4dbe
000000f0: 12ef 9f3c ee13 893e c893 d0bc 7013 443d
00000100: d15d 813e 2512 463e 10ad 053e 3484 9e3d
00000110: 254f 5a3e a040 333e 06e2 5bbe ebbc 603e
00000120: 457b 69bd 409f 9d3e b405 df3d 9f33 243e
00000130: a048 cabc 8390 29bd fee4 4a3d fc5d a13d
00000140: 3dfb 6b3d f5a3 583e 6259 13be f641 873e
00000150: 7cea 0e3e e9c4 6b3e 642e 96be 38d6 b93d
00000160: 53c4 40be 96e9 b3bd 4053 03be 9236 a73e
00000170: 8ab6 2ebe 1ea8 edbd 2d8a e23d 9795 97be
00000180: 4601 b9ba d91f c73c 97b1 39be f0b7 29bb
00000190: 20a0 3ebe 3185 913e 5b87 573e 7284 0bbe
000001a0: 164a 0a3e f5da 193e d022 223e 2710 08be
000001b0: 3a92 6f3e a183 cb3c e9b6 cebc 3611 b53e
000001c0: 05d9 85be 72a4 a03e 5426 88ba bbea e7bd
000001d0: d4a6 763e 816a b53e 7515 c7bd fa46 40bb
000001e0: 4963 043e 07b3 d8bd 9973 ddbe 04c1 503e
000001f0: 0fa3 91bb 2f95 6f3c dec7 fabc b7c3 fcbd
00000200: a18f 6a3d f821 91bc 07df 3dbe 9549 033e
00000210: 0a5a 043e a08c 513e 4142 733c 2a2c f13b
00000220: 390d e63d 8b72 40be 3ca7 d83d 0b91 853e
00000230: 9120 523e 3fbe 883d 789b 7d3a 336a ea3d
00000240: ec5a 833e 2b5b e3be 5d05 333e 8e00 b8bd
00000250: 10f5 d73e 051a 5ebe 1479 b53e 3041 023e
00000260: cd82 ce3a 18e6 043e 88ee 8bbd 466f ab3c
00000270: 7375 f03a a4c2 ac3d abe5 443e bba1 e5bd
00000280: c6ac 66be 4561 8f3e ad5e 01bd b4aa 0f3d
00000290: 7f24 6b3e ea5f 123e f7ac 96bb 77dd 1d3e
000002a0: 66b7 f2bd dda6 833e 4d97 03bf 1477 a83d
000002b0: d8fc 69bb 2d89 903e deb0 7cbd 19b1 2d3e
000002c0: 582e f23d 81a6 063e 7a17 55be d326 cabc
000002d0: bcdf f43d d638 c2bd 0c9a bb3b 86d2 23be
000002e0: adc1 e23e 3e6f 263e 8639 34be 5804 7f3e
000002f0: 6699 943e 8304 dc3d c658 fbbc 6b94 683d
00000300: 528e 2d3e ae94 c33d 099a c2bd fb61 543e
00000310: c722 83be 0749 1ebe 2da8 8a3e 1891 42be
00000320: 8906 2e3d c15c 973c 242f 65be d825 bdbe
00000330: f959 f73d 20ea a1bd e920 c43e 61ff d23d
00000340: 46e8 a0bd 1713 1a3e 67f8 91bd bff0 49be
00000350: 4ea4 903d ffd5 10be 92e4 6e3d 7583 30be
00000360: 680d e8bd a278 bb3d fced 1b3e bdf7 40bd
00000370: 9345 1e3c 4351 023e 8bac 0f3e 0c4c fbbc
00000380: 7558 30be bbff a43e 8ea6 adbc a254 563e
00000390: e1bc 47bd 08e3 5ebd 5454 87bd 4dcf a2be
000003a0: 4428 5d3e 2611 063d 2803 263e d47b aebe
000003b0: cdb6 65be 4c9f a63e 7601 dabd 321d 86be
000003c0: e1df 113b b599 bd3b 525a db3e 5383 653e
000003d0: fe39 cbbe 56be 22bd 7bd8 25be badb 773d
000003e0: fb40 1ebc da55 553e 83f4 933c 7d59 2fbd
000003f0: 805d 41be f9c9 aebc 81bf 22be 5200 2e3e
0.078613125 -0.04197811 -0.22766647 -0.31873384 0.012633505 0.281301 0.38829482 -0.19246656
-0.11395717 -0.15397969 -0.0176007 0.20562306 -0.26446208 -0.062157832 0.03399271 0.020955488
-0.008665046 -0.14813018 -0.23683996 0.079742365 0.28313586 -0.16399686 -0.054389674 -0.27035403
-0.09595077 -0.0068321447 0.34340233 -0.12761608 0.012829843 0.12032333 0.109585814 0.0048602466
-0.32875332 0.07950555 -0.1841917 -0.026160859 -0.038461402 -0.08076903 -0.017514553 0.038725097
-0.047436185 -0.1494168 -0.013742864 -0.0017892485 0.107348025 -0.10392179 -0.084697336 -0.052436937
-0.04824287 -0.1928872 0.15779136 -0.24615242 -0.23187427 -0.04525328 0.038531985 -0.23531127
-0.3891332 -0.106196746 0.06824842 -0.20039049 0.019523177 0.26773018 -0.025461093 0.0478701
0.2526689 0.19342859 0.130543 0.077400595 0.21319254 0.17505121 -0.2147294 0.21947066
-0.057002325 0.3078556 0.1088976 0.16035317 -0.024692833 -0.041397583 0.04953479 0.07879254
0.057612646 0.21156295 -0.14389566 0.26417512 0.13956636 0.23024334 -0.29332268 0.09074062
-0.18824892 -0.08784787 -0.12824726 0.3265882 -0.1706182 -0.116043314 0.11061511 -0.29606315
-0.0014114759 0.024307178 -0.18134151 -0.0025896989 -0.1861577 0.2842193 0.21047728 -0.13624743
0.13504824 0.15024932 0.15833592 -0.13287412 0.23395625 0.024843039 -0.025233703 0.35364693
-0.26142135 0.31375462 -0.0010387399 -0.11324068 0.24087077 0.3543282 -0.097208895 -0.002933918
0.129285 -0.10581022 -0.43252257 0.2038613 -0.004444487 0.0146229705 -0.030612882 -0.12342017
0.05726588 -0.017716393 -0.1854211 0.12821038 0.12924972 0.204638 0.014847339 0.007360001
0.11232991 -0.18793695 0.105787724 0.26087222 0.20520236 0.066769116 0.0009674351 0.11446037
0.25655305 -0.44405493 0.17482515 -0.08984481 0.42179155 -0.21689613 0.35443938 0.1272018
0.0015755534 0.12978399 -0.068326056 0.020927083 0.001834555 0.08435562 0.19228236 -0.11212488
-0.22526845 0.28003898 -0.03158443 0.035074905 0.22963141 0.14294401 -0.0045982557 0.15416513
-0.11851387 0.25713244 -0.5140274 0.08225837 -0.0035703685 0.28229657 -0.06169211 0.16962089
0.118252456 0.13149454 -0.20809737 -0.024676716 0.119567364 -0.09483497 0.005725151 -0.15998277
0.44288388 0.16253373 -0.17600068 0.24904001 0.29023284 0.10743048 -0.030681979 0.056782167
0.16948822 0.09549843 -0.09502036 0.20740502 -0.2561247 -0.15457545 0.27081433 -0.19000661
0.0424867 0.018476846 -0.22381264 -0.36942935 0.12077708 -0.07905984 0.38306358 0.10302616
-0.07856803 0.15046345 -0.07127457 -0.19720744 0.07062589 -0.14144133 0.05832345 -0.17237647
-0.11330682 0.09153868 0.15227503 -0.04711126 0.0096601425 0.12726311 0.14030664 -0.03067591
-0.17221244 0.32226357 -0.021197584 0.20930722 -0.048764113 -0.054415733 -0.06607881 -0.31798783
0.21597391 0.032731198 0.16212142 -0.34078848 -0.22433014 0.3254341 -0.1064481 -0.2619415
0.0022258686 0.0057861456 0.42842346 0.22413377 -0.39692682 -0.0397323 -0.16195862 0.060512282
-0.009659047 0.20833531 0.018060928 -0.042809952 -0.18883324 -0.021336542 -0.15893365 0.1699231

network_body._body_endoder.seq_layers.0.bias f4 [256]
00000000: a45d 41bc aba0 643a 0c0f f33c ee47 063c
00000010: af94 44bc db6f 423c b00b 2dbc 3bdd f73a
00000020: fce3 773a eccb 62bb b171 e33c 3210 b2bc
00000030: c749 2dbb 16bb fcbc aa67 c4bc ba51 e3bb
00000040: a544 c03a 80b0 9dbc 0818 20bd d160 83bc
00000050: 7489 9bbc b97d edbc ca91 ffba 01ac ae3a
00000060: 382a 0cbd eaef f2bb ea60 2fbc c271 d1bc
00000070: f8a5 06bc 632e 7f3c 84cc 193c beeb 9dbc
00000080: b5ce a1bc 3969 e1bb cf9b 59bd 068f eabb
00000090: 1389 0fbd 2458 24bb 9ee8 85bd 4c4f c2ba
000000a0: 779a 05bc e3c8 05bb 0882 79bc 3602 3abc
000000b0: 9268 c4bc 734a 7fbc 79aa 583c a955 b4bc
000000c0: 570f bdbb 9624 013c 6ac8 f6bc ceb0 e1bc
000000d0: 4141 12bc 7b8c d5bb 0170 eb3b 3e9b 78bc
000000e0: 3df8 b2bc 1177 c8bc 7f4c 8a3c 46a3 303b
000000f0: bdd7 103c b4a8 2cbc 9872 bd3c 1a35 d1bb
00000100: 7c7e a6bc 93c6 5cbb f522 bdbb a081 dbbc
00000110: fdbe 07bd 7e04 5b3b ba60 683c 9705 29bd
00000120: 4426 91bc 3a18 c3bc 788d f3bb bfb3 35bd
00000130: 73b0 9dbc 3c0e 55bc cc8c cfbc e794 5cbc
00000140: e05f ce3a fd3a fdbb 9869 28b9 a7f2 c6bc
00000150: 7656 663c 2689 bf3c dd46 00bb a0f4 aebc
00000160: faa4 ad39 dc6d 44bd c7c0 7dbc f011 bdbc
00000170: 3f4e d03a 5a0a b13b 741a f43a c9d8 e6bb
00000180: 83e4 9cbc 8b73 e5bb db66 fdbc a441 5fbc
00000190: ff57 05bc 7207 9ebc 3cc6 2fbd 2f35 2ebd
000001a0: 3d7b 0cbc a590 0abd 9505 a4bc d18d 58bc
000001b0: 3601 02bc ed90 873b cee6 c4bb b18e 1e3c
000001c0: fe39 713c 66df c1bb cf2e 1cbd 3975 8ebc
000001d0: bd47 d5bc 34d4 dfbc 228b 50bb 7bb8 76bc
000001e0: 71ae b5b9 4a82 c4bb ee88 dc3b 87c6 c63c
000001f0: ac56 36bd 278e e3bb 82d1 9bbc 507c c0ba
00000200: 9777 803c 04bb 91bc 854a 3dbc 0dd6 41bc
00000210: f41a f5bc 2db3 51bd e471 8bba 49ab 0f3c
00000220: 4ef5 823c 2301 cabb 2006 30bc 4ed4 00bd
00000230: 1a31 fc3c db45 98bc 8647 d4bc ac7b 013c
00000240: 61b4 80bc 0270 56bd 4be8 12bd d0cd 9739
00000250: 0501 2dbc 75ed 22bb 6f3f 8cbc ff74 29bd
00000260: 1f74 943c 9689 303c c3c7 98bb 3490 c33b
00000270: 37bc 1fbd 9de5 74bd b085 c2bc 9892 a3bc
00000280: 08bd 3fbc fd03 f1bc 7c5e bbbc 8001 95bd
00000290: e1b3 85bc f86b 023c 7591 81bc 3e02 53bc
000002a0: 0940 19bc 388d 4fba 848c 79bc 3eb9 7e3c
000002b0: c56f abbb bf2e 7e3b e491 bbbc 77fe 84bc
000002c0: 2097 86bc 0dfa 8abb e1fc 00bd aeac 08bb
000002d0: 030f 79bb e6d5 bcbc 4aea d8bb 68e4 5abc
000002e0: f7a1 833c 1aa2 11bc 28ca 3ebd 7064 b73c
000002f0: 7075 7fba 7110 10bd d537 cc3b 5b75 82bc
00000300: 5d6f cbbb df25 59b8 e238 383c ca10 80bc
00000310: db78 003c adb0 45bc 0c94 c03b e223 c6bb
00000320: 31a8 95bc 5766 29bc bae4 58bc e6e6 fdbc
00000330: 7024 b83c 1e9a 83bc ca6d f33b 8fe1 c1bc
00000340: 4022 f6bc 5bcd a6bc 1b89 7dbc 8417 3ebd
00000350: 0f75 a9ba 2a7e ccba ddf3 04bc d111 e1bc
00000360: 0721 32bd 1c66 46bb 28d1 52bb 94c9 4cbb
00000370: b6ae ea3c 847a ebbc 2fe5 09bd 160f 35bc
00000380: 6117 4ebc 1a59 c6bc 2fe8 023b 1ba1 17bd
00000390: c1d4 2cbd 929a 14bd 82f9 31bc 1cb4 82bc
000003a0: 725f e7bc 5804 e2bc 8a36 0abd 7153 86bc
000003b0: baa4 51bb 455c 74bc 7eea e73a 2226 bb3c
000003c0: a278 e8bc c55b 58bc 12d4 353c a0a6 113b
000003d0: 8c15 dbbc 171d a3bc 3b55 44bc a561 14bd
000003e0: 3565 34bd 7ea0 313c 777a d0bc 9b23 e4bc
000003f0: 4e59 78bb 9711 36bc 5ea7 63bc b30c 963a
-0.011802111 0.0008721451 0.02967026 0.00819586 -0.01199834 0.011867489 -0.010561869 0.0018910536
0.00094562746 -0.003460641 0.027764173 -0.021736238 -0.002644168 -0.030850928 -0.023975212 -0.006937233
0.0014668895 -0.0192492 -0.039085418 -0.016037377 -0.018986441 -0.028990613 -0.0019498405 0.0013326408
-0.03421995 -0.007413854 -0.010704258 -0.02556694 -0.008218281 0.015575024 0.009387139 -0.01927745
-0.019751886 -0.0068789986 -0.053127106 -0.007158163 -0.035042834 -0.002507695 -0.06538509 -0.0014824658
-0.008154503 -0.0020413927 -0.015228756 -0.011353066 -0.023975644 -0.015581715 0.013224238 -0.022013502
-0.005769651 0.007882258 -0.030124862 -0.027550127 -0.008926691 -0.0065169907 0.0071849828 -0.015173731
-0.021846885 -0.024470838 0.01688218 0.0026952787 0.0088404985 -0.010538269 0.023125932 -0.006384504
-0.020323984 -0.0033687695 -0.0057719895 -0.026795208 -0.033141125 0.0033419426 0.014183218 -0.041265097
-0.017718442 -0.023815263 -0.007432636 -0.044360872 -0.019249177 -0.013003882 -0.025335692 -0.013463235
0.0015745126 -0.007727979 -0.00016061065 -0.024285628 0.0140587 0.023380827 -0.0019573488 -0.02135688
0.00033120048 -0.047956333 -0.015487856 -0.023079842 0.001589246 0.0054028453 0.0018623606 -0.007044886
-0.019151932 -0.007002299 -0.030932834 -0.01362649 -0.008138656 -0.01929066 -0.04291366 -0.04253119
-0.008574304 -0.03382935 -0.020022193 -0.013217405 -0.007934859 0.0041371495 -0.0060089594 0.009677575
0.014723299 -0.0059165237 -0.038130578 -0.01738988 -0.026035184 -0.027322866 -0.003182121 -0.015058632
-0.0003465298 -0.005996977 0.0067301905 0.024264587 -0.04451625 -0.006944436 -0.0190208 -0.0014685486
0.015682025 -0.017789371 -0.011553411 -0.011830819 -0.029920079 -0.051196266 -0.00106388 0.008768865
0.015986111 -0.0061646863 -0.010743648 -0.03145247 0.030785132 -0.018587997 -0.025913011 0.007903021
-0.015711011 -0.052352913 -0.035866063 0.00028954307 -0.010559325 -0.0024860774 -0.017120091 -0.04137134
0.018121777 0.010774991 -0.0046624853 0.005968118 -0.038997855 -0.05978929 -0.023745388 -0.019967362
-0.011702783 -0.029420847 -0.022872202 -0.07275677 -0.016321125 0.007960312 -0.01581643 -0.012878953
-0.009353646 -0.00079174666 -0.015231255 0.015547095 -0.00523183 0.0038785187 -0.022896715 -0.01623462
-0.016429484 -0.004241234 -0.031491164 -0.0020854878 -0.0038003332 -0.023051213 -0.0066197263 -0.01336012
0.016068442 -0.008888746 -0.04657951 0.02238676 -0.00097449776 -0.03517193 0.0062322416 -0.0159251
-0.006208344 -5.1772102e-05 0.011244031 -0.015633006 0.007841314 -0.012066049 0.0058770236 -0.006046758
-0.018268676 -0.010339341 -0.013238126 -0.03099389 0.022478312 -0.0160647 0.0074288594 -0.023667125
-0.030045629 -0.020361593 -0.015474583 -0.046409145 -0.0012928563 -0.0015601565 -0.008114782 -0.027474316
-0.04348853 -0.0030273264 -0.0032168124 -0.003124808 0.028647762 -0.028744943 -0.033665832 -0.01105096
-0.012578816 -0.024212409 0.0019974818 -0.037018877 -0.042195085 -0.036280222 -0.01086271 -0.015955023
-0.028243754 -0.027589962 -0.03374342 -0.01639721 -0.0031989054 -0.014914577 0.0017693785 0.022845332
-0.028377835 -0.013205473 0.011097925 0.002222456 -0.026743673 -0.019911332 -0.011983211 -0.036225934
-0.04404183 0.010841487 -0.02544902 -0.02784901 -0.0037895027 -0.011112592 -0.013894884 0.0011447876

network_body._body_endoder.seq_layers.2.weight f4 [256, 256]
00000000: b630 723d 4b94 7abb 817b dbbc f057 83bd
00000010: 979d 5d3d 25a4 c7bd 52c3 1a3d 662f 9c3d
00000020: 32b1 713d fe34 d8bc 0764 c93d c028 063b
00000030: 9ab7 8d3d 90b8 8c3c da2e 143b 65bc d2ba
00000040: b9ea d7bc b8ab aa3d 5964 a8bd ee2f 873d
00000050: ccd5 15bd d557 d13c 5dd3 ca3c f581 b0bb
00000060: 3d35 503d 98ce 05bd 2a27 b2bd f414 1b3c
00000070: 6dc5 68bd 4895 163e 6dc0 19bd b1e5 4a3d
00000080: 12ba c2bb 5021 543b 64ca 77bd 08cb 1f3e
00000090: f0d7 b9bc fae7 a3bd e4ba 1b3d 4af7 3b3d
000000a0: 7b40 55bc 8ef4 f839 dc60 83bc 73b4 88bc
000000b0: 7da4 d5bc 38b7 e2bd 435e 8b3d 1d49 ab3d
000000c0: 606c c43d 7366 57bd 3b16 2cbd 75c8 40bd
000000d0: 0743 cbbd 5c97 2abc 9025 a9bd 4853 5bbc
000000e0: 4e70 1c3b f738 ae3d fada dbbd 823f 03bd
000000f0: 07af e93c 5a33 fe3c b9fd 833d 9a99 db3d
00000100: ec31 96bd 77d9 acbd 7011 cf3c da57 03bd
00000110: b73b 3abd bcc4 b63d ed0f f73c d26e fcbc
00000120: 289a 263d a31f a73c 81d2 753b 7e52 b5bb
00000130: b632 2a3d 5ce6 77bd 2251 473d 1f2e 77bc
00000140: ef7d c53d 96e7 72bd 6182 c13d 0ba7 083e
00000150: ae36 7dbd ea81 833d 5c86 933b 191f fc3d
00000160: 8456 2fbd 419d 723d db60 20bd 9143 2bbd
00000170: fb23 533d 0824 02bd 1140 d03c d241 a0bd
00000180: 4eaa 27be b14b 36bd 41ce eb3c 8088 0dbe
00000190: d064 363d 330b 43bd 469a 103c 6afe 0ebe
000001a0: 3549 23be dd4f c1bd b0b3 7b3d 1270 333e
000001b0: 10ba abbc b42b a5bd 1534 e43c 37c2 c03c
000001c0: 4ef9 cdbb c24a 1ebc 8604 95bd 185d 78bd
000001d0: 1eae e63c a93c c2bd dc72 f5bc 6af5 723c
000001e0: dbcf f53d d805 953c 96ce b7bb 3ff7 a33d
000001f0: 50b4 e2bc 54f3 953d cce0 d83d f47b 963d
00000200: fe71 0d3d deac 8a3b 254e f7bb 49aa 23bb
00000210: 2362 c73c 8502 adbd 1d8e 1abd 341a 1b3d
00000220: 8b5f ef3c ee65 843b 3e7b ce3c 7df5 843d
00000230: a0b7 26bd 5a81 8d3c e1c1 9dbc bb40 e9bd
00000240: 4e9c 673d 0e99 193d 79cd 5fbd 1245 263c
00000250: 9536 20bd 3b01 ab3d 0017 80bd 340e 46bd
00000260: fcfa 80bc dad2 ce3b f29f a13d 0dc5 283e
00000270: 4d14 8b3d df52 aebd fe53 163d 305c 32bc
00000280: d0e0 e6bc cf96 073d 61cc 8a3b e42a d4bd
00000290: 64bd 01bd f7b4 75bd 86b8 0c3d b23a 7f3d
000002a0: 8a46 bf3c ffaf bfbd 6294 b3bd 6e2c 5bbc
000002b0: 4b07 bcbd b643 93bd 8e86 d43d f0d5 b4bd
000002c0: 2147 adbd eb5f 733c 8c6b 37bd eb21 2abe
000002d0: 5cb7 85bb f616 6bbb 2dd0 33bd 08c4 e0bd
000002e0: 73de 5c3d ec23 38bc 250f 3fbc ed2c 1c3c
000002f0: 4140 d2bd 266f f8bb 25f2 4fbb 3472 f3bb
00000300: 72d3 74bc 2c45 063c 9377 943c 1328 503b
00000310: feb4 883c 156d 08bd cb87 78bc 2b78 773a
00000320: 32f4 833d ebbf bbbc 27c1 203e b9b2 55bd
00000330: 5fee 5bbc 6f4a b7bd 711e 223d bd1a d7bc
00000340: 8997 a1bd 039c 7e3d 55d9 83bc 1dc0 79bd
00000350: 7ea6 523d 1bc0 edbc cf8a 86bd d83f 36bd
00000360: a79b 3dbd c64d e2ba dc8d 25bd cd42 8a3d
00000370: 4dd8 66bd 786b a0bd cc85 c0bd 3ff9 4cbd
00000380: c87a 1a3d 428a 5c3d f712 0b3d 308b 163d
00000390: 13bc 603d 8014 2abc 49d5 3bbc 30da eb3d
000003a0: 6249 713d 2e20 33bd cca6 04bd 4221 bb3c
000003b0: 66c0 c4bd 151e 5c3c 4b91 14bb 34aa 743c
000003c0: b5df 86bd 99bb e9bd d9a1 e9bd bc93 713c
000003d0: c7cb e43c 9b5f 023d 1445 7ebc 822e fabc
000003e0: c77a a0bc 9309 af3b f885 01be 3f33 26bc
000003f0: 5369 14bd 9631 bbbc 8e2e b5bd 6e96 fbbd
0.059128486 -0.0038235362 -0.02679229 -0.06413257 0.054105368 -0.09748105 0.03778393 0.07626228
0.059006877 -0.026392456 0.09833532 0.0020471066 0.06919785 0.01717785 0.0022610934 -0.0016077874
-0.026357042 0.08333534 -0.08222265 0.06600939 -0.036580846 0.025554577 0.024758989 -0.005386586
0.050832022 -0.032667726 -0.08698876 0.009465445 -0.056828905 0.14705384 -0.037537027 0.049535457
-0.0059425915 0.0032368489 -0.06049575 0.15604794 -0.022685975 -0.080032304 0.03802003 0.04589013
-0.013015862 0.00047484454 -0.016037397 -0.016687607 -0.02607941 -0.110701025 0.06805088 0.083635546
0.095909834 -0.052587938 -0.042013388 -0.04706617 -0.09924894 -0.010412063 -0.082591176 -0.013386555
0.002387065 0.08506959 -0.10735126 -0.032042988 0.028525842 0.031030346 0.06444878 0.107226565
-0.073337406 -0.084399156 0.02527687 -0.032066204 -0.045467105 0.08924243 0.030158961 -0.030814562
0.04067436 0.020400828 0.0037509503 -0.0055335155 0.041552268 -0.060522422 0.04866136 -0.01508668
0.096431606 -0.05930289 0.09448696 0.13344972 -0.061819725 0.064212635 0.004502101 0.12310619
-0.042807117 0.059232 -0.03915487 -0.041812483 0.051547986 -0.031772643 0.025421174 -0.07825054
-0.1637356 -0.04450578 0.028784873 -0.13821602 0.044529736 -0.047618102 0.008825844 -0.13964239
-0.15945895 -0.09439061 0.06145066 0.1752322 -0.020962745 -0.08064976 0.027856866 0.023530109
-0.006285823 -0.009661378 -0.072762534 -0.060635656 0.028159197 -0.09484226 -0.029961996 0.014829019
0.12002536 0.018191263 -0.0056093438 0.08006143 -0.02767387 0.07321802 0.105897516 0.07347861
0.03453254 0.004232033 -0.0075471574 -0.0024973324 0.024338787 -0.08447746 -0.037733186 0.037866786
0.029220363 0.0040404713 0.02520525 0.06492136 -0.040702462 0.017273594 -0.019257488 -0.113892995
0.05654555 0.03749948 -0.054639313 0.010148304 -0.039114553 0.08349844 -0.06254387 -0.04835339
-0.015744679 0.0063117566 0.07891835 0.16481419 0.067909814 -0.085119 0.036701195 -0.010886237
-0.02818337 0.033102807 0.0042357896 -0.10359743 -0.031674758 -0.059987035 0.034355663 0.062311836
0.023349065 -0.093597405 -0.08768536 -0.013377292 -0.091810785 -0.07190649 0.10377227 -0.08829868
-0.084608324 0.014854412 -0.0447803 -0.16614501 -0.004080696 -0.003587184 -0.043899704 -0.1097489
0.05392308 -0.011239033 -0.011661326 0.0095321955 -0.10266162 -0.0075816093 -0.0031730023 -0.0074293856
-0.014942991 0.008195203 0.018123424 0.0031762167 0.016687866 -0.033307154 -0.015169094 0.00094402087
0.06443061 -0.022918662 0.15698682 -0.052172396 -0.013423531 -0.08949744 0.039579812 -0.026257867
-0.07890231 0.062160503 -0.016094843 -0.06097423 0.05142831 -0.029022267 -0.065694444 -0.04449448
-0.04629102 -0.001726561 -0.04041849 0.067510225 -0.056358624 -0.07832998 -0.0940052 -0.050042387
0.03771475 0.05384279 0.033953633 0.036753833 0.05486686 -0.010380864 -0.011464425 0.11516225
0.058907874 -0.04373186 -0.032385632 0.022843007 -0.096070096 0.0134349065 -0.002266961 0.014933158
-0.065856375 -0.114127345 -0.11407823 0.014744695 0.0279292 0.031829458 -0.015519399 -0.030539755
-0.019589795 0.0053417175 -0.12648761 -0.010144054 -0.036233258 -0.022850793 -0.0884677 -0.122845516

network_body._body_endoder.seq_layers.2.bias f4 [256]
00000000: fe56 c5bb 203c b5bc 9b30 9fbc d0f9 fc3b
00000010: 32f7 a8bb 7538 13bd 38ef 12bd 4e48 b0bc
00000020: 80bd f9b8 2b5a 83bc 3c7b 2fbd 2bfc 283c
00000030: dda8 fb3b 300b 27bb c49a 8cbc 15d8 00bd
00000040: ec49 02bd 1ea1 d1bb f464 b9ba 6d3d 043b
00000050: 6763 f1bc c716 99bb 560c 92bb 0bbd 7cbc
00000060: cb8c 013c 3ce0 f638 38a0 8abc bdcd 5ebb
00000070: e47f e4bc 3c4c 96bc 2243 21bc 8f85 fbbc
00000080: 746e d3bb c609 3dbd 04a0 19bc 5870 693b
00000090: fd22 2ebc 95fc 07bb 95a7 76bc 314e 313b
000000a0: 002a a4bc 64a1 cc3b 82fb 0dbd 2c9b 11bd
000000b0: a0ac fc3b 7205 c5bc 6be9 023d 9a76 3bbc
000000c0: e226 3dbc edef 43bc 51b4 55bc 425f c7bc
000000d0: 7c82 8cbb 0063 043c 6ee4 c2bb 1696 f139
000000e0: a1ea 53ba 06a0 eabb 669a 85bc 96cc cfbc
000000f0: 7b34 8ebc d36a d639 57fc 66bc 1ea2 6e3b
00000100: 86a7 f4bc 5fd8 60bc c8d7 343a ec98 80bb
00000110: ef0e b13a 26c3 10bd a5e8 aabc 2ecd 65bb
00000120: 9bbe a5b9 8e69 3b3c 108a 4ebc 062a 13bd
00000130: bd80 123c 611a 4fbc d272 18bc cb28 df3b
00000140: 7fad 75bc 752e 2fbd 684e 173c 028d 3938
00000150: 3d32 efbc 8078 01bd 1c9d b7bc 5795 59bb
00000160: 1fa7 e2bc 1ff0 a9bc 3a5b 6c3a ab02 21bc
00000170: 836d 4ebb 70e5 46bc c7be 053a f25b 1bbd
00000180: e74c 7abc 6cb7 11bd f830 12bc bb3d 08bd
00000190: 41b5 16bd 2504 02bd 22d7 3c3c 74c2 a638
000001a0: 37f5 eebc 0f43 9fbc 5bc3 e3bc 7062 2f3c
000001b0: 8436 00bc f07c 043b d34e debb a453 2abc
000001c0: d8bb 9ebb fb14 bbbc 71aa 12bd 8b99 55bc
000001d0: 397b c8bc 8c08 13bb 1633 8abb b902 26bd
000001e0: 7e4e 4d3b 4c4d 82bb 49da 6bbc 17c2 cfbb
000001f0: 7fd9 c63b 77cd 783c 4aca c63c 4338 52bb
00000200: 166d 0fbc b74b 6dbc 05d9 133c 58eb 123b
00000210: f83f 86ba 78b7 ecba 4220 f9bc e6ad 40bb
00000220: 94f8 47bd 8786 e8bc 7a9f 28bc a7a1 fbbc
00000230: e06b eebb d204 c1bb 84f5 34bc a101 86bc
00000240: 9373 c3bc e60c 9cbc b53f efbb 3928 aa3b
00000250: 6b7f 08bd 1fd5 92bc d4ea 603b 0a6a f9bc
00000260: c222 d33b 6b43 b5bc 7fb0 323c ff16 07bd
00000270: 37ca 3dbc e5ca 4fb9 e968 6abc 1212 79bc
00000280: c51c 8bbc 1763 a5bc b0ca 99bc 0093 91bc
00000290: 4f39 413c 72b4 9abc b1d6 17ba 1c3f 8abb
000002a0: f8b6 88bc 6dc5 103b 0f86 86bc 48c7 98bc
000002b0: b4c5 ecb9 68c9 21bd 7c1a 8cbc 36ae bcba
000002c0: 3919 4a3b 4be6 06bc 6a7c 12bd 91c4 b43b
000002d0: fea9 663c 3f1c 8fbb d205 cf3b d551 b3bb
000002e0: 3491 223c 3cba 16bd b7c0 dfbc 3e1b fb3b
000002f0: 4998 753a 9a44 18bb d476 d4bc 2553 73ba
00000300: fc4b 39bc 8789 c2bb 89fe ccbb 6023 d2bc
00000310: 4048 7cbc 0dcb 81bc fa98 75bb 394c 0cbd
00000320: f64e 75bc b3c6 a63b 9717 473c b459 86bc
00000330: a48b d8bb cf73 393c 82c9 c5bb bcb0 a2bc
00000340: acba 77bc 9dd1 be3c 669a a6bc d5b6 463a
00000350: 8240 72bc d19f 19bc dbcc 08bd 13ef 13bd
00000360: 5364 153c 28c8 12bd 627d 06bd b764 dcbc
00000370: 63ec a5bc fd88 b2bc 97b2 863c fe35 e5bc
00000380: 8d9e 573c 968a 39bc 0c68 c7bb 72ef 19bb
00000390: d233 98bc 9ef2 73bc f55e 5138 1b5d 82bc
000003a0: 35cc 4ebc 07c0 2cbc fc23 bfbb ea53 cfbb
000003b0: 2ef8 c3bc ab9a 01bd b857 2f3c 9768 e23a
000003c0: ee10 bbbc 3c66 433b eab0 f2bb 68f5 1c3c
000003d0: 6d44 29bc d53a dfbc ce8f 863b 4197 abbc
000003e0: 1708 ffbb 6886 05bc ce3c bebc 6fbe 81bc
000003f0: 784e 303c 3d0a 6b3c 6783 1cbd 78d0 bc3b
-0.006022333 -0.022123396 -0.019432357 0.0077202097 -0.005156421 -0.035942513 -0.035872668 -0.021518853
-0.000119085424 -0.016034206 -0.042842135 0.010314028 0.007680042 -0.0025488846 -0.017163642 -0.031456072
-0.03180878 -0.0063973805 -0.0014144466 0.0020178214 -0.029466344 -0.0046719047 -0.004457037 -0.015425931
0.007907103 0.00011771961 -0.016922101 -0.0033997141 -0.027893014 -0.018346898 -0.009842666 -0.030703334
-0.006452376 -0.0461519 -0.00937653 0.003561994 -0.010628459 -0.0020749916 -0.015054603 0.0027054662
-0.020039558 0.006244825 -0.034663685 -0.035548374 0.007711008 -0.024050448 0.031960886 -0.011441851
-0.011544915 -0.011959058 -0.013043479 -0.024337415 -0.004288016 0.008080244 -0.005947641 0.00046078925
-0.00080839737 -0.0071601896 -0.016308974 -0.025366109 -0.017359009 0.0004089685 -0.014098248 0.0036412547
-0.029865038 -0.013723462 0.0006898609 -0.0039244797 0.0013508479 -0.035342358 -0.020862887 -0.0035064924
-0.00031613265 0.01143874 -0.012606159 -0.03592875 0.008941826 -0.012640567 -0.009304719 0.006810283
-0.014994978 -0.042768914 0.009235002 4.423876e-05 -0.02919876 -0.03160906 -0.022413783 -0.0033200586
-0.02766758 -0.020744381 0.00090162794 -0.009827296 -0.003149838 -0.012139663 0.00051019754 -0.037929483
-0.015277124 -0.035575315 -0.008922808 -0.033261996 -0.03679395 -0.031742234 0.011525901 7.9517165e-05
-0.029169662 -0.019441156 -0.027803114 0.010704622 -0.007825498 0.002021607 -0.006784299 -0.010395918
-0.00484417 -0.022837153 -0.035807077 -0.013037096 -0.02447282 -0.0022435514 -0.0042175157 -0.04052994
0.0031327303 -0.0039764997 -0.014395305 -0.006340276 0.006068408 0.015185705 0.02426638 -0.0032076992
-0.008754035 -0.014483384 0.009023909 0.0022418108 -0.0010242453 -0.0018060049 -0.03041089 -0.0029400527
-0.048821047 -0.02838446 -0.010291928 -0.03071673 -0.0072760433 -0.005890467 -0.011044864 -0.016358199
-0.023858821 -0.01904912 -0.0073012956 0.005192783 -0.03332464 -0.01792389 0.0034319656 -0.030446071
0.0064433524 -0.022126874 0.010906338 -0.032980915 -0.011583856 -0.00019816642 -0.014307239 -0.015202062
-0.016981492 -0.020188851 -0.018773407 -0.01777029 0.011793449 -0.018884871 -0.00057921844 -0.004218949
-0.016688809 0.0022090331 -0.016421346 -0.018649712 -0.00045160728 -0.039498717 -0.017102472 -0.0014395181
0.0030837788 -0.008233617 -0.03576318 0.0055165966 0.014078615 -0.004367381 0.0063178325 -0.0054724016
0.009922314 -0.0367987 -0.027313573 0.0076631596 0.00093687006 -0.002323425 -0.025935568 -0.0009282104
-0.01130962 -0.0059368047 -0.006255929 -0.025651634 -0.015398085 -0.015843892 -0.0037475214 -0.03425238
-0.014972439 0.0050896048 0.01215162 -0.016400196 -0.0066084433 0.011319115 -0.0060359845 -0.019859664
-0.01512019 0.02329331 -0.020337295 0.00075803447 -0.014785888 -0.009376482 -0.03339849 -0.03611667
0.009118157 -0.035835415 -0.032834418 -0.026903493 -0.02025432 -0.021793837 0.01644258 -0.027979847
0.01316036 -0.011324545 -0.0060854014 -0.0023488668 -0.018579397 -0.014889387 4.991792e-05 -0.015913537
-0.012621929 -0.01054383 -0.005833147 -0.006327142 -0.023922052 -0.031641643 0.010702066 0.0017273602
-0.022835221 0.0029815575 -0.0074063437 0.009579994 -0.010331255 -0.027249733 0.0041064983 -0.020946147
-0.007782947 -0.008149721 -0.023222353 -0.015837876 0.010760896 0.014345703 -0.038211253 0.005762156

action_model._continuous_distribution.log_sigma f4 [1, 2]
00000000: a78c 8dbc 009a f93c
-0.017278982 0.03046894

action_model._continuous_distribution.mu.weight f4 [2, 256]
00000000: b461 c73c 8c5e 7dbc 0581 88bd ae1c bdbc
00000010: bb99 edbc 896a bbbc 744a 2f3c 6c28 2b3c
00000020: b8fc b63c 245a c33a 5491 5abb 7c1a 70bd
00000030: 71f7 483d 1c86 b9bc ab39 adbc 0588 bebb
00000040: c87a 21bc f044 bf3c 7828 b03b 1317 a3bc
00000050: d2d9 673c bf07 103c 4b62 873c 60cc c3bc
00000060: dc60 14bd 4f14 133d 1ca1 d83b 740e 563d
00000070: 2ab4 56bc 0f72 0ebb 8c2a 1abc d1d3 74ba
00000080: abe0 3a3c 0f76 0e3c b8b1 043d 5ba8 153d
00000090: 023a 12bd 4fbd 123d 2570 ac3c 78b8 0d3c
000000a0: 2c10 d13c d804 743d bf62 aeb9 7e8b 4d3c
000000b0: 8662 383d 29ed 8c3c c7a0 943c 4382 393d
000000c0: a6b5 e13c 95bf 8ebc 346e 9fbc a0d8 20bd
000000d0: d53d 0fbd 6c76 4ebd a0b0 0dbd 8955 c93b
000000e0: eb4a 42bd 9ad6 6abc 885b 16bd d729 55ba
000000f0: 60c0 e5bc d917 9c3c 6e05 1b3d 1e68 883d
00000100: 65e2 2ebc bf54 05bc 34cf c83c d2b8 973c
00000110: 52cc 07bd b57e 0fbc 655a c1bc 7041 3f3b
00000120: 418e 86bc 79fe 4abd 0180 d5bb 97e1 94bc
00000130: 8d65 2c3d 4ba5 b9bc 506d 193d 7440 733c
00000140: 4c74 68bc dabe c8bc 04c9 213d f182 3dbd
00000150: ccca 2ebc 4539 dbbc 7ba8 90bc cd13 14bb
00000160: b444 26bc a407 7cbc 7230 00bb 4289 babc
00000170: e3c4 193d 1891 fb3c 48b6 b23c e694 c6b8
00000180: 0bc0 aebb 12e4 f13b 936b 753d 4226 bc3b
00000190: 08f2 eabc 5c0d 76bc 90b2 af3d ca5c 38bd
000001a0: 33c7 a13b 9790 6cbc 4414 923c 2529 55bd
000001b0: 2316 a23c 36f7 b8bc d867 143d 2e74 19bd
000001c0: 61e6 16bd 5a04 aebc b862 97bc a353 c03b
000001d0: fa1a a5b9 c630 6cbd d2e6 d03c 1886 d3bb
000001e0: 791e 5f3c 103f 19bd 316b d7bb edc8 bfbc
000001f0: c072 09bd 3d5b 77bd 31e8 423d 8a4b 803d
00000200: 1311 2b3c 30a5 8fbc c9f0 c73c 7551 31bd
00000210: 3e49 b0bc bcce 3d3b 3a82 04bc 1068 4bbc
00000220: d8e2 95bb c35f b8bc c51e 8f3c 3307 ea3b
00000230: 76ce 0e3d 934d 07bd ca5e 18bd 2b89 dd3c
00000240: b914 923c acee db3b 82a6 f53c 063d debb
00000250: 43f6 99bc ef32 bebc c10c e53b 403e edbc
00000260: e1b9 89bd 47c2 d5bc 4075 9a3c 0e36 90bc
00000270: 6492 0abd f731 163d 3b33 06bd 8fd9 19bd
00000280: 9541 f63c 5733 62bc 2ddb 8a3c 7d80 073d
00000290: a2fc 603d 8ef5 c83c 3d06 ca3c fdcc fc3c
000002a0: 173a 4b3b 9909 ee3c 8859 52bc 08ff f83c
000002b0: 2204 813d 596c 0dbb a508 30bd e2b7 5ebd
000002c0: cd3f 4e3d 9987 183d 3f70 2ebc af25 bebc
000002d0: 6b68 973c a81f e6bc 0431 4e3d a504 c33c
000002e0: c035 3e3d acb8 92bb 7944 a73b 99fd 2bbd
000002f0: 972d 63bd 6947 043d 9ef6 b5bc a37e cfbc
00000300: 0521 163d 80e0 dd3b f38b 943b ba61 bbbc
00000310: d2ef 45bc df78 88bc e55b abb8 995d 0a3d
00000320: 4dc5 13bd f7ba 153d c04f 82bd c7be d73c
00000330: 62ca d83c 2b6e 0cbd dacf 12bd 0d58 c23c
00000340: f89e 153d c0d7 9cbd 6ecf 833c dcee 31bc
00000350: 39cb 3fbc de0c f03c 5d8c e53b 6f4e 8e3c
00000360: 0b3d 73bc 42ea 8ebb 0a51 3bbc 3bf6 ac3c
00000370: 1706 80bc 2820 c13c 3de2 e13c 8037 863c
00000380: 2b34 8d3c a240 dc3b f965 a93c 3fb3 a83b
00000390: 80df 4ebb 9f4a f6bc f919 3abd d2ea 8c3c
000003a0: 9eca a03c 9b88 e9bc 226c 2d3c 6e2e a63c
000003b0: fc1a 023c b9bc 19bc 8a82 13bd 250f 6abc
000003c0: 70b8 19bd 039e 1cbc 5d35 5a3c dcaf 3a3d
000003d0: 7f7c f83c 84cc ae3b 1404 e13b d261 023d
000003e0: cba1 923d 0a28 5a3c c6d4 a23b ab99 a23c
000003f0: 977f 1f3d 0987 a43d a903 263c f751 3a3c
0.02433858 -0.015464436 -0.066652335 -0.023084965 -0.029003968 -0.022877948 0.010698903 0.010446649
0.022337303 0.0014904183 -0.0033350782 -0.058619007 0.049064104 -0.022646956 -0.021145662 -0.0058145546
-0.0098559335 0.023348302 0.005375918 -0.019908464 0.0141510535 0.008790909 0.016526362 -0.023901165
-0.036225185 0.03590804 0.0066110026 0.052259877 -0.013104478 -0.0021735465 -0.009409558 -0.00093394244
0.011406104 0.00869514 0.03239605 0.03653751 -0.03569985 0.03582507 0.021049568 0.008649938
0.025520407 0.05957493 -0.00033261438 0.012545465 0.045015834 0.01720293 0.01814307 0.045290243
0.027552437 -0.017425338 -0.019461729 -0.03926909 -0.034971077 -0.050405905 -0.03459227 0.00614423
-0.04743473 -0.014333392 -0.036708385 -0.000813154 -0.028045833 0.01905434 0.037846975 0.06660484
-0.010674094 -0.008137881 0.024512865 0.018520746 -0.03315384 -0.008758237 -0.023602674 0.002918329
-0.016425254 -0.04955909 -0.0065155034 -0.018173976 0.042089034 -0.022661826 0.037457764 0.01484691
-0.014187884 -0.024505068 0.039498344 -0.046267454 -0.010668468 -0.026760707 -0.017658463 -0.002259481
-0.010148216 -0.015382681 -0.0019560126 -0.022770528 0.03754128 0.030708835 0.021815434 -9.46911e-05
-0.005332952 0.0073819244 0.059917044 0.0057418654 -0.028679863 -0.015017834 0.0857898 -0.045010366
0.0049370765 -0.01443877 0.017831929 -0.05204119 0.019785946 -0.022578817 0.036231846 -0.037464313
-0.0368408 -0.02124231 -0.01847969 0.0058693453 -0.00031491352 -0.0576637 0.025500689 -0.006455194
0.013618105 -0.037413657 -0.0065740575 -0.023411239 -0.0335567 -0.060389746 0.047584716 0.06264408
0.0104410825 -0.017534822 0.024406807 -0.043290574 -0.0215193 0.0028962335 -0.008087689 -0.012414947
-0.004574161 -0.0225066 0.017470727 0.0071419715 0.034864865 -0.033032965 -0.037199773 0.027042946
0.017832147 0.0067118015 0.029986624 -0.006782177 -0.018794185 -0.023217646 0.006990046 -0.028960347
-0.06724907 -0.026093615 0.018854737 -0.0176039 -0.033831015 0.036668744 -0.0327637 -0.037560996
0.030060569 -0.013806186 0.016950214 0.03308152 0.05492843 0.024531152 0.024661178 0.030859465
0.0031009966 0.02905731 -0.012838729 0.030395046 0.062996164 -0.0021579473 -0.042976994 -0.054374583
0.050353814 0.03723869 -0.010646879 -0.023211328 0.018482408 -0.028091267 0.050339714 0.023805926
0.04643798 -0.004477581 0.005104598 -0.041989896 -0.0554634 0.032294665 -0.022212323 -0.02532894
0.036652584 0.0067711473 0.004533285 -0.022873748 -0.012081103 -0.016659198 -8.171032e-05 0.033780668
-0.036076833 0.036555257 -0.06362867 0.026336087 0.026463691 -0.03428475 -0.035842754 0.023723627
0.036528558 -0.076583385 0.016090121 -0.010860171 -0.011706167 0.02930301 0.007005258 0.017371384
-0.014846097 -0.004361422 -0.011432895 0.021113506 -0.015627904 0.023574904 0.0275737 0.016383886
0.01723679 0.006721572 0.020678507 0.005148321 -0.0031566322 -0.030064879 -0.045434926 0.017201815
0.019627865 -0.028507521 0.010584863 0.020285811 0.007941004 -0.009383374 -0.036013164 -0.014285837
-0.03752941 -0.009559157 0.013318387 0.04557787 0.030332802 0.0053344388 0.006866941 0.03183157
0.07159766 0.01331521 0.004969212 0.019848665 0.03894004 0.080335684 0.010132709 0.011372081

action_model._continuous_distribution.mu.bias f4 [2]
00000000: 5a0c 6abb 2d7a b8ba
-0.0035712929 -0.0014074497

onnx::Div_71 f4 [20]
00000000: 0114 773e 1399 ff3e 4279 153e 4be0 6a3e
00000010: f966 553e 3cb9 c63e 9157 473d cc60 0b3e
00000020: 6b61 863e 872a d23e 0427 773d 9d71 163e
00000030: 9f5d 553e b144 e73e 6085 923d 82af 213e
00000040: 683f 763e 5c64 e03e c840 9b3d 52b8 273e
0.24128725 0.49921474 0.14597037 0.22937123 0.20840062 0.38813198 0.048667494 0.13611144
0.262462 0.4104807 0.060339943 0.14691778 0.20836495 0.45169595 0.071543455 0.15789607
0.24047625 0.43826568 0.075807154 0.16378906

onnx::Div_74 f4 [12]
00000000: 2969 283e b822 fe3e c1a6 8e3d 8be1 a83d
00000010: f1a8 253e aa39 fe3e 03f2 8c3d e509 a83d
00000020: 4c32 2b3e 4ba5 fd3e 6ec6 8d3d 274f a73d
0.16446365 0.49635863 0.069653995 0.08246144 0.16177727 0.4965337 0.068820976 0.08205012
0.16718405 0.4954017 0.06922613 0.08169394

onnx::Div_77 f4 [3]
00000000: cc08 7a3f 2829 713d 8d46 ac3f
0.9766967 0.05887714 1.345903
