Experimentos/results/ppo10/KartAgent/KartAgent-1999986.onnx (onnx, 92863 bytes, 13 tensors)

network_body.observation_encoder.processors.0.normalizer.running_mean f4 [20]
00000000: 644c 353d 3977 983e bdfa 273c 5a1c 273e
00000010: fa40 df3c b9ee 853e 6aad fa3a 8955 5c3e
00000020: c4d4 6f3d 35ad 163e 900c ca3a c3e3 013e
00000030: 472d 033d 8678 e23e e8d4 333b c763 833e
00000040: 5bf9 613d f0fd 583e 3b64 113b e9d6 473e
0.044262305 0.2977846 0.010252652 0.16319409 0.027252663 0.26158693 0.0019125168 0.21517004
0.05855252 0.1471451 0.0015415121 0.1268454 0.0320256 0.44232577 0.0027440134 0.25662062
0.055169445 0.2119062 0.0022184986 0.19515575

network_body.observation_encoder.processors.1.normalizer.running_mean f4 [12]
00000000: 7242 863c b2ae 823e dda7 8f38 877f d93c
00000010: f96e 833c 404f 823e baf9 8038 0be2 db3c
00000020: cda8 883c 3775 803e 4e5d 8938 db90 d53c
0.016389105 0.25523907 6.850038e-05 0.026550068 0.016044127 0.25451088 6.150031e-05 0.026841184
0.016682053 0.25089428 6.5500484e-05 0.026070049

network_body.observation_encoder.processors.2.normalizer.running_mean f4 [3]
00000000: 8ee0 14bf 8cf2 313d b074 f13e
-0.58155143 0.0434442 0.47159338

network_body._body_endoder.seq_layers.0.weight f4 [128, 35]
00000000: c4ca 0f3e a3c7 54be 0a79 9d3e 0007 183d
00000010: df7b 83be e4c6 86be 5cc0 47be 81a0 fdbd
00000020: a974 b0be 0290 9dbd 8dce 0d3e b737 313e
00000030: f0ec 313e a857 fc3e 05e9 f3bd 38a2 17be
00000040: 17ae 4b3e 87d5 a3bd da2a 1abe 2c23 353e
00000050: 7789 a93d f855 963e 04a0 b7bd 2b0e 453e
00000060: 361c e1bd 8964 573e 9c3b af3e 5d3d 9c3d
00000070: 70ab b2bd 9cb5 99bd 7897 00bd 31b8 4cbd
00000080: 5fb8 8e3c 4c50 7d3e f89e 8c3e 9844 e0bd
00000090: adcb 4abd 2534 8d3d a8aa c23d 402f 843d
000000a0: 9892 813e 713b 39be 676f b6be 64c4 fdbd
000000b0: 0cb1 b2bd c731 693d cb52 143d 3767 02be
000000c0: 3ebe d3bd b904 093d 606f e3bd 9647 8f3e
000000d0: 3bd0 fe3c c4b4 583d 68b2 153d c364 8ebe
000000e0: d6a7 c53a 029c 653e 7f4e 7fbd 98b2 f9bd
000000f0: 340a 6a3e c37c 1a3e b75a 293e 724f 10be
00000100: f543 1ebe e524 e0be 7a73 4f3d c61a 173e
00000110: 42dc 763c 2183 a23e e1d9 cf3c 5055 1a3c
00000120: 3366 ac3d 506f 263e 7288 bb3c 137b b83d
00000130: 6797 b43c 07b8 b53d ac19 93be 663f 4ebe
00000140: 4b59 2c3e a67b afbd 8789 983e 3a4a cf3c
00000150: 8400 313e 3fac bebd 9816 f8bd 1482 4c3e
00000160: 3134 093e ed4c ee3e 97ea 1cbe 79a5 81be
00000170: 6053 a4be 829a 823e abd6 aabe 546f 2abd
00000180: 8ce7 71bd 6481 6a3e 6123 933d da84 853e
00000190: b995 12be b8ea 89bc 9ce5 b33d 3d5f 57be
000001a0: 036e 583e a299 013e 2ca4 e5bd 02aa 68bc
000001b0: 8e46 6d3e d60c 5fbe f15a 273d 3bdd 58bd
000001c0: 040e 3f3d cf4c 2dbe 975d 20be 8a96 403e
000001d0: 5c97 9a3d 7351 cfbd 556d adbd 464b dbbd
000001e0: c1d5 fb3d 73f4 0cbe e422 ecbd 70eb 00be
000001f0: d8da 693d 9f59 613e 005f 76be fb1d 4cbe
00000200: 1c17 dd3d 14ec ba3c 06cb 0fbe 81c4 0a3d
00000210: c952 c63e 8982 2ebd 6505 e8bd bc7f 25be
00000220: b3e2 4fbe e60b 7a3e d560 febc ac76 bf3e
00000230: 5565 bd3e ee0a 9abd 0ba6 8fbd f079 123e
00000240: 28c8 2e3e 57ef 693e 5985 543d c4e4 943c
00000250: 1b9a b03c f947 6ab9 f82e 253d 0ee0 a7bd
00000260: fe55 eabe a9bb 9dbe 8142 aabe 16f3 ef3b
00000270: 760e dbbb 88f7 ea3d 141c e1bd 44a8 4c3d
00000280: c2d4 203e e4f0 f63d 1564 0dbe 0b22 e43d
00000290: 7a40 1d3d 0fa9 75bd a4ab 533e f711 59bd
000002a0: 8d8f 9c3d d52a 0e3f f4f5 dcbd 30ef ef3d
000002b0: a358 afbe 6be3 943e 635d 58bd faf7 b5bd
000002c0: 2620 353d 4f0c 4c3e 983b 593d 32ff 72be
000002d0: 10fc e4bd c90a a0bc 399e 37bd adbe 3c3e
000002e0: 39f4 7d3e 2ab9 c8be a788 2abe de2b d4bd
000002f0: 8122 58be a743 4e3e 3678 f63d 625c 99be
00000300: 6d04 70be e83b 003e 2564 463e e9b8 f33b
00000310: fbfd 343e 8f7a 0d3d c4d1 c93d a931 16be
00000320: a7b8 24bd a330 9abe 954c 82be 3120 39be
00000330: 7025 cd3d 82c3 89bd 30e6 8ebe 61b7 533d
00000340: 57af 04be ccc3 053d 7eb0 12be 296a 323d
00000350: 4cad 14bd 65b1 a63e 7ae6 2e3d 5bb5 23be
00000360: 63a3 97bd 4245 12be c9ef 373e 45fa 0ebe
00000370: dc30 dc3d e0c9 bbbd 1c73 6c3e 48e0 133d
00000380: 64ef 5c3d 1942 00be 6e4e d23d 6dee 463d
00000390: d280 2e3e c721 80be 38c0 9e3e e943 a7bd
000003a0: 2f07 4e3e c697 97be e822 d0bd bcde b8be
000003b0: 4066 933d 4dd4 4abd b2b2 50be e858 bdbd
000003c0: a11e 38be 18da 92be e4f3 863d 9489 5bbe
000003d0: 413f 69bc 6d1e 133e 0ea2 8c3e efbd cc3d
000003e0: 2088 aabe aaec e4bd d9ef b8bd 2630 243e
000003f0: c9fd 91be 46cf abbd 9557 ccbd fef2 2dbf
0.14042193 -0.2077928 0.30756408 0.03711605 -0.25680444 -0.26323617 -0.19506973 -0.12384129
-0.34464005 -0.07693483 0.13848324 0.1730641 0.1737554 0.49285626 -0.11909679 -0.14807975
0.19890629 -0.079997115 -0.15055409 0.17689198 0.082781725 0.29362464 -0.089660674 0.19243686
-0.10991709 0.21034445 0.34225166 0.076288916 -0.08724105 -0.07505342 -0.03139445 -0.049980346
0.0174219 0.24737662 0.27465034 -0.10950583 -0.049510647 0.068947114 0.09505206 0.06454325
0.25307155 -0.18089081 -0.35631868 -0.12390974 -0.08725175 0.056932237 0.03621177 -0.12734686
-0.1033902 0.03345177 -0.111052275 0.27984303 0.031105151 0.052906767 0.036547095 -0.2781125
0.0015079926 0.22422794 -0.06233072 -0.12192267 0.22855455 0.15086655 0.16538511 -0.14092806
-0.15455611 -0.43778148 0.050647236 0.14756307 0.015067162 0.31740668 0.025372447 0.009419754
0.084179305 0.162534 0.02289221 0.090078495 0.02204485 0.08872991 -0.28730524 -0.20141372
0.16830938 -0.08568506 0.29792425 0.025303949 0.17285353 -0.09310197 -0.121136844 0.19971496
0.13398816 0.46543065 -0.15323864 -0.25321558 -0.3209486 0.25508505 -0.33366904 -0.041610077
-0.05905871 0.22900921 0.07184482 0.2607792 -0.14314927 -0.016835555 0.08784029 -0.21032424
0.21135716 0.12656263 -0.11212954 -0.014200689 0.23171446 -0.2178224 0.040858213 -0.052945357
0.046644226 -0.16923831 -0.15660702 0.18807426 0.07548401 -0.10122957 -0.08468119 -0.10707717
0.1229663 -0.13765125 -0.11530092 -0.12589812 0.05709347 0.22006844 -0.24059677 -0.19933312
0.107954234 0.022817649 -0.14042291 0.033878807 0.38735035 -0.042604957 -0.11329154 -0.16162008
-0.20301323 0.24418601 -0.031052032 0.37395227 0.36991373 -0.07521616 -0.07014092 0.14304328
0.17068541 0.22845207 0.051884983 0.01817549 0.021557858 -0.00022342791 0.040327996 -0.08197032
-0.45768732 -0.30807236 -0.33253863 0.0073226793 -0.0066850735 0.11472994 -0.109916836 0.049965158
0.1570616 0.12057665 -0.1380771 0.11139306 0.038391568 -0.05997568 0.20670944 -0.05299565
0.07644568 0.55534106 -0.10789099 0.11715543 -0.34247312 0.29079756 -0.052823436 -0.088851884
0.044220112 0.1992657 0.05303535 -0.23730162 -0.111808896 -0.019536393 -0.044828627 0.18432112
0.24800195 -0.3920377 -0.16653691 -0.103599295 -0.21106912 0.20142995 0.12034647 -0.29953295
-0.23439188 0.12522852 0.1937414 0.0074378145 0.17675011 0.03454071 0.09854463 -0.14667381
-0.04021516 -0.30115232 -0.25449052 -0.18078686 0.10016906 -0.06726743 -0.27909994 0.051688556
-0.12957512 0.03265743 -0.14325139 0.043558273 -0.03629808 0.32557216 0.04270027 -0.1598715
-0.074042104 -0.14284232 0.17962565 -0.13962658 0.10751507 -0.09169364 0.23090786 0.036102563
0.05393924 -0.12525214 0.102688655 0.048567224 0.17041329 -0.2502577 0.31006026 -0.0816725
0.20119928 -0.2960798 -0.10162908 -0.36107433 0.07197237 -0.049518872 -0.20380667 -0.09245473
-0.17980434 -0.28682017 0.06589487 -0.214392 -0.014236272 0.14367075 0.27467388 0.099971645
-0.3330698 -0.111779526 -0.09030122 0.16033992 -0.28513935 -0.08389144 -0.099776424 -0.679489

network_body._body_endoder.seq_layers.0.bias f4 [128]
00000000: 6fb0 44bd 3c8b 913b 69f2 1938 95f9 dc3c
00000010: f5e2 e83c 217f 283d 5f4b dbbb 2890 803d
00000020: 94b8 353d 9c7b a6bc a663 ae3c 8a9c d33c
00000030: 0567 0a3d af85 f93c 01b1 b6bc c064 ae3c
00000040: d623 cf3c ec1e f6bc ca4d 143d 20eb 133b
00000050: ce0a ee3a 1501 d43c 12cc c93c 9af4 b1bc
00000060: 5555 4fbc 1d5b 153b 98d3 ed3c 1fe7 8dba
00000070: 2894 9a3c 823b 72bc 2c9d 413c 1489 d53c
00000080: 77ad 123d f205 2f3c 3124 073d bdc4 5cbb
00000090: 4eb1 563d 302e 253d 6b25 793d 6e1e 7d3c
000000a0: bc73 4f3d baba 363c c670 873c 7875 00bd
000000b0: c3a3 87bc 9a21 993c 5985 933b 5e6b 2ebc
000000c0: 9fbf 09bc 1f87 42bc 0b32 3bbc f9ae 2e3c
000000d0: 87ee 30bc 55bf b7bb 6934 683d 6680 1e3d
000000e0: 2b5c bbbc 21c2 193c 2c7c 3f3d 790e 4e3d
000000f0: 8764 4f3c ea26 473d 8d2d 033d a252 f2bc
00000100: 81ea e23b 93aa 103d 0cde f1bc 53b7 94bc
00000110: 8695 df3c e31d c33c ecb6 1f3c fe06 1fbd
00000120: e5fa 8abc ab29 fabc 68e9 2f3c 3438 a4bc
00000130: 6636 cb3a 6f64 c5bc f7fe bfbc 1348 24bd
00000140: 8f19 c43d bb4d 6dbb b519 123d 352b 53bd
00000150: f6b4 c23c 4a4b 523d 1789 f23c 999e c1bc
00000160: 47c1 283c eda0 5cbb 4f8e daba 2a0e de3c
00000170: fc27 00bc 779a 1ebc a635 e8bc 7fdb c3bb
00000180: 7129 03bd 0413 d93c 33d2 00bd e63e 9d3d
00000190: e5d6 a5bc a89f bcbc d484 9e3c 805b 893c
000001a0: 26e8 91bc 5480 073b f34a 383d a425 9bbc
000001b0: cf0c fd3c 73e7 76bb d598 473c 6e5b 9abc
000001c0: fd42 413d fdbe 803d 230e 583d d2bc 22bd
000001d0: 7998 893d c6cd 04bd 34c8 2d3d 09a3 00bd
000001e0: 7dc9 843d f583 2cbc c5a1 84bc 78c9 073d
000001f0: 6046 1c3d ee6b 133d e1db dc3c 27d1 373d
-0.048019823 0.004441647 3.6703805e-05 0.026974479 0.028428534 0.041136865 -0.0066923345 0.062774956
0.04436548 -0.020322613 0.02128775 0.02583148 0.033789653 0.030459253 -0.022301199 0.021288276
0.025285643 -0.030044042 0.036206998 0.0022570565 0.0018161179 0.025879422 0.024633441 -0.02172308
-0.012654622 0.0022789903 0.02903156 -0.0010826326 0.018869475 -0.014784696 0.011817258 0.02606634
0.03580996 0.01068257 0.0329935 -0.00336866 0.052415185 0.04032725 0.0608267 0.0154491495
0.050647482 0.0111529175 0.016533267 -0.031362027 -0.01655758 0.01869278 0.0045019803 -0.0106457155
-0.008407502 -0.011873036 -0.011425505 0.010661834 -0.010799057 -0.0056075254 0.056690607 0.03869667
-0.022871098 0.009384663 0.04674928 0.05030677 0.012658245 0.048621096 0.032025862 -0.029580418
0.0069249277 0.035318922 -0.029524826 -0.018153822 0.027292978 0.023817962 0.009748202 -0.038825028
-0.016965339 -0.030537447 0.010736801 -0.020046331 0.0015503883 -0.024095742 -0.023437006 -0.040107798
0.095751874 -0.003620966 0.035669047 -0.051554877 0.02376793 0.051341332 0.029606385 -0.023635196
0.010299987 -0.0033665255 -0.0016674491 0.027106363 -0.007822033 -0.009680382 -0.028345894 -0.0059770937
-0.032021943 0.026498325 -0.03145046 0.076780125 -0.020244071 -0.023025349 0.019350447 0.016767263
-0.017810892 0.0020675855 0.044993352 -0.018938847 0.030889897 -0.0037674576 0.012182434 -0.018842425
0.047183026 0.06286428 0.052747857 -0.039730854 0.06718535 -0.032422803 0.042427257 -0.031405482
0.06483743 -0.010529508 -0.016190419 0.03315112 0.038153052 0.0359916 0.026960315 0.044877198

network_body._body_endoder.seq_layers.2.weight f4 [128, 128]
00000000: ac27 853d 615f ed3d 0960 29be b601 c1bc
00000010: 03c1 ffbd 242e 8c3c 2bd3 ee3c 5375 39bd
00000020: f154 a9bd 042e 44bd ea92 06be 77e3 1f3c
00000030: c280 d2bd 520d dfbd 3797 fd3d 3867 04be
00000040: ddb0 b3bd 6654 6abc c397 26be 968a f3ba
00000050: bbf4 1e3d ab89 193d fc8a acbd 547a 23be
00000060: 6f22 e2bd c493 003c deda 153e b78d d6bd
00000070: 4671 533d c6e0 813d 128e b6bc 9ddc 88bc
00000080: 6ab2 d1bd 32a7 fe3d 5fa2 133d c432 04bd
00000090: d9cd 6f3d bda4 da3d cab1 82be 2e7f 75bd
000000a0: 8f50 e2bd 70c1 b53d f849 22be 241f 593e
000000b0: fadd 0a3d dc67 113d af0f 32be 606d 21be
000000c0: 25c0 333c 01d3 bf3d 3e3b 04be 6611 6e3d
000000d0: c5cb ab3d 89ce d23d 6ff8 3abe 6459 bfbc
000000e0: 2c04 2dbe 1d63 2dbd 05aa 3dbd 5fb6 9b3d
000000f0: c829 b73d d7a7 09bb 0b4d 913c da20 613d
00000100: b3f5 4e3d bb27 b33d 843e 1c3d 9c6e 3cbe
00000110: 26c0 27be 2b63 7f3d c71a ba3d 15aa bb3d
00000120: cdbd 913d 8824 33be b07e 47be f080 b63d
00000130: e1d3 963d e41b 3b3e a4d8 5b3d 2ffb cd3d
00000140: d73a 28bd efbd 08be f528 93bd f418 ae3c
00000150: a5ba 433d 8f79 c5bc 4649 1c3d 748e ea3d
00000160: 0d8e ad3c ebb7 f2bd 824d f1bd 037a 55bc
00000170: 4fbb 5c3e ba36 dfbb a1f6 08be b129 5b3e
00000180: d1bf afbd ceab 043e b2d7 cbbc 980f 35be
00000190: a1a1 253d c785 f53c 1bad 24bb 6bf6 6cbe
000001a0: 7ee9 b6bd 88d1 babc c23d 12bd ccdf 7f3c
000001b0: 9d76 0ebd cae9 ac3b ca08 023e 15f2 403d
000001c0: e435 dbbc 9e16 8ebc 095c 0cbd ebee 5bbd
000001d0: efb2 1abe 9cde 7ebd 3770 10be 3a3c 26bd
000001e0: 6de7 55bd d293 923d f517 843c 6d18 933d
000001f0: 3c94 57be aa15 f6bd a9c8 c0bd 59d3 b9bd
00000200: 36ce 80bd 97f3 803d ff62 9e3b 76a9 eebd
00000210: cebe 733d bcee fb3d a266 be3a b4b5 8cbd
00000220: 399a 7bbd 2c68 443d bd9d d3b9 b0a3 de3d
00000230: 5439 bcbd 5a00 2abd d78d 833c ab92 49bc
00000240: 4885 ecbd 39fb 133e d884 efbc 0038 8b3d
00000250: 1eb4 9d3d cf87 d3bc 16b2 3dbd a1a1 b13d
00000260: e80d a0bd 7b43 c9bd 44f2 aa3d a286 a83d
00000270: 434d edbd aec9 a5bd 245c f43d bd1c 16be
00000280: b2a1 933d 6d27 5fbd b02b 4bbe dcb5 ff3c
00000290: f5ff 213c 1b6d 12be 022f 45bd bbe4 83bd
000002a0: 0649 833c 771f dc3c 4ec3 cc3d 1932 0f3d
000002b0: e6d9 2f3c 3226 4c3d 13e8 71bd bc56 ca3d
000002c0: fb09 363c d7b9 063c ceed bf3d 4c57 b4bd
000002d0: 73ba 41bd 5aed 8e3c 8726 09bd e5ed 7abd
000002e0: afb4 d43b 908f 9dbc 5bd4 2cbc 34e8 ab3b
000002f0: e750 3d3e 0221 89be 0ecf 1dbd 7ed7 d73d
00000300: 846b 84bc ad11 22be 4a3b 563d 3e92 553b
00000310: 5e5b 05bd 4859 4bbd 9144 b63d 3955 0cbe
00000320: 67d9 b43d 6870 5ebd a02e b6bd 9e5f b0bd
00000330: fd06 673e 7156 6a3d 8702 e83d 9c9a 213e
00000340: c2ac 19be 1810 45bc 1f5b 9b3d bf13 e73d
00000350: daa6 b33b 1799 7bbe 65cb 7a3e 9a51 423d
00000360: ed28 be3d ee2c b03c c558 d0bc e17a 5b3d
00000370: 0c24 1f3e b164 ea3d 0780 cabd 29ce 733c
00000380: 1079 993d c123 18be 4583 2c3d 40a6 ba3c
00000390: 003d 103e c3de 4b3d be33 49be c117 dfbc
000003a0: fdcf 203e 964b 34bd e9db 963d 04ce 9b3a
000003b0: 10b3 03be 8e82 323e 005a 453c 0293 933d
000003c0: f8d7 bf3d 0da2 9b3d 15a1 5d3d 360a 493d
000003d0: 022b 8a3c 28c4 ea3c 6eab 02be 266b 5c3e
000003e0: d8d0 c5bd 4ff7 f0bd 7040 883b e27c ddbc
000003f0: 08d0 4abd fb67 54be 6f1a ee3c b097 933a
0.065017074 0.11590458 -0.16540541 -0.023560386 -0.12487986 0.017111845 0.029153427 -0.045277905
-0.082681544 -0.047895446 -0.13141981 0.009758822 -0.10278465 -0.108912125 0.123823576 -0.1293
-0.08773968 -0.014302349 -0.1626883 -0.001858073 0.038807612 0.037484806 -0.08424947 -0.15964633
-0.11041724 0.00784773 0.14634272 -0.10476249 0.051621698 0.063417 -0.022284541 -0.01670676
-0.10239108 0.12434234 0.03604352 -0.032274976 0.05854592 0.106759526 -0.25526267 -0.05993574
-0.110505216 0.08874786 -0.1584853 0.21203285 0.0339031 0.03549944 -0.17388795 -0.1576438
0.010971104 0.09366418 -0.12913224 0.05812206 0.08388475 0.102933 -0.18258832 -0.023358054
-0.16896123 -0.04233085 -0.04630472 0.07603144 0.08943516 -0.0021004581 0.017736932 0.05496297
0.050527286 0.08747812 0.038145557 -0.18401569 -0.16381893 0.062350433 0.090871386 0.091633
0.0711628 -0.17494404 -0.19481921 0.089113116 0.073646314 0.18272358 0.0536734 0.10057675
-0.04107174 -0.13353704 -0.07185546 0.021252133 0.04778542 -0.024105815 0.038155816 0.11452952
0.0211859 -0.11851486 -0.117823616 -0.013029578 0.21555828 -0.006811944 -0.13375331 0.21402623
-0.08581508 0.12956163 -0.024883125 -0.1768173 0.040437344 0.029971017 -0.0025127593 -0.23140876
-0.08931254 -0.02280499 -0.035703428 0.015617322 -0.034781087 0.0052768933 0.12698665 0.047105867
-0.026759095 -0.01734477 -0.03426746 -0.053694647 -0.1510732 -0.062224016 -0.14105307 -0.04058478
-0.052222658 0.07157101 0.016124705 0.07182393 -0.2105264 -0.12015851 -0.09413273 -0.090735145
-0.062893316 0.06296461 0.0048335786 -0.11653416 0.059508137 0.12301394 0.0014526437 -0.068705946
-0.061426375 0.04795091 -0.0004036258 0.10871065 -0.09190622 -0.04150424 0.016058845 -0.012303035
-0.11548859 0.14451303 -0.02923815 0.067977905 0.0770037 -0.025821595 -0.046312414 0.086734064
-0.078151524 -0.09827324 0.0834699 0.08228804 -0.11587002 -0.08095108 0.11931637 -0.146594
0.07208575 -0.05448096 -0.19840884 0.031214647 0.009887685 -0.14299433 -0.048140533 -0.06440111
0.016026031 0.026870472 0.09998189 0.034959886 0.010733103 0.049841113 -0.059059214 0.098798245
0.011110778 0.008223019 0.093715295 -0.08805713 -0.047296952 0.017447162 -0.03348401 -0.06126203
0.0064912657 -0.019233495 -0.010548676 0.0052461866 0.18487893 -0.26782995 -0.03852754 0.10539149
-0.016164549 -0.15827055 0.052302636 0.0032588388 -0.032557838 -0.049645692 0.08899797 -0.13704385
0.08830529 -0.054306418 -0.08895612 -0.086119875 0.2256126 0.057211343 0.11328607 0.15781635
-0.15007308 -0.012027763 0.07585739 0.11283063 0.0054825367 -0.24570118 0.24491651 0.047441103
0.0928515 0.0215058 -0.025432954 0.053583983 0.15541095 0.114449866 -0.098877005 0.014880695
0.07493794 -0.14857389 0.042117376 0.022784352 0.1408577 0.04977299 -0.19648644 -0.027233006
0.15704341 -0.044017397 0.07366163 0.0011886959 -0.12861276 0.17432615 0.012045383 0.07205774
0.09367365 0.07599268 0.054108698 0.049082004 0.01686621 0.028657988 -0.12760708 0.21525249
-0.096589744 -0.1176592 0.004158072 -0.027037088 -0.0495148 -0.2074279 0.029065339 0.0011260416

network_body._body_endoder.seq_layers.2.bias f4 [128]
00000000: ffc4 53bc fc86 1ebc 7dbd 0fbd 7bc8 0f3d
00000010: b05b 763d e86f 68bc c354 78bc 2a00 d53c
00000020: 9d71 913c 5e2e 10bc be0d 8b3d 1c13 8d3d
00000030: 638a 3e3d 4a22 9f3b 3de4 7abd c6f8 61bc
00000040: 2eb9 8b3d 90c8 d23b 6bf0 61bc b844 96bc
00000050: b9ed 7d3d e22b 2d3d cbe5 18bd 91e7 febc
00000060: 45c1 343d 1ae7 25bc 20c5 043c 8740 a2bc
00000070: d76d f13c b9d0 55bc 6294 5e3d 7cf2 dfbb
00000080: 5ee6 d53c bda8 b53b c9b0 7fbc 3320 473d
00000090: 873b 703c aaaf ef3c 586d 123d 7c0b 5bbc
000000a0: 1566 e5bb 22e1 fd3b 05be f6bc 8643 23bd
000000b0: d05a 333d d7dc 55bc 980b ba3c 607a dd3c
000000c0: d0ba 1b3d 36e9 6d3d 95ce 6e3d e032 0c3d
000000d0: 1eaa 6cbc 8b77 263d e73c 8fbc caa1 72bc
000000e0: 3419 283d 1cc3 1ebd 2f97 5dbb 348c 433d
000000f0: cc3d 5f3d a1e5 0e3c 9ac5 c93c 2cb3 e43c
00000100: c76b 39bd 5433 1c3d 49cb 49bd 94c4 60bc
00000110: 005b 05bd 6e17 80bd 74f0 2a3d 9a5a a2bc
00000120: cb09 acbc 2f54 8f3c a356 603d 8595 0e3d
00000130: 416a a23c 4f51 193d 4860 1abd 91a4 b83c
00000140: 26d9 443d aa0d 2ebc 5a9b 7c3b b21f 1dbd
00000150: 2efd 8dbc 1858 213d 9dc9 dc3c 54f4 62bc
00000160: fecb f4bc 179a dc3b 1c4e 3b3c d087 883d
00000170: 5f15 14bc e318 a0bc fcac d6bc 3669 163d
00000180: b715 aabc ce94 d8bc ecfd e8bc e29d 61bc
00000190: 2924 3e3d 49f1 d83c 3fb3 493d 6d67 31bd
000001a0: 51d3 60bc dd72 a1bc 5604 ff3c f334 3f3d
000001b0: 3aa8 fc3c 7c4a 5a3d 96e4 00bd 069d 96bc
000001c0: b890 4ebc 755b 17bc f123 3fbc 0737 1e3d
000001d0: b732 913d 3f50 8e3d 4196 16bc b6cc 81bc
000001e0: 0722 0bbd 5595 cd3c 9f3e 0bbc 7c2c 50ba
000001f0: a9fc f6bc 1352 9bbc 4338 e83c 7102 983d
-0.0129253855 -0.0096757375 -0.03509282 0.035103302 0.060146034 -0.014186837 -0.0151569275 0.026001055
0.01775437 -0.008800117 0.067897305 0.068884104 0.046518695 0.0048563825 -0.06125282 -0.013792222
0.068224296 0.0064326003 -0.01379023 -0.018343315 0.061994288 0.042278178 -0.037328523 -0.031116279
0.04412963 -0.0101259 0.008103639 -0.01980616 0.029471321 -0.013050252 0.054340728 -0.0068343263
0.026110824 0.005543797 -0.015606114 0.048614692 0.01466263 0.029258568 0.03574881 -0.013369437
-0.0070006945 0.007747785 -0.030119905 -0.039859317 0.043787777 -0.013053141 0.022710606 0.027035892
0.038019955 0.058083735 0.05830248 0.034228206 -0.014444856 0.04064135 -0.017485095 -0.014809081
0.04103966 -0.03876029 -0.0033812036 0.04774113 0.054502293 0.00872174 0.024630357 0.027917467
-0.0452688 0.038134888 -0.049266133 -0.013718743 -0.032557487 -0.06254469 0.04173322 -0.019818593
-0.021000763 0.017496197 0.054770123 0.03481056 0.019826056 0.037431058 -0.037689477 0.022539409
0.04805865 -0.010623375 0.0038544745 -0.038360305 -0.01733264 0.039390653 0.026951605 -0.013852198
-0.029882427 0.006732236 0.011432197 0.06666529 -0.009038298 -0.019543117 -0.026205532 0.03672143
-0.020762308 -0.026438143 -0.028441392 -0.013770552 0.046421204 0.026482241 0.049243208 -0.043311525
-0.013722257 -0.019708091 0.031129997 0.046681356 0.030841935 0.05329369 -0.031467997 -0.018385421
-0.012607746 -0.009238114 -0.011666284 0.038626697 0.07089751 0.069488995 -0.009191097 -0.015844684
-0.033967998 0.025095621 -0.008498817 -0.0007941199 -0.030149775 -0.018960034 0.02834714 0.07422341

action_model._continuous_distribution.log_sigma f4 [1, 2]
00000000: 352f 803d 3279 2bba
0.06259004 -0.0006541192

action_model._continuous_distribution.mu.weight f4 [2, 128]
00000000: ac8d ebbd d812 6dbd 1964 34bc 7dba b83c
00000010: fff3 3a3d bd65 6cbd 8d4c 38bd f06f 253d
00000020: 31f9 b93c d449 28bd 93a4 2c3d 1db7 1c3d
00000030: 3589 693d 0f8e 0e3c fc7c bfbc daa8 72bd
00000040: 1a24 5e3d ff96 1fbd d74f 8dbd b905 b7bd
00000050: 7e29 bb3d 7d08 3b3d 74a8 28bd b6e9 72bd
00000060: 8cc5 9fb9 95ba f5bc d53e 0abd e586 9fbd
00000070: d2de 103d d3d2 8c3b a8f3 343d 778b cbbd
00000080: 4d2a b13a 4856 79bc dddf ebbd 7983 6a3d
00000090: 524f ca3c 41dd 823d 57a0 7a3d 1973 3abd
000000a0: e1a6 da3c 900c 4a3d 8031 31bd 75c8 acbd
000000b0: a5f6 4a3d 55e5 d0bb d94f 833c 8e5d f73c
000000c0: 4045 0e3d 64de 433d 9a69 2e3d 8e9d 953c
000000d0: 9478 82bc 3474 583d 3951 9abd d505 f9bd
000000e0: 5109 1e3d d3fa 86bc c987 933c 9d63 0c3d
000000f0: 288f 653d 0d23 e03c 41f8 d33b dc3a d63c
00000100: 352b 00bd 036f 193d 832e 4fbd fce7 a9bd
00000110: acbf 9fbd 3bc4 1dbd b30b 423d d341 013c
00000120: 9013 ff3c bcd0 143d 7079 983d d9db 113d
00000130: 7e67 5fbc 61cf 223d 4fc4 9ebd f8ee 0bba
00000140: 4eeb a03c 3f62 2dbd 8058 45bd 4612 88bd
00000150: 7e20 94bd 154a 293d 833b fb3c d149 48bd
00000160: 385f 7ebd f2c5 263d 83e1 3a3d b859 1b3d
00000170: ccbb 97bd 24c7 c3bb 76c2 48bd c774 a93d
00000180: 1dd8 bbbd b2ad c0bd d245 6abd dd2e ba3a
00000190: 4661 0f3d 0043 d2b9 a541 4e3c 11ab 8fbd
000001a0: e442 3dbd 93a1 ccbc 4e43 053d a304 4e3d
000001b0: a628 a23c f555 2c3d 5148 95bd ee9b 1dbc
000001c0: 582d cfbd 2fd4 083c 74cb 10bd 2e9e 923d
000001d0: d9e3 573d 9ea0 7a3d 06b4 99bc 42d0 4fbd
000001e0: 6618 323a 5592 793d 71d5 e13c 4522 09bd
000001f0: 94f0 60bd 0fa9 87bd 10bc 323d f783 123d
00000200: 559d 1a3c f5f3 303d 9ea0 1ebd 1844 b03b
00000210: 971b cdbc 2d31 a3bc 3356 8dbc ad85 05bc
00000220: 2980 c63c 5937 61bd 93a4 123c a00f 073b
00000230: 7250 043c 2d62 d2bc 3683 eb3b 680f 24bb
00000240: 16e1 90bc da16 0a3d 8a6a 483d c87e ae3c
00000250: 402b 24bd fb76 16bd bd6f 9c3c 9bed d4bb
00000260: 839c 3ebd 1d86 ca3b 49f9 913c e57c b6b9
00000270: 825c 683c d49c 6e3b 989f 4fbd 9bf2 ce3c
00000280: 3851 c13c da22 003d 9723 693c cee8 9ebc
00000290: 1323 da3b e9fe 293d 003e feba 3822 d03c
000002a0: 2193 05bb ba19 ec3a a829 4d3d c0b4 c23b
000002b0: 87f6 e7bc bc3c a8bc 03cf eabc e54b 903d
000002c0: c46d 983c 6599 fcbc 1fae b03c 0c33 cbbc
000002d0: 975c 173c f95c 17bd 3f5a c7bc 9ef6 e73b
000002e0: f24f 30bd f4a8 fc3c e718 02bc deac 34bd
000002f0: ef65 9ebc 068a bb3b 33dd 0cbd f000 903b
00000300: 5da7 1e3c 446e 8bbc d8ba c93b 549b b53a
00000310: 3c7a 02bc 6d50 a5bb 365e 9ebc d9b7 183d
00000320: 6385 44bd 2247 04bd a878 703c fac8 cfbc
00000330: d32b 36bd a888 f3bc 1a2a 0c3b 1d4a 71bc
00000340: a111 b63c 273d 173d 574f db3c 4306 f33c
00000350: ef20 5f3d d99c 70bc c448 67bd 5638 ea3c
00000360: 52b2 5e3c 9497 8a3c 973a 473d e6a3 4fbd
00000370: efed f0bb 9ca1 e73c 22d8 fa3c ef42 7d3b
00000380: 327a 2d3d 2a7f 22bc acc2 d73c 0091 2b3c
00000390: 74cf 18bd 0dd7 e93c a0f8 db3b 904a 6d3c
000003a0: f0ce 1abd 687e 4c3c 2827 5ebc 974f 84bc
000003b0: 430d 4dbd 8904 113c bbd2 b63c ed2e 5e3c
000003c0: 977b 933a bf26 3d3d e9cf ecbb 72f8 0ebc
000003d0: 5c79 68bd 02c0 04bc 7e23 36bc 4f5f efba
000003e0: 144e 4abc dd5a 0b3d 87cd 50bc 3ce1 463d
000003f0: aad9 0b3d b032 423c c1b8 da3a 6203 663c
-0.11501631 -0.0578793 -0.011010193 0.022549862 0.04564285 -0.057714213 -0.04499488 0.040389955
0.022701832 -0.041086033 0.042149138 0.038260568 0.057015616 0.008700862 -0.023375027 -0.05924306
0.054233648 -0.03896236 -0.06899994 -0.089366384 0.091387734 0.045662392 -0.041176274 -0.059304915
-0.00030474027 -0.029996196 -0.033751328 -0.07789401 0.035368748 0.004297593 0.04417768 -0.0993871
0.0013516635 -0.015218325 -0.11517308 0.05725429 0.024696026 0.06389857 0.06118807 -0.045519922
0.026690902 0.049328387 -0.043260098 -0.08436672 0.049551625 -0.0063749948 0.016029285 0.030195978
0.03473401 0.04781951 0.04258118 0.018263604 -0.015926637 0.052845195 -0.07535023 -0.121593155
0.038583104 -0.016477024 0.018009083 0.034274686 0.056044728 0.027360464 0.006468803 0.026151113
-0.031291205 0.037459385 -0.050581466 -0.08296201 -0.078002304 -0.038517218 0.04737444 0.007889229
0.031137258 0.036331877 0.07445037 0.035610054 -0.013635514 0.039748553 -0.07752287 -0.00053380383
0.019643452 -0.042330023 -0.048180103 -0.066441104 -0.0723276 0.041330416 0.030668026 -0.04889852
-0.062102526 0.04071612 0.04562522 0.03792736 -0.07408866 -0.005974667 -0.049013577 0.08274227
-0.0917208 -0.0940813 -0.057195492 0.001420464 0.035004877 -0.0004010424 0.012588893 -0.0701505
-0.04620637 -0.024979388 0.03253489 0.05029739 0.019794773 0.042074163 -0.07289184 -0.009619696
-0.101160705 0.00835137 -0.035350278 0.07159077 0.052707527 0.061188333 -0.0187626 -0.05073572
0.0006793797 0.06093057 0.027567597 -0.033479948 -0.054916933 -0.06624042 0.04363638 0.035770383
0.009436925 0.043201406 -0.038727395 0.005379211 -0.02503757 -0.01992091 -0.017253017 -0.008149547
0.024231033 -0.054984424 0.00895037 0.0020608678 0.00807582 -0.02568158 0.0071872724 -0.0025033597
-0.017685454 0.0337132 0.04892973 0.021300688 -0.04008031 -0.036734562 0.01909625 -0.0064980513
-0.04653598 0.0061805383 0.017819064 -0.000348068 0.014182212 0.0036409395 -0.05068931 0.025262168
0.023598298 0.031283237 0.014229677 -0.01939812 0.006657013 0.041502867 -0.001939714 0.025406942
-0.0020381885 0.0018013038 0.050088555 0.0059419572 -0.028315796 -0.020536773 -0.028663164 0.07045726
0.018607028 -0.030834863 0.021567402 -0.024804614 0.009238384 -0.0369539 -0.024335025 0.0070789596
-0.04304499 0.030842282 -0.0079405075 -0.04411017 -0.019335715 0.005723241 -0.03439064 0.004394643
0.009683457 -0.017020352 0.0061563067 0.0013855495 -0.007963713 -0.005044988 -0.019332033 0.037284706
-0.04797877 -0.0322944 0.014677204 -0.025364388 -0.044475388 -0.029728249 0.00213874 -0.014727143
0.022225203 0.036923554 0.02677123 0.029666072 0.054474767 -0.014685833 -0.05646588 0.028591316
0.01359232 0.016917981 0.04863986 -0.050693415 -0.0073525826 0.028275304 0.030620638 0.0038644632
0.042352863 -0.009918014 0.026337944 0.010471582 -0.037307218 0.028544927 0.006712988 0.014483109
-0.037795007 0.0124813095 -0.01355914 -0.016151233 -0.050061475 0.008851179 0.022317281 0.013560993
0.0011252043 0.04617953 -0.0072269333 -0.008726226 -0.056756362 -0.008102419 -0.01111686 -0.0018262657
-0.012347717 0.0340222 -0.012744314 0.048554644 0.034143128 0.011852905 0.0016687141 0.014038892

action_model._continuous_distribution.mu.bias f4 [2]
00000000: b45f 363d 2bbb 34bc
0.044524863 -0.011030952

onnx::Div_71 f4 [20]
00000000: 5c9d 523e 4f21 ea3e b44d ce3d 66c4 3a3e
00000010: 87b9 263e 6606 e13e b0f9 323d d5a1 2f3e
00000020: 716b 703e 0d60 b53e 59bd 203d 9c7e 083e
00000030: 4a4b 343e ed4a fe3e 9b46 563d e15b 233e
00000040: 4fca 693e d93b d13e 8cbf 403d ce98 203e
0.2056784 0.45728537 0.100734144 0.18238983 0.1628171 0.43950194 0.04369515 0.17151578
0.23478486 0.35424843 0.039243076 0.13329548 0.17606845 0.4966654 0.05231343 0.15953018
0.22831081 0.40865973 0.047057673 0.1568329

onnx::Div_74 f4 [12]
00000000: 5004 023e b83a df3e 0416 083c 83f4 243d
00000010: 79a9 003e 4305 df3e 1c00 013c 0076 223d
00000020: 9127 033e 90f7 dd3e 6d18 053c b6cd 233d
0.12696958 0.43599486 0.00830603 0.040272247 0.12564649 0.43558702 0.007873561 0.039663315
0.12808062 0.43352938 0.008123499 0.039991103

onnx::Div_77 f4 [3]
00000000: 459c 5b3f 4279 4f3d 6638 a43f
0.85785323 0.05065275 1.2829711
