Experimentos/results/ppo10/KartAgent/KartAgent-1649982.onnx (onnx, 92863 bytes, 13 tensors)

network_body.observation_encoder.processors.0.normalizer.running_mean f4 [20]
0.06004858 0.3611267 0.023864496 0.20968817 0.047235657 0.19696955 0.0015733471 0.16853097
0.051715557 0.17559426 0.0025636605 0.15924609 0.039254587 0.34248495 0.0045430805 0.22797632
0.03081848 0.31038022 0.0030448795 0.23283271
00000000: 80f5 753d 99e5 b83e 7a7f c33c 7fb8 563e
00000010: 2d7a 413d 63b2 493e c538 ce3a 6293 2c3e
00000020: b1d3 533d fbce 333e 1603 283b 6811 233e
00000030: 6bc9 203d 305a af3e 1fde 943b a072 693e
00000040: 0977 fc3c 28ea 9e3e 9a8c 473b b36b 6e3e

network_body.observation_encoder.processors.1.normalizer.running_mean f4 [12]
0.019941937 0.33513838 0.0045370115 0.04157169 0.019625146 0.33676192 0.004817603 0.041784868
0.02010207 0.32820985 0.004065497 0.041003074
00000000: 465d a33c 4297 ab3e 36ab 943b 1447 2a3d
00000010: eac4 a03c 0f6c ac3e fcdc 9d3b 9c26 2b3d
00000020: 19ad a43c 1f0b a83e dc37 853b d7f2 273d

network_body.observation_encoder.processors.2.normalizer.running_mean f4 [3]
-0.38775533 0.036512114 0.6051455
00000000: de87 c6be ba8d 153d d1ea 1a3f

network_body._body_endoder.seq_layers.0.weight f4 [128, 35]
0.063357286 -0.019190397 0.057835836 0.13955033 0.17642581 -0.510608 0.109272204 -0.25452894
-0.2409576 -0.16869633 -0.19310424 0.19271095 0.22881156 0.08271182 -0.35768542 -0.43312916
0.07625488 -0.30032635 -0.11876626 0.2506053 0.23730338 0.0626902 -0.21623337 0.003204147
-0.012657194 -0.0046024495 0.05669306 0.032496385 -0.40891862 -0.0019493729 -0.06479729 -0.06624683
-0.0023878608 0.11225445 -0.019046247 -0.09813729 -0.21364692 -0.19119737 0.09082716 0.07327287
-0.24299924 0.22179373 -0.5161753 -0.057913378 0.21883921 0.051504474 0.3532259 0.37972793
-0.025733108 -0.09988212 -0.070129834 -0.048753887 0.07144722 -0.14730912 0.058725443 -0.18074103
-0.30279332 -0.24992788 0.07282943 -0.17448252 0.13418908 -0.00048195888 -0.1630792 0.13638516
-0.27269876 0.07893129 -0.16306971 0.026420446 0.040400147 -0.20522591 0.19474624 0.29754305
0.16309108 0.07037312 0.0784225 0.47099334 0.2871116 0.38651487 0.107045 -0.15050346
-0.11276231 0.085557036 -0.33554283 -0.023373326 -0.1300272 -0.0933243 -0.25341183 0.24215005
0.040380366 0.11422078 -0.049367677 -0.28456816 0.07303832 -0.03447828 0.019503923 0.08599668
-0.06682379 -0.030502014 -0.18817256 -0.069470696 -0.3050149 -0.22315991 0.0026635877 -0.05369926
0.19116808 -0.1671375 -0.22285067 -0.01984142 -0.18457709 -0.2061319 0.02197453 0.102549344
0.11235207 -0.08252105 0.22265127 0.31141713 -0.2997262 -0.16816907 0.047563255 -0.07876743
-0.1626884 0.15899897 -0.06399104 -0.017368548 0.1744056 0.26035544 0.04485108 -0.16434023
-0.11123726 0.21400777 0.21315348 -0.0052857795 0.10269215 0.29962668 -0.11574798 0.049903832
0.23102884 -0.08017691 -0.2797757 0.10423759 0.11025978 0.015445649 0.103514664 0.12649882
-0.14025795 -0.13844645 -0.028856425 -0.4016233 -0.066804506 -0.030219767 0.33213708 -0.17695777
-0.24176313 -0.13091375 0.28380638 0.13275649 -0.30185804 0.2522122 -0.18281205 -0.15439284
0.12437813 -0.0458511 -0.26539806 0.1891098 -0.14658563 0.23928082 -0.114661336 0.15029821
-0.3449872 0.3177556 -0.5141086 0.3265185 0.0049400143 0.011575326 -0.09361453 0.036851604
0.014434731 -0.07669204 0.049992036 -0.055373635 -0.13842656 0.014177507 -0.0809126 -0.3483752
0.15240046 0.0828024 0.22152442 0.09888596 0.14285628 0.0072354046 0.055675074 -0.17649928
0.078471996 0.03304807 0.15425982 0.2893258 -0.20423603 -0.23731574 0.028510487 -0.03569354
-0.10106631 0.18983577 -0.1908703 -0.156058 -0.21596597 0.24714577 -0.29435575 -0.28656793
0.15752083 -0.2952954 -0.26787373 0.24394174 -0.08777138 -0.112751745 -0.023078447 0.20901655
0.06917622 -0.027271174 0.07800745 -0.23606698 -0.21261026 0.033615705 -0.077465236 -0.034960926
-0.2742973 -0.28674382 0.075669296 -0.21627142 -0.086064726 0.0972293 -0.21995261 -0.3493761
0.4115074 -0.117197625 -0.08723323 -0.19746777 0.16584408 -0.014839542 0.020673994 0.4077709
-0.16027275 0.052030053 0.2631535 -0.009274429 -0.43485248 0.17895722 0.059071 -0.015092587
0.3093602 -0.40088025 0.24558942 -0.04274483 0.11618471 0.080298536 0.031741325 0.016764782
00000000: 77c1 813d 2e35 9dbc 45e5 6c3d 48e6 0e3e
00000010: f8a8 343e 35b7 02bf 1bca df3d 9e51 82be
00000020: 97bd 76be bbbe 2cbe 1ebd 45be 0556 453e
00000030: 944d 6a3e d164 a93d 8b22 b7be 1bc3 ddbe
00000040: 852b 9c3d 60c4 99be ba3b f3bd 564f 803e
00000050: a8ff 723e b863 803d 486c 5dbe abfc 513b
00000060: 1f60 4fbc 25d0 96bb fb36 683d ee1a 053d
00000070: c85d d1be 1a82 ffba 71b4 84bd 6bac 87bd
00000080: a87d 1cbb a9e5 e53d e006 9cbc 34fc c8bd
00000090: 42c6 5abe 3ec9 43be 9703 ba3d 1610 963d
000000a0: cbd4 78be e51d 633e 1124 04bf 9436 6dbd
000000b0: 6317 603e 5bf6 523d 06da b43e b36b c23e
000000c0: 3dce d2bc ff8e ccbd 3ba0 8fbd 28b2 47bd
000000d0: ec52 923d 34d8 16be 178a 703d 2d14 39be
000000e0: ba07 9bbe 18ed 7fbe 9927 953d 8cab 32be
000000f0: dd68 093e 6daf fcb9 3cfe 26be 8da8 0b3e
00000100: 2c9f 8bbe baa6 a13d bffb 26be b16f d83c
00000110: a07a 253d be26 52be 8f6b 473e 9057 983e
00000120: 5901 273e c81f 903d fa9b a03d 0a26 f13e
00000130: 4b00 933e 47e5 c53e 693a db3d 941d 1abe
00000140: edef e6bd 8738 af3d 45cc abbe 6b79 bfbc
00000150: da25 05be d020 bfbd 32bf 81be 2ff6 773e
00000160: e265 253d 96ec e93d c335 4abd ebb2 91be
00000170: 1d95 953d 1939 0dbd b1c6 9f3c 071f b03d
00000180: e9da 88bd 5cdf f9bc 4fb0 40be a746 8ebd
00000190: ea2a 9cbe 0884 64be 968f 2e3b c1f3 5bbd
000001a0: 91c1 433e 1826 2bbe f732 64be 798a a2bc
000001b0: c701 3dbe 3e14 53be ee03 b43c 6405 d23d
000001c0: d818 e63d cc00 a9bd b2fe 633e 1172 9f3e
000001d0: b675 99be 8334 2cbe b0d1 423d d150 a1bd
000001e0: ca97 26be a0d0 223e bc0d 83bd 7c48 8ebc
000001f0: 6297 323e 4f4d 853e c4b5 373d ce48 28be
00000200: 5cd0 e3bd da24 5b3e e844 5a3e 5534 adbb
00000210: 4350 d23d ab68 993e 470d edbd f667 4c3d
00000220: d392 6c3e cb33 a4bd c33e 8fbe 857a d53d
00000230: e1cf e13d bf0f 7d3c 7fff d33d e888 013e
00000240: c89f 0fbe e8c4 0dbe 4f64 ecbc 92a1 cdbe
00000250: cdd0 88bd 728f f7bc df0d aa3e 6b34 35be
00000260: c190 77be 410e 06be 124f 913e 51f1 073e
00000270: 238d 9abe f521 813e 1533 3bbe 2819 1ebe
00000280: f6b9 fe3d 5dce 3bbd 41e2 87be 00a6 413e
00000290: 8b1a 16be 0806 753e 90d3 eabd c6e7 193e
000002a0: 2aa2 b0be ddb0 a23e 9f9c 03bf 6f2d a73e
000002b0: d8df a13b 70a6 3d3c fab8 bfbd b5f1 163d
000002c0: a67f 6c3c b710 9dbd 73c4 4c3d 77cf 62bd
000002d0: b1bf 0dbe c648 683c 81b5 a5bd 3c5e b2be
000002e0: de0e 1c3e 4e94 a93d 4cd7 623e b984 ca3d
000002f0: eb48 123e f916 ed3b 8c0b 643d 3abc 34be
00000300: edb5 a03d 6a5d 073d 49f6 1d3e 8322 943e
00000310: 4023 51be e602 73be d38e e93c 6433 12bd
00000320: dbfb cebd 4f64 423e 8173 43be abcd 1fbe
00000330: 2f26 5dbe c813 7d3e ccb5 96be 08b9 92be
00000340: 244d 213e f530 97be bf26 89be ddcb 793e
00000350: 7bc1 b3bd 63ea e6bd 030f bdbc 6f08 563e
00000360: 43ac 8d3d cc67 dfbc 5fc2 9f3d 8bbb 71be
00000370: 81b6 59be 9fb0 093d 18a6 9ebd 3033 0fbd
00000380: b270 8cbe 16d0 92be 81f8 9a3d 4176 5dbe
00000390: b442 b0bd 2820 c73d 423b 61be 6de1 b2be
000003a0: 19b1 d23e 4f05 f0bd 56a7 b2bd fe34 4abe
000003b0: 08d3 293e 8d21 73bc 825c a93c 59c7 d03e
000003c0: 8a1e 24be 771d 553d 0ebc 863e c6f3 17bc
000003d0: fca4 debe 9040 373e 6ff4 713d e646 77bc
000003e0: 7664 9e3e 2d40 cdbe cb7b 7b3e 3415 2fbd
000003f0: 40f2 ed3d 8f73 a43d 3103 023d 4c56 893c

network_body._body_endoder.seq_layers.0.bias f4 [128]
0.024805825 0.021131026 -0.0047678323 -0.009745507 0.021297986 -0.015336358 0.013234096 -0.039918642
-0.0338087 0.023326116 0.020604828 -0.008918461 -0.049298286 -0.025595875 -0.044398822 0.050784137
0.011148832 -0.0412806 0.011294146 0.012055131 -0.0015229126 -0.017698132 -0.050770745 -0.024115883
-0.0033269387 -0.002404146 -0.012862628 -0.019760445 -0.04200463 -0.04058492 -0.0134644555 -0.012244649
-0.0058198753 -0.015100274 -0.018817576 0.028250882 -0.011434591 -0.03712345 0.013553672 -0.02219996
-0.00083746226 -0.033508144 -0.009165863 -0.02587319 -0.009507277 0.008200685 0.02918684 -0.025785193
-0.052884016 -0.09696115 -0.013534234 -0.017318495 -0.043195475 -0.03399634 0.010827819 -0.025753643
-0.028297136 -0.035819676 -0.018824035 0.013557409 -0.020324688 0.0305337 0.020652594 -0.014034738
-0.007213146 -0.038479995 0.04351469 0.018342193 0.017026575 0.029674958 -0.020194868 0.023607586
-0.08136628 0.02459332 -0.0625642 -0.022850413 0.003768254 -0.028092142 -0.008759756 0.010051655
-0.020766137 -0.039008074 -0.043507524 0.016590428 0.0007118553 0.007524746 -0.0064502135 -0.011812048
0.015886344 -0.016356552 -0.011106194 -0.045639813 0.009103605 -0.021599228 0.01933937 -0.007688777
-0.01556633 -0.027453005 0.010951873 -0.0056523858 -0.019782415 -0.061606586 0.04990019 0.024190078
-0.07534084 -0.00053519296 0.0023180281 0.012639132 -0.020008309 -0.105043806 0.021638233 0.020441962
-0.0490988 -0.0008317845 0.07283055 0.0493777 -0.0024350504 -0.019889167 0.018170523 0.002304123
0.009111504 0.00064667134 -0.010300483 0.016911099 -0.021651255 0.011950823 0.021361932 0.047792807
00000000: 9635 cb3c f91a ad3c 7a3b 9cbb 9eab 1fbc
00000010: 1d79 ae3c 5945 7bbc d2d3 583c bb81 23bd
00000020: fe7a 0abd 6916 bf3c 75cb a83c bd1e 12bc
00000030: 00ed 49bd 71ae d1bc 8adb 35bd 0703 503d
00000040: 97a9 363c d915 29bd 150b 393c e282 453c
00000050: 789c c7ba acfb 90bc fcf4 4fbd ac8e c5bc
00000060: c508 5abb e08e 1dbb c6bd 52bc a8e0 a1bc
00000070: 0c0d 2cbd 603c 26bd 059a 5cbc c89d 48bc
00000080: a7b4 bebb 2467 77bc 5127 9abc 656e e73c
00000090: 2758 3bbc c20e 18bd 3810 5e3c b1dc b5bc
000000a0: 2489 5bba d63f 09bd 6a2c 16bc 03f4 d3bc
000000b0: 69c4 1bbc 2a5c 063c 3d19 ef3c 783b d3bc
000000c0: e99c 58bd 9193 c6bd b1be 5dbc 84df 8dbc
000000d0: bded 30bd bf3f 0bbd 2a67 313c 4ef9 d2bc
000000e0: 65cf e7bc a7b7 12bd dd34 9abc e51f 5e3c
000000f0: f67f a6bc cf21 fa3c a12f a93c f5f1 65bc
00000100: 415c ecbb 339d 1dbd 763c 323d 5e42 963c
00000110: 517b 8b3c e618 f33c b56f a5bc b264 c13c
00000120: 5da3 a6bd ee77 c93c a921 80bd ca30 bbbc
00000130: d0f4 763b 7e21 e6bc 1485 0fbc b2af 243c
00000140: bf1d aabc eec6 1fbd f234 32bd a6e8 873c
00000150: cd9b 3a3a 2592 f63b 505c d3bb 5287 41bc
00000160: 1424 823c 2dfe 85bc c1f6 35bc d0f0 3abd
00000170: 4927 153c ddf0 b0bc 996d 9e3c 23f2 fbbb
00000180: ec09 7fbc 20e5 e0bc 7c6f 333c a637 b9bb
00000190: bb0e a2bc 3057 7cbd 2464 4c3d 452a c63c
000001a0: 4c4c 9abd 314c 0cba 0fea 173b 5d14 4f3c
000001b0: 77e8 a3bc 3521 d7bd aa42 b13c e775 a73c
000001c0: d31b 49bd 1d0c 5aba 2f28 953d 4540 4a3d
000001d0: 5e95 1fbb 9bee a2bc 59da 943c c500 173b
000001e0: 6b48 153c 6185 293a 5bc3 28bc 2589 8a3c
000001f0: f95d b1bc 62cd 433c 38ff ae3c 64c2 433d

network_body._body_endoder.seq_layers.2.weight f4 [128, 128]
-0.018083388 0.08045234 -0.031922698 -0.015613672 -0.0381853 0.0424339 -0.006687651 -0.227717
0.08087135 0.10351729 -0.13722798 -0.05337729 0.0020103212 -0.15335844 -0.00011657576 0.064833716
0.068703525 -0.1476918 0.13905235 -0.02330524 0.093999624 -0.17705296 -0.014653011 0.080578834
4.1865012e-05 -0.2700513 0.19923423 -0.0054949773 -0.031054912 -0.015501413 -0.12123853 0.063627966
0.030164042 -0.14269629 0.11332176 0.08257293 0.10415908 0.08047528 0.26179114 0.0019513144
-0.1018709 0.0954228 -0.050601713 0.09346234 -0.124838226 -0.17412208 -0.112249 -0.051473662
-0.0016630328 -0.04087881 0.031100515 0.011841299 -0.045394585 0.019107053 -0.054429527 0.019032288
-0.10852115 -0.09415243 -0.09505847 0.055248633 -0.06129998 -0.09447658 -0.012786239 -0.08743198
-0.08470851 -0.16307399 0.026372628 0.08160308 0.08771589 0.1476166 0.21468095 0.08663751
0.021762036 -0.08279898 0.060452543 -0.12695506 -0.037588567 -0.047528923 0.093422845 0.023472425
0.025394125 -0.0679906 -0.06793996 -0.03422957 0.024202915 -0.07343881 0.070298135 -0.1584273
0.09340826 -0.009926182 0.16379435 -0.043935664 0.009647413 -0.053948026 -0.10399882 -0.035661288
-0.05274836 0.05437632 0.04614009 -0.18904804 -0.040702906 0.035168257 -0.065630846 0.0006237976
0.08195077 -0.17693688 -0.15056962 0.121783264 -0.020947564 -0.04211504 0.061496273 0.031592004
-0.062336627 0.05955277 0.09312815 -0.15326531 -0.139013 0.02248406 -0.1774659 0.022754937
0.1395853 0.026407672 0.014089789 0.07217231 0.16737223 -0.14137173 0.11151125 -0.043135438
-0.028153166 -0.24797824 0.02522001 -0.117584206 -0.2049563 -0.16601507 0.0011788843 -0.09183785
0.02482054 0.048558198 -0.00984716 0.19769329 -0.021189474 -0.024322888 -0.08395099 0.10537646
-0.05439455 0.006005334 -0.10092605 -0.04492421 0.0110682715 -0.06701375 0.06965989 0.017740082
-0.14306138 0.030065302 -0.013489863 -0.10203662 -0.05163144 -0.004781572 -0.12058618 -0.026870107
-0.21673225 0.028687846 -0.039488573 -0.0023625186 -0.106825784 0.033884406 0.11339057 -0.1795715
-0.097469 -0.23280643 0.09047918 0.113572784 -0.046664227 -0.0902587 0.059270363 -0.06844722
0.05291237 -0.042812012 0.1877281 -0.121822216 0.017590234 -0.054960817 -0.03964103 -0.07009704
-0.033672184 -0.026104333 0.1202748 -0.11920938 -0.044085108 0.04453344 0.07137673 0.13802718
-0.22467609 0.103842095 -0.13085923 -0.0769603 0.057985257 -0.14084196 -0.013446217 0.11942206
-0.139839 0.078532435 -0.04106322 0.052562587 -0.07067347 0.07015784 0.037696883 0.07611939
0.013916679 -0.06808795 -0.18304555 -0.1302453 -0.13248332 0.028497787 0.013443436 -0.031624142
-0.15546006 0.01999712 -0.22475965 -0.012070164 0.12174422 -0.031915277 0.26255846 0.15622601
-0.05798069 -0.13504937 0.1637269 -0.035929643 -0.1654153 -0.0018386582 -0.14200564 0.029649328
-0.00937702 0.03533579 0.095636666 -0.101003684 0.046580758 0.0053365156 -0.09220621 -0.09072258
0.01570162 -0.10983024 -0.09814491 0.11122108 0.1250919 0.022534985 -0.09384634 0.05574932
0.11644789 -0.05601018 -0.006353052 0.10051928 -0.022548476 0.010070928 -0.084533796 0.0071906582
00000000: 9d23 94bc 32c4 a43d 60c1 02bd 7dd0 7fbc
00000010: 3068 1cbd 2bcf 2d3d 1524 dbbb a52e 69be
00000020: e19f a53d df00 d43d 7e85 0cbe 25a2 5abd
00000030: 98bf 033b ff09 1dbe 227a f4b8 8ac7 843d
00000040: 6fb4 8c3d 853c 17be bd63 0e3e a1ea bebc
00000050: e082 c03d 5f4d 35be 2f13 70bc 8406 a53d
00000060: 3798 2f38 2a44 8abe 0f04 4c3e 360f b4bb
00000070: df66 febc a3f9 7dbc e84b f8bd 614f 823d
00000080: 951a f73c fa1e 12be 3d15 e83d ff1b a93d
00000090: 5b51 d53d 39d0 a43d 7d09 863e 3fc3 ff3a
000000a0: b1a1 d0bd 076d c33d be43 4fbd 2f69 bf3d
000000b0: 2fab ffbd 0f4d 32be cee2 e5bd 0cd6 52bd
000000c0: 1ffa d9ba 8a70 27bd 82c6 fe3c 0202 423c
000000d0: acef 39bd 6586 9c3c 7ff1 5ebd 9ae9 9b3c
000000e0: 5640 debd fdd2 c0bd 04ae c2bd 644c 623d
000000f0: b015 7bbd f07c c1bd 607d 51bc 8a0f b3bd
00000100: a87b adbd defc 26be 690b d83c 841f a73d
00000110: 63a4 b33d ce28 173e 53d5 5b3e 026f b13d
00000120: 4c46 b23c 8392 a9bd 169d 773d 8200 02be
00000130: 78f6 19bd b0ad 42bd 7a54 bf3d 3e49 c03c
00000140: 5707 d03c a83e 8bbd 1b24 8bbd 4e34 0cbd
00000150: 3145 c63c 1667 96bd 78f8 8f3d c43a 22be
00000160: d44c bf3d 6da1 22bc b5b9 273e e2f5 33bd
00000170: 2f10 1e3c 9bf8 5cbd 55fd d4bd 9211 12bd
00000180: aa0e 58bd b4b9 5e3d 64fd 3c3d cf95 41be
00000190: 17b8 26bd 970c 103d 7769 86bd 5986 233a
000001a0: ced5 a73d f12e 35be ec2e 1abe 8169 f93d
000001b0: 3a9a abbc d280 2cbd 84e3 7b3d 9e66 013d
000001c0: b154 7fbd 9bed 733d f9b9 be3d 95f1 1cbe
000001d0: 6d59 0ebe 7e30 b83c 9fb9 35be 9068 ba3c
000001e0: 73ef 0e3e e754 d83c dcd8 663c 13cf 933d
000001f0: a063 2b3e c0c3 10be 0360 e43d c9ae 30bd
00000200: 78a1 e6bc 02ee 7dbe 329a ce3c fdcf f0bd
00000210: 10e0 51be dbff 29be cb84 9a3a 7c15 bcbd
00000220: 7254 cb3c f6e4 463d fc55 21bc 1c70 4a3e
00000230: 8c95 adbc cb40 c7bc 7fee abbd 9dcf d73d
00000240: d2cc 5ebd 65c8 c43b 51b2 cebd 7302 38bd
00000250: b257 353c 813e 89bd d8a9 8e3d a653 913c
00000260: af7e 12be 824b f63c 9604 5dbc 93f8 d0bd
00000270: 7d7b 53bd bcae 9cbb e3f5 f6bd b31e dcbc
00000280: 0fef 5dbe c602 eb3c c5be 21bd 7cd4 1abb
00000290: 7ac7 dabd 60ca 0a3d 5139 e83d 97e1 37be
000002a0: d49d c7bd cf64 6ebe 264d b93d d998 e83d
000002b0: fd22 3fbd 8ed9 b8bd 7bc5 723d 0e2e 8cbd
000002c0: a4ba 583d a65b 2fbd cc3b 403e ed7d f9bd
000002d0: 6519 903c 981e 61bd a25e 22bd 098f 8fbd
000002e0: d8eb 09bd c1d8 d5bc a252 f63d 0c24 f4bd
000002f0: 9692 34bd b268 363d f72d 923d ff56 0d3e
00000300: 7d11 66be 2aab d43d f6ff 05be 5d9d 9dbd
00000310: f381 6d3d e038 10be 864d 5cbc 8e93 f43d
00000320: f431 0fbe 9dd5 a03d e831 28bd de4b 573d
00000330: 41bd 90bd eaae 8f3d 0c68 1a3d 7ce4 9b3d
00000340: c802 643c b271 8bbd 4b70 3bbe 065f 05be
00000350: b5a9 07be 3174 e93c db41 5c3c 5188 01bd
00000360: ec30 1fbe 00d1 a33c 6527 66be f0c1 45bc
00000370: 0955 f93d 98b9 02bd 106e 863e b6f9 1f3e
00000380: 297d 6dbd 624a 0abe 06a8 273e f62a 13bd
00000390: a162 29be 22ff f0ba ed69 11be 26e3 f23c
000003a0: 13a2 19bc 43bc 103d 28dd c33d 05db cebd
000003b0: 77cb 3e3d f0dd ae3b 9cd6 bcbd c3cc b9bd
000003c0: afa0 803c adee e0bd 3300 c9bd e1c7 e33d
000003d0: 1718 003e 4a9b b83c 8332 c0bd 6659 643d
000003e0: 3b7c ee3d ee6a 65bd 432d d0bb 0ddd cd3d
000003f0: 95b7 b8bc 8900 253c 0e20 adbd 9d9f eb3b

network_body._body_endoder.seq_layers.2.bias f4 [128]
0.029469298 0.008604415 -0.017254978 -0.009879066 0.012508556 -0.0016445812 0.017775813 0.020278212
-0.01447529 0.010135357 0.0022141712 0.0059211976 -0.027173342 0.0068325517 -0.0070679374 -0.021165736
-0.02118043 -0.041317433 0.015171396 -0.0016624857 -0.0115018925 0.020002227 0.0041931416 0.0038407242
0.022248922 0.0047099763 0.011062492 0.004651909 0.008459365 0.04569147 0.020557772 0.0021454873
0.027713966 0.004260393 -0.0129238935 0.026960526 -0.008215987 0.016429327 -0.0019910713 -0.0069840807
0.002899326 0.028406115 0.0067468802 0.0158934 0.02417762 0.0076736095 -0.042062707 0.020701721
0.018864596 0.02751714 -0.0024189642 -0.037947923 -0.03493161 0.014560685 -0.0001381107 0.011497148
0.03783945 -0.013592216 -0.011730516 -0.0016065261 0.012043081 -0.042696632 0.01420525 -0.021728832
0.05440026 -0.011361571 0.019005446 0.03557967 -0.0117010325 0.018997978 0.049821615 0.01443769
-0.006769759 -0.014940178 0.027790044 0.018638715 0.00093117874 0.0065992684 0.00773528 -0.009276462
-0.018309897 -0.017966382 -0.060060315 -0.020251762 -0.016111724 0.017061045 0.0093608955 -0.019200105
0.0069832467 -0.027549526 0.011764717 0.047298793 -0.015050189 0.0012208587 0.025605874 0.016614335
-0.0034174945 -0.0001188723 0.015619702 -0.023647508 0.0075729494 -0.008874204 0.028960196 -0.04954503
-0.00045915175 -0.013650278 0.0117112 0.0038534764 0.019530488 0.005902962 0.011068721 0.007742463
0.012585799 -0.01944039 -0.010929716 0.046226762 0.0023047307 0.01733307 0.010539109 -0.007581208
0.012595153 -0.018996254 0.01022786 0.010224917 -0.0006328565 -0.014662904 0.019934878 -0.01228936
00000000: 9969 f13c 88f9 0c3c 505a 8dbc cedb 21bc
00000010: b0f0 4c3c fd8e d7ba 959e 913c 7e1e a63c
00000020: c429 6dbc c50e 263c a11b 113b 9b06 c23b
00000030: a19a debc 99e3 df3b 289a e7bb c463 adbc
00000040: 9582 adbc 783c 29bd 7291 783c c3e7 d9ba
00000050: 6f72 3cbc b6db a33c 9f66 893b a9b4 7b3b
00000060: 5f43 b63c 2556 9a3b 743f 353c 0b6f 983b
00000070: 2699 0a3c fb26 3b3d c668 a83c 4e9b 0c3b
00000080: 6608 e33c c49a 8b3b bdbe 53bc 52dc dc3c
00000090: 599c 06bc cc96 863c a27c 02bb b7da e4bb
000000a0: 9e02 3e3b f1b3 e83c ef14 dd3b e032 823c
000000b0: 2510 c63c e772 fb3b f249 2cbd a896 a93c
000000c0: ed89 9a3c a06b e13c 7c87 1ebb 486f 1bbd
000000d0: 7314 0fbd f08f 6e3c cfd1 10b9 895e 3c3c
000000e0: 8afd 1a3d e3b1 5ebc 5a31 40bc 1292 d2ba
000000f0: 5850 453c aae2 2ebd 23bd 683c aa00 b2bc
00000100: cfd2 5e3d e225 3abc 4fb1 9b3c fdbb 113d
00000110: b0b5 3fbc a6a1 9b3c c011 4c3d 108c 6c3c
00000120: dbd4 ddbb a6c7 74bc f2a7 e33c 38b0 983c
00000130: 591a 743a ad3e d83b 3b78 fd3b 4dfc 17bc
00000140: a3fe 95bc 3c2e 93bc ce01 76bd 06e7 a5bc
00000150: bcfc 83bc 9bc3 8b3c 715e 193c 8a49 9dbc
00000160: b8d3 e43b 8baf e1bc cdc0 403c 61bc 413d
00000170: 1195 76bc 3805 a03a 69c3 d13c c91a 883c
00000180: 0bf8 5fbb 154b f9b8 c7e9 7f3c 6bb8 c1bc
00000190: 8126 f83b 1c65 11bc ef3d ed3c bbef 4abd
000001a0: 4eba f0b9 6aa5 5fbc 55e0 3f3c 9b8a 7c3b
000001b0: 67fe 9f3c a26d c13b 9559 353c 7db4 fd3b
000001c0: ab34 4e3c 7441 9fbc 8d12 33bc 4658 3d3d
000001d0: f70a 173b 15fe 8d3c 3aac 2c3c c86b f8bb
000001e0: e75b 4e3c 089e 9bbc c192 273c 6986 273c
000001f0: 48e6 25ba ad3c 70bc 784e a33c 5059 49bc

action_model._continuous_distribution.log_sigma f4 [1, 2]
0.08862944 0.102616996
00000000: 5a83 b53d dc28 d23d

action_model._continuous_distribution.mu.weight f4 [2, 128]
-0.050607853 0.08642716 -0.012139365 0.03669048 0.078947514 0.02751925 -0.0805747 -0.09530922
0.031053903 0.081346996 0.05629711 0.059993125 0.010406044 0.020880815 -0.04599505 0.025702138
0.022485506 -0.042160466 0.08184889 0.06359362 -0.021977631 -0.07571687 0.050326325 -0.065728396
-0.077549554 0.020008545 -0.07523657 -0.039320294 -0.06174267 -0.08996624 -0.10664809 0.07571675
-0.041608207 0.059180863 0.0833376 0.08149505 -0.028546657 -0.08080625 -0.06293784 -0.0106236385
0.05402256 0.028423283 -0.054949034 0.03391197 0.05316164 0.045519616 -0.028199984 -0.13902944
0.091060586 0.11404908 -0.085705005 -0.017033936 0.0063624694 -0.083172776 0.11146104 -0.07107083
0.09429207 -0.01949612 0.06603074 -0.047185566 -0.058929626 -0.0022536218 0.06311117 0.014850667
0.13405669 0.035652757 -0.08514683 -0.10130822 -0.072534084 -0.09028309 -0.08919717 -0.0984516
0.05096926 -0.025879728 0.06677628 -0.093215175 -0.017957183 -0.055861276 0.041505594 0.029193016
-0.04788659 0.056353286 0.00027237998 0.059767444 0.047898166 -0.07361868 -0.048286397 0.04667926
0.094854586 -0.0065699425 -0.029633055 -0.107059084 0.039090157 0.02319069 -0.04041934 0.046758614
-0.00031434125 0.01897151 -0.0755532 -0.02696228 -0.06293977 0.05540124 -0.11909875 0.0026970678
0.09319707 0.0067652143 -0.0602765 -0.025345031 -0.08150932 -0.026933664 0.079233125 0.043608703
-0.039796717 0.06754423 0.067111656 0.11413007 -0.06331608 0.0058845184 0.05921044 -0.058322787
0.08790403 -0.03259613 -0.05169316 0.0019393164 0.033093546 0.020312808 0.092985556 -0.06465142
-0.027326152 0.011237585 -0.018278724 -0.006576719 0.020094346 0.0074657355 0.0137476055 -0.014401432
0.057221204 -0.03316978 0.01983231 -0.012185877 0.056609564 -0.054954212 0.020321365 0.026310075
0.029730998 0.019586628 -0.049185466 -0.011765516 0.017712772 -0.0039034043 0.039019212 -0.008987362
-0.013560692 -0.056784738 0.0014854316 0.053094335 0.053512394 -0.010686966 0.013275354 -0.016631633
0.03752653 -0.028067838 0.011416345 -0.024865387 0.03614921 -0.011514474 0.028971093 -0.020284858
0.003267605 -0.029799242 0.024115307 -0.051634356 -0.027952606 -0.017176325 0.043727208 0.015807861
-0.010861386 -0.028560098 -0.014671314 0.052409198 0.02176303 0.004674684 0.008598696 -0.009801848
-0.03181775 0.035340916 0.022338746 0.046968795 -0.010448753 0.043711253 0.029630514 0.0016643641
-0.047801666 0.017539049 0.04581175 0.032528233 0.0048349504 0.012500104 0.0426872 -0.029821739
0.032530993 0.045912135 0.087475754 -0.04311691 -0.07802204 0.013153394 0.0036095285 0.026665425
0.057266813 0.029182177 0.03142361 0.04838656 -0.016905194 0.022360021 0.02673652 0.005354744
-0.018061673 0.05743271 -0.023039738 -0.022107262 0.028260091 0.035684988 0.029474277 -0.022472778
-0.04110166 -0.038899418 0.023759171 -0.004508899 -0.01084 -0.024639482 0.003319069 0.027075458
-0.019716725 -0.032781936 -0.041736603 -0.052320205 0.027399551 -0.012833845 0.0055949707 -0.005246375
0.036661647 0.0454712 0.024169743 -0.02532271 -0.0042819725 0.08586098 -0.037180666 0.05118838
0.010503756 0.01089691 0.10141831 -0.010928651 0.025144743 0.050645627 -0.015494794 0.025941437
00000000: 2e4a 4fbd b900 b13d 30e4 46bc c248 163d
00000010: 3caf a13d 0d70 e13c 5904 a5bd 7b31 c3bd
00000020: c164 fe3c 4199 a63d cc97 663d 5abb 753d
00000030: 1d7e 2a3c 3e0e ab3c 4e65 3cbd 4a8d d23c
00000040: 8633 b83c 74b0 2cbd 64a0 a73d 5f3d 823d
00000050: 6f0a b4bc 7211 9bbd fa22 4e3d 9c9c 86bd
00000060: 4dd2 9ebd f6e8 a33c a115 9abd 510e 21bd
00000070: e2e5 7cbd 3840 b8bd 506a dabd 6211 9b3d
00000080: 5e6d 2abd a267 723d e7ac aa3d e0e6 a63d
00000090: aeda e9bc bf7d a5bd 8ee5 80bd c50e 2ebc
000000a0: c346 5d3d f2d7 e83c 3d12 61bd 47e7 0a3d
000000b0: 05c0 593d c772 3a3d a703 e7bc bc5d 0ebe
000000c0: f97d ba3d 9092 e93d 1b86 afbd c18a 8bbc
000000d0: 437c d03b 7d56 aabd b045 e43d 958d 91bd
000000e0: 331c c13d 54b6 9fbc 203b 873d a745 41bd
000000f0: 3160 71bd 80b1 13bb 6e40 813d 3650 733c
00000100: 2846 093e a008 123d 7661 aebd af7a cfbd
00000110: c08c 94bd 57e6 b8bd 02ad b6bd fea0 c9bd
00000120: 25c5 503d b901 d4bc 01c2 883d 99e7 bebd
00000130: f11a 93bc cbce 64bd c501 2a3d 3126 ef3c
00000140: bb24 44bd b4d2 663d 39ce 8e39 b5ce 743d
00000150: de30 443d 64c5 96bd f5c7 45bd c032 3f3d
00000160: 1f43 c23d ac48 d7bb 05c1 f2bc cb41 dbbd
00000170: 001d 203d 67fa bd3c c08e 25bd f685 3f3d
00000180: 2bce a4b9 246a 9b3c a3bb 9abd 00e0 dcbc
00000190: 91e6 80bd 69ec 623d 0cea f3bd 4ac1 303b
000001a0: 1bde be3d bbae dd3b 7ee4 76bd 62a0 cfbc
000001b0: 5cee a6bd fda3 dcbc fa44 a23d 0a9f 323d
000001c0: e201 23bd a154 8a3d d671 893d 07bd e93d
000001d0: dcab 81bd ebd2 c03b a586 723d e0e3 6ebd
000001e0: 0707 b43d 8583 05bd 35bc 53bd a930 fe3a
000001f0: 198d 073d 0c67 a63c 366f be3d f767 84bd
00000200: 18db dfbc d91d 383c 43bd 95bc 8581 d7bb
00000210: e69c a43c 21a3 f43b a33d 613c fcf3 6bbc
00000220: c860 6a3d 09dd 07bd 5e77 a23c 46a7 47bc
00000230: 6edf 673d ab17 61bd fe78 a63c 3a88 d73c
00000240: 6c8e f33c 2374 a03c b376 49bd 27c4 40bc
00000250: 601a 913c 42d0 7fbb 9cd2 1f3d ba3f 13bc
00000260: aa2d 5ebc 1d97 68bd d0b2 c23a 7279 593d
00000270: d02f 5b3d 6218 2fbc df80 593c 103f 88bc
00000280: 6bb5 193d 86ee e5bc 9f0b 3b3c 7fb2 cbbc
00000290: 3211 143d 34a7 3cbc c954 ed3c 6e2c a6bc
000002a0: 5125 563b 8a1d f4bc 778d c53c 8c7e 53bd
000002b0: ddfc e4bc 5db5 8cbc 4d1b 333d 7d7f 813c
000002c0: f4f3 31bc def6 e9bc f35f 70bc 07ab 563d
000002d0: 6248 b23c 172e 993b 8ce1 0c3c ee97 20bc
000002e0: 5453 02bd a3c1 103d bfff b63c 5a62 403d
000002f0: 3f31 2bbc 920a 333d b1bb f23c cb26 da3a
00000300: aecb 43bd 0dae 8f3c 1aa5 3b3d 533c 053d
00000310: 816e 9e3b 3ccd 4c3c c6d8 2e3d b84c f4bc
00000320: 383f 053d 5d0e 3c3d 7d26 b33d 5b9b 30bd
00000330: 05ca 9fbd 5581 573c d78d 6c3b 7371 da3c
00000340: 9b90 6a3d 760f ef3c 0bb6 003d fc30 463d
00000350: c37c 8abc 5d2c b73c 8c06 db3c d976 af3b
00000360: 13f6 93bc 903e 6b3d d5bd bcbc 4a1a b5bc
00000370: b581 e73c 6c2a 123d 0a74 f13c d518 b8bc
00000380: 375a 28bd ff54 1fbd 98a2 c23c 63bf 93bb
00000390: 419a 31bc bdd8 c9bc bd84 593b 5acd dd3c
000003a0: f884 a1bc 5a46 06bd 00f4 2abd b64d 56bd
000003b0: 0675 e03c 0c45 52bc 0456 b73b c9e9 abbb
000003c0: 862a 163d 0240 3a3d a0ff c53c 9271 cfbc
000003d0: ca4f 8cbb e2d7 af3d c14a 18bd e8aa 513d
000003e0: f217 2c3c f488 323c 67b4 cf3d 160e 33bc
000003f0: 59fc cd3c ca71 4f3d e0dd 7dbc 2383 d43c

action_model._continuous_distribution.mu.bias f4 [2]
-0.0068775 -0.008897606
00000000: a75c e1bb 44c7 11bc

onnx::Div_71 f4 [20]
0.23757693 0.48032814 0.1526287 0.2289593 0.21214367 0.3977094 0.03964626 0.14372174
0.2214513 0.38047618 0.050573774 0.14175388 0.1942004 0.47454175 0.06725231 0.1632536
0.17282768 0.46264943 0.055100564 0.1594402
00000000: 5e47 733e 92ed f53e b34a 1c3e 4f74 6a3e
00000010: 313c 593e 91a0 cb3e 1e64 223d cb2b 133e
00000020: 21c4 623e c6cd c23e 7226 4f3d ee27 113e
00000030: 78dc 463e 23f7 f23e 94bb 893d f42b 273e
00000040: bdf9 303e 63e0 ec3e 21b1 613d 4b44 233e

onnx::Div_74 f4 [12]
0.1398033 0.47203982 0.067208745 0.081328295 0.13871045 0.47260407 0.06924594 0.08298873
0.14035077 0.4695635 0.06363614 0.07824422
00000000: 9928 0f3e 34af f13e bda4 893d 738f a63d
00000010: 1d0a 0e3e 29f9 f13e d1d0 8d3d fff5 a93d
00000020: 1db8 0f3e a16a f03e aa53 823d 813e a03d

onnx::Div_77 f4 [3]
1.0090884 0.047058616 1.3492863
00000000: cf29 813f 89c0 403d 6ab5 ac3f
