Experimentos/results/ppo6/KartAgent/KartAgent-949984.onnx (onnx, 309439 bytes, 13 tensors)

network_body.observation_encoder.processors.0.normalizer.running_mean f4 [20]
0	0x3f0547aa	0.52062476
1	0x3ecec8d5	0.40387598
2	0x3cb45497	0.022012992
3	0x3e5de7f0	0.21670508
4	0x3f46d75a	0.7767235
5	0x3e05e321	0.13074924
6	0x3b0901a6	0.0020905524
7	0x3e051951	0.12997939
8	0x3f1c9eb4	0.6117966
9	0x3e9f5c27	0.31124994
10	0x3b71ddaa	0.0036905804
11	0x3e67d477	0.22639643
12	0x3f2aa122	0.6665212
13	0x3e7af406	0.2450715
14	0x3b5971c7	0.003317939
15	0x3e33b7ad	0.17550536
16	0x3f2e1c4f	0.68011945
17	0x3e737727	0.23775922
18	0x3b09a0c0	0.0021000355
19	0x3e805c2b	0.2507032

network_body.observation_encoder.processors.1.normalizer.running_mean f4 [12]
0	0x3eaa2a22	0.3323527
1	0x3eefe3ae	0.46853393
2	0x3df1283a	0.11775251
3	0x3e45ca61	0.19315483
4	0x3eb29fe5	0.34887615
5	0x3ee4c92a	0.44684726
6	0x3df65080	0.12027073
7	0x3e496351	0.19666792
8	0x3ea478c0	0.32123375
9	0x3ef6e473	0.48221168
10	0x3def0c02	0.11672212
11	0x3e4425f0	0.19155097

network_body.observation_encoder.processors.2.normalizer.running_mean f4 [3]
0	0x3ab3dc8a	0.0013722342
1	0x3d0173e7	0.031604674
2	0xbd4f552d	-0.05061834

network_body._body_endoder.seq_layers.0.weight f4 [256, 35]
0	0x3d70860e	0.058721595
1	0x3e83c14f	0.2573342
2	0x3dbce75d	0.092238165
3	0x3d4d777d	0.05016278
4	0x39d13089	0.00039899748
5	0x3e45b1e5	0.19306143
6	0x3e452446	0.19252118
7	0xbe2963c4	-0.16541964
8	0x3c7e781a	0.015531564
9	0xbba07c45	-0.0048976266
10	0xbdabc4de	-0.08387159
11	0xbe6b28ac	-0.22964734
12	0x3dba1a98	0.090871036
13	0x3e1b4f8d	0.15167065
14	0xbe244e7a	-0.16045561
15	0x3d7cd260	0.061724067
16	0xbe55501e	-0.20831344
17	0xbb3c8f29	-0.0028771854
18	0x3e806cd3	0.25083026
19	0x3e5ab31f	0.21357392
20	0x3c100564	0.008790348
21	0x3e065607	0.13118754
22	0xbe0f904c	-0.14019889
23	0x3d44fe72	0.04809422
24	0x3cf10cbe	0.029425021
25	0x3db5394c	0.08848819
26	0x3dbad704	0.09123042
27	0x3da95d52	0.082697526
28	0x3c8e5d9d	0.017378623
29	0xbd233f11	-0.039855067
30	0x3e965b0f	0.29366347
31	0x3d9ae620	0.07563424
32	0xbe1731f5	-0.14765151
33	0xbe89ebd3	-0.26937732
34	0x3dec0ebc	0.11526248
35	0xbebaa719	-0.3645561
36	0xbdeba1c5	-0.115054645
37	0xbe5b4bba	-0.21415606
38	0xbbacc62d	-0.005272648
39	0xbba0c53b	-0.004906324
40	0x3e56a7f3	0.20962505
41	0x3e06a81c	0.13150066
42	0xbe3c3571	-0.18379761
43	0xbe2d8a15	-0.16947205
44	0x3ee72947	0.4514868
45	0xbe5b9f2f	-0.21447442
46	0x3e186103	0.14880757
47	0xbd245dfe	-0.0401287
48	0x3ddbe2f6	0.10736649
49	0xbe99262c	-0.29911935
50	0xbea39ac7	-0.31954023
51	0xbdc9b035	-0.09848062
52	0x3dafda59	0.085865684
53	0x3ccee923	0.025257653
54	0x3e9425f4	0.28935206
55	0x3e07c1de	0.13257548
56	0xbe65469b	-0.22390215
57	0x3da45c98	0.08025473
58	0xbd547500	-0.051869392
59	0x3bac9fe4	0.005268084
60	0xbe3a2270	-0.181772
61	0x3bfdf283	0.007749857
62	0xbd066fdd	-0.032821525
63	0x3b5d70c3	0.0033789135
64	0xbdaf1e49	-0.08550698
65	0x3df9598e	0.12175284
66	0xbdf8f13c	-0.12155387
67	0x3e78609e	0.24255607
68	0xbd1dc23a	-0.038515307
69	0x3d418d66	0.04725399
70	0xbcb69a41	-0.02229035
71	0x3c5e3b2f	0.013563915
72	0x3c87f6f3	0.016597247
73	0xbe1b285a	-0.15152112
74	0x3d58c88b	0.052925628
75	0x3db02219	0.086002536
76	0xbdb03ebb	-0.08605715
77	0x3d420dfa	0.04737661
78	0x3d39cf37	0.04536363
79	0x3cc14931	0.02359447
80	0xbd254447	-0.040348317
81	0x3e0670f6	0.13129029
82	0x3ddd2739	0.10798497
83	0xbdf51eeb	-0.11968788
84	0x3ec74af1	0.38924363
85	0x3e266ab8	0.16251647
86	0x3e74c11b	0.23901789
87	0x3e4edef6	0.2020224
88	0xbe1cfc05	-0.15330513
89	0xbd024064	-0.03179969
90	0x3c9cfd0c	0.01916363
91	0xbdc0826a	-0.093998745
92	0xbdfc3089	-0.12313945
93	0xbd679af0	-0.056544244
94	0xbe258c3c	-0.16166776
95	0xbdcb7f3b	-0.09936377
96	0xbd451d5d	-0.048123706
97	0xbe8e9d4b	-0.2785438
98	0xbeb15f3a	-0.34642965
99	0x3e0dae0a	0.13835922
100	0x3e52e123	0.20593695
101	0xbddd4f05	-0.108060874
102	0x3e457c0b	0.192856
103	0xbaef81a4	-0.0018272889
104	0x3e409b45	0.1880923
105	0x3d84bc8d	0.06481276
106	0x3e58e0e6	0.21179542
107	0x3ee09126	0.4386074
108	0x3e7b385f	0.24533223
109	0x3ecd5e1d	0.40110865
110	0xbdaf4a49	-0.08559091
111	0x3dde605a	0.10858221
112	0xbe9737a8	-0.2953465
113	0x3db532e7	0.088475995
114	0xbcf9aa4e	-0.030476715
115	0x3c11a927	0.008890427
116	0x3e7a96b1	0.24471547
117	0x3dbcec96	0.09224813
118	0xbe1ef6eb	-0.15523879
119	0xbcc5709e	-0.024101552
120	0x3e122c7a	0.14274779
121	0xbdc18fec	-0.09451279
122	0x3da9394c	0.08262882
123	0x3dd46171	0.10370148
124	0xbe17f379	-0.14838971
125	0x3f26be57	0.65134186
126	0xbc91f9a8	-0.01781924
127	0x3e5336c7	0.20626365
128	0x3e22782f	0.15866159
129	0x3e377a8f	0.17917846
130	0xbe2df02d	-0.16986151
131	0xbdbc85ff	-0.09205245
132	0x3cacc697	0.021090789
133	0x3e1e8de6	0.15483817
134	0xbe00f980	-0.12595177
135	0x3e39b4e9	0.18135418
136	0x3ee9e54d	0.45682755
137	0xbe3ff7c7	-0.18746863
138	0x3e87237b	0.26394257
139	0xbec06cbf	-0.37582967
140	0x3eb306df	0.3496618
141	0xbe055e7b	-0.13024323
142	0x3d12ec89	0.03587011
143	0xbda01a29	-0.0781749
144	0xbdd47fc0	-0.10375929
145	0xbe977178	-0.29578757
146	0xbd83d4a7	-0.064370446
147	0xbea3ae6d	-0.31969014
148	0xbe01b3c4	-0.12666231
149	0x3ee4f7fa	0.4472044
150	0xbde4549f	-0.11148953
151	0xbcfb89e9	-0.03070541
152	0x3c9df440	0.019281507
153	0xbdf2ff4e	-0.11865102
154	0xbd159307	-0.03651717
155	0x3e5f223b	0.21790402
156	0xbdc82774	-0.0977315
157	0x3e42b564	0.19014508
158	0xbe77b956	-0.24191794
159	0x3d8eee1a	0.06979008
160	0xbc988844	-0.018619664
161	0x3c901fe8	0.01759334
162	0xbdd30a37	-0.10304683
163	0xbd750c58	-0.059826225
164	0x3c11383d	0.008863506
165	0x3d0e32b3	0.03471632
166	0x3cef18d4	0.029186644
167	0x3e0d33b8	0.1378926
168	0x3ef1ed4d	0.4725136
169	0x3dfa2bce	0.12215386
170	0x3e6d17c3	0.23153596
171	0x3e7da7f6	0.24771103
172	0xbd518818	-0.05115518
173	0xbbffcbbb	-0.007806269
174	0xbec747c5	-0.38921943
175	0xbda8a26a	-0.08234103
176	0x3c273896	0.010206362
177	0x3d834545	0.064096965
178	0x3c000ab6	0.007815054
179	0xbdd28505	-0.10279278
180	0x3d714dcb	0.05891208
181	0x3cf13bd1	0.029447468
182	0x3e214df3	0.15752392
183	0xbd8cbc62	-0.06871869
184	0x3d4a2607	0.049352672
185	0xbcd12d55	-0.025534311
186	0xbcc7f5e4	-0.024409242
187	0x3e27c1b6	0.16382489
188	0x3e1fe002	0.15612796
189	0xbe8bbd07	-0.27292654
190	0x3b501c88	0.0031755287
191	0xbba4f20b	-0.0050337366
192	0x3e31e455	0.17372258
193	0x3e8ea505	0.27860275
194	0xbe95d12a	-0.29261142
195	0xbe16fb01	-0.14744188
196	0x3d9b916b	0.07596096
197	0xbdd22f27	-0.102629
198	0xbec246a3	-0.37944517
199	0x3c5be524	0.013421331
200	0xbe18272a	-0.1485869
201	0x3e8e89cd	0.2783951
202	0x3e95eba9	0.29281357
203	0xbe69463d	-0.227807
204	0x3dbfe5a1	0.0936997
205	0x39b64391	0.00034764086
206	0xbe067728	-0.13131392
207	0x3e04624c	0.12928122
208	0xbe358763	-0.17727427
209	0x3e980193	0.296887
210	0x3d2c699f	0.042092916
211	0x3e40f3c0	0.18842983
212	0xbe14907d	-0.14508243
213	0x3cd7c2e4	0.026338048
214	0xbe444217	-0.19165836
215	0xbc19573f	-0.00935918
216	0x3e23281f	0.15933274
217	0x3b322090	0.0027180053
218	0x3c1cedd5	0.009578188
219	0x3e5b40c6	0.21411428
220	0x3d464802	0.048408516
221	0x3e30e3e5	0.17274435
222	0x3dc3898f	0.095477216
223	0xbc91ef40	-0.017814279
224	0x3e84b440	0.2591877
225	0x3d4d226e	0.050081663
226	0x3e9c976e	0.30584282
227	0xbe8e3aab	-0.27779135
228	0xbd744e51	-0.059645
229	0x3d9a2ef2	0.07528485
230	0xbe7fdd02	-0.24986652
231	0xbdf4431a	-0.11926861
232	0x3d79c939	0.060982917
233	0x3e818310	0.25295305
234	0x3e28af0a	0.16473022
235	0xbe37032f	-0.17872308
236	0x3cd6c81a	0.026218463
237	0xbe7af45a	-0.24507275
238	0x3de24d7a	0.11049934
239	0x3d64f1f1	0.055894796
240	0xbca7c77b	-0.020480862
241	0xbc9a2f72	-0.018821452
242	0x3e3c3325	0.18378885
243	0x3cb3ee57	0.021964235
244	0x3d02b3ff	0.03190994
245	0xbe209b7f	-0.15684317
246	0x3e2cec25	0.16886957
247	0x3e2a2387	0.16615115
248	0xbe656ef7	-0.22405611
249	0x3de58fd2	0.11209072
250	0x3d61e5c4	0.055150762
251	0x3d87ef20	0.06637406
252	0xbc38a804	-0.011270527
253	0x3e8fb4f7	0.28067753
254	0x3dc1ad00	0.09456825
255	0xbe92cb03	-0.2867051

network_body._body_endoder.seq_layers.0.bias f4 [256]
0	0xbd381e1a	-0.044950582
1	0xbcf51f95	-0.029922286
2	0xbd1845f5	-0.03717609
3	0xbcb8549a	-0.022501279
4	0x3c9d3f75	0.019195298
5	0xbb760c4c	-0.003754395
6	0xbc578b22	-0.01315573
7	0xbc6c4b03	-0.014422181
8	0xbcaedf43	-0.021346694
9	0x3a187dbb	0.0005817075
10	0xba83daa4	-0.0010059667
11	0x3a9794ef	0.0011564771
12	0x3a5ef7f5	0.00085055764
13	0xbaf8afd1	-0.0018973296
14	0xbcb75b37	-0.022382362
15	0xbcb9077a	-0.022586573
16	0x3c1cfec6	0.009582227
17	0xbc406d79	-0.01174485
18	0xbd44d6e7	-0.04805651
19	0xbd7228e2	-0.05912102
20	0x3c6b0107	0.014343507
21	0xbc86daf3	-0.016461825
22	0xbcc6b2a3	-0.024255103
23	0xbcb72699	-0.022357272
24	0xbd083d1e	-0.03326141
25	0xba956f76	-0.0011401016
26	0x3d084ffc	0.033279404
27	0xbd3c362b	-0.045950096
28	0xbc4ce566	-0.012505865
29	0x3a7e55fb	0.0009702143
30	0xbcc82e2d	-0.02443608
31	0x3a989380	0.0011640638
32	0x3b1d1286	0.002396734
33	0xbd2d7539	-0.04234812
34	0xbccf93b1	-0.02533898
35	0xbcec7bd6	-0.028867643
36	0xbc5e069f	-0.013551383
37	0xbcf240d9	-0.029571937
38	0xbb91a769	-0.0044450057
39	0xbce7d537	-0.028299911
40	0xbc043400	-0.008069038
41	0x3bab76bc	0.00523266
42	0xbd04b8e8	-0.032402903
43	0xbd35d565	-0.044392962
44	0xbc495232	-0.012287663
45	0xbd0032a6	-0.031298302
46	0xbca7b93b	-0.020474067
47	0xbb8546d7	-0.0040672827
48	0xbd5b2a4f	-0.053507145
49	0xbafb8811	-0.0019190331
50	0x3b8dec57	0.0043311524
51	0x3c234b72	0.009966718
52	0x3c3e2fca	0.0116080735
53	0xbc50021c	-0.012695815
54	0xbc0f07f0	-0.00872992
55	0xbcaf7962	-0.021420185
56	0xbc5f1319	-0.013615393
57	0x3b33c709	0.0027431867
58	0xbccccfa6	-0.025001358
59	0x3c3d3a05	0.011549477
60	0xbd189798	-0.037253946
61	0x3c55e12a	0.013054172
62	0xbba0102f	-0.0048847417
63	0xbcc6613c	-0.024216287
64	0xbcd62583	-0.026140934
65	0xbc56efe5	-0.013118719
66	0xbc36de67	-0.011161423
67	0xbcccbf09	-0.024993436
68	0x3bd7f00b	0.0065898946
69	0xbced8f9d	-0.028999144
70	0xbc321d1c	-0.010871198
71	0xbc7f1ccd	-0.0155708315
72	0xbc498704	-0.012300257
73	0xbd2edf74	-0.04269357
74	0xbca38317	-0.01995997
75	0xbbd54e42	-0.006509573
76	0xbd04db0a	-0.032435454
77	0xbca92653	-0.020648157
78	0xbc26f1b9	-0.010189467
79	0xbbbe724f	-0.0058119665
80	0xbd47f744	-0.048819795
81	0xb950bb75	-0.00019906259
82	0xbcd3f9a0	-0.025875866
83	0xbb96f5e4	-0.004606949
84	0x3b0b064c	0.002121347
85	0xbc257a47	-0.010099954
86	0xbcdd9b80	-0.027051687
87	0x3c979d55	0.018507639
88	0xbcaa9212	-0.020821605
89	0xbcea5d2c	-0.028608881
90	0xbd47a6b8	-0.04874298
91	0x38e15654	0.00010744916
92	0xbce4ff26	-0.027953696
93	0x3bc2c88e	0.005944318
94	0x3ae07adc	0.0017126459
95	0xbcd54119	-0.026032018
96	0xbcc394a8	-0.023874596
97	0xbc529ce3	-0.0128547875
98	0xbc21d666	-0.009877777
99	0x3d3b7586	0.045766376
100	0xbad8aa85	-0.0016530311
101	0xbb98fa91	-0.0046685417
102	0xbc995058	-0.018715069
103	0xbbe437c7	-0.006964657
104	0xbd22f953	-0.039788555
105	0xbc027258	-0.007961832
106	0xbc8c108d	-0.017097736
107	0x3b532dee	0.003222342
108	0xbc90486e	-0.017612662
109	0x3c887a0e	0.016659763
110	0xbc95dbc0	-0.018293262
111	0xbca82585	-0.020525703
112	0xbc842413	-0.016130483
113	0xbc43aa33	-0.011942434
114	0xbd06e6e3	-0.032935034
115	0xbcd35334	-0.02579651
116	0xbc88fe29	-0.016722756
117	0xbc651a82	-0.013983371
118	0xbc89c018	-0.01681523
119	0x3c47ceb6	0.01219528
120	0xbc6a7143	-0.01430923
121	0xbd0e02ee	-0.034670763
122	0x3c8c885f	0.01715487
123	0xbc73e8ce	-0.014887048
124	0xbbc15428	-0.005899925
125	0x3c8dae2d	0.017294968
126	0xbbbf2a13	-0.005833873
127	0xbc0a0f44	-0.008426491
128	0xbd51550b	-0.051106494
129	0xbcad2d8e	-0.021139886
130	0xbc294b7e	-0.01033294
131	0x3c4ad18d	0.012379062
132	0xbcd56cd5	-0.026052872
133	0xbb8fe677	-0.004391487
134	0xbd155623	-0.0364591
135	0xbc8c3497	-0.01711492
136	0x3bf6e75e	0.0075349053
137	0x3a3826b8	0.00070248125
138	0xbcaeb22f	-0.021325199
139	0xbc2f2025	-0.010688816
140	0xbba058a3	-0.004893379
141	0xbc8fb7be	-0.01754367
142	0xbc992098	-0.0186923
143	0xbd09d147	-0.033646848
144	0x3c5b3e71	0.013381586
145	0xbad0ad55	-0.0015920798
146	0xbcce9ac7	-0.025220288
147	0xbb0084e5	-0.0019610461
148	0xbb2df801	-0.0026545527
149	0xbb68aac7	-0.0035502182
150	0x3b01b913	0.001979415
151	0x3c0046e8	0.007829405
152	0xbd403342	-0.046923883
153	0xbbffb941	-0.0078040664
154	0xbce95a1f	-0.028485356
155	0xbb289e20	-0.0025729015
156	0xbd29d25a	-0.041460373
157	0xbcc0891a	-0.023502875
158	0xbc852a33	-0.016255474
159	0xbd33ac35	-0.0438654
160	0xbce58c28	-0.028020933
161	0xbb59e326	-0.0033246963
162	0xbc79bec1	-0.015243233
163	0xbb152736	-0.0022758967
164	0xbc0a9389	-0.008458027
165	0xbd371239	-0.044695113
166	0xbc7b880b	-0.015352259
167	0x3cfbac36	0.030721765
168	0x3a085a79	0.000520147
169	0x3b240e13	0.0025032803
170	0xbcaaad2a	-0.020834524
171	0xbc718fb4	-0.014743734
172	0x3cad2a4b	0.02113833
173	0xbcff6e4e	-0.031180527
174	0xbcaa77c4	-0.020809062
175	0xbbc48fea	-0.005998601
176	0xbca869e4	-0.020558305
177	0xbc03f303	-0.008053544
178	0xbc9bb6fd	-0.019008154
179	0xbc4326c6	-0.0119111
180	0xbd127817	-0.035759058
181	0xbd4fd9ee	-0.050744943
182	0xbbdd33d0	-0.0067505613
183	0xbc83d399	-0.016092109
184	0x3b74bfe7	0.0037345828
185	0x3b69429b	0.0035592678
186	0xbcd77f4a	-0.026305813
187	0xbc8e0068	-0.017334178
188	0x39228205	0.0001549796
189	0x3c4ad171	0.012379036
190	0xbcb7e5a7	-0.022448374
191	0xbc84ea19	-0.016224908
192	0xbb6e266f	-0.0036338826
193	0x3ae2fb29	0.0017317283
194	0xbcf43299	-0.029809283
195	0x3c637255	0.013882239
196	0xbce8b15e	-0.028404888
197	0xbc0ec6f1	-0.0087144235
198	0xbab22c99	-0.0013593613
199	0xbd1c53de	-0.03816592
200	0xbc949f64	-0.01814241
201	0x3c07fc73	0.008299935
202	0xbc3e5154	-0.01161607
203	0x3ad53484	0.0016266261
204	0xbc61ac4f	-0.013773992
205	0xbd124b32	-0.035716243
206	0xbd31602f	-0.04330462
207	0xbca9b8a5	-0.020717928
208	0xba3b0918	-0.0007134839
209	0xbd3f2eb8	-0.046675414
210	0xbbac1492	-0.0052514756
211	0x3bb7e076	0.0056114746
212	0xbb5308eb	-0.003220136
213	0xbc7286fb	-0.01480269
214	0x3b8c57be	0.0042829206
215	0xbcdb7550	-0.026789337
216	0xbd489d66	-0.04897823
217	0xbbd252d6	-0.006418566
218	0xbc9cc0c2	-0.019134883
219	0xbc56773d	-0.013089952
220	0xbcc2e62f	-0.0237914
221	0x3c5f681f	0.013635664
222	0x3c4b3ae6	0.012404179
223	0xbcb50992	-0.02209929
224	0xbc89aca6	-0.016805958
225	0xbce01104	-0.027351864
226	0xbc648662	-0.013948055
227	0xbc8efbd0	-0.017454058
228	0xbcc7cc3b	-0.024389377
229	0xbce21904	-0.027599819
230	0xbd22f81f	-0.039787408
231	0xbbeebac4	-0.007285448
232	0x3c6d359a	0.014478112
233	0xbc58019d	-0.013183978
234	0xbd93361c	-0.07188055
235	0xbb8e8d70	-0.0043503568
236	0x3b7c91f1	0.0038539136
237	0x3a38ef2e	0.00070546835
238	0x3b04777f	0.0020212827
239	0xbcad4fcc	-0.021156214
240	0xbb95ed60	-0.0045754164
241	0xbc5dc2d7	-0.013535223
242	0xbbef8097	-0.0073090303
243	0xbbb993f8	-0.005663391
244	0x3cb6f2ed	0.022332633
245	0xbc82509c	-0.015907578
246	0xbb7616a1	-0.003755011
247	0xbcecd159	-0.028908418
248	0x3cd8cd81	0.02646518
249	0xbcacb022	-0.02108008
250	0xbd3e90da	-0.04652486
251	0x3b3f89f7	0.002922652
252	0xbd0c8d7b	-0.034314614
253	0xbce589ee	-0.028019872
254	0xbc907bfe	-0.01763725
255	0xbc8720b9	-0.016495096

network_body._body_endoder.seq_layers.2.weight f4 [256, 256]
0	0x3dfac125	0.12243871
1	0xba416932	-0.0007378041
2	0xbd438b0d	-0.04774003
3	0xbd1a4e4a	-0.03767232
4	0x3dbc26c3	0.09187081
5	0xbda6737a	-0.08127494
6	0x3d1d1520	0.038350224
7	0xbdf38b2d	-0.1189178
8	0x3c041371	0.008061276
9	0x3bd1e4ba	0.00640544
10	0xbccc0d7a	-0.02490877
11	0xbcacf498	-0.021112725
12	0xbde9e3b5	-0.11420385
13	0xbccb4b29	-0.024816113
14	0xbca90650	-0.020632893
15	0x3d4be5c6	0.049779676
16	0x3daaf0cb	0.08346709
17	0xbe0d0c03	-0.13774113
18	0x3d1c4d9c	0.03815995
19	0xbd483a0a	-0.048883475
20	0x3b84667d	0.004040538
21	0xbd6773a8	-0.056506783
22	0xbd5e1747	-0.054221418
23	0xbc819c51	-0.015821608
24	0x3de64b04	0.11244777
25	0x3d9967f9	0.07490534
26	0xbda3cc89	-0.07997996
27	0xbd3411c9	-0.043962274
28	0xbcb7f5c7	-0.022456063
29	0x3c639676	0.013890853
30	0x3de270f4	0.110567
31	0xbdd78a85	-0.105244674
32	0xbdea2219	-0.11432285
33	0x3b9e967d	0.004839717
34	0xbdab2531	-0.08356703
35	0x3da23b2d	0.07921443
36	0xbd0aa29f	-0.033846494
37	0x3d85f189	0.0654021
38	0xbd1e0b59	-0.03858504
39	0x3dbe6bb3	0.09297886
40	0x3cfa1b2c	0.030530535
41	0xbdcff68a	-0.101544455
42	0x3cf8bcd2	0.030363474
43	0xbd4067e2	-0.04697407
44	0xbcc08bf1	-0.02350423
45	0x3c3197e5	0.010839437
46	0xbd5a20b8	-0.05325386
47	0x3d4a1d93	0.04934461
48	0xbd6937d2	-0.056938
49	0x3d269968	0.040673643
50	0xbd2840cd	-0.041077424
51	0xbb80c80d	-0.003930098
52	0xbcef7f5e	-0.029235538
53	0x3c857e7e	0.016295668
54	0xbd1816a5	-0.03713097
55	0xbcedf6ab	-0.029048285
56	0x3d91c931	0.07118452
57	0xbdbb300a	-0.09140022
58	0x3d35f5a6	0.04442372
59	0xbd804ba6	-0.06264429
60	0xbbeeea8f	-0.007291145
61	0x3e0b9bd7	0.13633667
62	0xbcc9daec	-0.024640523
63	0xbd6f2575	-0.05838533
64	0xbde50865	-0.11183242
65	0x3cb823f7	0.022478087
66	0xbc3f19b2	-0.011663841
67	0x3dc3c3a8	0.09558803
68	0xbc115e24	-0.0088725425
69	0xbdf8d5ce	-0.12150155
70	0xbd9aab79	-0.07552237
71	0xbda93766	-0.082625195
72	0x3c233432	0.009961175
73	0x3c8d1b15	0.017224828
74	0xbc9348af	-0.017978994
75	0x3dd44857	0.1036536
76	0x3ddbbb2a	0.10729058
77	0xbd8386a0	-0.06422162
78	0x3d94e6b0	0.07270563
79	0xbc5fc4f7	-0.0136578
80	0xbcec7372	-0.028863642
81	0xbd3efca6	-0.046627663
82	0x3d4f3965	0.050591845
83	0xbd7bc7f4	-0.061469987
84	0xbd69daaf	-0.05709332
85	0x3dd8c097	0.105836086
86	0x3d332d26	0.04374423
87	0xbcbc0323	-0.022950714
88	0x3ccc930d	0.024972463
89	0x3c6c27ae	0.014413757
90	0xbc537b15	-0.012907763
91	0xbc056b25	-0.008143221
92	0xbda4b8e5	-0.08043078
93	0x3d117746	0.03551414
94	0x3d092fba	0.03349278
95	0x3d76591b	0.06014357
96	0x3cb2bcff	0.021818636
97	0xbe07bf5e	-0.13256595
98	0x3de857de	0.11344884
99	0x3d95bc97	0.07311361
100	0xbda05821	-0.07829309
101	0xbc6e602c	-0.014549296
102	0x3e03fbef	0.12889074
103	0xbda9c6f9	-0.08289904
104	0xbd93004d	-0.07177792
105	0x3da7b7ce	0.08189355
106	0x3cb79437	0.022409542
107	0x3df27b73	0.11839952
108	0x3d37b7b6	0.044852935
109	0xbdf2faee	-0.11864267
110	0x3b2bd292	0.002621804
111	0x3dd85868	0.10563737
112	0xbbbdc4ef	-0.0057912986
113	0x3d9ad804	0.07560733
114	0xbe18494a	-0.14871708
115	0x3bc64d8a	0.006051724
116	0x3d2e7ca8	0.04259935
117	0xbb3e6e83	-0.002905757
118	0xbd15d0dc	-0.036576137
119	0xbdb59334	-0.088659674
120	0xbcc54817	-0.024082227
121	0xbd482dfe	-0.048871987
122	0x3cec4bee	0.0288448
123	0xbd9b665b	-0.07587882
124	0x3d819067	0.06326371
125	0x3d250f14	0.040297583
126	0xbdc1d836	-0.09465067
127	0xbe156735	-0.14590152
128	0x3d465632	0.048422046
129	0x3cd4ce29	0.025977211
130	0x3d0715d2	0.032979794
131	0xbda729bb	-0.08162256
132	0xbddb3582	-0.10703565
133	0xbd10cb73	-0.035350274
134	0xbdeef0b8	-0.11667007
135	0xbd870a25	-0.06593732
136	0x3c600514	0.013673086
137	0x3d32b048	0.043625146
138	0xbdaa4e24	-0.083156854
139	0xbcb83b18	-0.022489116
140	0x3cba4385	0.022737274
141	0xbd1512c8	-0.036394864
142	0xbdb8363e	-0.08994721
143	0xbd42c451	-0.047550503
144	0x3c764075	0.015030016
145	0x3d71fc8a	0.05907873
146	0x3c0ad908	0.008474596
147	0xbcc3ae31	-0.023886772
148	0xbcfb205d	-0.03065508
149	0x3d01225a	0.0315269
150	0x3d93858e	0.07203208
151	0xbde44c58	-0.11147374
152	0xbd9444f5	-0.07239715
153	0xbdc0ff4c	-0.09423694
154	0x3ddba326	0.107244775
155	0x3d0db026	0.034591816
156	0xbc7044d1	-0.014664845
157	0xbcd79ed3	-0.02632085
158	0xbd12f593	-0.03587873
159	0xbe074e87	-0.1321355
160	0x3d15b02d	0.036544967
161	0xbd8ac925	-0.067766465
162	0x3d041b16	0.032252394
163	0xbd53d490	-0.051716387
164	0x3d8f610c	0.07000932
165	0xbda5878d	-0.08082495
166	0xbd93ded6	-0.07220237
167	0xbd0ea6d6	-0.034827076
168	0x3d14e772	0.036353536
169	0x3d420700	0.047369957
170	0xbd52dac0	-0.051478148
171	0x3be651a5	0.0070287758
172	0x3de99314	0.11405006
173	0xbd5ad8c0	-0.053429365
174	0x3cd4a4e8	0.02595754
175	0xbb9533ac	-0.004553279
176	0x3d86c774	0.065810114
177	0xbd8a6d78	-0.06759161
178	0xbac1e547	-0.0014793061
179	0xbd84c58a	-0.0648299
180	0xbc1c197c	-0.00952756
181	0x3d8c184e	0.06840573
182	0xbd759549	-0.059956823
183	0xbcfdc922	-0.030979697
184	0x3e22ef40	0.15911579
185	0xbd87dd39	-0.06633992
186	0x3cbba6fe	0.022906777
187	0xbe2a9f3c	-0.16662306
188	0xbcf3e49e	-0.0297721
189	0xbdcd7c4a	-0.10033472
190	0xbd932b16	-0.07185952
191	0xbdf1ce98	-0.11806983
192	0x3d51ae4c	0.051191613
193	0x3d630338	0.05542299
194	0xbd153924	-0.036431447
195	0x3d772743	0.060340177
196	0xbd1cdb9b	-0.03829537
197	0xbd3b4aef	-0.04572576
198	0x3da258b0	0.07927072
199	0xbdbc8460	-0.09204936
200	0xbe0e62b4	-0.1390484
201	0xbcbdd85b	-0.023174455
202	0xbe233e06	-0.15941629
203	0xbd510506	-0.05103018
204	0xbd652327	-0.055941727
205	0xbdab6418	-0.08368701
206	0x3d0bf7dd	0.034171928
207	0xbd9303e8	-0.071784794
208	0xbdf45d81	-0.11931897
209	0xbe1c8041	-0.152833
210	0xbd48b94a	-0.04900483
211	0xbcd8ce79	-0.026465641
212	0x3bd6f684	0.0065601487
213	0x3d1cf120	0.038315892
214	0x3b8de88b	0.0043307
215	0xbd75add6	-0.059980236
216	0xbcf2ec8e	-0.029653814
217	0x3d7bfab6	0.061518393
218	0xbde2f7b9	-0.110824056
219	0x3d10288b	0.035194915
220	0x3d4a2462	0.049351104
221	0xbda3cbc7	-0.07997852
222	0xbdb50bae	-0.08840118
223	0x3d9792ab	0.074010216
224	0xbcb7057d	-0.022341484
225	0x3cd707d2	0.026248846
226	0x3d6fce08	0.058546096
227	0xbc8d1e1b	-0.01722627
228	0xbd365c4c	-0.044521615
229	0x3c018785	0.0079058455
230	0xbdb3bad9	-0.08775873
231	0xbd2adc93	-0.041714262
232	0x3defbc4b	0.11705836
233	0x3d990f5a	0.07473631
234	0xbdb00ea6	-0.08596544
235	0xbd84fc01	-0.064933784
236	0x3cd3b880	0.025844812
237	0xbd2d232e	-0.042269878
238	0xbcaf2272	-0.02137873
239	0x3dc23afd	0.09483907
240	0xbdd74dbd	-0.10512874
241	0xbdabb220	-0.08383584
242	0xbdb67568	-0.08909112
243	0xbd16bd93	-0.036801886
244	0xbd4d3de6	-0.05010786
245	0xbcaafd0c	-0.020872615
246	0xbb862cc5	-0.0040946924
247	0x3c577c25	0.013152157
248	0x3e33f894	0.17575294
249	0x3d134a42	0.03595949
250	0xbcfc74e6	-0.03081746
251	0xbda5fe0a	-0.08105095
252	0x3ab278cb	0.0013616321
253	0xbd603a32	-0.054743
254	0xbc6aa65a	-0.014321888
255	0xbe00d97d	-0.12582965

network_body._body_endoder.seq_layers.2.bias f4 [256]
0	0xbc38c8d6	-0.011278352
1	0xbbd6a34b	-0.0065502278
2	0x3c8bdb54	0.017072357
3	0xbc6f3edc	-0.014602389
4	0x3b979092	0.0046253884
5	0xbc269955	-0.010168393
6	0xbc130d0f	-0.008975281
7	0xbc4d587e	-0.012533305
8	0xbc6aa61f	-0.014321833
9	0xbcb4705f	-0.022026239
10	0xbc8af479	-0.016962277
11	0xbc3d8efd	-0.011569736
12	0xbd21a18b	-0.0394607
13	0x39f29670	0.00046269922
14	0xbcc74d01	-0.02432871
15	0xbc4a2a59	-0.012339198
16	0x3ae2d79e	0.001730669
17	0xbc1c3304	-0.009533647
18	0xbbb3dc2d	-0.0054888935
19	0xbb906fab	-0.004407843
20	0xbc1a52f1	-0.009419189
21	0xbc1665e5	-0.009179567
22	0xbcb64183	-0.022248035
23	0xbb03c8b4	-0.0020108642
24	0xbc6228d8	-0.013803683
25	0xbb3bcb51	-0.0028655122
26	0xbbd9e82c	-0.0066499915
27	0xbc4b9cfb	-0.012427564
28	0xbc553aa9	-0.013014474
29	0xbc7aa43b	-0.015297945
30	0xbb83ab88	-0.004018251
31	0x3c89ae30	0.016806692
32	0xbbe31845	-0.0069303834
33	0xbb2e50f8	-0.0026598554
34	0xbc27c8f1	-0.010240779
35	0xbc5380d9	-0.012909138
36	0xbc9d33a9	-0.019189673
37	0xbc37fcb1	-0.01122968
38	0xbc1faabf	-0.009745299
39	0xbaca0829	-0.0015413809
40	0x3c848991	0.016178878
41	0xbc8b1c1b	-0.016981175
42	0xbcae7b39	-0.021298992
43	0xbcdcc369	-0.026948648
44	0x3b9d818f	0.0048067044
45	0xba84e924	-0.0010140282
46	0xbc8e5eed	-0.017379249
47	0xbc446030	-0.0119858235
48	0xbccdeb5f	-0.025136648
49	0xbcdb33ee	-0.02675816
50	0x3c72ae2f	0.014812036
51	0xbcb28548	-0.02179207
52	0xbcb60030	-0.022216886
53	0x3b0c3fc2	0.0021400307
54	0x3c220e1b	0.009891058
55	0xb9d1ee8b	-0.00040041315
56	0xbcda9d92	-0.026686464
57	0xbaab05ff	-0.0013048052
58	0xbd200721	-0.0390693
59	0xbbe58ad9	-0.0070050773
60	0x3bef8f8b	0.007310813
61	0x3bf18870	0.007371001
62	0xbbf2f15b	-0.0074140257
63	0xbc8d74a2	-0.017267529
64	0xbc65d2a4	-0.014027271
65	0xbc7ff377	-0.015622011
66	0xbc23c0b6	-0.009994676
67	0xbcb3b052	-0.021934662
68	0x3cb63294	0.022240914
69	0xba4a559c	-0.0007718445
70	0xbc350ab4	-0.011049915
71	0xbca470f0	-0.020073384
72	0xbc1cbefd	-0.0095670195
73	0xbd19f847	-0.03759029
74	0xbb584147	-0.0032997893
75	0xbcd688c2	-0.026188258
76	0xbb271647	-0.0025495456
77	0xbc130cac	-0.008975189
78	0xbd065e76	-0.03280493
79	0xbca1afe6	-0.019737195
80	0xbc8fb49c	-0.017542176
81	0xbb099b0c	-0.0020996956
82	0x3be839c2	0.0070869634
83	0xbc939425	-0.018014977
84	0x3bc613a5	0.0060448223
85	0xb9c598a7	-0.00037688503
86	0xbb697747	-0.0035624073
87	0xbacd15cc	-0.0015646755
88	0xbb9ef804	-0.004851343
89	0xbc7d4b67	-0.015459872
90	0xbae4ffd7	-0.0017471266
91	0xbca316d4	-0.019908346
92	0xbbb8bb15	-0.0056375363
93	0xbc247cb4	-0.010039497
94	0xbba67459	-0.0050797877
95	0xbc572b74	-0.013132919
96	0xbba32889	-0.0049791974
97	0x3cc0c004	0.02352906
98	0xbbb4a551	-0.0055128713
99	0xbc952ac1	-0.018208863
100	0x3c2f3487	0.010693676
101	0x3bd19af1	0.0063966443
102	0xba29c8ed	-0.00064767787
103	0xbc4afc73	-0.01238929
104	0xbbb30ca2	-0.0054641524
105	0xbbd7a0f5	-0.006580467
106	0xbccf5376	-0.025308352
107	0xbcb6b551	-0.022303255
108	0xbcaa2a7d	-0.020772213
109	0xbbcc3a58	-0.006232541
110	0xbc848bad	-0.016179884
111	0xbbd7c9a6	-0.0065853177
112	0xbcc30b92	-0.023809228
113	0xbb839158	-0.004015129
114	0xbcaa75ea	-0.020808179
115	0xbc25e7cf	-0.010126068
116	0xbb2224ef	-0.0024741252
117	0xbc74b4b6	-0.014935663
118	0xbb033385	-0.0020019722
119	0xbc93f9f0	-0.018063515
120	0xbcb7a349	-0.022416728
121	0xbc89e92d	-0.01683482
122	0xbc91e92c	-0.01781138
123	0xbcac6cfb	-0.02104806
124	0xbc847cf5	-0.016172865
125	0xba8209de	-0.0009921154
126	0xbd09254c	-0.033482835
127	0xbc1923d3	-0.00934692
128	0xbc2440d2	-0.01002522
129	0xbcbbf457	-0.022943659
130	0xbc864250	-0.016389042
131	0xbc2a0f01	-0.010379554
132	0xbc1a7ce0	-0.009429187
133	0xbcc8e7b7	-0.024524553
134	0xbc2e6a33	-0.010645437
135	0xbc2730e4	-0.0102045275
136	0xbcd2e43c	-0.025743596
137	0xbbea71e5	-0.0071546906
138	0xbc81ac3c	-0.015829198
139	0xbcaf92d2	-0.021432314
140	0xbc41e5aa	-0.011834541
141	0xbbdbaf4f	-0.006704248
142	0xbc1badea	-0.009501914
143	0xbc5730f6	-0.013134232
144	0xbb746b9a	-0.003729558
145	0xbc1dbee6	-0.009628033
146	0xbc54834c	-0.012970757
147	0xbc6b50da	-0.014362538
148	0xbcd84f66	-0.026405048
149	0xbc50eb60	-0.01275143
150	0xbcaa490e	-0.020786788
151	0xbd1be17d	-0.03805684
152	0xbc8d1c1d	-0.01722532
153	0xbbe26718	-0.0069092624
154	0xbd039869	-0.03212777
155	0xbc3044a2	-0.010758551
156	0xbbde8094	-0.00679023
157	0xbc5ad4d1	-0.013356403
158	0x3c73bc85	0.0148764895
159	0xbbfc2fed	-0.007696143
160	0xb9e126ef	-0.00042944352
161	0xbc1e0a04	-0.009645943
162	0xbcaf8770	-0.021426886
163	0x3c742523	0.014901432
164	0xbc0eae37	-0.008708528
165	0xbc6c3144	-0.014416043
166	0xbc2cc367	-0.010544634
167	0xbbf63108	-0.007513169
168	0xbc39d964	-0.011343334
169	0x3b6227c4	0.0034508565
170	0xbc5a14fb	-0.013310666
171	0xbba05b80	-0.00489372
172	0xbc45e160	-0.012077659
173	0xbc8ebe19	-0.01742463
174	0xbc4ee9a4	-0.012628946
175	0xbc562b09	-0.013071784
176	0xbc2f8b36	-0.010714343
177	0xbc7676eb	-0.015043001
178	0x3c5bce16	0.013415834
179	0xbc86c906	-0.016453277
180	0xba1111ba	-0.00055339525
181	0xbcd7063c	-0.02624809
182	0xbcd717e0	-0.026256502
183	0x3a863088	0.0010237852
184	0x3b7dcba0	0.0038726106
185	0xbc864698	-0.016391084
186	0xbcad355c	-0.021143608
187	0xbc8b871c	-0.017032199
188	0xbc7240cc	-0.014785957
189	0xbc9741a5	-0.018463919
190	0xbc12e3cf	-0.008965447
191	0xbc3c3371	-0.011486874
192	0xbb005015	-0.0019578983
193	0xbca55190	-0.020180494
194	0xbcfd15dd	-0.030894214
195	0xbce99fee	-0.028518643
196	0xbc4fd954	-0.012686092
197	0xb9daa1b2	-0.00041700673
198	0xbc731204	-0.014835838
199	0x3b55d32c	0.003262709
200	0x3ba6cd12	0.0050903643
201	0xbd07fb31	-0.03319854
202	0xbcae43cb	-0.02127256
203	0xbc897233	-0.016778087
204	0xbc9aba45	-0.018887648
205	0xbc5bfbc9	-0.0134267295
206	0xbce23554	-0.02761332
207	0xbc013c63	-0.0078879325
208	0xbc213cba	-0.0098411385
209	0xbcb57a71	-0.022153111
210	0xbb8c1096	-0.004274438
211	0xbaf34323	-0.0018559437
212	0xbcc3db3d	-0.023908252
213	0xbc80c122	-0.015717093
214	0xbbb4f8af	-0.0055228095
215	0xbcd2560e	-0.0256758
216	0x3cb07754	0.021541275
217	0x3a1ea214	0.0006051373
218	0xbc859c9f	-0.016310034
219	0x3baca2c8	0.0052684285
220	0x3c759197	0.014988325
221	0xbcc725c7	-0.024310006
222	0xba7afae3	-0.0009574128
223	0xbcc3fcd3	-0.023924267
224	0xbc838fa6	-0.016059708
225	0xbc8be554	-0.017077126
226	0xba6aa15a	-0.0008950435
227	0xbc963455	-0.0183355
228	0xbc547586	-0.012967473
229	0xbcd2806f	-0.025696008
230	0x3a269b6e	0.0006355558
231	0xbc44041d	-0.011963871
232	0xbcba591b	-0.022747567
233	0xbc9be8ec	-0.019031964
234	0xbc69aeb3	-0.014262843
235	0xbbc70bf8	-0.006074425
236	0xbce1c989	-0.02756192
237	0xbc9e6ddd	-0.019339496
238	0xbcc3f26e	-0.02391931
239	0xbbab2e0f	-0.0052239965
240	0xbc430223	-0.011902365
241	0xbcf88cd8	-0.030340597
242	0xbcb8906e	-0.022529807
243	0xbc286982	-0.010279061
244	0xbca86343	-0.020555144
245	0xbcc76b10	-0.024343044
246	0x3c066072	0.008201705
247	0xbc97c83a	-0.018528093
248	0xbc8ab488	-0.016931787
249	0xbcc9da93	-0.024640357
250	0xba020aae	-0.0004960698
251	0xbca9c33c	-0.020722978
252	0x3c2c2844	0.010507647
253	0x3c93e721	0.018054547
254	0xbc1d0ab5	-0.009585072
255	0xbcb2be3d	-0.021819228

action_model._continuous_distribution.log_sigma f4 [1, 2]
0	0xbe74aaaf	-0.23893236
1	0x3ca94235	0.020661453

action_model._continuous_distribution.mu.weight f4 [2, 256]
0	0xbd7f3b0b	-0.062312167
1	0xbbaab5f3	-0.0052096783
2	0x3da171d7	0.07883041
3	0xbd4c1322	-0.049822934
4	0xbd564a3a	-0.05231688
5	0xbbf699f6	-0.007525678
6	0xbcfb4803	-0.030673986
7	0xbcea6df4	-0.028616883
8	0x3c28008e	0.0102540385
9	0x3c861230	0.016366094
10	0xbd8862d0	-0.06659472
11	0x3d41c9b4	0.0473115
12	0xbc482a6d	-0.012217146
13	0x3d11b67d	0.035574425
14	0xbd2d284b	-0.042274754
15	0xbd32b9fd	-0.043634403
16	0xbcb098d1	-0.021557244
17	0xbd6e00bd	-0.058106173
18	0xbd10d129	-0.03535572
19	0xbc4bb4de	-0.012433259
20	0x3c39c2eb	0.011337976
21	0x3a0ad5c6	0.0005296137
22	0xbbea99c8	-0.0071594454
23	0x3d0cc2be	0.034365408
24	0xbbba7ee1	-0.0056913947
25	0xbd7826cd	-0.06058388
26	0xbc2b5b40	-0.010458767
27	0x3c98d660	0.01865691
28	0xbd4265f4	-0.04746051
29	0xbc986473	-0.018602585
30	0xbd4ac9c3	-0.04950882
31	0xbdaff146	-0.08590941
32	0x3d6fb0eb	0.05851833
33	0x3ce08a71	0.027409764
34	0x3d2b0a9d	0.04175817
35	0x3bf84117	0.0075761187
36	0xbcf2d819	-0.029644059
37	0x3b1d890e	0.002403799
38	0x3af3395f	0.0018556527
39	0x3ce87242	0.028374795
40	0x3d3a4175	0.04547258
41	0x3c961781	0.018321754
42	0x3b92d8fc	0.004481433
43	0x3b17229e	0.0023061405
44	0x3b968042	0.0045929262
45	0xbce3d8ce	-0.027813341
46	0xbbda9b5d	-0.006671353
47	0xbc0af8a4	-0.008482132
48	0xbbc2471d	-0.0059288875
49	0x3c269577	0.010167471
50	0xbc8bb3c2	-0.017053489
51	0xbc9771c3	-0.018486863
52	0xbc084cb1	-0.008319066
53	0x3b1597d5	0.0022826095
54	0x3ce53d6c	0.02798339
55	0x39e845b8	0.00044302433
56	0x3b697089	0.0035620055
57	0xbbc79ad2	-0.006091454
58	0xbd166892	-0.03672082
59	0x3ca5d262	0.02024192
60	0x3ae7ead1	0.0017693882
61	0x3d972c43	0.07381489
62	0xbc0c53da	-0.008564914
63	0x39906ac3	0.00027545364
64	0xbcbb9163	-0.022896474
65	0xbcbfb037	-0.023399455
66	0xbbadec35	-0.005307699
67	0x3c25cb4a	0.010119269
68	0x3d0f3c62	0.034969695
69	0xbd2925b7	-0.041295733
70	0x3cf45a62	0.029828254
71	0xbc993c9a	-0.018705655
72	0x3b7c35ec	0.0038484288
73	0xbcaf0459	-0.021364378
74	0x3c1b68db	0.009485449
75	0xbc5f4797	-0.013627908
76	0xbcd00d0c	-0.025396846
77	0xbd80e9d7	-0.062946014
78	0xbc4ba6c7	-0.0124299
79	0x3c944471	0.018099042
80	0x3c8c6d88	0.017142072
81	0x3d4cb499	0.04997692
82	0x3b18c5b8	0.002331121
83	0x3c43cdf7	0.011950961
84	0x3d1afba5	0.037837643
85	0xbd90a3c1	-0.070624836
86	0xbcd48e38	-0.025946721
87	0xbd2c7eeb	-0.042113226
88	0xbcef06ec	-0.029178105
89	0x3c067a47	0.008207864
90	0x3cc17d8d	0.023619438
91	0x3d441372	0.047870107
92	0xbc5ef86a	-0.013609031
93	0xbb9a3349	-0.0047058207
94	0x3bcfcfd0	0.006341912
95	0xbd008475	-0.03137632
96	0x3cd347e1	0.02579111
97	0x3d8cfe91	0.06884492
98	0x3d234fd7	0.039871063
99	0xbbcf3d5a	-0.0063244523
100	0x3d25b1a0	0.0404526
101	0xbd30badd	-0.043146957
102	0xbc4510d8	-0.012027942
103	0x3c05ace4	0.008158896
104	0x3d4974bf	0.049183603
105	0xbc40b948	-0.0117629245
106	0xbb6cbfed	-0.003612514
107	0x39049863	0.0001264527
108	0x3c9226de	0.017840799
109	0xbd0df58a	-0.034657992
110	0xbb829bef	-0.003985874
111	0xbda1ba81	-0.07896901
112	0x3c44a342	0.012001814
113	0xbc972ffa	-0.018455494
114	0x3b131980	0.002244562
115	0xbb5f1e90	-0.0034045316
116	0x3d137eef	0.036009725
117	0xbdbfc87d	-0.09364412
118	0xbcae1cdf	-0.021254001
119	0xbbdfcbf9	-0.0068297354
120	0xbce0d3eb	-0.0274448
121	0xbd9e067c	-0.077160805
122	0xbca895df	-0.020579277
123	0xbab866e9	-0.0014068756
124	0xbc87944f	-0.016550211
125	0xbb663d71	-0.0035131837
126	0xbb7e919b	-0.0038844112
127	0x3c7f80a2	0.015594633
128	0xbd0c2e05	-0.034223575
129	0xbaa64052	-0.0012683964
130	0x3ca220a9	0.019790964
131	0x3c7ecefa	0.015552277
132	0x3c917c3c	0.017759435
133	0xbb629eaa	-0.0034579434
134	0x3cb3496c	0.021885596
135	0x3b7ce0d5	0.0038586159
136	0x3c6a7751	0.014310674
137	0x3c87d225	0.016579697
138	0xbcceb131	-0.025230976
139	0x3c2f4bf1	0.010699258
140	0xbd67ce2b	-0.0565931
141	0x3d3d346c	0.04619257
142	0xbca98cba	-0.020696986
143	0x3ba7e469	0.005123664
144	0x3cdba346	0.026811253
145	0xbd97e55c	-0.07416794
146	0x3cf45112	0.029823814
147	0xbb1a16f3	-0.0023512214
148	0xbcc7e85f	-0.024402795
149	0xbc5c4f92	-0.013446705
150	0x3d0d3e78	0.034483403
151	0xbc91e7ae	-0.017810669
152	0x3c86a778	0.016437277
153	0xbcfda1c5	-0.030960927
154	0x3bf1d838	0.0073805116
155	0xbbf38d32	-0.0074326033
156	0x3bc3a270	0.005970292
157	0x3cd2fa76	0.025754195
158	0x3d3dc294	0.046328142
159	0x3bbce8f8	0.0057650767
160	0xbc9669d0	-0.018361002
161	0xbc1aadc9	-0.009440848
162	0xbd1193db	-0.035541397
163	0xbc1b023b	-0.009460981
164	0x3cb8a768	0.022540763
165	0x3b09c230	0.0021020286
166	0x3ca05ea9	0.019576387
167	0xbbdaaf56	-0.0066737337
168	0x3c380e72	0.011233913
169	0xbd76b300	-0.0602293
170	0xbc16b1ce	-0.009197665
171	0x3c7b86f7	0.015352002
172	0xbbf078eb	-0.0073386333
173	0xbd08c176	-0.033387624
174	0x3ca779ff	0.020443914
175	0x3c812c0d	0.015768075
176	0x3c429aa7	0.011877692
177	0xbb3db13f	-0.0028944758
178	0xbc3b6364	-0.011437271
179	0xbd426487	-0.04745915
180	0xbcf71834	-0.030162908
181	0xbbbb769c	-0.0057209264
182	0x3b83cdac	0.0040223207
183	0x3a9abba3	0.0011805188
184	0x3c5249f0	0.012835011
185	0xbceef762	-0.029170696
186	0x3bbdd076	0.0057926727
187	0xbc172f33	-0.009227562
188	0xbc8f6881	-0.017505886
189	0xbd67c7a4	-0.056586877
190	0x3b3d2edd	0.0028867044
191	0x3d13faab	0.036127727
192	0x3cbd4589	0.023104446
193	0x3caf3ab8	0.021390304
194	0x3c2908b0	0.010317013
195	0x3d5447d5	0.051826317
196	0x3b778491	0.0037768225
197	0x3d12e0b5	0.03585883
198	0xbd550a7e	-0.05201196
199	0x3d362346	0.044467233
200	0x3c32773c	0.0108926855
201	0x3d032d2b	0.032025497
202	0xbc3dab3a	-0.011576468
203	0x3ba375a1	0.0049883877
204	0xbcb6032d	-0.022218311
205	0x3cbd940c	0.023141883
206	0x3c6f8c15	0.0146208005
207	0x3cff6971	0.031178208
208	0xbd87f3a6	-0.06638269
209	0xbb4edfab	-0.0031566422
210	0x3ce0f730	0.027461618
211	0xbd936f4f	-0.07198965
212	0xbb7c18d5	-0.003846695
213	0x3bb773dc	0.0055985283
214	0xbb21188e	-0.0024581286
215	0xbb4777af	-0.0030436327
216	0xbca96bb5	-0.020681242
217	0x3d0e5dbb	0.034757357
218	0xbd0771a6	-0.033067368
219	0xbcbff51e	-0.02343231
220	0x3d2921c3	0.041291963
221	0xbc4666c3	-0.012109461
222	0xbc66d77c	-0.014089461
223	0x3aa602e6	0.0012665659
224	0xbceb9381	-0.028756859
225	0xbcd7d70b	-0.026347658
226	0xbd3f359c	-0.046681985
227	0xbcbf1f0a	-0.02333023
228	0xbaa4212c	-0.0012522093
229	0x3bb64e89	0.0055635613
230	0x3d5f0d15	0.054455835
231	0xbd1ad3fb	-0.037799817
232	0xbd462492	-0.04837472
233	0xbb8940eb	-0.004188647
234	0x3c0acf74	0.008472312
235	0xbd3f19fe	-0.046655647
236	0xbd548c3e	-0.051891558
237	0xbc304337	-0.010758213
238	0xbcdd3538	-0.027002916
239	0xba29bf62	-0.00064753566
240	0xbd4f792c	-0.050652668
241	0xbb493c3b	-0.0030706066
242	0xbd0b9017	-0.03407296
243	0x3c24afb8	0.01005166
244	0x3beafc04	0.007171156
245	0xbd7aaeda	-0.061201908
246	0x3d3e5fd6	0.046478115
247	0x3d15794b	0.036492627
248	0x3b935527	0.004496235
249	0x3bee9a73	0.0072815954
250	0x3d26cc74	0.040722325
251	0x3c6f0eef	0.014590963
252	0xbcd86db8	-0.026419505
253	0x3d9e4f45	0.07729963
254	0x3d0f0401	0.034915928
255	0xbc6770c0	-0.014126003

action_model._continuous_distribution.mu.bias f4 [2]
0	0x3c898bea	0.016790349
1	0xbc055b87	-0.008139498

onnx::Div_71 f4 [20]
0	0x3effc842	0.49957472
1	0x3efb399e	0.49067396
2	0x3e16402d	0.14672919
3	0x3e5db598	0.21651304
4	0x3ed53827	0.41644403
5	0x3eac9c0c	0.33712804
6	0x3d3b21c1	0.045686487
7	0x3e04d0fb	0.12970345
8	0x3ef984e5	0.48734203
9	0x3eed0f09	0.46300533
10	0x3d786912	0.060647078
11	0x3e3142d5	0.1731065
12	0x3ef162bd	0.47145644
13	0x3edc3a24	0.43013108
14	0x3d6b94ec	0.05751507
15	0x3e24110a	0.16022125
16	0x3eeecfeb	0.46643004
17	0x3ed9f70e	0.425713
18	0x3d3b8d78	0.045789212
19	0x3e0887c8	0.13333046

onnx::Div_74 f4 [12]
0	0x3ef12e71	0.47105744
1	0x3eff7e35	0.49900976
2	0x3ea50696	0.32231587
3	0x3e9e33fb	0.30899033
4	0x3ef406f1	0.47661546
5	0x3efe8cb9	0.49716738
6	0x3ea68b13	0.3252798
7	0x3e9f9270	0.3116641
8	0x3eef143e	0.4669513
9	0x3effd68f	0.49968383
10	0x3ea465dc	0.32108963
11	0x3e9d981f	0.30780122

onnx::Div_77 f4 [3]
0	0x3f03faf4	0.515548
1	0x3d285eee	0.041106157
2	0x3f1c6274	0.6108773
