Experimentos/results/sac5/KartAgent/KartAgent-49958.onnx (onnx, 621257 bytes, 11 tensors)

network_body._body_endoder.seq_layers.0.weight f4 [128, 35]
0	0xbd8492a1	-0.0647328
1	0x3e9983f5	0.29983488
2	0x3dc89e88	0.097958624
3	0xbe239e8c	-0.1597845
4	0x3dee7afe	0.11644553
5	0xbdfe36f2	-0.12412824
6	0xbca9d195	-0.02072982
7	0xbd740747	-0.059577253
8	0x3d82c34b	0.063849054
9	0x3e2c101b	0.16803019
10	0xbe307c00	-0.17234802
11	0x3e1a2dc0	0.15056515
12	0xbe0e77fc	-0.13912958
13	0xbc063d62	-0.008193346
14	0x3e731cff	0.2374153
15	0xbdb6af7f	-0.08920192
16	0x3daee9ac	0.08540663
17	0x3e0a7545	0.13521297
18	0x3e516a55	0.20450719
19	0x3e4461e2	0.19177964
20	0x3c225d11	0.009909884
21	0xbc13005f	-0.008972256
22	0xbe3d3a3d	-0.18479247
23	0xbcef03f1	-0.029176684
24	0xbdd27a1c	-0.10277197
25	0xbe23c3e1	-0.1599269
26	0x3db1dbc6	0.086844966
27	0xbe4acd61	-0.19804908
28	0x3e64e27b	0.2235202
29	0x3e23185e	0.15927264
30	0xbd69dd4d	-0.057095814
31	0x3e3c40e7	0.18384133
32	0x3dabe0bf	0.08392476
33	0x3d9f6e26	0.07784681
34	0xbddeebdb	-0.108848296
35	0xbe00c362	-0.12574533
36	0x3d862b19	0.06551189
37	0xbec37c3f	-0.3818073
38	0x3cdc94ef	0.026926486
39	0x3d944e2f	0.07241475
40	0xbd697946	-0.05700042
41	0x3f008144	0.50197244
42	0xbdc17973	-0.09446993
43	0x3d1aa181	0.03775168
44	0x3e5a740e	0.21333334
45	0x3ee34f61	0.443965
46	0xbe07f3ce	-0.13276598
47	0x3c68d44b	0.014210771
48	0x3c943a2b	0.018094143
49	0xbda02087	-0.07818704
50	0xbba68285	-0.005081477
51	0xbce6cb7d	-0.028173203
52	0x3cc20c4e	0.023687508
53	0xbe27a61e	-0.16371962
54	0xbcfbca9e	-0.030736264
55	0xbca42d99	-0.020041274
56	0xbe174938	-0.14774024
57	0xbe8ed403	-0.27896127
58	0x3d46c38a	0.048526324
59	0x3c811dc4	0.015761264
60	0xbe63b24d	-0.22235985
61	0xbc82f3e9	-0.015985446
62	0x3d81bf2a	0.0633529
63	0x3e414fb5	0.18878062
64	0xbe26d692	-0.1629279
65	0x3dff0a2a	0.124531105
66	0x3ebfbd8b	0.37449297
67	0x3e001242	0.12506965
68	0xbe6190be	-0.22027871
69	0x3da58344	0.080816776
70	0xbe850ca4	-0.25986207
71	0xbd897da2	-0.06713416
72	0x3db0239b	0.08600541
73	0xbe857368	-0.2606461
74	0xbc8ba136	-0.017044645
75	0x3c3d30f6	0.011547318
76	0xbd428fc3	-0.047500383
77	0x3d7afe68	0.061277777
78	0x3da6567e	0.08121966
79	0x3c47195d	0.012152043
80	0x3db13edb	0.08654567
81	0x3e3d3913	0.18478803
82	0xbe855585	-0.2604181
83	0xbe4cf49e	-0.20015189
84	0xbe461e2c	-0.19347447
85	0xbdb0426c	-0.08606419
86	0xbdccb77e	-0.09995936
87	0x3e1c51cd	0.1526558
88	0xbe1a30b1	-0.15057637
89	0xbe8c2822	-0.2737437
90	0xbd92557e	-0.071452126
91	0xbdeee97e	-0.11665629
92	0xbcd5bef2	-0.026092026
93	0xbc85a8fd	-0.016315931
94	0x3e02da9c	0.12778705
95	0x3e51f535	0.20503695
96	0xbad4e810	-0.0016243476
97	0x3e9d94e5	0.3077766
98	0xbd442f05	-0.047896404
99	0x3e3ee30d	0.186413
100	0x3e33bbd9	0.17552127
101	0xbe51c2bd	-0.20484443
102	0x3dd9c717	0.106336765
103	0xbeabaa91	-0.3352857
104	0xbeadd4f6	-0.3395154
105	0xbd93a780	-0.072096825
106	0xbdd20335	-0.10254518
107	0xbe13e47d	-0.1444263
108	0xbe50f6d1	-0.20406653
109	0x3dd29b2f	0.10283505
110	0xbe13b643	-0.14424996
111	0xbd33cfa8	-0.04389921
112	0xbce83696	-0.028346341
113	0xbe90e183	-0.28297052
114	0xbe5e8e1a	-0.21733895
115	0x3e8bfd19	0.27341536
116	0x3e8a318b	0.26990923
117	0xbe4239c2	-0.18967345
118	0x3e42298a	0.18961158
119	0xbd0ffa5b	-0.035150867
120	0xbba61cde	-0.005069359
121	0x3dbfdd40	0.09368372
122	0x3d07195b	0.032983165
123	0x3de6b7ab	0.11265501
124	0x3ec134a8	0.37735486
125	0x3e4a4b52	0.19755295
126	0xbdc83368	-0.0977543
127	0xbd8e22f6	-0.06940262
128	0xbdedeeef	-0.116178386
129	0x3e01d722	0.12679723
130	0x3ea3a487	0.31961462
131	0xbd008960	-0.03138101
132	0x3e39bd6f	0.1813867
133	0x3ecc7174	0.39930308
134	0x3e66c7a4	0.22537094
135	0x3e458b75	0.1929148
136	0x3ced1616	0.028941195
137	0xbcffec92	-0.031240735
138	0x3d46c2f8	0.04852578
139	0x3d1aea16	0.037820898
140	0x3e7cf318	0.24702108
141	0x3c7c3414	0.015393276
142	0xbda0a113	-0.078432225
143	0xbe80f257	-0.2518489
144	0xbe631754	-0.22176868
145	0xbd26f23e	-0.040758364
146	0x375b985e	1.3088893e-05
147	0xbc6d9ca3	-0.014502677
148	0xbdcb40cf	-0.09924471
149	0x3d2930ac	0.041306183
150	0xbe116d0e	-0.14201757
151	0xbe11865c	-0.1421141
152	0xbc76e25d	-0.015068618
153	0xbe1f1673	-0.15535907
154	0xbe338d66	-0.17534408
155	0x3e52bd06	0.20579919
156	0x3e65a261	0.22425224
157	0xbd89cdde	-0.06728719
158	0x3dede47d	0.11615846
159	0xbe849d34	-0.25901186
160	0xbdfd237d	-0.123602845
161	0x3e0cf94c	0.13766974
162	0x3cc0f546	0.023554455
163	0xbd66c0e9	-0.056336317
164	0xbd62e9a9	-0.055398617
165	0x3baaa048	0.0052070953
166	0x3d5665a8	0.05234304
167	0x3e14068f	0.14455627
168	0x3d309c86	0.043118022
169	0xbe7b6a1a	-0.24552193
170	0xbc143a53	-0.009047109
171	0x3e3f814f	0.18701671
172	0xbe30389d	-0.17209096
173	0x3cdcf815	0.026973763
174	0x3dff364d	0.12461529
175	0xbe230366	-0.15919265
176	0x3d3cd499	0.046101186
177	0xbe822750	-0.25420618
178	0x3e185d69	0.14879383
179	0x3d4cf1d9	0.05003533
180	0x3e386e4f	0.1801083
181	0x3d2467e3	0.040138137
182	0xbd61bf00	-0.055113792
183	0xbe5d02df	-0.21583126
184	0x3e6f4329	0.23365463
185	0x3da2795b	0.07933303
186	0xbe887dda	-0.26658517
187	0xbe893ecb	-0.2680572
188	0xbd11022e	-0.03540247
189	0xbdafec6b	-0.08590015
190	0xbdab9d6d	-0.08379636
191	0xbd8002ca	-0.06250532
192	0xbd9adb66	-0.07561378
193	0xbd6fd502	-0.05855275
194	0xbd211a10	-0.039331496
195	0x3ca625ef	0.02028176
196	0xbcc456f4	-0.023967244
197	0xbde2a764	-0.110670835
198	0x3ed0f759	0.4081371
199	0xbdf52194	-0.11969295
200	0x3df1d6e1	0.11808563
201	0x3d98ab25	0.07454518
202	0x3e6eaf2a	0.23309007
203	0xbe540f4a	-0.20708957
204	0xbda1c92e	-0.078997
205	0xbd713025	-0.058883805
206	0xbe5ec56a	-0.21754995
207	0xbe86ea04	-0.26350415
208	0x3cfc940a	0.03083231
209	0x3df58425	0.11988095
210	0xbe212316	-0.1573604
211	0xbdd332b8	-0.10312408
212	0x3c8301ec	0.015992127
213	0x3e0c319d	0.13690801
214	0xbe460541	-0.19337942
215	0xbeb960eb	-0.36206755
216	0x3e90e6b0	0.28301
217	0xbe1ea775	-0.15493567
218	0x3e27554d	0.16341133
219	0x380b6c80	3.324123e-05
220	0x3e7d6a9d	0.24747701
221	0x3bac6e3c	0.0052621644
222	0xbe9d4bd0	-0.30721903
223	0xbde6b19a	-0.112643436
224	0xbd27ba5f	-0.04094922
225	0x3ebc66f7	0.36797306
226	0xbe4a102c	-0.19732732
227	0x3e161fcd	0.14660569
228	0x3cc2ab3a	0.023763288
229	0xbe1d9c7a	-0.15391722
230	0x3e21d80c	0.15805072
231	0xbea552fc	-0.32289875
232	0xbc667be3	-0.014067623
233	0xbd44947f	-0.04799318
234	0xbe08d079	-0.13360776
235	0x3daa8c26	0.083275124
236	0xbe0c281a	-0.13687173
237	0xbbeaeb66	-0.007169175
238	0x3e6d9f69	0.23205341
239	0xbe2ff784	-0.17184263
240	0x3e6d6a09	0.2318498
241	0xbe15436b	-0.14576499
242	0xbcd331f9	-0.025780665
243	0xbe4e5a4f	-0.20151637
244	0x3c3ce4c6	0.011529153
245	0xbca72102	-0.020401482
246	0xbd6ebb15	-0.058283884
247	0x3e3a5ac5	0.18198688
248	0xbe8a2611	-0.26982167
249	0xbe231787	-0.15926944
250	0xbd4b43ed	-0.049625326
251	0xbe6f45fc	-0.2336654
252	0xbb867a43	-0.00410393
253	0x3df1d9b5	0.118091024
254	0x3d9c0ebf	0.0762
255	0x3e8e2be7	0.2776787

network_body._body_endoder.seq_layers.0.bias f4 [128]
0	0x3c86fc3f	0.016477702
1	0xbccc65ec	-0.024950944
2	0xbb2231ce	-0.0024748924
3	0x3cafc599	0.021456527
4	0xbc5e602e	-0.013572736
5	0xbc4f82a9	-0.012665429
6	0xbb7a175f	-0.0038160903
7	0xbcd211f3	-0.025643324
8	0x3b849647	0.004046235
9	0x3c65c1de	0.014023272
10	0x3b0e00f3	0.0021668046
11	0x3c86fe26	0.01647861
12	0x3c849825	0.01618583
13	0xbcccbfe2	-0.02499384
14	0x3a86a698	0.0010273037
15	0x3d0b58ce	0.034020238
16	0x3d32f5f6	0.043691598
17	0xbbcc46d9	-0.0062340316
18	0x3c173dc8	0.009231038
19	0xbc4ce7dc	-0.012506451
20	0x3cea8b36	0.028630834
21	0xbc44c018	-0.012008689
22	0x3c2ec239	0.0106664235
23	0xbd019df7	-0.031644788
24	0x3cd86f17	0.02642016
25	0x3c10bfb6	0.00883477
26	0xbcb70597	-0.022341533
27	0x3c1133d6	0.008862456
28	0xb827e918	-4.003299e-05
29	0x3d16953e	0.036763422
30	0x3d45b6b0	0.048269928
31	0x3ccc149e	0.024912175
32	0x3cb350ad	0.021889055
33	0x3aa9b607	0.0012947925
34	0x3c0404f2	0.00805782
35	0xbc14d5c3	-0.009084168
36	0x3b2a9b57	0.0026032531
37	0x3c6dda6c	0.014517408
38	0xbbf0a812	-0.0073442543
39	0xbafd628d	-0.0019331739
40	0xbc558c2a	-0.013033906
41	0x3c41eba7	0.011835969
42	0x3cf6ba77	0.03011821
43	0x3b86a6aa	0.0041092234
44	0x3c8341a8	0.016022518
45	0xbd08930a	-0.033343352
46	0xbcacfed3	-0.021117603
47	0xbcd0acd0	-0.025473028
48	0x3d01f2cc	0.03172569
49	0x3cd5f1dc	0.026116304
50	0x3c38c2be	0.011276899
51	0x3d1db18a	0.038499393
52	0xbb18fec6	-0.0023345216
53	0x374ce2f8	1.2212193e-05
54	0xbc6add23	-0.01433495
55	0xbd064421	-0.032779817
56	0x3cb88778	0.022525534
57	0x3c85ab42	0.016317014
58	0x3cb58764	0.022159286
59	0xbca3e601	-0.020007135
60	0x3c68fe29	0.014220753
61	0x3c9bd04f	0.019020228
62	0x3d353a69	0.044245157
63	0x3c32f1b7	0.010921887
64	0xbcbd4d54	-0.023108162
65	0x3c7ee51d	0.015557555
66	0xbc67ba9b	-0.014143611
67	0xbd2fa736	-0.042884074
68	0xbc240fbf	-0.01001352
69	0x3c0dbc2f	0.0086508235
70	0x3c4f222b	0.012642424
71	0xbbc4de91	-0.0060079773
72	0xbc97c249	-0.01852526
73	0x3c541de7	0.012946582
74	0x3b8f19ff	0.0043671126
75	0x3c66313e	0.014049826
76	0x3c8c4a43	0.017125254
77	0xbb2079d9	-0.002448669
78	0x3cb700a8	0.02233918
79	0x3cb7e86c	0.022449695
80	0xbc3662de	-0.01113197
81	0x3c2a79a3	0.010404977
82	0xbc9d104f	-0.019172816
83	0x3b93f764	0.0045155752
84	0x3c0cdbdf	0.008597343
85	0x3c78f6f1	0.015195594
86	0x3c1136fb	0.008863206
87	0x3baa8871	0.0052042534
88	0x3b9acc6b	0.0047240756
89	0x3bc96be3	0.0061468943
90	0xbc875be7	-0.016523315
91	0x3c97cc3b	0.018530002
92	0xbbe732a4	-0.0070555974
93	0xbc42ca6f	-0.011889084
94	0x3be8702d	0.0070934505
95	0xbb1be1ee	-0.0023785788
96	0x3b80dd0b	0.0039326004
97	0xbc45b8f9	-0.012068027
98	0xbc8220a0	-0.015884697
99	0xbce267fa	-0.02763747
100	0x3d1ab9aa	0.03777472
101	0xbd2cde1c	-0.042204008
102	0x3d1e550a	0.03865532
103	0x3c1861b4	0.009300638
104	0x3b91c370	0.004448347
105	0xbc2de74a	-0.010614226
106	0xbc9d3739	-0.019191371
107	0xb9a47a7c	-0.00031371776
108	0x3c70b8da	0.01469251
109	0xbca5a927	-0.02022226
110	0xbc780d79	-0.015139931
111	0x3b466def	0.0030277928
112	0xbc508dcc	-0.0127291195
113	0x3c7fd53a	0.015614802
114	0x3c91b9b8	0.017788753
115	0xbb08ce33	-0.0020874857
116	0x3bbfd289	0.005853955
117	0x3c86d0c3	0.016456967
118	0xbb82db33	-0.0039934157
119	0x3ab2b51c	0.0013634297
120	0xbc38cdf7	-0.011279575
121	0x3c61b485	0.013775949
122	0xbb0384ed	-0.0020068244
123	0x3ca0c5b5	0.019625524
124	0x3d28adba	0.041181304
125	0x3a30ea37	0.0006748768
126	0xba7f270a	-0.00097332953
127	0x3cb5815a	0.022156406

network_body._body_endoder.seq_layers.2.weight f4 [128, 128]
0	0xbe0030ef	-0.12518667
1	0xbc94205f	-0.018081842
2	0xbe176820	-0.14785814
3	0x3d39dc35	0.04537602
4	0xbe1240fb	-0.142826
5	0x3d0e0b9c	0.03467904
6	0x3da01927	0.078172974
7	0xbdaeaec0	-0.08529425
8	0xbe0592d4	-0.13044292
9	0xbe15924c	-0.14606589
10	0xbdf8f24a	-0.12155588
11	0x3d7ccc32	0.061718173
12	0xbd62fb3f	-0.05541539
13	0x3c865645	0.016398558
14	0x3e033c76	0.12816033
15	0x3cf80901	0.03027773
16	0x3e7da589	0.24770178
17	0xbd307243	-0.04307772
18	0x3cb0ea51	0.021596106
19	0xbd4244ac	-0.04742877
20	0x3e365e23	0.17809348
21	0xbd412463	-0.04715384
22	0xbd1d616e	-0.038422994
23	0xbdfb68e9	-0.122758694
24	0x3ccb45f5	0.024813632
25	0xbc99b038	-0.018760785
26	0xbd73168a	-0.059347667
27	0xbd37db26	-0.04488673
28	0xbd61e9b5	-0.05515452
29	0x3e107cbc	0.14110082
30	0xbbc785ef	-0.006088964
31	0x3e3b50ec	0.18292588
32	0x3d417bb4	0.047237113
33	0x3d3dea1a	0.046365835
34	0x3a4ac797	0.00077354297
35	0x3d883acc	0.066518396
36	0x3cc2dc5f	0.023786722
37	0xbd3ba42d	-0.045810867
38	0xbdb1c059	-0.086792655
39	0x3dd48268	0.103764355
40	0xbca38071	-0.019958707
41	0x3e240287	0.16016589
42	0x3d87d6b6	0.0663275
43	0xbd06c3d6	-0.032901607
44	0x3c97c43f	0.018526195
45	0xbdc8953a	-0.09794088
46	0xbcd59d18	-0.026075885
47	0x3d0193ef	0.03163522
48	0x3d2f15fb	0.04274557
49	0x3bfdf5a0	0.007750228
50	0xbdcd91f4	-0.10037604
51	0x3e6767ee	0.2259824
52	0x3da679c8	0.08128697
53	0xbe828cd4	-0.25498068
54	0xbdbfcade	-0.09364866
55	0xbd830668	-0.06397706
56	0x3d48f311	0.04905993
57	0x3ddc7761	0.10764957
58	0x3d6b2050	0.057403862
59	0xbad523ff	-0.0016261338
60	0xbdb9e31f	-0.09076523
61	0x3de5f7a1	0.11228872
62	0x3e068210	0.13135552
63	0x3dfd0151	0.12353767
64	0xbdfe60ce	-0.12420808
65	0x3dca86a8	0.09888965
66	0x3e0d5ddc	0.13805336
67	0xbd1b32ec	-0.03789036
68	0x3d5422ff	0.051791187
69	0xbe122fe7	-0.14276086
70	0xbe2ec4d2	-0.17067268
71	0x3c2de7a2	0.010614308
72	0xbe317c85	-0.17332657
73	0xbd23e585	-0.04001381
74	0xbce2e69c	-0.027697854
75	0xbdeeb767	-0.11656075
76	0x3dba6852	0.09101929
77	0x3e315744	0.17318445
78	0x3c02ff01	0.007995368
79	0x3dca2787	0.098708205
80	0xbd98ab77	-0.07454579
81	0xbd8430f1	-0.06454647
82	0xbdafb512	-0.08579458
83	0xbd57d5d0	-0.052694142
84	0xbd9ce9f7	-0.07661813
85	0x3dafc33b	0.08582159
86	0xbe0d9305	-0.13825615
87	0x3d9d2289	0.07672603
88	0x3d9b736a	0.07590373
89	0x3c407204	0.011745933
90	0xbe2380f9	-0.15967168
91	0x3d7c196a	0.061547674
92	0xbe2d5d1b	-0.16930048
93	0xbdf84402	-0.121223465
94	0x3e0328e8	0.12808573
95	0xbe18a731	-0.14907528
96	0x3d70f6db	0.05882917
97	0xbd843e2c	-0.06457171
98	0xbc961b60	-0.0183236
99	0xbe0d780b	-0.13815324
100	0x3df6d50b	0.120523535
101	0xbd3916b2	-0.04518766
102	0x3dd3b45d	0.10337136
103	0xbda68c8f	-0.08132278
104	0x3db371b0	0.087619185
105	0xbe074384	-0.13209349
106	0xbe511d1f	-0.20421265
107	0x3d40a43f	0.047031637
108	0x3ca9b903	0.020718103
109	0xbd4ecce1	-0.050488357
110	0x3d35e65c	0.04440914
111	0xbda32850	-0.079666734
112	0xbe2903d5	-0.16505368
113	0x3c37668e	0.011193885
114	0xbce4fd2b	-0.027952751
115	0xbdfd9877	-0.12382596
116	0x3d2aca72	0.041696973
117	0xbd43b67e	-0.04778146
118	0x3d899634	0.06718102
119	0x3d5693d0	0.05238706
120	0xbcdf9923	-0.027294701
121	0x3d131b80	0.035914898
122	0x3e31afc9	0.17352213
123	0xbdb6454d	-0.08899937
124	0x3e9b3f7d	0.30321875
125	0x3d9fc2e2	0.07800843
126	0xbdc865e0	-0.09785056
127	0xbe1c6d05	-0.15275963
128	0xbcdd77d1	-0.027034672
129	0x3dcbda15	0.09953705
130	0x3d490cbb	0.049084406
131	0x3dac5abd	0.084157445
132	0x3d9bd2cd	0.076085664
133	0xbd15fd3e	-0.036618464
134	0x3c196c89	0.009364256
135	0xbe0041fb	-0.1252517
136	0x3dc95458	0.098305404
137	0xbddb7b26	-0.10716848
138	0xbe21837a	-0.1577281
139	0xbdb0bce6	-0.086297795
140	0x3d255b83	0.040370476
141	0xbdd7cad5	-0.10536734
142	0x3e0e0a41	0.13871099
143	0x3e14c3bc	0.14527792
144	0xbd1e9d85	-0.03872444
145	0x3b64ce04	0.0034912834
146	0x3d79125e	0.060808532
147	0x3e065783	0.1311932
148	0x3e352341	0.1768923
149	0x3e308aa9	0.17240395
150	0xbd8cc320	-0.06873155
151	0x3b5c8db4	0.0033653798
152	0xbdc76889	-0.097367354
153	0x3c1d691e	0.009607581
154	0x3de3c18f	0.11120903
155	0xbbba8927	-0.0056926194
156	0xbd85ea45	-0.06538824
157	0xbd0c7451	-0.034290615
158	0x3d8377cd	0.064193346
159	0x3d5928d3	0.05301745
160	0xbd51194c	-0.051049516
161	0xbdab7028	-0.083710015
162	0xbcc649ee	-0.024205174
163	0xbdd7a8b1	-0.10530222
164	0xbe048942	-0.12942985
165	0x3d39b802	0.0453415
166	0xbc97a28d	-0.018510127
167	0xbd1418f0	-0.036156595
168	0xbddd7026	-0.10812406
169	0xbdf79e20	-0.12090707
170	0xbdc65cd4	-0.09685674
171	0xbd94ca3a	-0.07265134
172	0xbd0f9686	-0.03505566
173	0xbd1a0c0f	-0.037609156
174	0xbd832f78	-0.06405538
175	0x3e0da409	0.13832106
176	0x398ee4fd	0.0002725496
177	0x3e805873	0.2506748
178	0xbb6e7d3d	-0.0036390566
179	0x3dce73ef	0.10080706
180	0xbcddffd7	-0.027099533
181	0xbd8c5e67	-0.06853943
182	0xbd6bfeab	-0.057615917
183	0xbb47d90e	-0.0030494365
184	0x3cd775e3	0.02630133
185	0xbc8ecab3	-0.017430639
186	0xbd4abd29	-0.049496803
187	0xbd2436f5	-0.040091474
188	0x3de8feb5	0.113767065
189	0x3e0aee49	0.13567461
190	0x3c91b0cb	0.017784497
191	0xbe38e725	-0.18056925
192	0x3d13329a	0.03593693
193	0xbe0dbeb3	-0.13842277
194	0x3daa2ca9	0.083092995
195	0xbd9ba83c	-0.076004475
196	0x3db6de49	0.08929116
197	0x3cddfe76	0.027098875
198	0xbd5ad9c4	-0.053430334
199	0x3d54382c	0.051811382
200	0x3e08ac85	0.13347061
201	0x3bc32d8c	0.0059563573
202	0xbd2a4aff	-0.041575428
203	0x3d56f050	0.052475274
204	0xbccd4a2a	-0.025059778
205	0x3d54f399	0.051990125
206	0x3d02d4ed	0.031941343
207	0x3e44e9c9	0.19229807
208	0xbe4c2315	-0.19935258
209	0xbd912a70	-0.070881724
210	0xbdc58b8a	-0.096457556
211	0xbdad30d1	-0.084565766
212	0x3c4278c4	0.011869613
213	0x3ce19a30	0.027539343
214	0x3e2041f8	0.15650165
215	0xbd866a37	-0.065632276
216	0x3d525518	0.051350683
217	0xbd62f040	-0.0554049
218	0xbcbf1c94	-0.023329057
219	0x3d484e2c	0.048902676
220	0x3b89b93f	0.0042029913
221	0x3df31f27	0.11871176
222	0x3e6200ab	0.22070567
223	0xbe1ce287	-0.15320788
224	0x3d5925dc	0.05301462
225	0xbe634d5c	-0.22197479
226	0xbd2ea0df	-0.042633887
227	0xbac76fbe	-0.0015215797
228	0x3d814cb7	0.0631346
229	0xbd8af525	-0.06785039
230	0x3df45245	0.11929754
231	0x3d65d793	0.05611379
232	0x3d65376e	0.055961065
233	0x3da0ca82	0.07851125
234	0xbc690867	-0.014223195
235	0xbe499b6d	-0.19688196
236	0x3cf937cd	0.030422116
237	0xbdf163f1	-0.117866404
238	0x3d8ffe88	0.0703097
239	0xbd2101b9	-0.039308283
240	0xbbff40c1	-0.0077897017
241	0xbceb4d8b	-0.028723499
242	0x3d4a3d2b	0.04937474
243	0xbd930765	-0.07179145
244	0x3b83daa4	0.0040238667
245	0xbbc06c72	-0.0058723027
246	0x3d23e8dd	0.040016998
247	0x3e3c5a18	0.18393743
248	0x3cda3866	0.026638221
249	0x3d97c748	0.07411057
250	0xbd5ffeb5	-0.054686267
251	0x3c83ad19	0.01607375
252	0xbdf8dbae	-0.121512756
253	0xbbdb54fc	-0.0066934805
254	0x3ca3c0ea	0.01998945
255	0xbe04b751	-0.12960555

network_body._body_endoder.seq_layers.2.bias f4 [128]
0	0x3d132792	0.03592641
1	0x3c781f82	0.015144231
2	0x3c0cf61d	0.0086036
3	0x3c9e387b	0.019314041
4	0xbc404032	-0.011734055
5	0xbbf3fdd7	-0.0074460316
6	0xb8e08362	-0.00010705624
7	0x3c684be1	0.014178247
8	0x3d35b9ac	0.044366524
9	0x3a5ead1f	0.0008494425
10	0x3bd09415	0.006365309
11	0x3ce5aa14	0.028035201
12	0xbc42eada	-0.011896813
13	0x3bfb4ca5	0.007669049
14	0x3abbe484	0.0014335071
15	0x3b7659fb	0.0037590254
16	0x3bb39d54	0.0054814015
17	0xbcc0016b	-0.023438176
18	0x3b24737a	0.0025093243
19	0xbc36e47d	-0.011162874
20	0xbc17469d	-0.009233144
21	0xbb6a7720	-0.003577657
22	0x3be096c8	0.006853912
23	0x3c280e36	0.010257294
24	0x3c76fbcf	0.015074684
25	0xbcc1529d	-0.023598963
26	0x3ca0dd7c	0.019636862
27	0x3c0b9731	0.008519934
28	0x3c802f1e	0.015647467
29	0x3d2087ac	0.039191887
30	0xb9ba683f	-0.00035554354
31	0x3d01a1fb	0.031648617
32	0x39f2880a	0.00046259194
33	0x3c03be5a	0.008040989
34	0xbc5593ef	-0.013035758
35	0x3bb9d6ea	0.0056713717
36	0xbac056ee	-0.0014674345
37	0xbcabbef4	-0.020965077
38	0x3be3dd0c	0.006953841
39	0x3b453a7d	0.0030094676
40	0x3c87d17c	0.016579382
41	0xbca8d1fc	-0.02060794
42	0x3c9fa5e3	0.01948828
43	0xbca8baf6	-0.020596962
44	0x3b319483	0.0027096577
45	0x3c9f57d8	0.019451067
46	0x3c42e7b7	0.011896065
47	0xbc4367aa	-0.011926571
48	0x3c76d77b	0.015066023
49	0x3c295672	0.010335552
50	0x3ce42277	0.027848465
51	0xbccc3871	-0.024929257
52	0xbc015aa6	-0.007895147
53	0x3baaf2e2	0.005216942
54	0x3c041b31	0.008063124
55	0xbc126b3a	-0.008936698
56	0xbba21ad0	-0.004947044
57	0xbd0586cc	-0.032599255
58	0xbb5e4f4e	-0.003392178
59	0x3bb80026	0.005615252
60	0x3ca16452	0.019701157
61	0x3c331c8b	0.010932098
62	0x3c164b38	0.009173207
63	0x3caa521f	0.020791112
64	0x3c949327	0.018136574
65	0x3cae2208	0.021256462
66	0xba84d7a1	-0.0010135063
67	0x3b31ec8c	0.002714905
68	0x3c28086b	0.010255913
69	0xbb928a81	-0.0044720774
70	0x3caa7849	0.02080931
71	0x3c2ea996	0.01066055
72	0x3cac0fb9	0.02100359
73	0xbab51710	-0.0013816077
74	0xbb333595	-0.002734517
75	0x3cf4563a	0.029826272
76	0xbc231417	-0.00995352
77	0xbc766c82	-0.015040519
78	0xbc5f66d0	-0.013635352
79	0xbb790592	-0.0037997705
80	0xbaf74494	-0.0018865042
81	0x3b223f72	0.0024757055
82	0x3c572a97	0.013132713
83	0xbc4c511b	-0.012470509
84	0xbc2c0c0e	-0.010500921
85	0x3cc66e04	0.024222381
86	0xbbef6032	-0.0073051685
87	0x3b0333b7	0.0020019838
88	0xbc581d74	-0.013190616
89	0x3a1a0838	0.00058758585
90	0x3b19367b	0.002337842
91	0x3c1ba116	0.009498855
92	0x3ca3fa68	0.020016864
93	0xbc28a548	-0.010293312
94	0xbad074e9	-0.0015903983
95	0xbb37afc3	-0.0028028346
96	0xbcc2e48f	-0.023790626
97	0x3b3d707d	0.002890616
98	0x3cace996	0.021107476
99	0x3a6ce735	0.0009037138
100	0x3c525380	0.012837291
101	0xbbdf297b	-0.006810365
102	0x3d04e930	0.032448947
103	0xbba18aa4	-0.0049298573
104	0xbc476c27	-0.012171782
105	0xbb3ef7ec	-0.0029139472
106	0x3c277a01	0.010221959
107	0x3c4ef5eb	0.012631874
108	0x3c74ad5c	0.01493391
109	0x3c96f403	0.0184269
110	0x3ca39092	0.019966397
111	0xbbefa9a4	-0.007313924
112	0x3b85864a	0.0040748464
113	0x3c5c3735	0.013440897
114	0x3cdf6533	0.027269935
115	0x3b4ae159	0.0030957072
116	0x3a28e9fc	0.0006443558
117	0x3c98f68d	0.018672252
118	0xbb2162f6	-0.0024625636
119	0xbca92459	-0.020647215
120	0x3c8b37eb	0.016994437
121	0xbc48498c	-0.012224566
122	0xbc836b3a	-0.01604234
123	0x3b86b74f	0.0041112076
124	0xbcaee4f3	-0.021349406
125	0x3c89e241	0.01683152
126	0x3c67b952	0.014143305
127	0xbcd62b5d	-0.026143724

action_model._continuous_distribution.mu.weight f4 [2, 128]
0	0x3d06b65f	0.032888766
1	0xbd173832	-0.036918826
2	0xbcb951f8	-0.022622094
3	0x3d1d0ea6	0.038344048
4	0x3ccd094f	0.025028853
5	0x3bb59376	0.0055412604
6	0xbc439703	-0.0119378595
7	0x3ccdc6cf	0.025119213
8	0x3c2cc788	0.010545619
9	0xbd1bf806	-0.03807833
10	0xbc81498d	-0.015782142
11	0xbc920080	-0.017822504
12	0x3d25efe1	0.04051197
13	0xbbe22f3a	-0.0069026025
14	0x3d1110ce	0.035416417
15	0x3cb91f9d	0.022598082
16	0xbb89e065	-0.004207658
17	0xbc2083cc	-0.009797048
18	0xbceab294	-0.028649606
19	0x3c43964e	0.011937691
20	0xba90d27e	-0.001104906
21	0xbb725025	-0.003697404
22	0xbd1b2888	-0.03788045
23	0x3d1f4225	0.03888144
24	0xbc883e25	-0.016631195
25	0x3a9cc09f	0.0011959261
26	0xbbce69c8	-0.006299231
27	0xbbc2c37e	-0.0059437146
28	0x3c655b5b	0.013998832
29	0x3c9b9044	0.01898969
30	0xbd94360b	-0.072368704
31	0x3d079943	0.033105146
32	0x39d5976f	0.00040739353
33	0x3ccfc48d	0.025362277
34	0x3cd5b9cf	0.026089577
35	0x3d7160fe	0.05893039
36	0x3cc9499f	0.024571238
37	0xbcc497af	-0.02399811
38	0x3ca4a863	0.020099824
39	0xbb0163cb	-0.001974332
40	0x3c20ba02	0.009809973
41	0x3d1f34bf	0.038868662
42	0xbd15ae63	-0.03654326
43	0x3cd18654	0.025576748
44	0xbc2e9248	-0.010654993
45	0xbccb7b4b	-0.024839064
46	0xbb54d2d0	-0.0032474287
47	0x3c0ec3e5	0.008713697
48	0x3b33ba7e	0.002742439
49	0xbc8fab4a	-0.017537732
50	0x3b8924b3	0.004185283
51	0x3d0e9bb6	0.034816466
52	0x3ce8bc7c	0.028410189
53	0x3c82819f	0.015930949
54	0xba9159db	-0.0011089401
55	0xb9f5d268	-0.00046886806
56	0xbd2642f7	-0.040591206
57	0xbc74a5fd	-0.014932153
58	0xbd610f28	-0.054946095
59	0x3c63a9fe	0.01389551
60	0x3c876619	0.016528176
61	0xbcb5b33c	-0.022180192
62	0xbc8336e8	-0.016017392
63	0xbbc8cbd7	-0.006127815
64	0x3c86ad2c	0.016439997
65	0x3d00c442	0.031437166
66	0xbced65f7	-0.028979285
67	0x3cf3a9aa	0.029743988
68	0xbc0a4968	-0.008440353
69	0x3c0ab4f3	0.008465993
70	0xbce76967	-0.028248502
71	0xbcf56bc2	-0.02995861
72	0x3bcbd124	0.00622
73	0xbbc560dd	-0.00602351
74	0x3c9ad0bc	0.01889836
75	0xbca9648c	-0.020677827
76	0x3d215d74	0.039395764
77	0x3c515872	0.012777435
78	0x3d664e50	0.05622703
79	0x3bb2f5e8	0.005461443
80	0xbb7f3ec6	-0.0038947328
81	0x3d296777	0.041358437
82	0xbccee88d	-0.025257373
83	0xbb15a47f	-0.0022833643
84	0xbce9aebc	-0.028525703
85	0xba249a3f	-0.0006279088
86	0x3bc52269	0.006016065
87	0x3c1089e7	0.008821941
88	0x3c2eeac8	0.010676093
89	0xbd1d8761	-0.038459186
90	0x3b89215a	0.004184884
91	0xbc4b34e4	-0.012402747
92	0x3d4fcabc	0.050730452
93	0xbcabe4c5	-0.02098311
94	0xbd08b40c	-0.03337483
95	0x3c896745	0.016772876
96	0x3ce1cbf0	0.027563065
97	0xbd1f90ab	-0.038956326
98	0x3d160560	0.03662622
99	0x3c5f8d78	0.013644569
100	0x3cdf530e	0.027261283
101	0xbd86b09c	-0.06576654
102	0xbac5a50c	-0.0015079095
103	0x3ca798b1	0.020458551
104	0x3d37898c	0.04480891
105	0x3d030c5f	0.03199422
106	0xbbfa455d	-0.0076376633
107	0xbce95974	-0.028485037
108	0x3c61e97e	0.013788579
109	0xbbe3a708	-0.006947402
110	0x3d9d6e77	0.07687085
111	0x3c42ac06	0.011881834
112	0x3ca8b904	0.020596035
113	0xbd0f88a2	-0.035042413
114	0x3c3a1795	0.011358161
115	0xbb6fb783	-0.0036577887
116	0x3c3b22f1	0.011421905
117	0x3d34d864	0.04415168
118	0xbc903b32	-0.017606352
119	0x3c86a01f	0.016433774
120	0xbd0392fc	-0.032122597
121	0xbaeb0c55	-0.0017932752
122	0xbc9ad7a1	-0.018901648
123	0xbbd72fc1	-0.006566972
124	0x3d8b3df5	0.06798927
125	0x3d01ab59	0.03165755
126	0x3d0eadc4	0.034833685
127	0x3be038d3	0.0068427115
128	0x3ba3251c	0.004978789
129	0xbc8626a5	-0.016375849
130	0xbc66eb80	-0.0140942335
131	0x3c86ca5e	0.016453918
132	0xbc880e1b	-0.016608289
133	0xbb8aeefd	-0.0042399154
134	0x3c6bf2e0	0.014401168
135	0xb8d6999c	-0.00010232927
136	0x3c07af57	0.00828155
137	0xbbf7f995	-0.0075675943
138	0xbcffbda3	-0.031218356
139	0x3c92ad57	0.01790492
140	0x3c02502b	0.007953684
141	0xbbd58840	-0.0065164864
142	0x3d127ae2	0.03576172
143	0xbc9e259e	-0.019305047
144	0xba8fa99a	-0.0010960579
145	0x3cf2da54	0.029645123
146	0xbcb891fc	-0.022530548
147	0x3c21c283	0.009873035
148	0xbb311f46	-0.0027026697
149	0x3c94a70c	0.01814606
150	0xbcf4c4a8	-0.02987893
151	0xbc70c24d	-0.014694762
152	0x3ae4d04c	0.0017457097
153	0x3ccc6f85	0.02495552
154	0xbcaa5a96	-0.020795148
155	0xbcac0f36	-0.021003347
156	0xbc386e08	-0.011256702
157	0x3d30c2b5	0.043154437
158	0xbbe7076f	-0.0070504467
159	0xbd2a3c44	-0.04156138
160	0xbc07c9a4	-0.008287821
161	0xbc38c023	-0.011276278
162	0xbd0a2512	-0.03372676
163	0xbc8199c1	-0.015820386
164	0xbc11db67	-0.008902407
165	0xbd2ea5a5	-0.04263844
166	0xbbb8747e	-0.0056291213
167	0xbc5a2e76	-0.013316741
168	0xbc68ba4f	-0.014204576
169	0x3d3f505a	0.04670749
170	0xbb040e6a	-0.0020150193
171	0x3cf24b2c	0.02957686
172	0xbccfeade	-0.025380548
173	0xbc3830f0	-0.011242136
174	0xbcc899ea	-0.024487454
175	0x3cae6413	0.021287953
176	0x3c3bbd25	0.01145867
177	0x3cb0012c	0.021484934
178	0x3ca72bcc	0.020406626
179	0x3c14436b	0.009049277
180	0x3c401fc8	0.011726327
181	0x3bb244a7	0.005440313
182	0x3c805031	0.015663238
183	0x3ca34c6f	0.019933907
184	0xbcc232e7	-0.023705913
185	0x3cadffd3	0.02124015
186	0xbc9c8d4a	-0.01911034
187	0x3b84b0c5	0.004049393
188	0xb964349b	-0.00021763371
189	0xbbf84de8	-0.0075776465
190	0x3d0104e2	0.031498797
191	0x3d2d4ba4	0.042308465
192	0x3c345d60	0.01100859
193	0x3c075bf6	0.008261671
194	0x3b21ecd7	0.0024707818
195	0xbc085d42	-0.008323016
196	0xbc8861de	-0.01664823
197	0xba481a29	-0.00076332927
198	0xbcbfed90	-0.023428708
199	0xbbab97b9	-0.0052365926
200	0x3b9d28b0	0.00479611
201	0x3c01ebf0	0.007929787
202	0xbbd9e6ee	-0.0066498434
203	0x3ceb8fea	0.028755147
204	0x3d07610d	0.03305154
205	0xbd010bbb	-0.031505328
206	0xbc85a3c6	-0.016313445
207	0xbc05ded5	-0.008170803
208	0xbd2579f6	-0.040399514
209	0x3ca23168	0.01979895
210	0xbc9ef11d	-0.019402081
211	0xbcaaa9ea	-0.020832974
212	0xbc068b5d	-0.008211938
213	0x3c8c6c25	0.017141411
214	0xbb8858d5	-0.00416098
215	0x3cf72f17	0.030173821
216	0xbc6a92e1	-0.014317245
217	0xbc958185	-0.018250236
218	0x3b48f77a	0.0030665086
219	0xbcbe3c81	-0.02322221
220	0xbbbdbf35	-0.005790616
221	0xbd23febe	-0.040037863
222	0xbc6f2cfd	-0.014598128
223	0x3d1ac73d	0.037787665
224	0xbc2170b8	-0.009853534
225	0x39b9f865	0.00035471018
226	0x385664e1	5.1115527e-05
227	0xbcf076aa	-0.029353458
228	0x3c31dcfa	0.010855908
229	0xbcfba1c2	-0.03071678
230	0xbc09ef35	-0.008418848
231	0xbd072b57	-0.033000316
232	0x3c879ae6	0.016553354
233	0xbcb823c8	-0.022478
234	0x3b9a1266	0.0047019003
235	0xbc2b0a3c	-0.010439452
236	0x3c76c3e5	0.015061353
237	0xbd2c3614	-0.04204376
238	0xbc6904ef	-0.014222368
239	0x3abb4007	0.0014286049
240	0x3c687a16	0.014189264
241	0xbbfb28ed	-0.007664791
242	0x3bca1b11	0.0061677773
243	0x3c48c9a0	0.012255102
244	0xbca3689e	-0.019947346
245	0x3c8db4f4	0.0172982
246	0xbd2d8c40	-0.04237008
247	0x3c245ee5	0.01003239
248	0xbb309644	-0.0026945034
249	0xbc18ac43	-0.009318414
250	0xbbf7cf8b	-0.007562583
251	0x3bdf9d48	0.0068241693
252	0xbc4a7035	-0.012355854
253	0xbba3f5e1	-0.0050036763
254	0x3cb8a1ff	0.022538183
255	0x3c01530d	0.007893336

action_model._continuous_distribution.mu.bias f4 [2]
0	0x3ba8d2c7	0.0051520797
1	0x3c9872f3	0.0186095

action_model._continuous_distribution.log_sigma.weight f4 [2, 128]
0	0x396ba24e	0.0002247181
1	0x3d0715dc	0.03297983
2	0x3c27baca	0.010237405
3	0xbcafe4e1	-0.021471443
4	0xbb44ad19	-0.00300104
5	0xbce5afc3	-0.028037911
6	0xbc3acfaa	-0.01140205
7	0xbc17bf89	-0.009261974
8	0x3c138d09	0.009005793
9	0x3c4e7395	0.012600799
10	0x3cbf09e8	0.023320153
11	0x3baf28dc	0.005345447
12	0xbc882598	-0.016619489
13	0x3a884120	0.0010395385
14	0xbcabe608	-0.02098371
15	0x3c316c19	0.010828995
16	0x3b195c52	0.0023400974
17	0xbcaff873	-0.021480775
18	0xbc3c8e6f	-0.011508568
19	0xbc2dd849	-0.010610648
20	0x3c5a1ac6	0.013312047
21	0x3c8ab499	0.016931819
22	0x3ad7d943	0.0016467947
23	0xbcc3c31c	-0.023896746
24	0x3ca3bbc0	0.019986987
25	0xbc8bf4d9	-0.017084526
26	0xbba9079d	-0.0051583783
27	0x3c7cd793	0.015432256
28	0x3c1a0184	0.009399775
29	0xbc115713	-0.008870858
30	0x3c867a75	0.016415814
31	0x3bff4e17	0.0077912915
32	0x3c807e9e	0.015685376
33	0x3c844e16	0.016150516
34	0x3cbea3ed	0.023271525
35	0xbc194f33	-0.0093572615
36	0x3ca822d8	0.020524427
37	0x3bdd0887	0.0067454013
38	0x3cc1fc25	0.023679802
39	0xbc1a101c	-0.009403255
40	0x3c462500	0.012093782
41	0x3b4b758c	0.0031045405
42	0xbc63167a	-0.013860339
43	0xbd1e430c	-0.03863816
44	0x3ce6392b	0.028103432
45	0x3c3aeb33	0.011408615
46	0x3c6d0237	0.01446586
47	0x3c5efcf2	0.013610112
48	0xbc1d07cf	-0.009584381
49	0x39f35dc6	0.00046418438
50	0x3c5dfcf7	0.013549081
51	0xbd09de7b	-0.03365944
52	0x3cc13955	0.023586908
53	0xbc2d5dd3	-0.0105814515
54	0xbbf32b42	-0.007420928
55	0xbcd95a83	-0.026532417
56	0x3cd959c1	0.026532056
57	0xbb67d64d	-0.0035375536
58	0x3bbfd28a	0.0058539556
59	0x39c36758	0.00037270295
60	0x3bf45c96	0.007457326
61	0xbbf39497	-0.007433485
62	0x3c04af90	0.008098498
63	0x3b194cdd	0.0023391761
64	0x3bd69629	0.006548662
65	0xbb89a522	-0.0042005936
66	0x3c3bb5f9	0.01145696
67	0x3ba8f969	0.005156685
68	0x3ab1f48c	0.0013576909
69	0xbc839951	-0.016064318
70	0x3caabc97	0.02084188
71	0xbc2cd3b4	-0.010548521
72	0xbbd18498	-0.0063939802
73	0x39d4a4ab	0.00040558478
74	0xbd5b3657	-0.05351862
75	0xbbb02409	-0.0053753895
76	0x3c093136	0.008373549
77	0xbb9202d9	-0.004455906
78	0xbbc0a2bd	-0.005878775
79	0xbb94e7a6	-0.004544216
80	0x3c3c439c	0.011490729
81	0x3aa4caf8	0.0012572696
82	0xbc73a856	-0.014871677
83	0x3cabc6da	0.020968843
84	0x3b14c64a	0.0022701197
85	0xbc0f4391	-0.008744136
86	0x3cc81540	0.024424195
87	0x3c184d1a	0.009295726
88	0x3be42d70	0.0069634244
89	0xbbf1bdf8	-0.0073773824
90	0x3b256340	0.002523616
91	0x3cc21b84	0.023694761
92	0xb8c4d9c5	-9.386571e-05
93	0xbc574d8c	-0.013141047
94	0xbc854bdd	-0.016271526
95	0x3c91503f	0.01773846
96	0x3c35e736	0.011102488
97	0x3c9b5222	0.018960062
98	0x3c5e81c8	0.013580747
99	0x3c9a382c	0.018825613
100	0xba3da740	-0.00072347
101	0x3c62b19b	0.01383629
102	0x3c5e9ba4	0.013586912
103	0x3bbe7629	0.0058124256
104	0x3c9813cd	0.01856413
105	0x3d6f26d7	0.05838665
106	0x3adff8c1	0.0017087684
107	0x3b135aea	0.002248461
108	0x3bcd2a7b	0.0062611676
109	0xbc647e37	-0.013946108
110	0xbc4a4eb0	-0.012347862
111	0x3bf5fef3	0.007507199
112	0x3cc88670	0.024478167
113	0x3c6ab942	0.0143263955
114	0xba4b13d0	-0.0007746788
115	0x3d46668d	0.048437644
116	0x3c351779	0.01105296
117	0xbc9ca787	-0.019122852
118	0x3d298f51	0.041396443
119	0xbc57f6e8	-0.013181426
120	0xbc75b725	-0.014997278
121	0x3d04edb8	0.03245327
122	0xbc947ea1	-0.018126788
123	0x3c54fc85	0.0129996585
124	0x3d0da27e	0.034578793
125	0x3d20b79d	0.039237607
126	0x3aaf6c39	0.0013383693
127	0x3cb67a93	0.022275245
128	0xbc3bece9	-0.011470058
129	0xbbfa7d72	-0.007644349
130	0x3c14b845	0.009077136
131	0x3be8e7c0	0.007107705
132	0xbbbf55f5	-0.0058391043
133	0x3cd7dbca	0.02634992
134	0xba0a8d73	-0.000528536
135	0x3c44fbe2	0.012022944
136	0xbc9d3b89	-0.019193428
137	0x3d1464f4	0.03622909
138	0x3d074d94	0.03303297
139	0x3c9f4ccb	0.019445797
140	0x3c0f35b6	0.008740833
141	0x3d06f806	0.032951377
142	0x3cd23213	0.025658643
143	0x3cb3dfbf	0.021957276
144	0x3d1e7f88	0.038695842
145	0xbccacc0e	-0.024755504
146	0xbcc0213f	-0.023453353
147	0x3c71b751	0.014753179
148	0x3b29c20a	0.002590301
149	0xbc674f19	-0.014117979
150	0x3c01b3c6	0.0079163965
151	0xbc9b0197	-0.018921657
152	0x3c3f50b4	0.011676956
153	0x3c4a50a8	0.0123483315
154	0xbbd9084e	-0.0066233044
155	0x3cfc37fd	0.030788416
156	0xbcfe0684	-0.031008966
157	0xbd1ab213	-0.03776748
158	0xbb3ae183	-0.0028515763
159	0x3b1f271f	0.0024284793
160	0x3b8a141b	0.0042138225
161	0xbc80349e	-0.01565009
162	0x3c85e312	0.016343627
163	0x3b0f0267	0.00218215
164	0xbcbb036b	-0.022828778
165	0xba901007	-0.0010991105
166	0x3baad92f	0.0052138786
167	0x3c7da148	0.015480347
168	0xbb2c475d	-0.0026287653
169	0x3c79ae67	0.015239335
170	0xb9a25a38	-0.00030966266
171	0x3cab9b0e	0.02094796
172	0x3c35ac3e	0.011088429
173	0x3c8abe53	0.016936457
174	0xbbece3c0	-0.0072292984
175	0x3b721074	0.0036936076
176	0x3bf8d7d5	0.0075940886
177	0x3c1d206d	0.00959025
178	0x3cb4ff36	0.02209435
179	0xbb0a657f	-0.0021117625
180	0xbcdb838f	-0.02679613
181	0x3bdbc36f	0.006706647
182	0x3ccdc823	0.025119847
183	0x3c67a0a4	0.014137421
184	0x3ca588c7	0.020206822
185	0x3b522cb6	0.0032070107
186	0xbb82b760	-0.003989145
187	0x3c0149dc	0.007891145
188	0x3ca56b61	0.020192804
189	0x3c99a13d	0.018753642
190	0xba146b30	-0.0005661724
191	0xbc318483	-0.010834816
192	0xb898472a	-7.26118e-05
193	0x3b101617	0.0021985823
194	0x3d069ab9	0.0328624
195	0xbb10ff65	-0.0022124883
196	0x3cfa4d88	0.030554548
197	0x3c691bcc	0.014227819
198	0x3d01d7b3	0.031699847
199	0x3a2458e2	0.0006269348
200	0x3c43733a	0.011929328
201	0x3bd57c5d	0.0065150694
202	0xbbf2e78c	-0.0074128564
203	0xbb1b759a	-0.002372122
204	0xbc3df2e9	-0.011593559
205	0x3be2575a	0.006907386
206	0xbb4e2f5a	-0.003146133
207	0xbc0be11b	-0.008537556
208	0x3c689700	0.014196157
209	0xbba642fe	-0.005073904
210	0x3bcc4dea	0.006234874
211	0x3c8f4576	0.017489176
212	0xbc663927	-0.014051712
213	0x3ce90151	0.02844301
214	0x3a63e0a6	0.0008692838
215	0xbcd4f815	-0.025997201
216	0x3c03639d	0.008019355
217	0x3b86ba73	0.004111582
218	0xbc18446b	-0.009293656
219	0x3b24d1c4	0.0025149444
220	0x3c468468	0.012116529
221	0x3c399f9c	0.011329558
222	0xbc09acab	-0.008402984
223	0x3c17afbb	0.009258206
224	0xba9fae11	-0.0012182613
225	0xbc29755c	-0.010342922
226	0xbc0e0dc7	-0.008670277
227	0x3a931a74	0.0011223094
228	0x3c5f8349	0.013642141
229	0xbc55b8c5	-0.013044541
230	0x3b7910ec	0.003800447
231	0x3cb431a6	0.02199633
232	0xbd0551b4	-0.03254862
233	0x3c41db7a	0.011832112
234	0xbc79996d	-0.015234333
235	0x3c1dd240	0.009632647
236	0x3a2f4be5	0.00066870294
237	0x3c64e0ee	0.013969643
238	0xbc06f8b3	-0.008238005
239	0xbbf433dc	-0.007452471
240	0xbc88ca22	-0.016697947
241	0xbca8d989	-0.020611541
242	0x3ba1bb2a	0.004935642
243	0x3ceace3b	0.028662791
244	0x3af1c41c	0.0018445286
245	0xbc1453a7	-0.009053147
246	0xbc2827b2	-0.01026337
247	0xbbc450e9	-0.0059910906
248	0xbb41f732	-0.0029596803
249	0xbbd8f21a	-0.0066206576
250	0xbc85ad03	-0.01631785
251	0x3c0a39f2	0.008436667
252	0x3c774990	0.015093222
253	0x3d0bafd4	0.03410323
254	0xbbed8668	-0.0072486885
255	0x3c813ee2	0.015777055

action_model._continuous_distribution.log_sigma.bias f4 [2]
0	0xbc8393e4	-0.01606173
1	0xbc823c2b	-0.015897831

onnx::LSTM_94 f4 [1, 512, 128]
0	0x3db4726c	0.08810887
1	0xbe2aa4d1	-0.16664435
2	0xbd8c3dc7	-0.068477206
3	0x3e1c074f	0.15237163
4	0x3c7a4823	0.015275988
5	0xbc2cc137	-0.010544113
6	0x3d20868a	0.039190806
7	0x3d5d022f	0.05395716
8	0xbcb58e6a	-0.022162635
9	0xbd4cfbb1	-0.05004472
10	0xbdb1b272	-0.08676614
11	0x3e1425a0	0.14467478
12	0xbe2a0283	-0.1660252
13	0xbe0546d7	-0.13015305
14	0x3d7d6e7a	0.061872937
15	0x3dd146f0	0.102186084
16	0x3d81e8ba	0.06343217
17	0xbe2eba8a	-0.17063347
18	0xbdc5a458	-0.09650487
19	0xbde74f92	-0.11294474
20	0xbcd27480	-0.025690317
21	0x3e21f66a	0.15816656
22	0x3c092bb1	0.008372233
23	0x3dbd9226	0.09256391
24	0xbd7bf195	-0.061509687
25	0x3dcdad7e	0.10042857
26	0xbc784556	-0.01515325
27	0xbd8eb61c	-0.06968328
28	0x3da2a46c	0.07941517
29	0xbdac8675	-0.08424083
30	0xbd443163	-0.04789866
31	0x3d3fbe55	0.046812374
32	0x3c3745dc	0.011186089
33	0xbd0a73f6	-0.033801995
34	0xbcd8a282	-0.026444677
35	0x3e182c18	0.1486057
36	0xbd0d68aa	-0.034523644
37	0xbe264e12	-0.16240719
38	0x3c806502	0.015673164
39	0x3de60611	0.11231626
40	0xbdba84c9	-0.09107358
41	0x3e098ded	0.13433047
42	0xbdda2182	-0.10650922
43	0xbdda471e	-0.10658096
44	0x3dcc7f9f	0.09985279
45	0x3d6b4cf8	0.05744645
46	0x3bb081a5	0.0053865486
47	0xbe0c5134	-0.13702852
48	0xbd44ddc3	-0.04806305
49	0x3ddd7ac0	0.10814428
50	0xbe27e8e9	-0.16397442
51	0x3d94d368	0.07266885
52	0x3df8d689	0.12150294
53	0xbe367c19	-0.17820777
54	0x3da93274	0.08261576
55	0x3ddfac52	0.10921539
56	0xbe0bb64c	-0.1364376
57	0x3d4cf936	0.050042354
58	0x3d254f2c	0.040358707
59	0xbd0a03dc	-0.033695087
60	0x3e261af2	0.16221216
61	0xbe1f7a11	-0.15573908
62	0x3cb6a081	0.022293331
63	0x3dae8db1	0.08523119
64	0x3d9f56d0	0.0778023
65	0xbd4741ae	-0.04864662
66	0x3c5aa0ca	0.013343999
67	0xbdbc1cf3	-0.09185209
68	0xbda34fb9	-0.0797419
69	0x3dd3342a	0.10312684
70	0xbd5423be	-0.0517919
71	0x3d2d115a	0.042252876
72	0xbd4d07b2	-0.050056167
73	0xbdc38f2d	-0.09548793
74	0xbc9705cc	-0.018435381
75	0x3deb6543	0.114939235
76	0xbd368b1b	-0.044566255
77	0xbe1f95e1	-0.15584518
78	0xbe358c08	-0.17729199
79	0x3e26bfdc	0.16284126
80	0x3df5fccd	0.120111085
81	0xbda82df9	-0.082118936
82	0xbd14fb5b	-0.036372524
83	0xbcfbcba5	-0.030736754
84	0x3d9685fd	0.07349775
85	0xbdcb369f	-0.099225275
86	0x3cc5628f	0.024094848
87	0x3cf75422	0.030191485
88	0xbdfc449e	-0.12317775
89	0x3db47f14	0.08813301
90	0xbd12a386	-0.03580048
91	0x3dea70c7	0.11447292
92	0xbe29b141	-0.16571523
93	0x3c445fc7	0.011985726
94	0xbe30aac6	-0.17252645
95	0xbe08dc28	-0.13365233
96	0x3c12cb62	0.008959623
97	0x3c5b8287	0.013397819
98	0xbc81c202	-0.01583958
99	0x3dc18b9d	0.09450457
100	0x3dcf359a	0.101176456
101	0x3dfaff72	0.122557536
102	0x3d3221cd	0.043489266
103	0x3e226588	0.15859044
104	0x3c645f3a	0.013938719
105	0xbd9ff767	-0.0781086
106	0x3cdb503d	0.026771659
107	0x3d49417b	0.049134713
108	0xbe1e9717	-0.15487324
109	0xbdad97e0	-0.084762335
110	0xbd399602	-0.045309074
111	0x3dc08f43	0.09402325
112	0xbbe61262	-0.0070212344
113	0xbcbd829d	-0.02313357
114	0xbe17d163	-0.14825968
115	0x3d822628	0.06354934
116	0xbda490fa	-0.080354646
117	0x3cddfb18	0.02709727
118	0x3dd310f3	0.10305967
119	0x3debfc76	0.115227625
120	0x3d2ae762	0.04172457
121	0xbddaa8e8	-0.106767476
122	0x3d83197f	0.06401347
123	0xbda0b8ee	-0.078477725
124	0xbd4e34ad	-0.050343204
125	0x3e16fa45	0.14743908
126	0xbdb3de37	-0.087826185
127	0x3dd30364	0.10303381
128	0x3dd6a6a0	0.10481
129	0xbd7155e1	-0.05891979
130	0xbd058eb0	-0.03260678
131	0xbad72511	-0.0016414245
132	0x3d84d2a0	0.06485486
133	0xbdb4229b	-0.08795663
134	0x3c606581	0.013696075
135	0xbdb644c3	-0.08899834
136	0xbd86a1e8	-0.0657385
137	0x3da229f4	0.07918158
138	0xbdceedd1	-0.10103954
139	0xbdf6b153	-0.12045541
140	0xbcaeb031	-0.021324249
141	0x3e28fd7d	0.16502948
142	0xbd6eb8a3	-0.058281552
143	0x3e08c2b4	0.13355523
144	0xbe02d1c0	-0.12775326
145	0x3d83edd4	0.064418465
146	0x3e0b1d7c	0.13585466
147	0xbe2c1870	-0.16806197
148	0xbd2423e1	-0.04007328
149	0xbd0729d9	-0.032998893
150	0xbdfafa05	-0.12254719
151	0x3dbe5b18	0.092947185
152	0x3e1724f4	0.1476019
153	0x3d72885c	0.059212074
154	0x3c28fe95	0.010314603
155	0x3bb719a7	0.005587775
156	0x3da63406	0.081153914
157	0xbb2c720f	-0.0026313101
158	0x3da56746	0.080763385
159	0x3d5fe20a	0.054658927
160	0x3c5e21b7	0.013557843
161	0x3d727c77	0.05920073
162	0xbd951aa9	-0.07280476
163	0x3d5aa9bd	0.05338453
164	0x3c5c0396	0.013428589
165	0xbdc41af2	-0.09575452
166	0xbdd84096	-0.10559194
167	0x3ddeec17	0.10884874
168	0xbd9b417a	-0.07580848
169	0x3e0ea24e	0.13929102
170	0xbdf53f73	-0.119749926
171	0xbd32df29	-0.043669853
172	0xbd9dc5da	-0.07703753
173	0xbb2e50fe	-0.0026598568
174	0x3d4f79c5	0.050653238
175	0xbd829ff1	-0.06378163
176	0xbc220cbd	-0.009890732
177	0xbdbbd69e	-0.09171794
178	0x3d97ad3e	0.0740609
179	0x3de0191e	0.10942291
180	0xbd0689e9	-0.032846365
181	0xbe103a1f	-0.14084671
182	0xbd06d1a9	-0.03291479
183	0xbd3ca8f4	-0.046059564
184	0xbd9d81af	-0.07690751
185	0x3dc0f9c4	0.09422639
186	0x3e14ea57	0.14542519
187	0x3c8d59aa	0.01725467
188	0xbc9ce319	-0.019151257
189	0xbc4273a6	-0.011868393
190	0xbe1ca00b	-0.15295427
191	0xbc5c87d7	-0.013460121
192	0x3c38f13f	0.011287986
193	0x3b9bb137	0.0047513503
194	0xbd3dcc19	-0.04633722
195	0x3e122c15	0.14274628
196	0xbc393401	-0.011303903
197	0x3d1f4b96	0.038890444
198	0x3c215814	0.00984766
199	0xbca599ed	-0.020215
200	0x3e149c42	0.14512733
201	0x3d9b5b9a	0.07585831
202	0x3c0313d3	0.008000332
203	0xbd143316	-0.03618153
204	0xbe3eae7b	-0.18621247
205	0x3cb4d703	0.022075182
206	0xbdf73377	-0.12070363
207	0x3dc1aefe	0.09457205
208	0x3e2bfc70	0.16795516
209	0x3e37785f	0.17917012
210	0x3dc25da1	0.094905145
211	0x3db3fdd7	0.087886505
212	0xbdae20d3	-0.085023545
213	0x3d9f47ba	0.07777353
214	0x3cf57541	0.029963138
215	0xbd00dc81	-0.03146029
216	0x3d8fcbf0	0.0702132
217	0xbe0fb5d1	-0.14034201
218	0xbe035fb0	-0.1282947
219	0x3e0801f4	0.13281995
220	0xb962c323	-0.00021625734
221	0x3dcea931	0.100908644
222	0xbc95de8b	-0.018294593
223	0xbccfe531	-0.025377842
224	0xbcb27a70	-0.021786898
225	0x3d72c6ce	0.059271626
226	0xbda6d126	-0.08145361
227	0xbd820db4	-0.0635027
228	0x3d19d4a7	0.037556317
229	0x3bc7845f	0.006088778
230	0xbe1329d4	-0.14371425
231	0x3d311d9f	0.04324114
232	0xbe01ecb0	-0.12687945
233	0x3aca3f31	0.001543021
234	0xbd400251	-0.04687721
235	0xbd14253b	-0.03616832
236	0x3e04a0c1	0.12951948
237	0x3ddcde20	0.107845545
238	0xbcdee252	-0.027207527
239	0xbde24567	-0.11048394
240	0x3d7d7e7b	0.0618882
241	0x3e16496a	0.14676443
242	0x3df800ed	0.121095516
243	0x3e0a61af	0.13513826
244	0xbc92bdbb	-0.017912736
245	0x3e152d4b	0.14568059
246	0x3d1e977f	0.038718697
247	0x3bdc1960	0.006716892
248	0x3d9451d0	0.07242167
249	0x3d498108	0.04919532
250	0x3e065161	0.13116981
251	0x3c2a067b	0.010377522
252	0xbd243fed	-0.040100027
253	0x3d05e96c	0.03269331
254	0xbd48ddfa	-0.04903982
255	0xbe06f0ac	-0.13177747

onnx::LSTM_95 f4 [1, 512, 128]
0	0xbd8b20c6	-0.067933604
1	0x3db36d26	0.08761053
2	0x3cd57584	0.026057012
3	0xbdcb8ccd	-0.09938965
4	0x3dfb0c88	0.122582495
5	0xbdbdf36e	-0.09274946
6	0xbd9b8d30	-0.07595289
7	0x3d94196f	0.072314136
8	0xbe00bebf	-0.12572764
9	0xbcf55c7e	-0.02995133
10	0xbd36b646	-0.044607423
11	0x3d730efd	0.059340466
12	0x3d921234	0.07132378
13	0xbc7e7050	-0.015529707
14	0xbd04d9a4	-0.03243412
15	0x3c5b456c	0.013383251
16	0xbc3fde1a	-0.011710668
17	0xbd5d3946	-0.0540097
18	0x3d7c6794	0.061622217
19	0xbe169eb8	-0.14708984
20	0x3e02e9d8	0.12784517
21	0x3d5472ea	0.051867403
22	0xbd981531	-0.07425917
23	0xbc95b055	-0.018272558
24	0xbdc8353f	-0.09775781
25	0x3bf673a0	0.007521108
26	0x3df235dd	0.1182668
27	0x3d2b82fc	0.041872963
28	0x3e182ddb	0.14861242
29	0x3e210bdd	0.15727182
30	0x3e045c4c	0.12925833
31	0x3d3fdb7a	0.04684017
32	0x3e0943dd	0.13404794
33	0xbc7e5b36	-0.015524676
34	0xbe05aed5	-0.13054974
35	0x3dd99230	0.10623586
36	0xbdf68f2e	-0.12039028
37	0x3dc3dfa6	0.09564142
38	0xbd9c040b	-0.07617959
39	0xbb2c9801	-0.0026335719
40	0x3dad6b8a	0.08467777
41	0xbbf57ff6	-0.007492061
42	0x3d2c1db0	0.0420205
43	0x3ab7853d	0.00140015
44	0xbcdad1a8	-0.0267113
45	0x3c453cdd	0.012038437
46	0xbc1d576b	-0.009603362
47	0x3dd85951	0.10563911
48	0x3ca9658f	0.02067831
49	0x3d656e1b	0.056013208
50	0x3dcc45c7	0.099742465
51	0x3defb4bd	0.11704395
52	0x3da71688	0.08158594
53	0xbc2f1e45	-0.010688369
54	0xbe1724cd	-0.14760132
55	0xbdac695b	-0.084185325
56	0x3df96873	0.12178125
57	0x3ce3c160	0.02780217
58	0xbe0b7b35	-0.13621219
59	0x3ddbb414	0.107277066
60	0xbb47ee15	-0.0030506898
61	0x3d868945	0.06569151
62	0x3d864a9d	0.065572
63	0x3db967f8	0.090530336
64	0x3d9e700b	0.07736214
65	0xbcfc55a6	-0.03080256
66	0xbde85487	-0.11344247
67	0xbdf576b7	-0.11985534
68	0xbddc8ec0	-0.10769415
69	0x3df11466	0.11771469
70	0x3d66db88	0.056361705
71	0xbe175b8b	-0.14781015
72	0x3da08037	0.07836955
73	0x3e1746dc	0.14773124
74	0x3d6ed08e	0.058304362
75	0xbc8ef547	-0.017450942
76	0x3d93e492	0.07221331
77	0x3e0f34ff	0.1398506
78	0xbd997bd4	-0.074943215
79	0xbe00667c	-0.12539095
80	0xbda8af6d	-0.08236585
81	0xbd553cac	-0.052059814
82	0x3decaaec	0.11556038
83	0x3de510fa	0.11184879
84	0x3e0fb830	0.14035106
85	0x3d156580	0.03647375
86	0xbd8f27db	-0.06990024
87	0x3d31cc76	0.04340788
88	0x3df18a4f	0.117939584
89	0x3daab674	0.083355814
90	0x3e143670	0.14473891
91	0x3d20a9ed	0.039224554
92	0xbe1368d8	-0.14395463
93	0x3d5ab49d	0.053394902
94	0xbdc44755	-0.09583918
95	0xbd69cf81	-0.057082657
96	0x3debc283	0.115117095
97	0x3e26c7c7	0.16287147
98	0x3da58b88	0.08083254
99	0xbdaebf26	-0.085325524
100	0xbcefb041	-0.02925885
101	0x3d3c0ab7	0.045908656
102	0xbd39ec1a	-0.04539118
103	0xbc9216b7	-0.017833097
104	0xbdc86427	-0.097847275
105	0xbe2b8d25	-0.16753061
106	0x3d89ae88	0.06722742
107	0xbde53032	-0.11190833
108	0xbd04a83c	-0.032387003
109	0xbdd027df	-0.10163855
110	0xbdc3ce52	-0.09560837
111	0x3d32323e	0.043504946
112	0x3e25b4b4	0.16182214
113	0x3dd7b3d4	0.10532346
114	0xbdae7c2c	-0.08519778
115	0x3d51a478	0.05118224
116	0xbd92fd5d	-0.071772315
117	0xbd634758	-0.05548796
118	0xbd123d1d	-0.035702813
119	0x3df578c8	0.11985928
120	0x3d5c4b94	0.053783014
121	0xbdb9edc6	-0.09078555
122	0x3c9880fc	0.018616192
123	0xbd3cce96	-0.046095453
124	0x3e120b8d	0.14262219
125	0xbd7acfe6	-0.061233424
126	0x3dc067be	0.09394787
127	0x3bb254e4	0.0054422487
128	0xbbb0dbdd	-0.0053973035
129	0x3deefaa3	0.11668899
130	0x3d8d4fcc	0.06899986
131	0xbdd53c4e	-0.10411893
132	0xbd9957aa	-0.07487424
133	0xbd02828f	-0.03186279
134	0xbc29c0f8	-0.010360949
135	0xbd81efc5	-0.063445605
136	0xbdfe18eb	-0.124070965
137	0xbdc74428	-0.09729797
138	0xbdb9a4c2	-0.09064628
139	0x3de3c473	0.11121454
140	0x3db54bbd	0.088523366
141	0xbd2f06ef	-0.04273122
142	0xbc896c7b	-0.01677536
143	0xbdabe0eb	-0.08392509
144	0xbbd1271a	-0.006382835
145	0x3da1a68b	0.07893094
146	0x3e0f52f7	0.13996492
147	0x3deaffee	0.11474596
148	0x3d2cc1bf	0.04217696
149	0xbdf0d74a	-0.11759813
150	0xbe247a00	-0.16062164
151	0x3d684bf7	0.05671307
152	0x3daad007	0.08340459
153	0x3df16235	0.1178631
154	0xbdedf11e	-0.11618255
155	0xbdfa14b9	-0.12210984
156	0x3db71157	0.08938854
157	0x3d85c2c7	0.065312915
158	0xbd5f01ce	-0.05444508
159	0x3e274c6f	0.16337751
160	0xbd9701d5	-0.07373396
161	0xbe0f9681	-0.14022256
162	0xbdfa9a5c	-0.12236473
163	0xbd2090b5	-0.039200503
164	0x3c2e7d70	0.010650024
165	0xbd3474d6	-0.044056736
166	0x3e216ffe	0.15765378
167	0xbd366516	-0.044529997
168	0x3ccd717d	0.02507853
169	0x3ce1bcf0	0.027555913
170	0xbe25e6e9	-0.16201366
171	0x3d4641af	0.048402485
172	0x3ded56df	0.11588835
173	0xbd34a6d5	-0.044104416
174	0x3d557330	0.052111804
175	0x3c9cf484	0.019159563
176	0x3d09c15b	0.033631664
177	0x3d9f3b45	0.07774977
178	0x3dc27924	0.09495762
179	0xbe087946	-0.13327512
180	0x3e04dcc6	0.12974843
181	0xbc851c7a	-0.01624893
182	0xbd760933	-0.060067367
183	0x3e0dc5f4	0.13845044
184	0xbd6658ca	-0.05623702
185	0xbe187fec	-0.14892548
186	0x3e099cd2	0.13438728
187	0xbe0719e5	-0.13193472
188	0x3df055bf	0.11735105
189	0x3d20fe04	0.03930475
190	0xbdecb122	-0.11557223
191	0xbd7533a4	-0.0598637
192	0xbda52d45	-0.08065275
193	0xbd92804a	-0.071533754
194	0xbc32a321	-0.010903151
195	0x3d5379d1	0.051629845
196	0x3de2138e	0.11038886
197	0xbc3c2cea	-0.011485318
198	0xbd9aad7a	-0.07552619
199	0xbe210629	-0.15725006
200	0x3d964fec	0.07339463
201	0xbd981f66	-0.07427864
202	0x3defead9	0.117147155
203	0x3dbdd87a	0.09269805
204	0x3cd885c2	0.026430968
205	0x3d5259c1	0.051355127
206	0xbdad5a5a	-0.08464499
207	0xbded39d1	-0.11583293
208	0xbce6b61a	-0.028163005
209	0xbd7a0279	-0.061037514
210	0xbccd2ce1	-0.025045814
211	0xbd897512	-0.067117825
212	0xbdea7177	-0.11447423
213	0xbdf28bb1	-0.1184305
214	0xbdd248f2	-0.102678195
215	0xbd1c5d37	-0.038174834
216	0x3daecaba	0.08534761
217	0xbdd5274d	-0.10407887
218	0x3d5d773c	0.05406879
219	0x3e0e4160	0.13892126
220	0xbba72b11	-0.0051015695
221	0xbe0cdd21	-0.13756229
222	0xbd585201	-0.05281258
223	0xbdd267e3	-0.10273721
224	0xbdd029c9	-0.1016422
225	0xbc4770fa	-0.012172932
226	0xbdc999a5	-0.098437585
227	0xbdaf09a3	-0.0854676
228	0xbbd07c72	-0.0063624913
229	0x3d3d0ae0	0.04615295
230	0x3d28e5b6	0.041234694
231	0xbe1892fe	-0.14899823
232	0x3e07429f	0.13209008
233	0xbc1426eb	-0.009042482
234	0xbca0234e	-0.019548085
235	0xbca21748	-0.019786492
236	0x3df1ad43	0.11800625
237	0x3e06dcbc	0.13170141
238	0x3e21a370	0.15785003
239	0xbdf75515	-0.12076775
240	0xbdb9f327	-0.09079581
241	0x3d15e8db	0.03659902
242	0xbe23499a	-0.15946046
243	0xbdf8986e	-0.12138449
244	0x3e11a38a	0.14222541
245	0x3d8a0de0	0.06740928
246	0xbdf2db91	-0.11858285
247	0x3c697e4d	0.014251304
248	0xbd83c8cf	-0.064347856
249	0xbdecaac9	-0.11556012
250	0xbd74f98f	-0.05980831
251	0xbdcd3f6a	-0.10021861
252	0xbdccd19f	-0.100009196
253	0x3cc86dac	0.024466358
254	0x3cc82f5e	0.024436649
255	0x3dc9f7ab	0.09861692
