Experimentos/results/sac5/KartAgent/KartAgent-649959.onnx (onnx, 90702 bytes, 8 tensors)

network_body._body_endoder.seq_layers.0.weight f4 [128, 35]
0.08195369 -0.10440582 0.039784808 -0.14802215 -0.07806082 -0.20408313 0.07231671 0.19261245
0.2087914 0.12287683 0.15926248 0.9674409 -0.024491848 0.20462275 -0.18190888 0.11376373
0.32149303 -0.011274992 -0.16179152 -0.11957423 0.012390772 0.022476144 -0.3829612 0.028684089
0.04083571 -0.082856886 -0.32813755 -0.10138879 0.34777611 0.43350536 -0.057997324 0.25283995
0.09691106 -0.8429916 -0.29132077 -0.03192198 -0.14551349 0.04792366 -0.12334372 -0.0017290302
0.22373196 0.16172856 0.54368186 0.14170055 -0.13148087 0.27223384 0.10166358 -0.03713027
-0.088918485 -0.05548342 0.24587436 0.24417533 -0.04115208 -0.105354406 -0.45334834 0.03196363
0.07680172 -0.060666405 0.30506346 0.1220233 0.2340295 -0.089389935 0.093283966 0.09711818
-0.08441512 -0.16486448 0.08729727 0.16371752 -0.56563586 -0.29574925 0.044918157 -0.13179219
0.13261402 -0.591667 -0.25583714 0.14966084 0.5064375 0.08213655 0.16537787 0.21833177
-0.17929527 0.2069796 0.13118592 -0.07845358 0.1452236 -0.39694732 -0.23421848 -0.092260316
-0.522332 0.11016446 -0.33065873 -0.14643425 -0.43773094 -0.5160388 -0.43542436 -0.2984781
-0.19098029 -0.35219562 -0.580435 0.05321362 0.65740216 -0.06390994 -0.54137254 0.4429573
0.2492611 -0.10021704 0.06757786 -0.40257877 -0.06449596 0.18537341 0.16620594 0.07315297
-0.3261042 -0.04117894 -0.0010351972 0.18519188 -0.060951483 -0.28668445 -0.433034 -0.19262217
0.2414009 0.026867379 -0.044628385 0.08932463 -0.16926411 -0.06280156 -0.13984469 -0.03612098
-0.12370559 -0.43994212 -0.20907511 -0.0015946868 0.1263502 0.26892456 0.18400835 0.13745973
-0.02738252 0.49500522 -0.19648787 0.22960916 -0.08531187 -0.14551109 0.250745 0.03337446
0.06257903 -0.16617084 0.049160585 0.071787186 -0.023788255 0.59573257 0.01706858 0.17587334
-0.116634585 0.16806683 0.16621882 0.21119206 0.433691 0.017787497 -0.15517007 0.21039034
0.038681597 0.13823664 -0.09469993 -0.116063274 -0.42878523 0.14579229 0.15924983 0.21762389
-0.43776715 0.05598173 0.105426244 0.10798627 0.2411298 0.8743691 -0.22378263 0.22620164
0.013802611 0.17037943 0.12146274 -0.017787768 0.56578505 -0.051589902 0.021011867 0.31470335
0.18568979 -0.12805037 0.15463132 -0.063592546 -0.12758458 -0.59608114 0.024895776 0.25183302
-0.263161 -0.20420493 -0.17863178 -0.69616574 0.17124976 0.22476 0.07286838 -0.081939444
0.1418254 0.12247797 -0.064680226 -0.15640663 0.17279615 -0.05474221 0.5843989 -0.17485867
-0.3454705 -0.33021727 0.38233408 0.27157468 -0.06792387 -0.5179152 -0.18436812 0.010412606
0.3079894 0.1564674 -0.17475674 -0.2079462 -0.15775308 -0.012719242 -0.08814579 0.0957471
0.029927235 -0.44042856 -0.07287626 0.020218916 0.15183815 -0.14724728 -0.18536128 -0.18200424
0.098661564 -0.17671365 -0.20678468 -0.0869985 -0.23324417 -0.49376884 0.069014356 -0.08894713
0.19415668 -0.20806 0.010983593 -0.35210577 -0.3476904 0.12303818 -0.06454083 -0.018700702
-0.010597687 -0.108308814 0.13756336 -0.43203703 -0.14536941 -0.37983477 -0.12739809 -0.043408826
00000000: 56d7 a73d b8d2 d5bd 65f5 223d 1e93 17be
00000010: 5ade 9fbd 2bfb 50be c91a 943d 333c 453e
00000020: 6acd 553e d9a6 fb3d b415 233e 35aa 773f
00000030: 21a3 c8bc a088 513e 5246 3abe f5fc e83d
00000040: bc9a a43e beba 38bc adac 25be 55e3 f4bd
00000050: aa02 4b3c e41f b83c 7e13 c4be e5fa ea3c
00000060: 5843 273d dfb0 a9bd a501 a8be eda4 cfbd
00000070: b60f b23e 6af4 dd3e 9a8e 6dbd 3d74 813e
00000080: 4e79 c63d 4cce 57bf ff27 95be 9fc0 02bd
00000090: 7d01 15be 9a4b 443d a29b fcbd a0a0 e2ba
000000a0: fe19 653e 2c9c 253e bc2e 0b3f f319 113e
000000b0: eca2 06be 3c62 8b3e ff34 d03d e915 18bd
000000c0: e51a b6bd 9542 63bd 7dc6 7b3e 1909 7a3e
000000d0: 158f 28bd 0dc4 d7bd 461d e8be 4cec 023d
000000e0: 384a 9d3d 567d 78bd 4731 9c3e 5ae7 f93d
000000f0: 6ea5 6f3e 1212 b7bd aa0b bf3d e5e5 c63d
00000100: d6e1 acbd 3cd2 28be e9c8 b23d 91a5 273e
00000110: 83cd 10bf 726c 97be 1afc 373d 88f4 06be
00000120: f8cb 073e 7d77 17bf 16fd 82be b140 193e
00000130: e3a5 013f 3537 a83d d158 293e 5d92 5f3e
00000140: 2e99 37be 76f2 533e 9a55 063e 45ac a0bd
00000150: 7fb5 143e ae3c cbbe f8d6 6fbe faf2 bcbd
00000160: 8db7 05bf e89d e13d 1a4c a9be dcf2 15be
00000170: 451e e0be 1e1b 04bf f1ef debe 1fd2 98be
00000180: 5690 43be fc52 b4be 6397 14bf 86f6 593d
00000190: 824b 283f 37e3 82bd 6497 0abf 4dcb e23e
000001a0: 4d3e 7f3e 973e cdbd 4366 8a3d ce1e cebe
000001b0: 7516 84bd 87d2 3d3e e431 2a3e 39d1 953d
000001c0: 21f7 a6be 40ab 28bd 74af 87ba f1a2 3d3e
000001d0: 43a8 79bd 4ec8 92be a2b6 ddbe bf3e 45be
000001e0: cc31 773e fa18 dc3c 41cc 36bd d5ef b63d
000001f0: 9253 2dbe 1b9e 80bd 7233 0fbe 98f3 13bd
00000200: 5b59 fdbd 1840 e1be c917 56be cf04 d1ba
00000210: f261 013e 7bb0 893e af6c 3c3e 3ec2 0c3e
00000220: 4e51 e0bc 5371 fd3e 1e34 49be aa1e 6b3e
00000230: fdb7 aebd dc00 15be a661 803e a8b3 083d
00000240: 6f29 803d b028 2abe 9c5c 493d 2905 933d
00000250: 96df c2bc ee81 183f 68d3 8b3c 2418 343e
00000260: 1dde eebd b619 2c3e 4435 2a3e bb42 583e
00000270: bf0c de3e 16b7 913c e7e4 1ebe 9170 573e
00000280: 9870 1e3d e88d 0d3e 09f2 c1bd 95b2 edbd
00000290: bd89 dbbe 934a 153e 6312 233e ccd8 5e3e
000002a0: 0423 e0be 194d 653d b7e9 d73d e827 dd3d
000002b0: bbea 763e a7d6 5f3f 4627 65be 67a1 673e
000002c0: 5924 623c f277 2e3e 75c1 f83d a7b7 91bc
000002d0: 4ad7 103f ef4f 53bd 1421 ac3c cc20 a13e
000002e0: 7725 3e3e a31f 03be ac57 1e3e cf3c 82bd
000002f0: 88a5 02be c698 18bf 3af2 cb3c 42f0 803e
00000300: 0abd 86be 191b 51be 40eb 36be eb37 32bf
00000310: 195c 2f3e 7c27 663e 043c 953d decf a7bd
00000320: ad3a 113e bbd5 fa3d 1177 84bd 0f29 20be
00000330: 79f1 303e 5e39 60bd 2b9b 153f 270e 33be
00000340: 82e1 b0be 3d12 a9be 4bc1 c33e d60b 8b3e
00000350: ac1b 8bbd 1796 04bf ffca 3cbe a399 2a3c
00000360: c9b0 9d3e fd38 203e 6ef3 32be d9ef 54be
00000370: 068a 21be 5e64 50bc c885 b4bd 0e17 c43d
00000380: f629 f53c da7f e1be 2640 95bd 24a2 a53c
00000390: 767b 1b3e fec7 16be 59cf 3dbe 525f 3abe
000003a0: 130f ca3d 6cf4 34be 5dbf 53be 452c b2bd
000003b0: 8fd7 6ebe 45cf fcbe 6657 8d3d ea29 b6bd
000003c0: 02d1 463e ae0d 55be 87f4 333c 3547 b4be
000003d0: 7a04 b2be 71fb fb3d fc2d 84bd 3732 99bc
000003e0: eca1 2dbc 03d1 ddbd 69dd 0c3e f533 ddbe
000003f0: b8db 14be b479 c2be a574 02be 74cd 31bd

network_body._body_endoder.seq_layers.0.bias f4 [128]
-0.13884585 0.05817415 0.05515387 0.051484574 0.10902984 -0.08129411 -0.22309105 -0.17783177
0.0134206535 0.037601463 -0.25899178 0.04704548 0.047551315 -0.1792886 0.020472044 0.029567447
0.054452054 0.0082394425 0.22673374 0.09402332 0.034720417 0.037811212 -0.034805827 0.033605095
-0.038041055 -0.0052053714 -0.5918506 -0.10481988 0.04500818 -0.024815295 0.029791268 -0.10223375
-0.22986196 -0.008183018 0.005950289 -0.10016681 0.08120322 0.07557078 -0.16236784 -0.01326696
-0.058994465 -0.09420032 -0.072750926 0.28084877 -0.043792423 -0.13118865 0.32478386 -0.0027051982
-0.13866302 0.16871846 -0.119927965 0.06594006 0.09652379 0.11129052 0.04965563 -0.07299075
-0.17590337 0.1765133 -0.023562701 -0.09906683 0.05806482 -0.07149442 -0.06195936 -0.16700193
0.1949457 0.30562088 -0.047052324 0.059423756 0.11512904 -0.14054339 0.04512367 -0.15552236
-0.41307557 -0.041412253 -0.20599572 0.035496023 -0.12952447 -0.017998707 0.006724562 0.15098299
0.00051237235 0.11407324 0.12484165 -0.0015295523 -0.19668631 0.16373666 0.18457814 -0.12377367
0.05240167 0.039322894 0.11205307 0.048890922 -0.0417694 -0.20548527 -0.04320613 0.028746262
-0.3149456 0.06941903 -0.05283262 0.15894471 -0.20103176 -0.06888877 0.0822677 0.12225691
0.050774723 -0.08783328 0.29980782 0.05308444 0.043573678 0.11380837 -0.043004166 0.007798576
-0.19440262 -0.09822966 0.08677227 0.100524604 0.10269024 -0.10604997 0.11771016 0.14883998
-0.0074952026 -0.015884422 -0.067334615 -0.34383222 0.14286053 0.02921865 0.050794348 0.123751625
00000000: 9b2d 0ebe 0448 6e3d 06e9 613d 7de1 523d
00000010: 094b df3d 877d a6bd fb71 64be 8819 36be
00000020: 4de2 5b3c fe03 1a3d 929a 84be c3b2 403d
00000030: 2bc5 423d 6e97 37be fdb4 a73c 6e37 f23c
00000040: 1e09 5f3d bafe 063c e42c 683e 4c8f c03d
00000050: ff36 0e3d eedf 1a3d 8e90 0ebd 7fa5 093d
00000060: f0d0 1bbd d291 aabb 8583 17bf ceab d6bd
00000070: 7f5a 383d 7249 cbbc d10c f43c ee5f d1bd
00000080: ef60 6bbe 1112 06bc a4fa c23b 4224 cdbd
00000090: e04d a63d dac4 9a3d c143 26be aa5d 59bc
000000a0: 2ea4 71bd 19ec c0bd 70fe 94bd 69cb 8f3e
000000b0: af5f 33bd 5156 06be 124a a63e b249 31bb
000000c0: aefd 0dbe 88c4 2c3e cb9c f5bd 950b 873d
000000d0: 44ae c53d 49ec e33d b463 4b3d 2d7c 95bd
000000e0: 0320 34be e7bf 343e 9106 c1bc 8de3 cabd
000000f0: 60d5 6d3d ab6b 92bd 19c9 7dbd 8e02 2bbe
00000100: d89f 473e 577a 9c3e f0b9 40bd 5366 733d
00000110: c6c8 eb3d 9bea 0fbe 99d3 383d 4141 1fbe
00000120: a47e d3be e59f 29bd 8bf0 52be 4764 113d
00000130: 10a2 04be 0672 93bc b759 dc3b 499b 1a3e
00000140: ba50 063a 3b9f e93d fbac ff3d 427b c8ba
00000150: 2368 49be 95aa 273e 0d02 3d3e 0d7d fdbd
00000160: 22a3 563d 0b11 213d 147c e53d d941 483d
00000170: 6416 2bbd bb6a 52be e9f8 30bd 487d eb3c
00000180: 8d40 a1be 902b 8e3d 0467 58bd 67c2 223e
00000190: 45db 4dbe 8e15 8dbd f87b a83d d561 fa3d
000001a0: 28f9 4f3d efe1 b3bd 6980 993e 126f 593d
000001b0: 507a 323d 5d14 e93d 2325 30bd 328b ff3b
000001c0: 7b11 47be a22c c9bd a9b5 b13d d8df cd3d
000001d0: 434f d23d ba30 d9bd 0612 f13d 8269 183e
000001e0: 519a f5bb 0c20 82bc bbe6 89bd c70a b0be
000001f0: 084a 123e f35b ef3c bc0d 503d 7e71 fd3d

network_body._body_endoder.seq_layers.2.weight f4 [128, 128]
-0.07003924 0.20119397 -0.25268298 0.057032015 -0.22373992 0.061671503 -0.042622823 -0.2526635
0.12152496 0.05142002 -0.11439278 -0.27478212 -0.048880056 -0.02210192 0.07386156 -0.2900594
-0.07936809 -0.065725975 -0.02058959 0.044277843 0.040139686 -0.2035683 0.25960863 -0.15770939
0.16749905 0.1523606 0.21142386 0.034272753 0.08489803 0.16020243 -0.20727059 0.09261161
0.095571704 0.0077638486 0.11443517 0.07924959 -0.15559788 -0.06543815 -0.06438766 -0.007866438
0.22031744 0.060751446 -0.017292064 -0.04366414 0.017942041 -0.11116375 -0.05088743 0.36427617
-0.28782707 -0.037530538 0.047764823 0.0003589564 -0.047015537 -0.15814157 0.2106127 0.122147396
-0.28545985 -0.0930297 0.11667876 -0.13588968 -0.11355564 0.29245144 -0.057042066 0.03126826
0.03536253 -0.051963005 0.15755649 0.062477443 0.21220161 -0.09566764 -0.051805124 0.18670134
-0.08982467 0.0811598 -0.20766552 0.07626571 0.095801525 -0.0034493783 -0.05716409 -0.15616965
0.03278144 -0.2529459 0.12283741 -0.065782934 -0.10792527 -0.06396921 -0.15811989 -0.1149292
-0.088500604 -0.047166906 -0.015325717 0.13075787 -0.13693883 -0.09103118 -0.10577661 0.061232664
0.0037923595 0.45875508 -0.101512365 -0.0053907866 -0.11205525 0.010217347 0.18807662 -0.029646523
-0.22398803 0.1362406 0.048266917 -0.1468256 0.25552154 0.045558948 0.048364446 -0.13769588
-0.025634713 0.045657143 0.24532394 0.0062367427 0.049543757 -0.03448843 0.06005133 0.096267425
0.16161865 -0.27776274 -0.27174193 -0.09146818 -0.0042698095 -0.07652729 -0.109529726 0.13640895
0.5686463 0.34656897 -0.2842711 -0.23161978 0.14558893 -0.32070932 0.3507172 0.034349285
0.26340577 0.30786198 0.38244623 0.009863195 0.1130838 0.45477787 0.24584092 0.31227055
-0.17429747 -0.115933664 -0.11671174 -0.18520334 -0.26881638 -0.6500181 -0.12524132 0.11381747
-0.56615996 -0.39812765 0.3693106 0.32398507 -0.11706346 0.1651283 -0.42204124 0.3197746
-0.10577627 0.003835711 -0.4492417 0.17591871 -0.18340291 0.3572629 0.26064894 0.044060893
0.6879584 0.44107458 0.10129514 0.4115988 -0.17756699 -0.0351495 -0.4627698 0.30423614
-0.3136447 -0.97482806 0.14839087 -0.579779 -0.13429464 0.13248327 -0.04955274 0.2709497
-0.082043685 -0.12169818 -0.5443784 0.024664441 0.4645525 0.02876142 -0.36916646 0.40930066
0.15529682 0.12656884 -0.1867103 -0.31372 -0.024256818 -0.35668093 0.24129955 -0.3218915
0.4066168 -0.3510688 -0.03103045 0.23503892 -0.2564955 -0.27283219 -0.4628941 -0.15202545
0.33701223 0.21263126 0.007457568 0.29857486 0.33343643 0.25421032 -0.17289685 0.49656507
-0.032876704 0.46574143 0.44704068 0.17903866 -0.2580131 -0.16887745 -0.34607896 -0.25391078
0.10475819 -0.29917076 -0.3272525 -0.37487182 0.27668694 0.3773024 -0.3477411 0.023741966
-0.30271053 0.71282685 0.046647727 -0.5271924 -0.25291917 -0.22958544 0.20061387 -0.052506134
0.29403967 -0.17852132 -0.3245979 0.14232668 -0.14693186 0.06132904 -0.2686736 -0.077662595
0.07484894 -0.15919249 -0.27047324 0.5736651 -0.6281347 -0.06856958 0.08779129 0.12896691
00000000: bc70 8fbd cb05 4e3e aa5f 81be 679a 693d
00000010: 141c 65be 429b 7c3d 4595 2ebd 1c5d 81be
00000020: 14e2 f83d cd9d 523d c346 eabd 3eb0 8cbe
00000030: 7436 48bd 160f b5bc bb44 973d aa82 94be
00000040: bd8b a2bd 579b 86bd 80ab a8bc af5c 353d
00000050: 8369 243d 3574 50be 6ceb 843e 927e 21be
00000060: df84 2b3e 6b04 1c3e 7f7f 583e 9661 0c3d
00000070: 05df ad3d 1b0c 243e be3e 54be 28ab bd3d
00000080: 19bb c33d e267 fe3b fd5c ea3d 9c4d a23d
00000090: 0d55 1fbe 7004 86bd addd 83bd 3be2 00bc
000000a0: e59a 613e 82d6 783d 16a8 8dbc 2bd9 32bd
000000b0: 30fb 923c d2a9 e3bd 566f 50bd 6882 ba3e
000000c0: 125e 93be 9fb9 19bd 0ca5 433d 5032 bc39
000000d0: 5d93 40bd ddef 21be dbaa 573e 6a28 fa3d
000000e0: cb27 92be 5b86 bebd 46f5 ee3d aa26 0bbe
000000f0: dc8f e8bd 32bc 953e f1a4 69bd 2613 003d
00000100: 4dd8 103d 29d7 54bd 7d56 213e 59e8 7f3d
00000110: 614b 593e 65ed c3bd 9c31 54bd a32e 3f3e
00000120: fff5 b7bd 1c37 a63d 45a6 54be 3231 9c3d
00000130: 9733 c43d f70e 62bb e524 6abd f0ea 1fbe
00000140: d545 063d 2082 81be 2e92 fb3d 34b9 86bd
00000150: ed07 ddbd 4a02 83bd 2eea 21be 0060 ebbd
00000160: ce3f b5bd 1632 41bd b718 7bbc 64e5 053e
00000170: b139 0cbe 8e6e babd 68a1 d8bd 1acf 7a3d
00000180: 3c89 783b f2e1 ea3e b7e5 cfbd 32a5 b0bb
00000190: 397d e5bd a966 273c 2897 403e 44dd f2bc
000001a0: 1e5d 65be a882 0b3e 88b3 453d 7359 16be
000001b0: b8d3 823e 059c 3a3d cc19 463d 2600 0dbe
000001c0: e4ff d1bc fc02 3b3d 3336 7b3e 975d cc3b
000001d0: 65ee 4a3d bd43 0dbd 62f8 753d db27 c53d
000001e0: 5c7f 253e eb36 8ebe c221 8bbe ab53 bbbd
000001f0: c2e9 8bbb 57ba 9cbd 1f51 e0bd caae 0b3e
00000200: ce92 113f 7d71 b13e fb8b 91be bc2d 6dbe
00000210: 4415 153e 0334 a4be 3491 b33e d6b1 0c3d
00000220: 1fdd 863e 16a0 9d3e fecf c33e 3d99 213c
00000230: 7b98 e73d a5d8 e83e b9bd 7b3e ede1 9f3e
00000240: 097b 32be a16e edbd 9106 efbd f2a5 3dbe
00000250: 4da2 89be 9667 26bf 433f 00be 2219 e93d
00000260: dcef 10bf 63d7 cbbe 4716 bd3e 5fe1 a53e
00000270: f8be efbd 6517 293e ca15 d8be 7fb9 a33e
00000280: 3ba1 d8bd 8d60 7b3b 0203 e6be 0924 343e
00000290: f9cd 3bbe 2aeb b63e c773 853e 3279 343d
000002a0: 0b1e 303f 87d4 e13e d473 cf3d 14bd d23e
000002b0: 1fd4 35be ecf8 0fbd 2af0 ecbe d7c4 9b3e
000002c0: 0a96 a0be 558e 79bf c7f3 173e 666c 14bf
000002d0: 8984 09be b2a9 073e d0f7 4abd ebb9 8a3e
000002e0: 8506 a8bd e53c f9bd 625c 0bbf 150d ca3c
000002f0: d3d9 ed3e 129d eb3c 6303 bdbe db8f d13e
00000300: 2106 1f3e 439b 013e fc30 3fbe e89f a0be
00000310: 3cb6 c6bc e29e b6be 3b17 773e f6ce a4be
00000320: 1430 d03e 4abf b3be 9233 febc 0bae 703e
00000330: 6153 83be a9b0 8bbe 7500 edbe 8fac 1bbe
00000340: de8c ac3e 02bc 593e 9d5e f43b cede 983e
00000350: 2eb8 aa3e db27 823e df0b 31be c73d fe3e
00000360: b9a9 06bd a975 ee3e 84e2 e43e e955 373e
00000370: 4b1a 84be 36ee 2cbe 4331 b1be 9800 82be
00000380: 768b d63d e92c 99be a48d a7be 33ef bfbe
00000390: e9a9 8d3e c82d c13e 1f0b b2be 837e c23c
000003a0: e0fc 9abe d27b 363f b011 3f3d 15f6 06bf
000003b0: 9f7e 81be 7218 6bbe b96d 4d3e ac10 57bd
000003c0: 5e8c 963e 4bce 36be b231 a6be 16be 113e
000003d0: 4e75 16be 2934 7b3d 968f 89be 910d 9fbd
000003e0: 674a 993d 5b03 23be 787b 8abe b7db 123f
000003f0: 70cd 20bf 356e 8cbd ebcb b33d e70f 043e

network_body._body_endoder.seq_layers.2.bias f4 [128]
-0.03129939 -0.10280289 -0.026606135 -0.14202239 0.1153982 -0.28885227 0.036844008 0.11530393
-0.061900694 0.07952777 0.10096501 0.14635073 -0.087510064 -0.062736034 0.04230829 -0.0005464208
-0.36250195 -0.09490746 0.101261735 -0.18718472 -0.012153205 -0.010899267 0.1595593 0.15401465
0.056598317 -0.08772688 -0.17250143 0.17548218 -0.046000056 0.07024419 0.08921514 -0.057856284
-0.23172586 0.21907246 -0.10926856 -0.10623255 -0.02258912 -0.097197615 0.065616034 0.04676715
-0.2399378 -0.16221818 -0.028987875 -0.10263877 -0.03282805 -0.33867195 0.09102533 -0.079497986
0.13625383 -0.3024891 -0.30323097 0.041664496 0.20247445 -0.023476675 -0.06417293 0.042055324
-0.05597152 -0.22257335 0.029427717 -0.13939044 0.09846598 -0.32524127 0.15930915 -0.019064363
0.15367252 -0.19244052 -0.35027018 -0.052209035 -0.08184428 -0.077076465 0.2650214 -0.07989978
0.09207989 -0.014473091 0.053200133 0.31715372 0.1642107 0.054516234 -0.29073307 -0.04287327
-0.23926528 0.012418187 0.03335553 -0.26044932 0.017284932 -0.13146694 0.100068465 -0.013865613
0.044449907 0.057358168 -0.07640013 0.10565606 -0.00806466 -0.2969696 0.028667828 0.32273787
-0.053686894 -0.18628046 -0.024979971 0.02665805 -0.090163104 -0.021928467 0.069413245 -0.07099534
-0.060335033 -0.10800371 -0.04483414 -0.10421919 -0.18046059 -0.15985283 0.026397316 -0.042086832
0.013565546 0.1272272 -0.09253257 0.066408165 -0.097207345 -0.03945049 -0.22498652 0.05032531
-0.025936615 0.054073576 -0.040074013 -0.015055076 0.11058433 -0.13608232 0.09907904 0.09492669
00000000: ca33 00bd 528a d2bd 1cf5 d9bc 516e 11be
00000010: e455 ec3d 72e4 93be bee9 163d 7824 ec3d
00000020: 958b 7dbd 75df a23d bec6 ce3d f7dc 153e
00000030: 7a38 b3bd c07b 80bd 754b 2d3d ae3d 0fba
00000040: db99 b9be d85e c2bd 5062 cf3d 5aad 3fbe
00000050: 3d1e 47bc d792 32bc 8363 233e 04b6 1d3e
00000060: a3d3 673d 27aa b3bd 37a4 30be 9ab1 333e
00000070: 8e6a 3cbd 30dc 8f3d 6db6 b63d b6fa 6cbd
00000080: 8b49 6dbe 8854 603e 32c8 dfbd 7490 d9bd
00000090: d10c b9bc 8b0f c7bd b361 863d e98e 3f3d
000000a0: 41b2 75be 861c 26be fb77 edbc 4734 d2bd
000000b0: b576 06bd 6966 adbe 7d6b ba3d d7cf a2bd
000000c0: 2086 0b3e dadf 9abe 1741 9bbe 64a8 2a3d
000000d0: 7655 4f3e 2852 c0bc 196d 83bd 3442 2c3d
000000e0: 6442 65bd 45ea 63be 6512 f13c 5ebc 0ebe
000000f0: 88a8 c93d 0686 a6be f021 233e de2c 9cbc
00000100: 545c 1d3e 210f 45be 9d56 b3be 24d9 55bd
00000110: f99d a7bd 44da 9dbd e3b0 873e 7fa2 a3bd
00000120: 6294 bc3d 8b20 6dbc 62e8 593d f961 a23e
00000130: da26 283e 6a4c 5f3d f7da 94be e29b 2fbd
00000140: f501 75be a775 4b3c cf9f 083d 9d59 85be
00000150: 2199 8d3c 459f 06be b2f0 cc3d 992c 63bc
00000160: 1b11 363d 66f0 6a3d ac77 9cbd 3462 d83d
00000170: a321 04bc 660c 98be cbd8 ea3c e63d a53e
00000180: cae6 5bbd 4ec0 3ebe cca2 ccbc fc61 da3c
00000190: 6fa7 b8bd 54a3 b3bc 8828 8e3d 0166 91bd
000001a0: de21 77bd 0d31 ddbd 01a4 37bd df70 d5bd
000001b0: a9ca 38be 76b0 23be 2f3f d83c 3e63 2cbd
000001c0: 0642 5e3c d947 023e b781 bdbd 0101 883d
000001d0: a514 c7bd d696 21bd de62 66be ea21 4e3d
000001e0: 0679 d4bc 417c 5d3d a624 24bd 91a9 76bc
000001f0: 0a7a e23d 2a59 0bbe f4e9 ca3d ed68 c23d

action_model._continuous_distribution.mu.weight f4 [2, 128]
-0.15581922 -0.078484304 0.07543524 0.061816633 0.01782934 -0.17834625 0.07753898 -0.054111782
0.00054891367 0.018158814 -0.16026956 0.061143577 -0.10725663 0.025142772 0.12501812 -0.0028734803
0.096901424 0.06326672 -0.07305155 -0.0018322463 0.007802295 0.0072362013 -0.28206527 -0.011185956
-0.09423078 -0.14062475 0.16180368 -0.10038704 -0.111315586 -0.102284655 0.118819565 0.18903664
0.13557798 -0.11961621 0.19223101 -0.16438444 -0.09449006 0.026157493 -0.03511987 -0.03390157
0.106176466 0.251781 0.15370643 -0.103846885 0.17022824 0.04427789 -0.04960089 -0.15467516
-0.005359841 0.0753034 -0.13707691 0.040305477 0.14594366 0.09705561 0.09738904 0.011939834
0.16450438 0.2376715 -0.08030265 -0.019409638 0.0019135027 0.07781887 -0.16034052 -0.034028728
-0.050461408 0.03316708 -0.03398418 0.008703479 0.05034043 -0.13112639 -0.14865297 -0.059428893
0.04754604 0.07587199 0.028483469 -0.13668881 0.01131461 -0.11826005 0.21174394 -0.05562489
0.012993541 0.10361926 0.12694532 -0.023937562 0.0071979584 0.07426642 -0.06700949 0.052385613
0.13309918 0.042706057 -0.089091025 0.31366825 -0.20026955 -0.0764422 0.106262006 0.026340857
0.052768026 0.15017612 -0.11834423 0.093877375 0.15824832 -0.05677544 -0.025998138 -0.11920908
0.18760361 -0.1086289 0.17025733 0.10725161 -0.066763334 -0.180488 -0.002735945 0.050163522
-0.068151996 -0.05974227 0.15829003 0.055440586 0.013452279 -0.010405197 -0.13092428 -0.0667295
-0.04242705 -0.009428484 0.055799987 -0.14725257 0.086524524 0.09530316 0.13860191 -0.013910716
0.017384598 -0.22986849 0.08584677 -0.12961043 0.078485936 0.08366982 0.02108076 -0.100307725
-0.11261632 0.32207182 -0.14209488 0.16804643 -0.1544868 -0.023191892 0.081067644 0.04783531
0.009401725 -0.05772748 -0.018308342 0.013042697 0.019993668 -0.08360905 0.23596625 0.04832047
-0.2173696 -0.102040716 0.045061607 0.13101555 0.29719144 0.10469486 0.035526093 -0.032658353
-0.19628723 0.09248953 -0.22861978 -0.020719618 -0.069686346 -0.024843225 -0.082173616 0.072278954
0.13893382 0.07843272 -0.09741249 -0.10863375 -0.018180398 -0.2569402 -0.08894829 -0.08362091
0.16739847 -0.060951807 0.07887946 0.05176739 0.3342576 -0.18345015 0.028761491 -0.159652
0.05008393 -0.110757634 0.06663789 -0.35729405 -0.10060387 -0.025427308 -0.16784267 0.012134349
0.057233676 -0.2559612 -0.099533506 -0.20599587 0.01560214 0.092342444 0.15078841 -0.17017488
0.14940639 -0.006767786 0.074974254 0.11730898 -0.16631831 0.015894514 0.10719949 -0.08811282
-0.21460742 0.10655296 -0.0101908 -0.11042447 -0.1940684 -0.1495762 -0.05775385 0.031678822
-0.10144207 -0.03266035 0.18699524 0.3306734 -0.036502734 -0.22646081 -0.16927345 0.028662512
0.0817156 -0.052955084 -0.083281815 -0.11980094 -0.031469386 0.033309307 0.10109124 0.04315742
-0.15529598 -0.073788874 -0.021536985 -0.052918743 -0.33724415 -0.02865939 -0.10381522 -0.067771114
-0.16627371 0.040104248 -0.14498927 0.1610926 0.060929105 0.08902041 -0.16519333 -0.10419173
-0.02568912 -0.00027458137 0.061411582 0.041970026 -0.0051260926 -0.10136812 -0.014475583 0.10653477
00000000: 138f 1fbe 61bc a0bd cb7d 9a3d 7033 7d3d
00000010: d60e 923c 66a0 36be c2cc 9e3d 51a4 5dbd
00000020: f9e4 0f3a cbc1 943c b41d 24be b071 7a3d
00000030: 5da9 dbbd 37f8 cd3c c004 003e 0051 3cbb
00000040: 4174 c63d fb91 813d 0d9c 95bd fc27 f0ba
00000050: 65aa ff3b a81d ed3b dc6a 90be 4d45 37bc
00000060: 11fc c0bd efff 0fbe ddaf 253e b897 cdbd
00000070: 6df9 e3bd 9e7a d1bd ac57 f33d d292 413e
00000080: f4d4 0a3e 58f9 f4bd 35d8 443e 6554 28be
00000090: 0184 c1bd 3d48 d63c dad9 0fbd 5fdc 0abd
000000a0: 0c73 d93d 70e9 803e 3865 1d3e adad d4bd
000000b0: 5050 2e3e bc5c 353d 4e2a 4bbd 2a63 1ebe
000000c0: 9ba1 afbb ab38 9a3d e45d 0cbe 5b17 253d
000000d0: 4172 153e 17c5 c63d e873 c73d 4b9f 433c
000000e0: d673 283e 2860 733e b775 a4bd f600 9fbc
000000f0: 7fce fa3a 805f 9f3d 4e30 24be b561 0bbd
00000100: 9fb0 4ebd 34da 073d ff32 0bbd 0999 0e3c
00000110: c431 4e3d ff45 06be 7c38 18be b66b 73bd
00000120: a3bf 423d c662 9b3d 2a56 e93c 27f8 0bbe
00000130: ea60 393c 5332 f2bd 67d3 583e edd6 63bd
00000140: dce2 543c 5636 d43d f4fd 013e b518 c4bc
00000150: dadc eb3b fe18 983d 463c 89bd 4c92 563d
00000160: 274b 083e 8cec 2e3d 5b75 b6bd 2099 a03e
00000170: 7613 4dbe ba8d 9cbd e59f d93d c8c8 d73c
00000180: 4923 583d c5c7 193e 765e f2bd c842 c03d
00000190: d90b 223e 5d8d 68bd 0cfa d4bc e423 f4bd
000001a0: 291b 403e d478 debd f057 2e3e bba6 db3d
000001b0: 37bb 88bd d9d1 38be 8a4d 33bb 4478 4d3d
000001c0: 4693 8bbd 4fb4 74bd c816 223e ab15 633d
000001d0: f366 5c3c 8f7a 2abc 0411 06be 7aa9 88bd
000001e0: fdc7 2dbd ee79 1abc 878e 643d 61c9 16be
000001f0: c533 b13d 4e2e c33d a9ed 0d3e c6e9 63bc
00000200: 256a 8e3c a562 6bbe 6ed0 af3d 99b8 04be
00000210: 3cbd a03d 155b ab3d 8fb1 ac3c 236e cdbd
00000220: 63a3 e6bd 99e6 a43e 5281 11be 5d14 2c3e
00000230: ca31 1ebe ecfc bdbc cb06 a63d f5ee 433d
00000240: b109 1a3c a673 6cbd 60fb 95bc 09b1 553c
00000250: c3c9 a33c 393b abbd 23a1 713e afeb 453d
00000260: 2396 5ebe b9fa d0bd 8592 383d f128 063e
00000270: 7a29 983e 426a d63d cf83 113d c4c4 05bd
00000280: 85ff 48be 276b bd3d 4e1b 6abe 30bc a9bc
00000290: b7b7 8ebd 0584 cbbc a44a a8bd fd06 943d
000002a0: ab44 0e3e 55a1 a03d 3380 c7bd 5f7b debd
000002b0: 0fef 94bc aa8d 83be 852a b6bd 7141 abbd
000002c0: 816a 2b3e 9aa8 79bd 8e8b a13d 0b0a 543d
000002d0: d023 ab3e 5bda 3bbe 389d eb3c d07b 23be
000002e0: cf24 4d3d e6d4 e2bd 7279 883d 3fef b6be
000002f0: 6709 cebd ee4c d0bc f3de 2bbe 26cf 463c
00000300: dc6d 6a3d 590d 83be 39d8 cbbd 95f0 52be
00000310: 1ea0 7f3c 091e bd3d 4768 1a3e 5342 2ebe
00000320: fdfd 183e 4ec4 ddbb 1a8c 993d b13f f03d
00000330: 594f 2abe 3635 823c 688b db3d 7f74 b4bd
00000340: 0cc2 5bbe 7038 da3d 50f7 26bc 3926 e2bd
00000350: deb9 46be 812a 19be 4d8f 6cbd a7c1 013d
00000360: dcc0 cfbd dcc6 05bd ae7b 3f3e 064e a93e
00000370: e483 15bd 58e5 67be 0556 2dbe a5cd ea3c
00000380: 825a a73d 6ee7 58bd a88f aabd 325a f5bd
00000390: 0be6 00bd 576f 083d ed08 cf3d d6c5 303d
000003a0: e905 1fbe 9f1e 97bd 556e b0bc 53c1 58bd
000003b0: 44ab acbe 19c7 eabc 139d d4bd 95cb 8abd
000003c0: a843 2abe 5a44 243d 1178 14be 75f5 243e
000003d0: cc90 793d 5550 b63d 7128 29be 7962 d5bd
000003e0: fd71 d2bc b0f5 8fb9 b68a 7b3d c3e8 2b3d
000003f0: c8f8 a7bb 179a cfbd ff2a 6dbc e72e da3d

action_model._continuous_distribution.mu.bias f4 [2]
-0.03285612 0.041939463
00000000: 2494 06bd b7c8 2b3d

action_model._continuous_distribution.log_sigma.weight f4 [2, 128]
0.089993745 -0.031105753 0.010499229 0.0875651 -0.002136983 0.05171817 -0.026547557 -0.0045888945
0.13304462 -0.052001514 0.12954253 -0.032926288 -0.036829263 0.1437364 0.13396446 0.029587807
0.4385774 0.006637396 -0.02527414 0.29765326 -0.010491609 -0.026673336 -0.016111046 0.030393083
-0.16648567 -0.06515782 -0.0038950641 0.04410404 0.07443877 0.14658183 0.0071801865 -0.20567192
0.081880376 -0.015765822 0.26294407 0.19423626 0.15242784 0.034445938 -0.22125511 -0.015140019
-0.03875339 0.034408975 0.24094608 0.017999802 0.055312164 0.16341238 -0.08340576 0.102804884
0.043914992 0.4202895 0.39633942 -0.098405875 0.0068887044 -0.14785543 -0.08328374 -0.0050310683
0.14888608 0.0910114 -0.05714413 0.05396693 -0.13355617 0.30915576 -0.036388364 -0.21101816
-0.14453185 -0.020741235 0.21988222 0.10988132 -0.030629484 -0.014213824 -0.2068084 0.21562262
-5.987295e-05 -0.018951582 -0.015282685 -0.20994341 -0.114621736 -0.12224476 0.034920905 0.13405125
0.057825904 0.15482573 -0.0240224 0.30698112 -0.0284459 0.07736804 -0.10644828 -0.02530251
-0.034616742 0.17699279 -0.02616902 0.28093693 -0.14357613 0.15179907 0.016769713 -0.32724175
-0.008283568 0.12506619 0.1359654 0.036527105 -0.003382112 0.00565475 -0.07896853 0.0024106507
0.11731192 0.101636074 0.094494976 0.11919143 0.12929031 0.13195375 -0.1253805 0.16740873
-0.12044483 -0.062850475 0.047372956 0.13777089 0.11252824 -0.10616987 0.081127904 0.06219985
-0.056449473 -0.17056707 0.15338954 -0.099769235 -0.23773779 0.01163217 -0.12003603 -0.081369616
-0.04081315 0.1151625 -0.05173794 0.039645217 -0.11602012 0.0039285985 -0.052095395 -0.104938
-0.07514636 0.08744207 -0.010422706 0.098782 0.08209652 -0.093225315 0.017568521 0.06475953
0.33915573 0.10943633 -0.0030355705 0.20057552 -0.19156574 0.07084731 0.3001664 -0.08956701
-0.18632169 -0.051985204 -0.088221945 0.08413997 0.026773687 0.050972793 0.009453616 -0.0814752
0.10437054 -0.18035713 -0.10975345 0.0770044 -0.04714422 0.013529179 -0.11947319 -0.084557995
0.07188859 0.08983483 -0.023018477 -0.060245767 -0.109370604 0.07225119 -0.13782424 -0.0005175108
0.03135736 0.24695738 0.24597682 -0.11968623 0.34055805 -0.04930886 0.0123538785 0.08077157
0.2691226 0.056517046 -0.037514336 -0.46709016 -0.34706822 0.5374919 0.09908108 0.2128703
-0.04779525 0.13871595 0.40768012 0.072217934 -0.072473764 0.061470743 -0.14103936 -0.04452072
0.034977242 -0.07947918 -0.009690644 0.020246953 -0.038139433 -0.104539886 0.093478166 0.0907652
0.2210691 0.1337917 0.012430676 0.3609879 3.097708e-05 -0.0073405686 -0.024295451 -0.19793266
0.04291576 -0.06918179 0.061670966 -0.06495173 -0.031153187 0.1364016 -0.043582007 -0.31199586
-0.047463205 0.10366682 0.09910993 -0.0083979685 -0.07472092 -0.017925104 0.00961397 0.032443736
-0.016613167 0.11300839 0.0068467106 0.1305641 0.0013187523 0.03326846 -0.23294824 -0.076823935
0.018153524 -0.02847354 0.061720867 0.10221758 -0.012787878 -0.052116144 0.048171505 0.059002273
0.03883912 -0.08678435 0.12536487 0.021739744 -0.12784891 -0.056935832 -0.11253118 0.14235309
00000000: a44e b83d 7ed1 febc f504 2c3c 5555 b33d
00000010: a00c 0cbb 6fd6 533d 437a d9bc 705e 96bb
00000020: d93c 083e 8aff 54bd cca6 043e b7dd 06bd
00000030: 48da 16bd a32f 133e fb2d 093e 2162 f23c
00000040: 388d e03e 837e d93b b70b cfbc 0266 983e
00000050: ffe4 2bbc 0a82 dabc 50fb 83bc eafa f83c
00000060: 387b 2abe 7771 85bd 5544 7fbb 70a6 343d
00000070: 5b73 983d 8c19 163e c547 eb3b a99b 52be
00000080: e6b0 a73d 5327 81bc 9ba0 863e dfe5 463e
00000090: 0b16 1c3e 2f17 0d3d b390 62be d80d 78bc
000000a0: e0bb 1ebd 6df0 0c3d 92ba 763e 5274 933c
000000b0: 028f 623d 9355 273e a4d0 aabd 5e8b d23d
000000c0: 35e0 333d 2f30 d73e 00ed ca3e 0589 c9bd
000000d0: a4ba e13b 6a67 17be aa90 aabd a9db a4bb
000000e0: 9875 183e 2f64 ba3d f70f 6abd 6d0c 5d3d
000000f0: f3c2 08be aa49 9e3e f70b 15bd 2515 58be
00000100: 2800 14be 86e9 a9bc ce28 613e 7509 e13d
00000110: afea fabc 19e1 68bc 95c5 53be 2dcc 5c3e
00000120: 1720 7bb8 5940 9bbc 3a64 7abc 68fb 56be
00000130: cdbe eabd 765b fabd 3909 0f3d bb44 093e
00000140: dbda 6c3d a38a 1e3e a0ca c4bc a12c 9d3e
00000150: 6007 e9bc 2373 9e3d 8e01 dabd 3647 cfbc
00000160: 49ca 0dbd 993d 353e 6a60 d6bc f7d6 8f3e
00000170: 9f05 13be 3771 1b3e a360 893c 3b8c a7be
00000180: cdb7 07bc 5a11 003e 843a 0b3e 729d 153d
00000190: 6ca6 5dbb 7b4b b93b 41ba a1bd 02fc 1d3b
000001a0: 3b41 f03d 9326 d03d 9586 c13d a31a f43d
000001b0: ae64 043e e21e 073e bf63 00be 326d 2b3e
000001c0: c7ab f6bd c0b7 80bd 250a 423d d013 0d3e
000001d0: 3575 e63d 976f d9bd 6326 a63d 45c5 7e3d
000001e0: 9037 67bd 22a9 2ebe 2612 1d3e d053 ccbd
000001f0: 8971 73be db94 3e3c 73d5 f5bd 1da5 a6bd
00000200: b12b 27bd 51da eb3d 2aeb 53bd 0663 223d
00000210: f59b edbd 79bb 803b fb61 55bd bce9 d6bd
00000220: 56e6 99bd d414 b33d ffc3 2abc 384e ca3d
00000230: 3822 a83d eaec bebd dceb 8f3c a5a0 843d
00000240: d2a5 ad3e 2820 e03d 6cf0 46bb ab63 4d3e
00000250: cf29 44be 6518 913d 69af 993e e96e b7bd
00000260: 1dcb 3ebe 70ee 54bd b5ad b4bd 9451 ac3d
00000270: 7e54 db3c d9c8 503d 57e3 1a3c 78dc a6bd
00000280: 39c0 d53d 8aaf 38be 6bc6 e0bd 7cb4 9d3d
00000290: 4c1a 41bd 7da9 5d3c 5cae f4bd be2c adbd
000002a0: 533a 933d 53fb b73d 3f91 bcbc 44c4 76bd
000002b0: b2fd dfbd 6ff8 933d cc21 0dbe 90a9 07ba
000002c0: 9370 003d 65e2 7c3e 59e1 7b3e 0e1e f5bd
000002d0: a05d ae3e 16f8 49bd ec67 4a3c 916b a53d
000002e0: 70ca 893e 6b7e 673d a2a8 19bd 7126 efbe
000002f0: edb2 b1be 1299 093f 05eb ca3d acfa 593e
00000300: f4c4 43bd 8e0b 0e3e 73bb d03e ffe6 933d
00000310: 206d 94bd bfc8 7b3d 9f6c 10be 5c5b 36bd
00000320: 4c44 0f3d fbc5 a2bd 82c5 1ebc f0dc a53c
00000330: 1838 1cbd 0219 d6bd 7b71 bf3d 1be3 b93d
00000340: f05f 623e b100 093e 09aa 4b3c 68d3 b83e
00000350: 63ed 0138 2789 f0bb 4107 c7bc dcae 4abe
00000360: 70c8 2f3d 2faf 8dbd b29a 7c3d 6a05 85bd
00000370: f834 ffbc dcac 0b3e 0c83 32bd ecbd 9fbe
00000380: c768 42bd 454f d43d 26fa ca3d a297 09bc
00000390: 4807 99bd abd7 92bc ea83 1d3c b9e3 043d
000003a0: 5618 88bc f170 e73d 5f5a e03b 98b2 053e
000003b0: fcd9 ac3a 8244 083d fc89 6ebe de55 9dbd
000003c0: b3b6 943c 5741 e9bc 05cf 7c3d 7357 d13d
000003d0: 3f84 51bc bd77 55bd 7c4f 453d 5eac 713d
000003e0: c515 1f3d febb b1bd a65f 003e 8c17 b23c
000003f0: d3ea 02be 8c35 69bd bf76 e6bd 02c5 113e

action_model._continuous_distribution.log_sigma.bias f4 [2]
-0.4817712 -0.4596058
00000000: b7aa f6be 7451 ebbe
