Experimentos/results/ppo1/KartAgent/KartAgent-499683.onnx (onnx, 309439 bytes, 13 tensors)

network_body.observation_encoder.processors.0.normalizer.running_mean f4 [20]
00000000: 778e 383f 2d56 1d3e 6163 473c f2e8 df3d
00000010: a663 2b3f 972b 5e3e 749d 973b 93f4 163e
00000020: 405d 373f 952a 403e cebf cf3b 3c4b 123e
00000030: 6f8a 163f 6b32 a73e 871f 953b 179e 8d3e
00000040: d4bb 0a3f b3cf c53e 84e4 023c e6bb 833e
0.72092384 0.15364905 0.01216969 0.10933103 0.66948926 0.21696316 0.004626924 0.14741735
0.71626663 0.18766244 0.0063400036 0.14286512 0.5880498 0.32655653 0.0045508775 0.27659675
0.5419285 0.38635024 0.007989053 0.25729293

network_body.observation_encoder.processors.1.normalizer.running_mean f4 [12]
00000000: fed1 c23e 75b4 373e d552 a13e e65e c53e
00000010: 834c c23e 58fb 393e 70ca 9d3e 10ab c13e
00000020: ce02 c43e 1aed 343e 20e8 a43e d111 c93e
0.38050836 0.17939933 0.31508508 0.38548964 0.37949 0.18162286 0.3081851 0.37825823
0.3828339 0.17668572 0.32208347 0.39271405

network_body.observation_encoder.processors.2.normalizer.running_mean f4 [3]
00000000: 3c31 513e 7cc6 053d e3d2 16be
0.20428938 0.032659993 -0.14728884

network_body._body_endoder.seq_layers.0.weight f4 [256, 35]
00000000: 0389 043e 7220 abbd e918 1a3e fb8a 293c
00000010: 3a8e 003e 46f4 4fbe 0cbd 7ebd 9d12 14be
00000020: 2473 9b3d e145 003e ae0b c43e e31c 003e
00000030: 7ecf 343c 3d75 e2bc 0489 4d3c 7d25 86bc
00000040: e63f 033e a205 903e 73e0 00bd a003 f539
00000050: 26c4 c7bd d197 ae3d f1cf 323c c10b 67be
00000060: 651d 763e 5351 8f3d 8896 70bd c135 a5be
00000070: 5d57 4cbe 4efb 4a3e 5919 f83e 2188 293e
00000080: 9e25 e73e bd33 de3e 4bf6 4e3e 0e1b 1f3e
00000090: d26b 253e 6248 ba3c 53f3 a93c a332 81be
000000a0: ebe0 17be 6e15 1b3d 481a 203e c815 bc3c
000000b0: 11c4 4f3e 102f 0d3e 9c31 13bc b61f 9f3d
000000c0: b189 563d 0bec 8dbe a9e4 8dbd 9f19 4ebe
000000d0: 8eee ddbe 4f1e e23d f043 4cbd 9c48 e03d
000000e0: 3195 173e cc0f 35bc 5d3f 65bd 8345 073d
000000f0: 6288 d83d b6e9 043d 3ae8 3dbd 7c4d 5d3e
00000100: fb35 9dbe 39d7 bfbd b8de 5a3e f11c 24be
00000110: da42 3e3d 35bb 95bd 3dcb e9bd 1c11 53bd
00000120: 4ef3 ba3c aca2 eb3d 44fd 88bd 15a4 1bbd
00000130: f461 b7be 9458 483e 525d 3cbe 8a71 72bd
00000140: 8c7f 78bc 782f 243c b1b8 953e ded5 713d
00000150: 0704 8a3d b4eb 1dbe 2b3c 833d 2755 98be
00000160: 27d5 ac3d e973 ac3e 8307 d1bd eca4 643d
00000170: 9c2b f53d 7763 bb3d 6683 b1be e962 77bd
00000180: 2f24 3d3d a6ca e2bc 670d 653d 934f d53c
00000190: 2cfa eb3c a521 743e ea3f 0c3e 6684 b13d
000001a0: 3853 f93d cb55 6dbc 238c 86bd a708 243e
000001b0: 0352 d8bd 4264 fbbd d355 a23b 019e bbbd
000001c0: fb31 65bc 1174 043e 9453 8dbe a36d f0bc
000001d0: 0dba 36bd 0966 b6bb f8d6 993e 8eb6 ddbd
000001e0: 8c57 e03d c674 933c afe3 663d 52e5 fdbd
000001f0: 1f44 14be cbf0 fdbd 6804 be3d 8966 1cb9
00000200: 3d55 b93d 0a87 d73c 6eb9 a1bd f258 f2bd
00000210: 0b07 f2bd 5148 17bc 9105 273e ca85 b13c
00000220: c2d4 8e3e bd6e 78be a829 813c 7b69 4c3e
00000230: 9ae8 f0bd 99f4 00be 0445 513d 7ccb ecbd
00000240: 2a90 313e da6c 3b3e 6d8c 25be 7861 b53e
00000250: 12b9 1dbc 2c2f 9dbd 7f9f 3e3d 7ab1 9b3d
00000260: d651 093e e2d0 633d 6dd8 d93d a7cd 673e
00000270: 3148 09be dbf8 f2bd 4760 5e3e 4b27 023e
00000280: 7cf7 a13e c517 86be d413 bfbc 73ae 0b3e
00000290: 8123 db3c 5488 29be c95d 9cbe 1380 983e
000002a0: 65ce 95be df03 243d 0817 49be 246d 88bd
000002b0: f64b 723e 15f4 4cbc 2152 1bbe 3c26 b53d
000002c0: e917 633d c2c2 9dbd 9d49 fbbd 2e12 193e
000002d0: e8cc 1cbe 629d a83e 974c 1a3e 4cd4 ce3d
000002e0: 24db 8cbd 9776 6e3e 6e0c febd 01e5 85be
000002f0: a92a 203d 64a6 e0bd 647d c03d 1b0d 913d
00000300: d042 49bd b44f 37be dcc0 0f3d 1461 7c3e
00000310: 8388 1e3e 5653 363e 5eb3 5dbe 7ec6 833e
00000320: 176e 583e d7dc a43c a652 3dbe 8a23 80be
00000330: 2dc5 883e 1b85 333e b789 953d ca24 eabd
00000340: 6664 7bbe fd1d 4a3e bd47 943e 6834 ee3b
00000350: f877 78bd 5656 573d d8f4 e0bd a54b e9bd
00000360: 8e09 72bd c6db fcbc 3b37 9c3d c004 a5bd
00000370: 1c46 ae3d 91ff debe 4815 b23d 0858 353e
00000380: 792b 883e c9fe 13bb 0973 563e 9c93 413e
00000390: 485a 483d f826 adbc 4c8f f83c 97f1 23bd
000003a0: 15a8 06be 0166 32bd 31ca 9e3d ee1c 35be
000003b0: b346 643d 1116 393b 2721 73bd 0a42 09be
000003c0: a538 1f3c 0327 da3d 8d1c 2abe f358 e13d
000003d0: 0c49 8e3d 308b aabc 2c56 043e 0828 34bd
000003e0: 22a9 2dbe 3b28 bc3d a318 d83d be36 83be
000003f0: e833 433d 0c61 83bc 1499 dcbd b22b 923e
0.12942891 -0.08355798 0.15048565 0.010348077 0.12554255 -0.20308027 -0.062192008 -0.14460225
0.07590321 0.12526657 0.3829016 0.1251102 0.011035798 -0.027643794 0.012544874 -0.016375298
0.12817344 0.28129297 -0.03146405 0.00046732742 -0.09754209 0.085250504 0.010913835 -0.22563078
0.2403465 0.06997933 -0.058737308 -0.32267573 -0.19955201 0.19822428 0.4845684 0.16555835
0.45145887 0.43398848 0.20211141 0.15537664 0.16154411 0.022739593 0.020745909 -0.25233945
-0.14831893 0.037862234 0.15635026 0.022959605 0.20289637 0.13787484 -0.008983996 0.0776972
0.052377407 -0.2771915 -0.06928379 -0.20126961 -0.43346065 0.11040937 -0.049869478 0.10951349
0.14803006 -0.01105113 -0.05596863 0.033025276 0.10572888 0.032449447 -0.046364047 0.21611589
-0.30705246 -0.09367222 0.21374023 -0.16026665 0.046450473 -0.073110975 -0.11415718 -0.05152999
0.022821095 0.115056366 -0.066889316 -0.037998278 -0.3581692 0.1956504 -0.18394974 -0.05919031
-0.015167128 0.010021083 0.2924247 0.05904185 0.067390494 -0.15421945 0.064079605 -0.29752466
0.08439093 0.33682182 -0.10206511 0.055821344 0.119712085 0.09149831 -0.34670562 -0.060397062
0.046177085 -0.02768452 0.055920985 0.02603892 0.028805815 0.2384096 0.13696256 0.08667831
0.12174076 -0.014485787 -0.06569698 0.16018926 -0.105625175 -0.12274982 0.0049540787 -0.09160996
-0.013988967 0.12934901 -0.27602828 -0.029349154 -0.044611026 -0.0055663628 0.3004682 -0.10825835
0.10954198 0.018000018 0.05636948 -0.12397255 -0.14479111 -0.12399443 0.09278184 -0.00014915517
0.09049461 0.026309509 -0.07896696 -0.11833371 -0.118177496 -0.00923355 0.16310717 0.02167024
0.27896696 -0.24260993 0.015766934 0.19962113 -0.11763115 -0.12593307 0.05109121 -0.11562249
0.1734015 0.18303242 -0.1616685 0.35425925 -0.009626644 -0.07675013 0.046538826 0.0760221
0.13410124 0.055619128 0.10636983 0.22637044 -0.13406445 -0.11863872 0.21716414 0.12710302
0.31634128 -0.2619001 -0.023324884 0.13640766 0.026750328 -0.16555911 -0.30540302 0.29785213
-0.2925903 0.040042754 -0.19637692 -0.06661442 0.2366179 -0.012509366 -0.15168048 0.08845183
0.055442724 -0.07703163 -0.122699 0.14948341 -0.1531254 0.32932574 0.15068279 0.10099086
-0.06877735 0.23287426 -0.124047145 -0.2615128 0.039103184 -0.109692365 0.09398916 0.07082578
-0.049135983 -0.17901498 0.035096034 0.24646407 0.15481763 0.17805228 -0.21650454 0.25737375
0.21135746 0.020124836 -0.18488559 -0.25027114 0.26712933 0.17531244 0.07301658 -0.11432798
-0.24550018 0.19738002 0.28960982 0.007269431 -0.060661286 0.05257257 -0.109842 -0.11391381
-0.059091143 -0.030866515 0.07627722 -0.080575466 0.08509466 -0.43554357 0.08695465 0.17709363
0.26595667 -0.0022582284 0.2094232 0.18903965 0.048914224 -0.021136746 0.030341767 -0.04002532
-0.13150056 -0.04355431 0.07753409 -0.17686817 0.055731487 0.0028241912 -0.05935779 -0.13404098
0.009718095 0.10651972 -0.16612454 0.11003294 0.06947526 -0.020818323 0.12923497 -0.04398349
-0.1695905 0.09187361 0.10551574 -0.25627702 0.047656924 -0.016037486 -0.10771385 0.28548962

network_body._body_endoder.seq_layers.0.bias f4 [256]
00000000: 9947 6dbc d3fc fbbb 27ba 71bd 5e57 59bd
00000010: f371 42bc 957e f8bc 2279 2fbc cbf3 f13c
00000020: c325 f2bc 7d12 16bd 3987 0bbc 74bf 1fbc
00000030: e32b 893c d77d c7bc 78af 813c e451 acbc
00000040: 1401 caba d7c0 2ebd c015 1dbd f76b c7bc
00000050: 6696 30bd 1aa1 04bd 6f2b 243b 9bb1 ddbc
00000060: c6fc e23b c921 28bc 9b47 5e3d 2c6c e3bc
00000070: d89f 8dbd cc35 513c dbc5 b5bc ceee 94bc
00000080: 60eb 97ba af60 8cbb f43c 4ebd c2da 71bd
00000090: d4ea 2cbc c92d 1fbd 6bc2 00bc 67ef dbbc
000000a0: 0110 e5bb 4640 853c 34e8 ff3c af7a 9f3c
000000b0: 7751 16bd ceb2 09bd 9510 dabc 3575 af3c
000000c0: 40d2 69bd 949d fc3c 6f95 7cbd 0bc7 1ebd
000000d0: 2baa 063c d7ce 2dbd eee1 883c dff8 413c
000000e0: ba38 9d3c 7b53 e9bc 30ab 4abd 18c4 393b
000000f0: fe69 80bc d61f c0bc 510d dfbc e3ad 293b
00000100: 42be 0aba 4584 09bd e511 a3bc 0f06 1dbd
00000110: e57a c1bc fb01 0cbd 28e0 e8bc cb44 21ba
00000120: 7b9e b63c 5988 e8bc 49ea 8bbc c0c7 24bd
00000130: c977 4c3b b1c8 53bc 74ce 5cbd 5658 20bd
00000140: 094e 24bb 46ed 20bd 3719 7cbc d2bf 17bd
00000150: 9e23 05bd 9662 a3bc d7ee b3bc bc21 70bc
00000160: ffd5 e0bc 8193 e0bc 67a1 2e3c a0e6 25bc
00000170: a2a8 123c dedb baba d2f3 803b 1c22 3d3a
00000180: 1413 bdbb 487d 34bd c7b3 1ebd 271f 10bc
00000190: 64ca 41bd 1c17 b6bc f037 0abc 2f30 19bc
000001a0: b493 48bd e9ed ecbb f974 a9bc b3ae 38b8
000001b0: d0d4 4dbd 4d19 d33a c52d bdbc 4a6f 893c
000001c0: d3b6 aabb 3bad 24bd f352 16bd 8964 32bd
000001d0: 3c56 a4bc 893d 7bbb 247a 57bc 20e7 d83a
000001e0: 027d a5ba 0cdb 3b3c 4a64 e3bb 5f4f e0bc
000001f0: 71a5 18bc 9fe3 e9bb 5a98 a7bb 5ee6 45bb
00000200: edec 8abd 218c 3cbd 7212 823c 9f53 3b3c
00000210: 0932 17bd c3cd a4bc 92bf d7bc a928 793b
00000220: b890 a8bb 950a 8f3c 3aff 27bd ba93 67bc
00000230: eb4a cdba b6ff e7bc 80d1 c8bc abfa 36bc
00000240: 55a5 1b3b 3966 27bd f770 fdb8 bb08 84bc
00000250: 1af8 8dbb d115 e6bc 4c76 13bc b8ee f4bc
00000260: 5502 04bd 6194 17bd a96d 46bb 4250 3dbc
00000270: ab22 103d b730 8e3c 1385 61bd 6312 08bc
00000280: 3d4b 40bc 6a98 42bd 2455 223d fc1d 7a3a
00000290: df21 c33b b622 22bb 76f6 b53c b2c5 593b
000002a0: edfa 5fbc 0f47 03bd b095 9cbc 7f25 34bd
000002b0: e4a8 cfbc 760a f23b 4373 96bc ebf4 6cbc
000002c0: c492 a8bb 2396 38bc 068a 5ebd 4a57 05bd
000002d0: ffa9 5cbb 1ce9 26bd d045 3dbd 272c 3dbd
000002e0: fab6 7bbc e841 7c3b adb5 74bc 1644 243c
000002f0: efe3 8bbc 1a1e 25bd f126 2abd 9b3f 8abc
00000300: e50f 54bd 125f a63b 65aa f23b c78c 6c3c
00000310: 3418 e1bb dc6a 2cbd 3dda ebbb cfe3 76bd
00000320: d058 82bc 093b 75bc 76f4 b33c dde1 d1bc
00000330: 8458 05bd 63a8 f2bc 1150 37bc 2683 733b
00000340: b6cc 04bc f356 23bc 2b52 2cbd 06a4 dabc
00000350: df59 0dbd 16db 9fba bdb8 f0bc 70b4 c93b
00000360: 01f8 54bd c73a 6d3c 2488 60bd 28e2 9fbc
00000370: afe3 1c3c c244 43bd 7b92 94bc 1424 47bc
00000380: 98ea 5d3c 705d 87bc 01e2 64bc b710 3ebd
00000390: 6a8c 18bc 3b0d d0bc 9e84 29bb bed9 6dbc
000003a0: 93ac 783c 276a 42bd 46ce 65bc 1240 98bc
000003b0: d44e 05bd d86e 3ebd 327a 7cbc 7ede 843c
000003c0: ac3f adbb 2424 58bd efdc 03bc fb52 29bc
000003d0: 63d2 bc3c ab9a ec3a 8b0e 0c3d ce5f ec3c
000003e0: 53f5 d83a 53ef 04bc fd3c 5cbc 90bb 80bc
000003f0: f5ae 45bc ed3a aebc b638 f0bc 6018 f0bc
-0.014482402 -0.007690051 -0.05901542 -0.053061835 -0.011867988 -0.030333797 -0.010710033 0.029535195
-0.029559022 -0.036638726 -0.008516126 -0.009750236 0.01674456 -0.024351997 0.01583074 -0.021035142
-0.0015411698 -0.042664375 -0.03835082 -0.024343474 -0.04311218 -0.0323802 0.0025050303 -0.027062228
0.0069271056 -0.010261961 0.054267507 -0.027761541 -0.069152534 0.012769174 -0.022189071 -0.018180277
-0.0011590533 -0.0042839865 -0.0503511 -0.059046514 -0.010554034 -0.038862024 -0.007858853 -0.026847554
-0.006990433 0.016266 0.031238653 0.01946768 -0.036698785 -0.033617787 -0.026619235 0.021418193
-0.057085276 0.030836858 -0.06166595 -0.03876404 0.008219282 -0.042433586 0.016709294 0.011839121
0.019192088 -0.02848219 -0.049479663 0.002834564 -0.015675541 -0.02345268 -0.02722803 0.0025890998
-0.0005292633 -0.033573408 -0.019905994 -0.038335856 -0.023618171 -0.034181576 -0.028427199 -0.00061519135
0.022292366 -0.028385328 -0.01707949 -0.04022956 0.0031199327 -0.0129262665 -0.053907827 -0.039146744
-0.0025070927 -0.03928878 -0.015386871 -0.03704817 -0.03250467 -0.01994447 -0.021964474 -0.01465648
-0.027445791 -0.027414085 0.0106585985 -0.010125786 0.008951338 -0.0014256199 0.0039353156 0.00072148605
-0.0057700966 -0.04406479 -0.038745668 -0.00879649 -0.047312155 -0.022227816 -0.008436188 -0.009349867
-0.048968986 -0.0072305095 -0.02068566 -4.403172e-05 -0.050251782 0.0016105563 -0.023093114 0.0167767
-0.0052097826 -0.040204268 -0.0367002 -0.04355291 -0.020060651 -0.0038336238 -0.013151679 0.0016548373
-0.0012625756 0.011465799 -0.0069394456 -0.027381597 -0.009316788 -0.0071377303 -0.0051145973 -0.0030197124
-0.06783471 -0.046032075 0.015877936 0.011433511 -0.03691295 -0.020117646 -0.026336465 0.003801862
-0.005144205 0.0174611 -0.041014887 -0.014134342 -0.0015662586 -0.028320175 -0.02451396 -0.011168162
0.0023749669 -0.04086897 -0.000120850214 -0.016117444 -0.0043325545 -0.028086575 -0.009000372 -0.029898986
-0.032228786 -0.03700674 -0.0030277765 -0.0115547795 0.035189312 0.017357213 -0.05505855 -0.008305165
-0.011736688 -0.047508635 0.039631978 0.0009541211 0.0059549655 -0.0024739928 0.022212248 0.0033229408
-0.013670665 -0.03205019 -0.019114345 -0.04398107 -0.025349088 0.007386501 -0.018365508 -0.01446269
-0.005144449 -0.011266264 -0.05433085 -0.03255395 -0.0033670662 -0.040749654 -0.046209157 -0.046184685
-0.015363449 0.0038491432 -0.014935893 0.010025999 -0.01707646 -0.04031191 -0.041541044 -0.016876033
-0.05177297 0.0050772512 0.0074055665 0.014437861 -0.0068693403 -0.042094097 -0.007197647 -0.06027585
-0.01591149 -0.014967688 0.021967154 -0.025620395 -0.03255512 -0.029621309 -0.011188523 0.0037157028
-0.0081054475 -0.009969461 -0.04207055 -0.02668954 -0.034509536 -0.001219603 -0.029384965 0.006155543
-0.051994327 0.014479346 -0.054817334 -0.01951702 0.009575768 -0.047672994 -0.018136254 -0.012154598
0.013544701 -0.016524047 -0.013969899 -0.04640266 -0.009310821 -0.025396934 -0.00258664 -0.014517246
0.015177864 -0.047464516 -0.01402623 -0.018585239 -0.03254588 -0.046492428 -0.015409993 0.016219374
-0.0052871313 -0.05276884 -0.00804828 -0.0103347255 0.023049539 0.0018051466 0.034193557 0.028854277
0.0016552605 -0.0081137 -0.013442275 -0.015714437 -0.012065639 -0.021268332 -0.029323917 -0.029308498

network_body._body_endoder.seq_layers.2.weight f4 [256, 256]
00000000: ec38 adbd 541d 68bd c0b3 bfbb 5e28 323d
00000010: bfcc 82bd 1730 8f3d eb42 8fbd a504 0a3e
00000020: f539 62bd 75a4 73bd e2dd 153d 59b5 d7bc
00000030: 5fc4 14bc 322a a3bd 958f 3dbb 8ae2 2dbd
00000040: abc6 c9bd 1396 b0ba f8ac 12bd f903 9abd
00000050: 4531 393b 2265 b9bc b2f1 83bc 9887 ab3c
00000060: 6784 0e3d d1ae ae3d 7110 b7bd a01e 403c
00000070: db66 22bd b817 9b3b e3d4 4d3d 05cf 423d
00000080: 38d2 06bd 5182 0c3d c1ce e2bb 737a 95bb
00000090: 707d 413d 3576 ba3d c166 b3bd 5aa9 f5bd
000000a0: 96ed 64bd ac56 903a f26d 30bd 8f8d 95bc
000000b0: 65ef f33c 191b 88bd 8f5e a83d 47de 90bd
000000c0: dca9 b8bd 4205 fe3c 5f3a 71bd 9c91 553d
000000d0: ffca 3e3d 0c08 193c 9590 6e3d df66 873c
000000e0: 7642 ae3c c1d9 e7bc 9fc0 a63d 6e7c aa3d
000000f0: bb6e 30bd 3a40 08bd 5275 a83c 0b40 0abe
00000100: fde5 053d 706b c23d 665f d2bd 845c fd3d
00000110: 6293 15be af0a 303d 66ae 84bc cdee e43a
00000120: 6389 273c 30ea a7bd 2393 81bd 06f7 9dbd
00000130: 365d b2ba d38f 98bb f278 a53d 29b4 81bd
00000140: 0f67 3a3b 2123 8e3d 2b98 f2bc 9b3d 0c3d
00000150: 36d4 f7bc 30b1 2b3d 0474 c93c eb19 ae3d
00000160: f057 80bc 905d 17bc f112 88bd 82ae aa3c
00000170: e616 b13d 6637 933d 9091 e13d a3f3 a9bd
00000180: f757 edbc c6b2 4abd 7867 043c 8f26 bcba
00000190: a94a 163c 97a0 81bc aadd a33d f0f7 08bc
000001a0: c83a 00be b7f3 433c 48c4 8bbd c0e4 03bd
000001b0: 88dd 8b3d ee6a 183c 851d 8c3c 3b47 3bbd
000001c0: d758 dd3c 7fe4 8bbc 209d d5bc 7449 963d
000001d0: e3c6 523d aef6 ce3d 1603 473d 7979 cfbd
000001e0: 3ef9 01bd fd37 3bbd 2092 43bc 1aa3 e2bd
000001f0: f299 613c 041c acbd 54fe eebd 24bb 7bbd
00000200: 94ba 8c3d 8108 b3bc 3932 ba3d b78a 9d3d
00000210: 4b91 4a3c 7311 e5bd fb66 243d bc4c 2fbd
00000220: 52de 85bc e2d8 a2bd 221f 94bd d9b7 013e
00000230: 15f5 13bd 159b 5fbc 8021 07be eb46 973d
00000240: 9cd7 c4bd bc46 533d 0c10 303b 2a48 1a3d
00000250: 9d18 153b a686 873d e25b 593d cd69 c4bd
00000260: 5b5f 48bc 0366 5dbb e769 08bd d8df f33d
00000270: 7f32 fdbc 70ae bfbc 8673 8e3c 143f 203d
00000280: 0a3e a7bd c81a 16bd fb38 8ebd 1fb0 3e3d
00000290: a390 a5bc 020c 58bc 5bfb 28be 00b1 e4bc
000002a0: 7f8e 133e d503 b3bd 2632 5b3d 8bd3 1ebd
000002b0: 3ff6 1c3e 7d6b 4b3d 510d 053d e594 b13c
000002c0: 4b2b 8f3d 8e7f 763c d093 9dbd d821 003d
000002d0: cbc6 69bd a928 c03d ec79 903d 7cce 963c
000002e0: f488 a23d ff4b 82bd 7e5a cc3b ae4e 7dbc
000002f0: 2204 a5bc 84f4 bb3c 9d5c 38bd 6b71 023b
00000300: 5ae2 dfbc 63b1 96bd 79db 79bd 8944 8fbd
00000310: 84f3 91bd 4f0b 243b f302 d7bc b23e a4bb
00000320: bae0 c13b 9339 36bc 9ac8 cbbd dfcc 3e3d
00000330: f33b 81bd da78 febd 0e9c eebc f961 063d
00000340: e794 d33d 06f9 e7bc 2c5b 7ebd 352c b5bc
00000350: 6e36 5cbd cd14 7d3d 0877 163d 9f51 ab3d
00000360: b056 6abd 258b 8c3d dcf5 9c3b e060 893d
00000370: f027 193d abb9 e53b b530 2a3c 2651 c4bd
00000380: 462f 8cbd 2784 0dbd a438 14bd 8c10 dd3c
00000390: 5c0b 9abd ecbf 2ebe 2de5 b13d d4f3 9d3d
000003a0: c3c0 ae3d 9290 b6bc 0567 2e3d 0427 0fbd
000003b0: aaad a73d c619 043e fd83 393e f8d2 bfbc
000003c0: 819a ccbd a95a cebd 2a8c e53d 66d6 48bd
000003d0: a518 bd3d 8ece e5bc 7312 8abd 329e 863c
000003e0: e839 de3d 732d ebb9 dd4e 3bbd ace7 ee3d
000003f0: 1b90 88bd 288c 96bd dae0 1b3e 8823 073d
-0.084581226 -0.056668594 -0.0058502853 0.04349553 -0.063867085 0.06991594 -0.069951855 0.13478334
-0.055231053 -0.05948301 0.036588557 -0.02633159 -0.009080022 -0.079670325 -0.0028924693 -0.042452373
-0.09852346 -0.001347246 -0.035809487 -0.07520289 0.0028258127 -0.022631232 -0.01610646 0.02093868
0.034794237 0.08529437 -0.08938683 0.011726052 -0.039648872 0.004733052 0.050251853 0.04756071
-0.032915324 0.034303967 -0.0069216196 -0.004561716 0.047238767 0.091045775 -0.08759833 -0.11995192
-0.055890642 0.0011012158 -0.043073602 -0.018255977 0.029777238 -0.066457935 0.082211606 -0.07073646
-0.09016773 0.031008366 -0.058893558 0.052140817 0.04658031 0.009340297 0.058243353 0.016528545
0.021271925 -0.028302075 0.08142208 0.08324514 -0.04307435 -0.033264376 0.020563755 -0.13500993
0.032690037 0.09493148 -0.10272102 0.123711616 -0.14607003 0.04297894 -0.01619644 0.0017466188
0.010225627 -0.081989646 -0.06326892 -0.077131316 -0.0013608101 -0.004655817 0.08079709 -0.06333191
0.0028442775 0.06940294 -0.029613575 0.03423844 -0.030252557 0.041917026 0.024591453 0.08501037
-0.015666932 -0.009238616 -0.06644238 0.020835165 0.08646946 0.07188301 0.11014092 -0.08298423
-0.028972609 -0.049486898 0.0080813095 -0.0014354753 0.009173074 -0.015823646 0.080012634 -0.008359894
-0.12522423 0.011959962 -0.06824547 -0.032200575 0.06829363 0.009302838 0.01710392 -0.045722228
0.027019901 -0.017076729 -0.0260759 0.07338229 0.051459204 0.10105644 0.048586927 -0.10130591
-0.031731836 -0.04570769 -0.011936694 -0.110662654 0.013769614 -0.08403781 -0.11669603 -0.061457768
0.068715245 -0.02185464 0.090916105 0.076924734 0.012363742 -0.11184969 0.040137272 -0.04279779
-0.016341362 -0.07951523 -0.072325006 0.12667789 -0.0361224 -0.013647814 -0.13196373 0.073865734
-0.09611437 0.05158113 0.0026865033 0.037666477 0.0022750266 0.06617479 0.053066142 -0.095904924
-0.012229766 -0.0033782728 -0.03330412 0.11907929 -0.030907867 -0.023398608 0.01738907 0.039122656
-0.0816613 -0.036646634 -0.06944462 0.04655468 -0.02021057 -0.013186457 -0.16502135 -0.027916431
0.14409827 -0.08740965 0.053514622 -0.03877596 0.1532831 0.049663056 0.032483403 0.021677444
0.06990679 0.01504506 -0.076942086 0.031282276 -0.05707435 0.09382755 0.07054505 0.018409006
0.07936278 -0.06362151 0.0062363734 -0.015460653 -0.020143572 0.022943743 -0.045010198 0.0019904028
-0.027329613 -0.073580526 -0.06100032 -0.06995494 -0.07126525 0.0025031155 -0.026246523 -0.0050123567
0.005916682 -0.011122125 -0.09950371 0.0465821 -0.063102625 -0.12425394 -0.029127147 0.032808278
0.10331135 -0.028316986 -0.062098667 -0.022115806 -0.053762846 0.061787415 0.03673461 0.08365177
-0.057211578 0.06862477 0.004790051 0.067079306 0.037391603 0.0070106587 0.010387589 -0.0958579
-0.06844954 -0.03454986 -0.03618683 0.02698543 -0.07521698 -0.170654 0.0868629 0.07712522
0.0853286 -0.022285733 0.042578716 -0.034949318 0.08187421 0.12900457 0.18116756 -0.023416027
-0.09990407 -0.10075886 0.11208375 -0.04903259 0.09233216 -0.028052595 -0.067418 0.016432855
0.108508885 -0.00044856555 -0.045729507 0.11665282 -0.06668111 -0.073509514 0.15222493 0.03299287

network_body._body_endoder.seq_layers.2.bias f4 [256]
00000000: 9ca5 1abc 8334 01bd 81a0 1abc 7e86 3abc
00000010: cb6c 02bc 98c5 21bb 7c71 c2bc 9806 c63b
00000020: d374 df3b 6773 853c 9c61 553a 793a a3bc
00000030: 74b6 e1bc 872c 983b 0604 a8bb 1083 a23c
00000040: e705 c3bc ace1 3bbb 1f1d 09ba 589c b4bc
00000050: 0fd5 313c 0793 42bc a897 0b3c d5ff d0bc
00000060: 335b 8abc 041f 8dbb 15ba ec3b 0b3b 4d39
00000070: a787 22bb 3b4b 743c 297b ff3b cb01 7cbc
00000080: 75b9 b0b9 3ba9 bd3b 9e4b a2bc 5976 51bb
00000090: 8520 d8bc 3924 01bb 03bc 0fbd b1dd 263c
000000a0: 3125 c0bc af60 8fbc 1d5e c5bb d060 a2bc
000000b0: eaaa 1cbb 0a9a 4fbc de4f 7cbc ec17 2cbd
000000c0: e83f d13a 2662 ebba 8d12 aabc df94 05bc
000000d0: 8e52 d4bc dd0f 93bc 4ebc a93a d6be 513a
000000e0: 86ff 96bc 18b7 e8bc cfc0 d0ba 0872 823b
000000f0: b107 6fbb c4d1 9639 44f8 04bc 0ab2 9cbc
00000100: 8791 15bc 064d b1bc 71cf b4bc e5cf 023b
00000110: 23ac 853b 014e b4bc b6e9 c8bc 60d5 a8bc
00000120: 9960 6fbc c1c6 3bbb 3cb7 a5bc 0fde 823a
00000130: 2e79 c8bc 726c 8abb e618 97bc 2ef3 94bb
00000140: 6509 7a3a 1cb4 d3bc f4ae 09bd 6a06 38bd
00000150: 46b5 21bd 08eb e4bc 0949 ecbb d928 66bc
00000160: 96f6 5abd 97b0 e2bc 1529 73bc 2111 52bc
00000170: bd08 bdbb b354 90bc 0aea c93a b4c2 c0bc
00000180: f45c d5bc 116c eebc dc15 1f3c 072a dbbc
00000190: a2e0 d5bb 14cb 573c 0135 c53c ac0c d5bb
000001a0: 5896 84bc d4f3 7dbc aa41 acbc dbd2 0d3c
000001b0: c233 02bd a052 2fbc f771 e63b a631 05bc
000001c0: 8c36 82bc b39e 1cbb d7a5 57bc 5c06 67bc
000001d0: b76e 903b f477 e0bb e10e 1ebd d338 96bc
000001e0: 4b6b 93bc 4138 1fbc b611 65bc 14b1 12bc
000001f0: 9a0e c3bc bd19 313c 4e6f 5bbc 9b9c 9ebc
00000200: 6129 46bc ab60 8abb 3e36 dfbb 8f64 d1bc
00000210: 2478 debb 4556 fcbc dad9 bcbb b096 7a3a
00000220: a35a 1cbc f6be 87bc ec66 0ebd ac25 85bc
00000230: be96 4dbc 4436 5ebc e897 62bb d36f 8fbc
00000240: 69a0 063c 5c7f 13bd b814 103c 2bc7 9ebc
00000250: d31a fabb cbe6 f0bc 07f9 d6bb 2132 1cbc
00000260: 59ac 38bc a0d7 b9bc 0d9a 9cbc 37db 45bb
00000270: b48b 2ebd af44 29bd 03a1 fcbc 6268 94bb
00000280: 6371 e5bc 5807 593c 40a9 22bd c13e 08bc
00000290: 5d81 79bc 820f c63c 3880 1d39 e626 1abc
000002a0: 2a8e 2dbc 8339 58bc a187 a3bc 741a 19bd
000002b0: 0dfe 71bc 2c7a a7bc f5d0 06bc 8299 fbb9
000002c0: 17e4 a5bb 9c1c 0dbc 7f9d b53a 6f91 a0bc
000002d0: ef91 d3bc 0ebf 77bc 0ae6 0fbc 29d1 37bc
000002e0: 9651 253b 3db8 993c f825 f6bb e31d 47bc
000002f0: c970 0abd c262 33bc d3c0 80bc c272 bfbc
00000300: 9c39 43bc 2dba aab9 60b0 0b3c 2795 bfbc
00000310: 65a0 96bc f9bf 4cbc ea14 19bc 65b3 dcbc
00000320: 7cbc 06bc 103a cfbc 7c7f 43bc 5232 ef3b
00000330: 753e 22bb 6fd4 c9bc 029e 6fbc 5a0e a8bc
00000340: e2a2 90bb 8a77 11bc 748c 39bc 400d c8bb
00000350: 8871 0bbc 4ee4 003b 83bc 893c 9c6e 83bc
00000360: 8ba6 bd3b ae55 a1bc ab42 85bc a596 42bc
00000370: 587f 38bd a6d2 9cbc c25e 193b 0667 3bbc
00000380: 1f99 9c3a c464 5ebc de6b 2bbc b35c 10bc
00000390: 6554 86bc ef57 38bc c43f 003c 30a7 a9bc
000003a0: e8fa 22bc dce2 35bd 1b1b 03bd 651f 3ebc
000003b0: 7870 8cbc 8d11 2bba e728 9abb 93aa ddbb
000003c0: 9f50 24bd 1cfa b53b 96a3 04bc 9b47 36ba
000003d0: 3191 02bd e698 aabc 5117 6c3b ff40 e3bc
000003e0: ebea ffbb b0e8 96bc add2 0ebd d5be 31bc
000003f0: 14da 18bd 69d8 dcbc a461 91bb 7e6e 9fbc
-0.009438898 -0.03154422 -0.009437681 -0.0113846045 -0.007960509 -0.0024684425 -0.023735754 0.0060432665
0.0068193465 0.01629038 0.000813985 -0.019925343 -0.02755282 0.00464398 -0.0051274328 0.019837886
-0.023806525 -0.0028668446 -0.00052304746 -0.022047207 0.01085402 -0.011875874 0.008520044 -0.025512615
-0.01688919 -0.004306676 0.007224331 0.00019572319 -0.0024800093 0.0149105145 0.0077966643 -0.015381287
-0.00033707512 0.005787996 -0.019811448 -0.003196141 -0.026382694 -0.0019705428 -0.03509141 0.010184691
-0.023455234 -0.017502157 -0.006023182 -0.019821554 -0.0023905584 -0.012671003 -0.015399901 -0.042015
0.001596448 -0.0017958328 -0.020760799 -0.008153169 -0.025918271 -0.0179519 0.0012949796 0.0008001154
-0.01843239 -0.028407618 -0.0015926602 0.0039808787 -0.003647309 0.00028766517 -0.008115832 -0.019127864
-0.009128935 -0.021643173 -0.022071572 0.001996034 0.004079358 -0.022009851 -0.024525505 -0.020609558
-0.014610433 -0.0028652402 -0.020228975 0.0009984392 -0.024471845 -0.0042243535 -0.01844449 -0.004545591
0.0009538143 -0.025842719 -0.033614114 -0.044927992 -0.039479516 -0.027944103 -0.007210855 -0.014047825
-0.05345782 -0.027672095 -0.014841338 -0.012821467 -0.005768864 -0.017618513 0.0015404832 -0.023530342
-0.0260453 -0.029104264 0.0097098015 -0.026753439 -0.0065270225 0.013170976 0.024073126 -0.0065017547
-0.01618497 -0.015500028 -0.021027405 0.008656229 -0.03178764 -0.010700852 0.0070326286 -0.008129513
-0.01589515 -0.0023898303 -0.013162098 -0.014100637 0.0044077295 -0.006850237 -0.03858841 -0.018337643
-0.017995497 -0.009718002 -0.013981273 -0.0089533515 -0.023810674 0.010809359 -0.013393236 -0.019361785
-0.012094826 -0.0042229495 -0.006811886 -0.025560645 -0.006789224 -0.030802855 -0.0057632746 0.00095591974
-0.009543094 -0.01657055 -0.034766123 -0.016253315 -0.012548147 -0.013562743 -0.0034575406 -0.017509377
0.008216956 -0.03601013 0.008794002 -0.01938208 -0.007632592 -0.029406926 -0.006560448 -0.009533436
-0.01127156 -0.022685826 -0.019116426 -0.0030190477 -0.0426137 -0.041325267 -0.030838495 -0.004529045
-0.028008169 0.01324638 -0.03971219 -0.008315743 -0.0152285965 0.024177317 0.00015020452 -0.009408688
-0.010592977 -0.013197306 -0.019962134 -0.037378743 -0.014770043 -0.020443998 -0.00822853 -0.00047988823
-0.005062591 -0.008612778 0.0013856142 -0.019600598 -0.025826422 -0.015121235 -0.008782873 -0.011219301
0.002522563 0.01876461 -0.0075118504 -0.012153122 -0.033798967 -0.010948839 -0.015716946 -0.02337015
-0.011915591 -0.00032563639 0.008525938 -0.023386551 -0.018387029 -0.012496942 -0.009343365 -0.02694101
-0.008223649 -0.025296241 -0.01193225 0.0072997 -0.0024756466 -0.024637429 -0.014625074 -0.020514656
-0.0044139484 -0.008878598 -0.011324991 -0.006105095 -0.008510955 0.001966733 0.016813522 -0.016043954
0.0057876757 -0.019694176 -0.016267141 -0.011876737 -0.04504332 -0.019143414 0.0023402427 -0.011438137
0.0011947489 -0.013573829 -0.010462729 -0.008811164 -0.016397664 -0.011251434 0.007827703 -0.020709604
-0.009947516 -0.044405803 -0.03200827 -0.011604165 -0.017143473 -0.00065257476 -0.004704583 -0.006764719
-0.04011595 0.005553497 -0.008095643 -0.0006953419 -0.031876747 -0.02082486 0.003602464 -0.027740953
-0.007809987 -0.0184215 -0.034868885 -0.010848721 -0.03731735 -0.026958661 -0.0044366885 -0.019461866

action_model._continuous_distribution.log_sigma f4 [1, 2]
00000000: db8b 8ebd 3ed3 29bc
-0.06960269 -0.0103653055

action_model._continuous_distribution.mu.weight f4 [2, 256]
00000000: 37d1 993c 0a68 803c 11b3 b13c f506 50bb
00000010: 12de 05ba 47c7 3dbc 075e d63b 99a1 edbc
00000020: e919 c7bc 5737 b8bc d59e 4abd cafb 45b8
00000030: 3aa8 853b 41f2 37bd ce61 b2bc 41f3 28bc
00000040: ecee 96bb 8415 b53c a8f9 f93c edfc a5ba
00000050: af21 17bc 685d 0bbc edad 583d 7e31 7b3c
00000060: 6e59 c837 382e a2bc 2a13 d4bc e096 9aba
00000070: 7528 a1ba c02f d2bc 68f5 e6bc 7067 b33c
00000080: 43c9 f1bc 51c7 86bc f06e 863c 17ca 5cbc
00000090: db71 91b9 2f19 96bc 311a 963b ac1e 62bb
000000a0: ed9d 17ba 3e2a 403c c93c 4a3d 2bf1 923c
000000b0: fcb3 173c 805c 303c 7ede d63b ad35 133c
000000c0: 838e 7bbd 5227 25bd c2c5 343c 0618 1abb
000000d0: 4796 36bc c805 b13b 0b19 8cbc 9e96 8fbc
000000e0: e856 dd3c 7247 94bc d69f 22bd 1d66 213a
000000f0: c720 05bc f44d ab3c 4317 f6bc 3c3d ef3b
00000100: 9dcd d13b b6e9 653b b9f1 e53a 2179 7f3b
00000110: b42a 32bd d382 283b 4041 983c 29c3 d0bb
00000120: 14cb 30bb ade3 bebc 35ec 7e3b ac4e a9ba
00000130: 31f0 ad3c 7518 dbbc 0f05 dfba 74e3 bf3c
00000140: 586c fdbb 1ef6 e03b 6911 0abc aa1d af3c
00000150: cf31 2a3b 3a91 4c3c 90ea b6bc b807 193d
00000160: 4b77 8dbb 0b7d 313b 7e57 7c3a cd86 2dbd
00000170: 7863 aabc 7c99 beb9 cddf aabc de0f 3d3b
00000180: 8663 743b 9fa5 9f3c fb59 30bd 5686 d8bc
00000190: 6573 2dbc cae4 2ebd bf15 e2bc b8f4 babc
000001a0: bdb9 2a3c dc43 51bc 7b92 803c 96b6 2c3d
000001b0: d73d 503c 8bec 603d a3a3 06ba 0928 8c3b
000001c0: 21fe d2bc 5b67 abbc 1032 89bc 54be b83c
000001d0: cf86 f6bc 7962 aebb f79c 9b3c 1e83 233c
000001e0: 31f6 bfbb 6e84 ab3a 0fb3 0d3b 132a 0d3d
000001f0: 278e 253b 6054 a0bc beb4 b73b 548a af3c
00000200: 9a4f 623b 437c 8cba b88d 00bd 40c5 b4bb
00000210: 6698 1dbb d370 363b aa34 06bc 6f3e 31bd
00000220: 6e88 5ebd f890 323c 6b32 9c39 7411 e539
00000230: 0ff0 513a 6105 85bc 7b5c 79bc 3b7e 53bb
00000240: 1d30 b1bb fbe2 a33b 75ef 8bbc a0e1 09bd
00000250: 49e0 febc 3e37 0cbc 479a c63a 9c46 a6bb
00000260: 7fa5 513d e653 d83b 6a46 c93c 17eb 373b
00000270: da97 d53a 889b 403c f52e 94bc 0675 f4ba
00000280: 0bf7 13bb f120 a5bc 8ee2 283b 3080 d6bb
00000290: cec0 b4bc 5039 58bd 7e53 84bd 7b56 633b
000002a0: 884e 18bc 9b85 23bd 3850 643a ebb2 b33c
000002b0: 3e82 8d3c 1bfc 1a3c 1441 c53b e13b 1f3d
000002c0: 124a edbc 9479 ea3a 78e2 c0bc a49b 143d
000002d0: f18a cc3c 28b9 0e37 c914 afbc db36 993c
000002e0: ec83 02bd 5fe4 00bd c854 6c3c 23b2 bc3b
000002f0: f22b 2abb 5f8b 75bc 09c4 a2bc be81 6abc
00000300: 1a81 57bc e129 0ab9 63c6 87bc 3825 0a3b
00000310: 039f 54bc 10c0 953b 41c9 c13c dae0 a5bb
00000320: 7d77 0bbd 78f2 f93b 9706 ee3b c08a 51ba
00000330: 714d 3bbd 375d 7b3d 9a1b c138 bed9 993b
00000340: bae8 9fbc 40bd d93b 7ad0 ed3b efe2 b0bc
00000350: 38e9 8abc e5c6 913b ec48 dcbc 379d ebbb
00000360: ec00 55bc fb08 4f3c a40d 9cbc ec96 b6bc
00000370: 20ed 9f3c da8d 3b3c 6a16 37bd 1487 923a
00000380: 0a05 bb3b 2b86 683b a941 f3ba e803 b73c
00000390: 6159 21bc c0b0 d83c 3c2d 7bbb 8bdf fc3b
000003a0: 8d37 b83b 1508 533c 1339 273c d937 913b
000003b0: 4af3 3d3c 9408 81bb ce3c 9dbc 26f8 28bd
000003c0: 9a28 ff3b 82fe 45bd ad32 8fbc 18c0 3a3a
000003d0: ef88 d93a bde6 e739 89a3 59bb 1318 a03c
000003e0: bc26 a43c eded 4cbc 5932 163b 3389 ecbc
000003f0: 66d1 593c f966 e2bc 35c8 f93c ba54 0b38
0.01877652 0.01567461 0.02169183 -0.0031742428 -0.00051066384 -0.011583156 0.0065419707 -0.02900772
-0.024304347 -0.022487326 -0.04946788 -4.7202957e-05 0.004078892 -0.044908766 -0.021775153 -0.0103119025
-0.0046061184 0.022104986 0.030514553 -0.0012663879 -0.009224339 -0.0085061565 0.052900244 0.015331624
2.3883502e-05 -0.01979743 -0.025888044 -0.0011794232 -0.0012295382 -0.025657535 -0.02819319 0.021899909
-0.029514914 -0.016452463 0.016410321 -0.013475916 -0.00027741384 -0.018322555 0.004580759 -0.0034503145
-0.00057837256 0.011728821 0.049374375 0.017937263 0.00925922 0.010764241 0.006557285 0.008984965
-0.061415207 -0.040320702 0.011033477 -0.0023512854 -0.011144227 0.0054023005 -0.017101785 -0.017527875
0.02701898 -0.018100474 -0.039703213 0.00061568787 -0.0081254905 0.020911194 -0.030040389 0.007301001
0.006402685 0.003508193 0.0017543352 0.003898211 -0.043497756 0.0025712743 0.018585801 -0.006370921
-0.0026976513 -0.023301924 0.0038898115 -0.0012917123 0.021232696 -0.02674506 -0.0017015057 0.023423888
-0.007733863 0.006865277 -0.0084270025 0.02137645 0.002596963 0.012485797 -0.022328645 0.037360877
-0.0043171993 0.0027082588 0.00096260745 -0.042364884 -0.020799384 -0.0003635398 -0.02085867 0.002884857
0.0037290766 0.019488154 -0.043054562 -0.026431244 -0.010586594 -0.04269866 -0.02759826 -0.02282177
0.01042026 -0.012772527 0.015694847 0.042166315 0.012710056 0.054913085 -0.0005136078 0.0042772335
-0.025755944 -0.020923307 -0.016747504 0.022551693 -0.030093579 -0.0053217974 0.018995745 0.009979991
-0.0058582057 0.0013085732 0.002162162 0.034463953 0.0025261731 -0.019571483 0.005606263 0.021428265
0.003453231 -0.0010718185 -0.031385154 -0.005516678 -0.0024047135 0.0027838245 -0.008191267 -0.043272432
-0.05432933 0.010898821 0.00029792203 0.00043691287 0.0008008489 -0.016237916 -0.015219803 -0.0032271284
-0.005407347 0.0050014234 -0.017081955 -0.03366244 -0.031112807 -0.008558093 0.0015152179 -0.0050743353
0.05118322 0.0066017983 0.024569709 0.0028063708 0.0016295866 0.011755832 -0.018088797 -0.0018650598
-0.002257767 -0.02015731 0.0025769803 -0.006546043 -0.022064593 -0.052789032 -0.06461237 0.0034688998
-0.009296067 -0.039922338 0.0008709463 0.0219359 0.017274018 0.009459521 0.006019721 0.038875464
-0.028965984 0.0017889016 -0.023545489 0.036281243 0.024968596 8.50697e-06 -0.021372216 0.018702915
-0.03186409 -0.03146779 0.01442451 0.0057585402 -0.0025966135 -0.014986842 -0.019868867 -0.0143131595
-0.013153339 -0.00013176307 -0.01657409 0.0021079313 -0.0129773645 0.004570015 0.023655536 -0.005062205
-0.0340495 0.0076277815 0.007263969 -0.00079933926 -0.04572815 0.061368193 9.208098e-05 0.0046951463
-0.019520152 0.006644875 0.0072575184 -0.021592585 -0.01695691 0.004448759 -0.02689024 -0.0071903723
-0.013000708 0.012636418 -0.019049473 -0.022288762 0.01952225 0.011447394 -0.04469911 0.0011179172
0.005707388 0.003548036 -0.0018558997 0.02234073 -0.00984797 0.026451468 -0.0038326522 0.007717078
0.0056218565 0.012880345 0.010206479 0.0044317064 0.011593649 -0.00393779 -0.019194033 -0.041252278
0.0077868225 -0.04833842 -0.017480219 0.0007123961 0.0016596596 0.00044231667 -0.0033209047 0.01954273
0.020038001 -0.012507898 0.0022918193 -0.028874015 0.013294553 -0.027636992 0.030490974 3.321909e-05

action_model._continuous_distribution.mu.bias f4 [2]
00000000: 785e 6a3c 4ac1 053c
0.01430475 0.0081637595

onnx::Div_71 f4 [20]
00000000: 05a8 e53e 83a2 b83e 4c91 e03d 61f1 1a3e
00000010: 2bd8 f03e 3509 d33e f903 8b3d 0bc1 1a3e
00000020: bdd0 e63e 6de8 c73e 0e94 a23d 3886 313e
00000030: 1700 fc3e ee1a f03e c9df 893d 2bb2 363e
00000040: 7019 ff3e dc4c f93e f557 b63d 6fc1 403e
0.4485475 0.36061487 0.10965213 0.15131141 0.47039923 0.41217962 0.06787867 0.15112703
0.4508113 0.39044514 0.079383954 0.17336357 0.4921882 0.46895546 0.06732137 0.17841403
0.49824095 0.48691452 0.08903495 0.18823789

onnx::Div_74 f4 [12]
00000000: 4695 f83e de72 c43e c0d9 ed3e 7063 db3e
00000010: 4f74 f83e f564 c53e ea69 ec3e 1b67 da3e
00000020: 84df f83e 8647 c33e ec3e ef3e 725b dc3e
0.48551387 0.38368887 0.46455193 0.42849302 0.48526236 0.38553587 0.46174556 0.42656788
0.4860803 0.38140506 0.46727693 0.43038517

onnx::Div_77 f4 [3]
00000000: 34e3 073f ce25 3c3d 9829 453f
0.5308106 0.04593449 0.7701659
