Experimentos/results/ppo12/KartAgent/KartAgent-4999962.onnx (onnx, 92863 bytes, 13 tensors)

network_body.observation_encoder.processors.0.normalizer.running_mean f4 [20]
0	0x3cb90904	0.022587307
1	0x3eee729e	0.4657182
2	0x3db683a3	0.089118265
3	0x3e9e8ef7	0.3096845
4	0x3cd76ef6	0.026298027
5	0x3e0b80b8	0.13623321
6	0x3b927b3e	0.004470258
7	0x3e00af83	0.12566952
8	0x3cd4ca4f	0.025975375
9	0x3e6c2f02	0.23064807
10	0x3b0f645d	0.002187989
11	0x3e6b3e84	0.22973067
12	0x3cb8ad84	0.022543676
13	0x3e4d71ff	0.20063017
14	0x3c06da25	0.008230721
15	0x3e31c318	0.17359579
16	0x3c4e5635	0.012593796
17	0x3eca8814	0.39556944
18	0x3b0087ee	0.001961227
19	0x3e9132ea	0.28359157

network_body.observation_encoder.processors.1.normalizer.running_mean f4 [12]
0	0x3a875891	0.0010326077
1	0x3efdedf8	0.49595618
2	0x38a17b62	7.70006e-05
3	0x3d7a6bac	0.06113784
4	0x3a83d55e	0.0010058095
5	0x3ee41a04	0.44551098
6	0x38c44c11	9.360177e-05
7	0x3d65ccd4	0.056103542
8	0x3a87c40a	0.0010358107
9	0x3f079af4	0.52970815
10	0x38a75ab0	7.9800724e-05
11	0x3d841446	0.06449179

network_body.observation_encoder.processors.2.normalizer.running_mean f4 [3]
0	0xbe93be1a	-0.28855973
1	0x3d157ad5	0.036494095
2	0x3fbb91be	1.4653852

network_body._body_endoder.seq_layers.0.weight f4 [128, 35]
0	0xbddbbafc	-0.10729024
1	0xbd8e86d7	-0.069593124
2	0x3e52aa7c	0.20572847
3	0x3e78239c	0.24232334
4	0x3e1815e3	0.14852099
5	0xbd9dd1e3	-0.07706048
6	0xbdbc46eb	-0.09193214
7	0xbce680d8	-0.02813761
8	0xbd580a18	-0.052744
9	0xbd82f88e	-0.06395064
10	0xbe238569	-0.1596886
11	0x3e703695	0.23458321
12	0xbe82ad0d	-0.25522652
13	0xbe138c5a	-0.14409009
14	0xbe6b4370	-0.22974944
15	0xbe812b46	-0.25228328
16	0xbce6b40d	-0.028162027
17	0x3e533336	0.20625004
18	0x3e73700e	0.23773214
19	0xbc5844ea	-0.013200024
20	0x3decedca	0.11568792
21	0x3c162315	0.009163638
22	0xbe1d5ba8	-0.15366995
23	0x3c4a9d2c	0.012366574
24	0xbe359346	-0.17731962
25	0x3e92db3d	0.2868289
26	0xbe0bde88	-0.13659108
27	0xbd795797	-0.060874548
28	0xbe81e437	-0.25369427
29	0x3d3c05bd	0.04590391
30	0xbeb9ec81	-0.3631325
31	0x3e498bf2	0.19682291
32	0xbdec71b6	-0.11545126
33	0x3e5714a9	0.21003975
34	0xbe78c962	-0.24295571
35	0x3e900c02	0.2813416
36	0xbcd66f28	-0.02617605
37	0x3e15c320	0.14625216
38	0x3e21b261	0.15790702
39	0x3d17dd58	0.037076324
40	0x3e255063	0.16143946
41	0x3e83b863	0.25726613
42	0xbe663523	-0.22481208
43	0x3e449fba	0.19201556
44	0x3dee0206	0.1162148
45	0xbc3a75ff	-0.0113806715
46	0xbe5d8498	-0.21632612
47	0x3db50cc6	0.08840327
48	0x3e957c2b	0.29196295
49	0x3e0e2ac0	0.13883495
50	0xbe7cdf94	-0.24694663
51	0xbc924f95	-0.017860213
52	0x3d776798	0.06040153
53	0xbcb8b366	-0.022546481
54	0xbdf6a293	-0.12042727
55	0x3edaf9fb	0.42768845
56	0x3d6073af	0.054797824
57	0x3bbb349a	0.0057130577
58	0x3e109362	0.14118722
59	0xbc8fbcde	-0.017546114
60	0xbd9528cf	-0.07283174
61	0xbdd85958	-0.10563916
62	0x3eaa8e1d	0.3331155
63	0xbe5ddb09	-0.21665587
64	0xbedf930b	-0.43666872
65	0xbe007090	-0.12542939
66	0xbdd9b320	-0.106298685
67	0x3e812c8b	0.25229296
68	0xbe43b54e	-0.19112131
69	0xbd77b348	-0.06047371
70	0xbe15c00d	-0.14624043
71	0xbd90c8dc	-0.07069561
72	0xbe4b1df3	-0.19835643
73	0xbe39fd83	-0.18163113
74	0xbe6a8e1c	-0.22905773
75	0xbda547c9	-0.080703326
76	0x3d351b47	0.044215467
77	0x3e80d330	0.25161123
78	0xbe9b5b69	-0.30343178
79	0xbcc17138	-0.023613557
80	0xbe478f9e	-0.1948838
81	0xbe003f79	-0.12524213
82	0xbe5eb116	-0.2174724
83	0xbe075217	-0.13214909
84	0x3d8a37fc	0.067489594
85	0x3ecc62ae	0.39919037
86	0x3d8120e1	0.06305099
87	0x3e71c336	0.23609623
88	0x3e409aea	0.18809095
89	0xbe5a04a6	-0.21290836
90	0xbee267ff	-0.44219968
91	0x3d99367b	0.074810944
92	0xbe2d38c4	-0.16916186
93	0xbe333d48	-0.17503846
94	0xbcb772a5	-0.022393534
95	0xbdf44eb3	-0.11929073
96	0xbd784aa3	-0.060618054
97	0xbd97d635	-0.074139036
98	0x3e98ff30	0.29882193
99	0x3e16c5bf	0.14723872
100	0xbd51425d	-0.05108868
101	0xbd661704	-0.056174293
102	0xbf102ee1	-0.5632153
103	0xbe139e03	-0.14415745
104	0x3e4a82c2	0.19776443
105	0xbc8999b9	-0.016796933
106	0x3e2a15cf	0.16609882
107	0x3dfadd75	0.12249271
108	0x3e39ff7e	0.18163869
109	0x3d4c1200	0.049821854
110	0xbe5de04e	-0.21667597
111	0x3c3d41e4	0.011551354
112	0x3ea96f20	0.33092594
113	0x3cdf2797	0.027240558
114	0x3deb087a	0.11476226
115	0xbe1be4ed	-0.15224047
116	0xbe28ae81	-0.16472818
117	0xbcf20fdc	-0.029548578
118	0x3e4ea240	0.20179081
119	0x3d2c6d98	0.042096704
120	0x3db27555	0.087137856
121	0x3e45c715	0.19314225
122	0x3d5a8430	0.05334872
123	0x3de1ee10	0.11031735
124	0x3c91fcd5	0.017820755
125	0x3e7aa7f9	0.24478139
126	0x3cf4369a	0.029811192
127	0xbd1f54f9	-0.038899396
128	0x3d95f837	0.07322734
129	0xbdd5bd14	-0.104364544
130	0xbdc20f05	-0.09475521
131	0x3d320a78	0.043467015
132	0x3ca91376	0.020639163
133	0x3db89e46	0.09014563
134	0xbe01f150	-0.1268971
135	0x3cc08b88	0.023504034
136	0xbde9b45c	-0.11411354
137	0xba762802	-0.0009390117
138	0x3ddbcdd6	0.107326195
139	0xbdfd0d70	-0.123560786
140	0x3e8537ed	0.2601923
141	0xbd8b87f5	-0.06813041
142	0xbdb02f51	-0.08602775
143	0x3e8305a0	0.2559023
144	0xbe28642f	-0.16444467
145	0xbd8c2b22	-0.068441644
146	0xbe46b39b	-0.19404452
147	0x3d365574	0.04451509
148	0xbdd74e9b	-0.1051304
149	0xbd6323c9	-0.05545405
150	0xbdcaa000	-0.09893799
151	0xbd3e905e	-0.046524398
152	0x3eb71105	0.35755172
153	0xbf0e5b62	-0.5560819
154	0xbe0380c8	-0.12842095
155	0x3d3453cb	0.044025224
156	0x3e04e063	0.12976222
157	0xbd457568	-0.04820767
158	0xbd3eb889	-0.046562705
159	0x3d894e7d	0.067044236
160	0x3e8f0300	0.27931976
161	0xbdc81180	-0.09768963
162	0x3e27ac28	0.16374266
163	0x3bad5ff6	0.0052909805
164	0x3e1890ea	0.1489903
165	0x3aaf83cf	0.0013390722
166	0xbec68429	-0.38772705
167	0x3c1c0aa2	0.009524019
168	0x3e33d2ec	0.17560929
169	0xbdbe3f1c	-0.09289381
170	0x3e2d6b2e	0.16935417
171	0x3dda0240	0.106449604
172	0x3d5b0939	0.053475592
173	0xbebf73bd	-0.3739299
174	0xbd8e50e4	-0.069490224
175	0xbcebf1fb	-0.028801909
176	0x3eb52b36	0.3538453
177	0xbddb2e82	-0.1070223
178	0xbc00f45d	-0.007870761
179	0x3e4bd820	0.19906664
180	0xbbd3d30a	-0.006464367
181	0x3c551e1d	0.013007668
182	0x3d9dd0f0	0.07705867
183	0x3caf426f	0.021393983
184	0x3e385d2a	0.1800429
185	0x3e0f4078	0.13989437
186	0x3db32370	0.087469935
187	0x3ca8e85d	0.020618612
188	0xbc44c15c	-0.012008991
189	0xbe09326b	-0.13398139
190	0xbdd971d7	-0.10617416
191	0x3e59042f	0.21193002
192	0xbe536c14	-0.20646697
193	0x3ea0b31b	0.31386647
194	0x3e8fd107	0.28089163
195	0x3d36829b	0.04455815
196	0xbe1f8b90	-0.15580583
197	0xbdd089dc	-0.101825446
198	0x3de8226a	0.11334689
199	0x3d970c48	0.07375389
200	0xbe78f8ad	-0.24313612
201	0xbe93e29d	-0.2888383
202	0xbe39f150	-0.1815846
203	0xbd4152c7	-0.047198083
204	0xbe5f3dcd	-0.21800919
205	0xbd288cee	-0.041150026
206	0x3deae451	0.11469329
207	0x3e3afc8b	0.182604
208	0xbe86b56c	-0.2631029
209	0xbd3c3e5f	-0.04595792
210	0x3d923d3d	0.071405865
211	0x3e3de99b	0.18546145
212	0x3d68c119	0.056824777
213	0xbc64da82	-0.013968112
214	0xbe09e254	-0.13465244
215	0xbd958de7	-0.07302456
216	0xbdbe47e3	-0.09291055
217	0xbc18a1d8	-0.00931593
218	0xbd6f850d	-0.058476496
219	0x3d002da1	0.031293515
220	0xbd7cb3db	-0.06169496
221	0x3e8c185a	0.2736233
222	0xbd59d1a1	-0.053178433
223	0x3e990d50	0.2989297
224	0xbe5695bc	-0.20955557
225	0x3d851c5f	0.06499552
226	0x3d394ac7	0.04523733
227	0xbe6f0d49	-0.23344912
228	0x3ed20368	0.41018224
229	0xbe5c5733	-0.21517639
230	0x3e32f70c	0.17477053
231	0x3c541d3e	0.012946425
232	0xbd09f68a	-0.033682384
233	0x3d82c0bc	0.063844174
234	0xbe1576b0	-0.14596057
235	0x3b5be522	0.0033553322
236	0x3ce9e371	0.028550835
237	0x3dd1498a	0.102191046
238	0x3ea0cea5	0.31407657
239	0x3e969072	0.29407078
240	0x3e406998	0.18790281
241	0xbe6d6ba1	-0.23185588
242	0xbe0dc75c	-0.13845581
243	0x3cab4b90	0.020910054
244	0x3ebfc8e8	0.37457967
245	0x3e1734df	0.14766262
246	0x3e7942e3	0.24341922
247	0x3ed30a3a	0.4121874
248	0xba8844a1	-0.001039643
249	0xbdcd5b43	-0.100271724
250	0xbdadbf46	-0.08483748
251	0xbd906232	-0.07049979
252	0x3c8d4bd4	0.017248072
253	0xbe46c489	-0.1941091
254	0xbdb99395	-0.09061352
255	0xbc171a16	-0.009222528

network_body._body_endoder.seq_layers.0.bias f4 [128]
0	0x3d4d1f97	0.050078955
1	0xbd3b70f9	-0.045762036
2	0x3d9276a9	0.07151539
3	0x3d1f409d	0.03887998
4	0x3d5cce21	0.053907517
5	0x3d068d69	0.032849703
6	0xbd350bf5	-0.044200856
7	0xbd11acd6	-0.03556522
8	0x3e06b96f	0.13156675
9	0x3d21787d	0.039421547
10	0x3d808911	0.06276143
11	0x3d922caa	0.07137425
12	0x380ea002	3.4004457e-05
13	0x3b73c3ad	0.003719549
14	0x3db9e014	0.09075943
15	0x3c752fa4	0.014964972
16	0x3d85acd1	0.06527103
17	0xbd2479cc	-0.040155217
18	0x39cc18b1	0.0003892831
19	0x3d891155	0.06692759
20	0x3d0c7d9b	0.034299474
21	0x3c13e96e	0.009027822
22	0x3dc4942c	0.09598574
23	0x3cad5bf5	0.021162013
24	0x3c880106	0.01660205
25	0x3cac39e0	0.02102369
26	0xbd646e3c	-0.05576919
27	0x3d26f1af	0.04075783
28	0x3d8424b3	0.06452312
29	0xbd7a7e16	-0.0611554
30	0xbd6fc3a1	-0.058536176
31	0xbd8e758c	-0.06956014
32	0x3d6e26c1	0.058142427
33	0x3c320486	0.010865336
34	0xbd2df4ff	-0.042469975
35	0x3d9935d4	0.0748097
36	0xbd1a4bfd	-0.037670124
37	0xbd2b98be	-0.041893713
38	0x3d15faf5	0.036616284
39	0xbc0f18f7	-0.008733979
40	0xbd71d80e	-0.059043936
41	0xbd840c5c	-0.0644767
42	0xbda1600d	-0.07879648
43	0x3daab70a	0.08335693
44	0x3d51dd1c	0.051236257
45	0x3dd1fd4e	0.10253392
46	0xbd42cb49	-0.04755715
47	0x3d98a2ae	0.07452904
48	0x3dbaafe5	0.091155805
49	0xbc6e7184	-0.014553431
50	0x3bf3f4d1	0.007444956
51	0x3c074af8	0.00825762
52	0x3d75f726	0.060050152
53	0xbd9b5a0d	-0.07585535
54	0xbc5ac3ca	-0.013352344
55	0x3db27c2a	0.08715089
56	0x3ca619ab	0.020275911
57	0x3d18053a	0.03711436
58	0x3dcf0b46	0.10109572
59	0x3d08b60e	0.033376746
60	0xbd41a213	-0.047273707
61	0xbce1c088	-0.027557626
62	0x3dbe4fb8	0.09292549
63	0x3d1dc01b	0.038513284
64	0xbc31c076	-0.010849109
65	0xbbe9dfd4	-0.007137278
66	0x3da35dc0	0.07976866
67	0xbd30c23e	-0.043153994
68	0x3d131ab0	0.035914123
69	0xbc692246	-0.014229363
70	0xbc8deedb	-0.01732581
71	0x3dd94be8	0.10610181
72	0xbdbc5d54	-0.091974884
73	0xbcf29d30	-0.029615968
74	0xbdd0e6f3	-0.102003
75	0x3d50a53f	0.05093884
76	0x3b8e73c7	0.004347298
77	0x3d3958c3	0.045250665
78	0xbc59fbb5	-0.013304641
79	0x3da6688a	0.08125408
80	0x3da16da8	0.078822434
81	0x3cd673c6	0.026178252
82	0xbd99c6c8	-0.07508618
83	0xbd6aeca4	-0.057354584
84	0x3d138c1b	0.036022287
85	0x3dac1c24	0.08403805
86	0xbc062df0	-0.008189663
87	0xbd6a6717	-0.05722722
88	0xbd0dd117	-0.03462323
89	0x3db83d0f	0.08996021
90	0xbd11110c	-0.035416648
91	0xbc8d9979	-0.017285096
92	0xbd0b88ba	-0.03406594
93	0xbd48a35c	-0.048983917
94	0x3db0f09e	0.08639644
95	0xbc90d700	-0.017680645
96	0x3daf93e9	0.085731335
97	0x3da936f8	0.082624376
98	0x3db77201	0.089572914
99	0xbd7c5bb2	-0.061610885
100	0xbd2b503f	-0.041824576
101	0x3e03967b	0.12850372
102	0x3d8479df	0.064685576
103	0xbda66013	-0.081237935
104	0xbdb3fe03	-0.08788683
105	0x3d6b80e9	0.057495985
106	0xbba7c948	-0.00512043
107	0x3dffd9b6	0.12492697
108	0x3d1e1a91	0.038599554
109	0xbd4a1053	-0.049331974
110	0x3d24c47e	0.040226452
111	0xbd8c489a	-0.06849785
112	0x3d1a155a	0.03761802
113	0x3cf040d4	0.029327787
114	0xbd5dd89d	-0.054161657
115	0xbc6d0639	-0.014466816
116	0xbdaa634c	-0.083197206
117	0x3ccc9db9	0.024977552
118	0x3dbdbf0f	0.09264957
119	0x3dd7e7e2	0.10542275
120	0x3d9b730b	0.07590302
121	0xbd58c01d	-0.05291759
122	0x3d88fa64	0.06688383
123	0xbb1d5a4d	-0.0024010122
124	0x3c4ba5ae	0.012429638
125	0x3d475c80	0.0486722
126	0xbd627991	-0.055291716
127	0xbd95e337	-0.073187284

network_body._body_endoder.seq_layers.2.weight f4 [128, 128]
0	0x3d246e7b	0.040144425
1	0x3d3bd157	0.04585394
2	0x3e0ba746	0.13638029
3	0xbdccf481	-0.10007573
4	0x3cb06ec9	0.021537201
5	0xbbf4a490	-0.0074659064
6	0x3d14c1a5	0.036317486
7	0xbcab539e	-0.020913895
8	0x3e22a3cb	0.15882795
9	0xbe0ab30b	-0.13544862
10	0xbc230f0c	-0.009952318
11	0xbdb675af	-0.08909165
12	0xbd1a9597	-0.037740316
13	0xbd8ababd	-0.06773899
14	0x3d6310fa	0.055436112
15	0x3dbc557a	0.09195991
16	0xba8c2c56	-0.0010694365
17	0x3dcfff56	0.10156123
18	0xbd30fed2	-0.043211766
19	0xbd896f1e	-0.06710647
20	0x3cd5db4a	0.026105542
21	0x3e2baaad	0.16764326
22	0xbc227fc0	-0.009918153
23	0x3e03d249	0.12873186
24	0xbd4bafdc	-0.04972826
25	0x3db57ac8	0.08861309
26	0xbd13578c	-0.035972163
27	0xbdefcf9a	-0.11709519
28	0x3d233574	0.0398459
29	0xbd26e51e	-0.040745847
30	0x3e4d6206	0.20056924
31	0xbc0d7887	-0.008634693
32	0xbdc36549	-0.09540803
33	0xbba81d7f	-0.0051304693
34	0xbd33d840	-0.043907404
35	0xbdde0a07	-0.10841756
36	0x3df40f7f	0.11917018
37	0xbd54161c	-0.051778898
38	0x3d8769ef	0.06612002
39	0xbe0ad3b2	-0.13557318
40	0x3d5b64e2	0.053563006
41	0x3df80149	0.1210962
42	0xbc4319d3	-0.011908012
43	0xbe3050ac	-0.17218274
44	0x3e143d21	0.14476444
45	0xbc6e6ba4	-0.014552031
46	0xbe1307d9	-0.14358462
47	0xbe58e159	-0.21179713
48	0xbde8e68f	-0.113721006
49	0x3d2c7b30	0.04210967
50	0x3dad5bb5	0.08464757
51	0xbd92195f	-0.071337454
52	0xbd687839	-0.05675528
53	0xbc6e42b0	-0.014542267
54	0x3e384482	0.17994884
55	0xbd2785e1	-0.04089916
56	0x3db30dd1	0.0874287
57	0x3cec565d	0.028849775
58	0xbcd0323b	-0.025414577
59	0xbe13d40b	-0.14436357
60	0xbe3b7554	-0.18306476
61	0x3da0688a	0.07832439
62	0xbde1c869	-0.11024553
63	0x3d9a3f9e	0.07531665
64	0x3e0bc3a7	0.13648854
65	0xbe388b1d	-0.18021818
66	0xbcc1227a	-0.02357601
67	0x3df68961	0.12037922
68	0x3e279458	0.16365182
69	0xbd5d0ec9	-0.05396918
70	0xbd167234	-0.036730006
71	0xbe1b09ec	-0.15140504
72	0x3c76e4ce	0.0150692
73	0xbce6ba99	-0.028165149
74	0xbe1668d0	-0.1468842
75	0x3ce66845	0.028125891
76	0xbd4ddc23	-0.050258767
77	0xbd38d8fb	-0.045128804
78	0x3cfdc40b	0.03097727
79	0xbe4a5eab	-0.19762675
80	0xbea1a835	-0.31573644
81	0x3cc1e2a6	0.023667645
82	0xbdb30cd2	-0.0874268
83	0x3e158fc0	0.14605618
84	0x3c9093bb	0.017648568
85	0x3b499e18	0.0030764397
86	0x3cf5be0e	0.029997852
87	0x3e58f161	0.21185829
88	0x3cafa220	0.021439612
89	0x3c83dec4	0.016097434
90	0xbd09ab0b	-0.033610385
91	0x3e49235a	0.19642392
92	0xbcbdf14e	-0.023186352
93	0xbe6d77a6	-0.23190174
94	0x3cae8dc3	0.021307832
95	0x3d6de295	0.058077414
96	0x3d851719	0.06498546
97	0xbdc02c3c	-0.09383437
98	0x3d46023b	0.04834197
99	0xbd8615ae	-0.06547104
100	0xbde36810	-0.11103833
101	0x3e1e328c	0.1544897
102	0x3cc55067	0.02408619
103	0xbcf27890	-0.029598504
104	0xbd5697ad	-0.052390743
105	0x3dade705	0.08491329
106	0xbd6efb07	-0.058344867
107	0xbcc0dd93	-0.023543155
108	0xbe59b1ac	-0.21259183
109	0x3a3f20e9	0.0007290976
110	0x3da3f152	0.080050126
111	0x3e2c7910	0.16843057
112	0x3cb59c84	0.022169359
113	0xbdf6ac5d	-0.120445944
114	0x3db28144	0.08716062
115	0x3dd20b5e	0.10256074
116	0x3da3f87d	0.0800638
117	0x3d8b8811	0.06813062
118	0xbddf01aa	-0.10888989
119	0xbe8cd5b4	-0.27506793
120	0xbe0a2d07	-0.13493739
121	0xbcbf8ca1	-0.023382487
122	0xbd7c6378	-0.0616183
123	0x3d8d84b1	0.069100745
124	0xbd27fb51	-0.04101116
125	0xbe0ae9c8	-0.13565743
126	0x3d14d6e9	0.036337767
127	0xbd6ee2e4	-0.05832185
128	0x3e8918b0	0.26776648
129	0x3c2ff23d	0.010738906
130	0xbc44d9e3	-0.012014839
131	0xbe89caef	-0.2691264
132	0x3ce71b82	0.028211359
133	0x3d9f52f4	0.07779494
134	0xbe0bb5a4	-0.13643509
135	0x3d59cdbc	0.05317472
136	0x3c2ae35b	0.010430182
137	0xbc5a959e	-0.013341336
138	0x3d1985b2	0.037481017
139	0x3d59bfd6	0.053161465
140	0x3e00feb8	0.12597167
141	0xbd7b4279	-0.06134269
142	0x3cb858c2	0.02250326
143	0x3c3587c7	0.011079735
144	0x3c0956c7	0.008382506
145	0xbca265d0	-0.019823939
146	0xbd5af31f	-0.053454515
147	0x3c075b54	0.00826152
148	0x3d099fd2	0.033599682
149	0x3d9a7f87	0.07543855
150	0xbdbbb770	-0.09165847
151	0xbcfcbccb	-0.030851742
152	0x3cd44cf4	0.0259156
153	0xbe1842be	-0.1486921
154	0xbe5b191f	-0.21396302
155	0xbdca7299	-0.09885139
156	0x3c8351da	0.01603024
157	0xbda79640	-0.08182955
158	0x3c269e2f	0.01016955
159	0x3c9a2644	0.018817075
160	0x3abb1982	0.001427457
161	0xb95ad5cd	-0.00020869747
162	0xbccd9b24	-0.02509839
163	0x3db16fbb	0.08663889
164	0xbbf52bd9	-0.0074820337
165	0xbcc6deb0	-0.024276108
166	0x3d0a66ef	0.03378957
167	0xbb973271	-0.0046141674
168	0x3e1032f2	0.14081934
169	0x3e12b8c0	0.14328289
170	0xbd2f16c4	-0.04274632
171	0xbde8ec4e	-0.113731965
172	0x3d7112f3	0.058855962
173	0x3ac9dc03	0.0015400652
174	0xbb9fd263	-0.004877375
175	0x3e1a8e23	0.15093283
176	0x3d36cf39	0.044631217
177	0xbdfed0ea	-0.12442191
178	0x3d875649	0.066082545
179	0x3c22a2ba	0.009926492
180	0xbdb14e4b	-0.08657511
181	0x3cae7602	0.021296505
182	0x3c91c9db	0.017796448
183	0x3c3c9cf0	0.011512026
184	0x3d56b7a6	0.052421235
185	0x3b0cf059	0.0021505563
186	0x3ccc10e3	0.024910396
187	0x3eac4af3	0.33650932
188	0x3cc4cff8	0.024024948
189	0x3d1802e8	0.037112147
190	0xbdd96fe6	-0.10617046
191	0xbdf6c1cc	-0.120486826
192	0xbc315d63	-0.010825488
193	0x3db3b6dc	0.08775112
194	0x3c6c94bc	0.014439758
195	0xbd0007bc	-0.031257376
196	0xbd906e84	-0.07052329
197	0x3d832174	0.06402865
198	0xbe24a455	-0.16078313
199	0x3d4b6bc8	0.049663335
200	0x3e4c561e	0.19954726
201	0xbb9f8456	-0.0048680706
202	0x3d21c455	0.039493877
203	0xbd3e100e	-0.04640203
204	0x3e23411c	0.15942806
205	0x3c4932f0	0.012280211
206	0xbe39931e	-0.18122527
207	0xbd66ce82	-0.056349285
208	0x3ba1a36a	0.0049328106
209	0x3c9a8c58	0.01886575
210	0x3c01220b	0.007881652
211	0xbdac9e65	-0.08428649
212	0xbe056dd2	-0.13030174
213	0x3e140a23	0.14456992
214	0xbc7d5187	-0.015461332
215	0xbdca617b	-0.09881874
216	0xbdf705ed	-0.12061677
217	0x3ce47227	0.027886463
218	0x3e65dab9	0.22446717
219	0xbe4bb121	-0.19891788
220	0xbcb4e6a4	-0.022082634
221	0x3d1c7f85	0.03820755
222	0x3c1aceaa	0.009448687
223	0xbd9cffac	-0.07665953
224	0x3e027d79	0.12743177
225	0xbe11db34	-0.14243776
226	0x3da23659	0.07920522
227	0x3d93660a	0.07197197
228	0x3d84b89e	0.064805254
229	0xbb25a039	-0.0025272502
230	0xbcfc7d2d	-0.030821407
231	0x3d6b4f22	0.057448514
232	0x3cae901d	0.021308953
233	0x3dfaba06	0.122425124
234	0x3d93cf00	0.072172165
235	0x3dca811c	0.09887907
236	0xbd110b28	-0.03541103
237	0x3dbcf106	0.09225659
238	0x3e30d55a	0.17268887
239	0xbddc1277	-0.107457094
240	0xbcb907c8	-0.022586718
241	0x3da15248	0.07877022
242	0xbe7222e0	-0.23646116
243	0xbd08d728	-0.033408314
244	0x3d80bdbe	0.062861905
245	0x3e44b895	0.19211037
246	0x3d821a65	0.063526906
247	0xbe23a74d	-0.15981789
248	0x3c372a96	0.011179587
249	0xbd95489b	-0.07289239
250	0xbcad6baa	-0.021169502
251	0x3d3edac5	0.046595354
252	0xbd611bb4	-0.05495806
253	0x3d8c66ac	0.068555206
254	0xbdb3b227	-0.08774214
255	0xbd8170b7	-0.06320327

network_body._body_endoder.seq_layers.2.bias f4 [128]
0	0xbcf166ba	-0.02946793
1	0x3d35f1ad	0.044419933
2	0xbd94af8d	-0.07260046
3	0xbbca04a8	-0.006165106
4	0x3c327d31	0.010894106
5	0x3d8e531d	0.06949446
6	0x3d2bdd9b	0.041959386
7	0xbd5297c1	-0.051414255
8	0x3d16e1cd	0.036836434
9	0x3ced53c7	0.028970612
10	0x3d2bd358	0.0419496
11	0xbd7d298f	-0.06180721
12	0x3c18e789	0.009332546
13	0xbd0a8254	-0.033815697
14	0x3df08292	0.11743654
15	0x3daf6c0c	0.0856553
16	0x3dc1aa71	0.09456337
17	0x3ccb43cf	0.024812607
18	0xbd721d7a	-0.059110142
19	0x3d504beb	0.05085365
20	0xbd447d3a	-0.047970988
21	0x3da767b0	0.08174074
22	0x3db98bd2	0.09059872
23	0xbd90088e	-0.07032882
24	0xbc8da259	-0.017289327
25	0x3d0ebd0a	0.03484825
26	0xbc99493d	-0.01871168
27	0x3d89a6cc	0.06721267
28	0xbd73acc5	-0.059490938
29	0xbaab469c	-0.0013067308
30	0xbd3d38a5	-0.0461966
31	0xbd8bb1f7	-0.068210535
32	0xbd02ac08	-0.031902343
33	0x3d4fd954	0.05074437
34	0x3dabd509	0.083902426
35	0xbd244e0a	-0.040113486
36	0xbd0e48e3	-0.03473748
37	0x3d1f3ba4	0.038875237
38	0x3dfca523	0.12336185
39	0x3d01b80f	0.031669673
40	0x3cef41c4	0.029206164
41	0xbda22055	-0.07916323
42	0x3dc6763d	0.09690521
43	0xbd40bf75	-0.047057588
44	0xbd05aeac	-0.032637283
45	0xbd15cae7	-0.036570456
46	0x3cd753f3	0.026285147
47	0xbd2c3907	-0.042046573
48	0xbd4fb474	-0.050709203
49	0xbc863f06	-0.016387474
50	0x3dccbdcc	0.099971384
51	0x3d0e6e49	0.034773145
52	0xbd1ca56a	-0.03824369
53	0x3d94be48	0.07262856
54	0x3db998ba	0.090623334
55	0xbd1125c7	-0.035436418
56	0x3c59a034	0.013282824
57	0x3d2a21c7	0.04153612
58	0x3dc1b028	0.09457427
59	0xbd5d4251	-0.054018322
60	0x3dac54d3	0.084146164
61	0xbb2f1269	-0.0026713854
62	0x3dbaff16	0.09130685
63	0xbd3d2604	-0.046178833
64	0x3d93aa2b	0.07210191
65	0x3d8a5577	0.067545824
66	0x3db72395	0.089423336
67	0xbd59e513	-0.053196978
68	0x3d4f3e2f	0.050596412
69	0x3dc6df87	0.09710603
70	0xbd001b56	-0.03127607
71	0xbcbfb369	-0.02340098
72	0xbc32e038	-0.010917716
73	0x3d910951	0.07081855
74	0x3db8dae1	0.09026123
75	0x3d532b28	0.05155483
76	0x3dbc40b3	0.09192028
77	0x3dbb38f3	0.091417216
78	0x3dc10970	0.09425628
79	0xbd194f4d	-0.037429143
80	0xbce1d028	-0.027565077
81	0x3d384260	0.044985175
82	0x3dc796f0	0.09745586
83	0x3dddaa99	0.108235545
84	0xbd9c10ff	-0.07620429
85	0x3dc80e6b	0.09768375
86	0xbd91bb03	-0.07115748
87	0x3d9ef9a5	0.0776246
88	0xbd1a4df0	-0.037671983
89	0x3d37c976	0.044869862
90	0x3cefc6d2	0.02926961
91	0x3dc674a5	0.09690217
92	0xbce08496	-0.027406972
93	0xbd1335a5	-0.03593983
94	0xbd352804	-0.044227615
95	0x3dc0fea8	0.09423572
96	0x3d8da64c	0.06916484
97	0xbd4a9ac2	-0.049463995
98	0xbd4ec2ec	-0.05047886
99	0xbce5ea95	-0.028065959
100	0xbcb7ef54	-0.022452988
101	0xbcea465d	-0.028598005
102	0x3d6c343b	0.057667
103	0x3da00c67	0.078148656
104	0xbd411a61	-0.047144298
105	0x3cc72574	0.024309851
106	0x3dab2dcb	0.08358344
107	0x3d52b4ad	0.051441837
108	0xbd80c303	-0.062871955
109	0x3bee095e	0.0072643002
110	0xbcc3c0c1	-0.023895623
111	0xbd447e9c	-0.047972307
112	0x3d30ff1b	0.043212038
113	0xbc5ca387	-0.013466722
114	0x3d96aabb	0.07356783
115	0xbcc2651c	-0.023729853
116	0x3d9989db	0.07496997
117	0x3ca3b11f	0.019981919
118	0x3dd67de0	0.104732275
119	0xbd25245e	-0.040317886
120	0xbcf9804f	-0.03045669
121	0xbd5f6bed	-0.054546285
122	0xbd8d0681	-0.06886006
123	0x3df4e902	0.11958505
124	0x3ce88979	0.028385865
125	0x3cb0d49f	0.02158576
126	0x3da5edc4	0.08101991
127	0xbd802f45	-0.06259016

action_model._continuous_distribution.log_sigma f4 [1, 2]
0	0xbab1ebb5	-0.0013574274
1	0xbc40cbe1	-0.0117673585

action_model._continuous_distribution.mu.weight f4 [2, 128]
0	0x3d0bb1c6	0.034105085
1	0xbcf888a4	-0.030338593
2	0x3d616d59	0.055035923
3	0x3a90fcea	0.0011061702
4	0x3d052e32	0.03251476
5	0xbd4f0b3a	-0.050547816
6	0xbd384559	-0.04498801
7	0x3c4be4b4	0.012444664
8	0xbd00e9f8	-0.03147313
9	0xbd1bd80f	-0.038047846
10	0xbd1500ce	-0.03637772
11	0x3d224ac5	0.039622087
12	0xbb256edb	-0.0025243077
13	0x3db05e23	0.08611705
14	0xbdd43b4f	-0.10362875
15	0xbd677d41	-0.056515936
16	0xbd974ef2	-0.073881045
17	0xbd52b88b	-0.051445525
18	0x3cd568b2	0.0260509
19	0xbaf95fdf	-0.0019025764
20	0x3d86f77b	0.06590172
21	0xbd8ae0cb	-0.06781157
22	0xbd88ed95	-0.0668594
23	0x3dc887a9	0.097915
24	0xbc11ca0c	-0.008898269
25	0xbd7d46e8	-0.0618352
26	0x3e22f2fc	0.15913004
27	0xbd5bd534	-0.053670123
28	0x3da356db	0.07975551
29	0x3b335d77	0.0027368942
30	0x3c55ac49	0.013041564
31	0x3d3c242e	0.04593294
32	0x3dae440e	0.08509074
33	0xbd3ca8ef	-0.046059545
34	0xbd235b0d	-0.039881755
35	0x3d92de7f	0.07171344
36	0x3cba0787	0.022708667
37	0xbc9f532d	-0.019448841
38	0xbd92a1af	-0.07159745
39	0xbd0e4fd9	-0.034744117
40	0xbc329adb	-0.010901178
41	0x3dc8c815	0.098037876
42	0xbdbbaa92	-0.09163393
43	0x3d3c3083	0.045944702
44	0x3d116635	0.035497863
45	0x3cdc23a1	0.026872458
46	0x3b9370b0	0.0044995174
47	0x3cf1825d	0.029481107
48	0x3dc4d8f8	0.09611696
49	0x3ceee32f	0.029161064
50	0xbde359bc	-0.111011
51	0xbd33c850	-0.043892205
52	0x3d8d9bdf	0.06914496
53	0xbd836b46	-0.06416945
54	0xbd907d0a	-0.07055099
55	0x3d0642da	0.0327786
56	0x3d7cf808	0.06175998
57	0xbd6a57c3	-0.057212602
58	0xbd9146af	-0.0709356
59	0x3d68cd83	0.056836616
60	0xbdac74dd	-0.084207274
61	0x3dfd5f16	0.12371652
62	0xbdaaf828	-0.08348113
63	0x3d726c11	0.05918509
64	0xbd4238eb	-0.047417562
65	0xbd7ce22a	-0.061739124
66	0xbd7cc1e1	-0.061708335
67	0x3d2b2734	0.041785434
68	0xbd33ca2f	-0.04389399
69	0xbded711d	-0.1159384
70	0x3ce08f6a	0.027412135
71	0x3d385e51	0.045011822
72	0x3d85e741	0.06538249
73	0xbd212ece	-0.039351277
74	0xbd584900	-0.052803993
75	0xbd40e317	-0.04709157
76	0xbd99602b	-0.07489046
77	0xbdb19a07	-0.086719565
78	0xbdd336a3	-0.103131555
79	0x3d905b62	0.0704868
80	0xbc91da04	-0.017804153
81	0xbd3a48e1	-0.04547966
82	0xbd75f368	-0.060046583
83	0xbdb04475	-0.08606807
84	0x3d1b9f71	0.037993852
85	0xbdd26dd9	-0.10274858
86	0x3d81b76c	0.06333813
87	0xbda66a78	-0.08125776
88	0x3d3a8a6c	0.045542166
89	0xbd5cd68f	-0.053915557
90	0xbcb16bd9	-0.021657871
91	0xbdc0e552	-0.094187394
92	0x3d42eddd	0.047590125
93	0x3cbd8c5c	0.023138218
94	0x3d54d84a	0.05196408
95	0xbda8e0fd	-0.08246038
96	0xbd9902bf	-0.07471227
97	0x3d64a384	0.055820003
98	0x3acf4c0f	0.0015815514
99	0x3da07b9e	0.07836078
100	0x3db2a366	0.08722572
101	0xbc5de778	-0.013543956
102	0xbd7607d5	-0.060066063
103	0xbd3f44ba	-0.046696402
104	0x3decc45a	0.115608886
105	0xbcbb9dd7	-0.022902412
106	0xbd4aef9d	-0.04954492
107	0xbcfbcddf	-0.030737815
108	0x3d9780bc	0.07397601
109	0x3baed912	0.0053359354
110	0x3dd82696	0.10554235
111	0x3db4cfc5	0.088286914
112	0xbcd6325f	-0.026147066
113	0x3dbe9c81	0.093071945
114	0xbdacef67	-0.084441
115	0xbb9069cc	-0.004407143
116	0xbd90210a	-0.07037552
117	0xbd37920d	-0.04481702
118	0xbd96b4ab	-0.073586784
119	0x3db586e1	0.08863617
120	0xbd0a615f	-0.033784267
121	0x3cb9f402	0.02269936
122	0x3d28f1ef	0.04124635
123	0xbdcfeebc	-0.10152957
124	0xbcdb86ef	-0.02679774
125	0xbcf30f6a	-0.029670436
126	0xbda628f5	-0.08113281
127	0x3d0a31d9	0.033738945
128	0xbd8f8d40	-0.07009363
129	0x3d40efac	0.04710357
130	0xbcd90855	-0.02649323
131	0xbd76bb4c	-0.060237214
132	0x3c652c15	0.013987561
133	0x3c11b8cd	0.008894158
134	0xbbbe7f88	-0.0058135428
135	0xbcc7030d	-0.024293447
136	0xbb98a0f4	-0.004657859
137	0xbd347daf	-0.044065174
138	0x3cedc0a5	0.029022524
139	0xbc36d653	-0.011159497
140	0x3c8a7578	0.016901717
141	0x3cebc299	0.028779315
142	0xbbe3c0ae	-0.0069504594
143	0x3d022ea7	0.031782772
144	0x3c6e448d	0.014542711
145	0xbd36aa8e	-0.044596247
146	0xbd29bb69	-0.041438494
147	0x3d1c63d5	0.038181145
148	0xbd1787dc	-0.0369948
149	0x3c1ad3a6	0.009449875
150	0xbcb7e082	-0.02244592
151	0x3cc0b3cd	0.023523236
152	0xbb2fc129	-0.0026818013
153	0x3c9d58f9	0.019207465
154	0x3c8f9514	0.01752714
155	0x3a0f8104	0.0005474242
156	0x3cc20cd3	0.023687756
157	0xbd836924	-0.06416538
158	0xbbbdcab3	-0.005791986
159	0xbd1e049b	-0.03857861
160	0x3b7258d0	0.0036979206
161	0x3d3c259d	0.04593431
162	0x3c1ca740	0.00956136
163	0x3c9f4b03	0.019444948
164	0x3cf2175b	0.029552152
165	0x3bcb5644	0.006205352
166	0x3ccb5c52	0.024824295
167	0xbd7fdf61	-0.06246889
168	0x3d4c3e0b	0.049863856
169	0xbcb0be09	-0.02157499
170	0x3cec04c5	0.028810868
171	0x3d28eb89	0.04124025
172	0x3b3cd585	0.002881379
173	0xbd1de81d	-0.03855144
174	0x3b37649c	0.0027983552
175	0xbd20f82f	-0.039299186
176	0xbb8bd7a1	-0.0042676483
177	0xbd43b4d1	-0.04777986
178	0x3d56878a	0.052375354
179	0x3ab56d06	0.0013841696
180	0xbc145f81	-0.009055973
181	0xbcd06e8f	-0.025443343
182	0x3cd3ff01	0.025878431
183	0xbd3d125f	-0.0461601
184	0x3cdd7945	0.027035365
185	0x3d29b5d4	0.04143317
186	0xbca43418	-0.020044371
187	0x3c87246f	0.016496865
188	0x3cdb2fc6	0.026756179
189	0x3d24e5a0	0.04025805
190	0x3d0f6412	0.035007544
191	0x3b428e77	0.0029686966
192	0xbc792572	-0.015206682
193	0xbcfca246	-0.030839097
194	0xbb4101e0	-0.002945058
195	0x3c6a64fe	0.014306305
196	0xbceb29bc	-0.028706424
197	0x3d6e98d4	0.058251217
198	0xbc9434f4	-0.018091656
199	0x3d41ab08	0.04728225
200	0x3d35a948	0.044350892
201	0x3bad7c3d	0.0052943514
202	0x3cc709ed	0.024296725
203	0x3d0501d5	0.03247245
204	0xbb6516ea	-0.0034956285
205	0x3c9f64f4	0.019457318
206	0x3cce0f74	0.025153853
207	0x3d2562f8	0.040377587
208	0xbd1f3e54	-0.0388778
209	0x3d042a0f	0.032266673
210	0xbbc99774	-0.006152088
211	0xbba413a8	-0.005007226
212	0xbb2fcb27	-0.002682397
213	0x3d3484fa	0.04407213
214	0x3ba6d989	0.00509185
215	0xbd05f4f0	-0.032704294
216	0x3d165a98	0.03670749
217	0xbda1ba7c	-0.07896897
218	0x3c026191	0.007957832
219	0x3d013103	0.03154088
220	0xbd8e745f	-0.0695579
221	0x3d03231a	0.032015897
222	0x3d5f6482	0.05453921
223	0x3c405120	0.011738092
224	0x3be2f227	0.0069258395
225	0xbb50dc77	-0.0031869689
226	0xbd288694	-0.04114397
227	0xbbc97c58	-0.006148856
228	0xbca70d0f	-0.020391969
229	0x3cb74a35	0.022374252
230	0x3bba2b85	0.0056814575
231	0xbc413bdb	-0.011794056
232	0x3c1467c1	0.00905794
233	0xbcc0f934	-0.02355633
234	0x3cb96246	0.022629868
235	0x3b8bc44c	0.004265344
236	0xbb92d021	-0.0044803773
237	0x3d1259db	0.035730224
238	0x3c6e1b56	0.014532885
239	0xbd2a5adb	-0.041590553
240	0x3cd827f6	0.026386242
241	0x3cc173f2	0.023614857
242	0xbd097d7a	-0.03356693
243	0xbd1cf74d	-0.038321782
244	0xbc3f6dcf	-0.011683895
245	0xbd3dabac	-0.046306297
246	0x3cb9d732	0.022685621
247	0xbccdc822	-0.025119845
248	0xbcb27758	-0.021785423
249	0xbbb96943	-0.0056583
250	0xbcd72e04	-0.02626706
251	0x3ca81fde	0.020523008
252	0x3cae24e9	0.021257835
253	0xbd084544	-0.03326918
254	0xbc58b482	-0.01322663
255	0x3b7edd3c	0.003888919

action_model._continuous_distribution.mu.bias f4 [2]
0	0xbd9e463e	-0.077282414
1	0x3ca0fdc4	0.019652255

onnx::Div_71 f4 [20]
0	0x3e182659	0.14858378
1	0x3eff65dc	0.498824
2	0x3e91e0a1	0.2849169
3	0x3ea079b2	0.31342846
4	0x3e23dc41	0.16001989
5	0x3eafa3fd	0.343048
6	0x3d88a795	0.06672589
7	0x3e045c9c	0.12925953
8	0x3e22e32e	0.15906975
9	0x3ed7adad	0.42124692
10	0x3d3f5899	0.046715353
11	0x3dfb81c3	0.122806095
12	0x3e17ffa2	0.1484361
13	0x3ecd0a76	0.40047044
14	0x3db904f6	0.09034149
15	0x3e2e7896	0.17038187
16	0x3de46471	0.1115197
17	0x3efa5af7	0.48897526
18	0x3d352e2e	0.044233494
19	0x3e0e9dd0	0.13927388

onnx::Div_74 f4 [12]
0	0x3d038adf	0.03211486
1	0x3efffde5	0.49998394
2	0x3c0febf8	0.008784287
3	0x3d976f15	0.07394234
4	0x3d01d26b	0.03169481
5	0x3efe79de	0.49702352
6	0x3c1ea282	0.0096823
7	0x3d8c3630	0.06846273
8	0x3d03beae	0.03216427
9	0x3eff8c50	0.49911737
10	0x3c1281db	0.008942093
11	0x3d9eb3a3	0.07749107

onnx::Div_77 f4 [3]
0	0x3f7ad0fd	0.9797514
1	0x3c66d049	0.014087745
2	0x3fa8d592	1.3190176
