Experimentos/results/ppo4/KartAgent/KartAgent-149986.onnx (onnx, 620578 bytes, 10 tensors)

network_body._body_endoder.seq_layers.0.weight f4 [128, 35]
0	0x3ebdefee	0.37097114
1	0x3e3ba20c	0.18323535
2	0xbcef1d57	-0.029188795
3	0xbd661cc4	-0.056179777
4	0x3e264714	0.16238052
5	0x3d893b88	0.06700808
6	0xbac3e795	-0.0014946336
7	0xbd38f9e1	-0.045160178
8	0x3e0cc2e3	0.13746218
9	0xbe2f971a	-0.17147484
10	0xbd0ee1f2	-0.034883447
11	0xbe1dd40f	-0.15412925
12	0x3d869a3a	0.06572385
13	0xbdcbc76a	-0.099501446
14	0x3e2b2fda	0.16717473
15	0xbb76f4e1	-0.003768258
16	0xbe2bf6fc	-0.16793436
17	0x3daca989	0.08430774
18	0xbd89695b	-0.06709548
19	0x3e26d2e3	0.16291384
20	0x3dcee513	0.10102286
21	0xbd52edd5	-0.051496346
22	0x3dbd828b	0.09253415
23	0xbd0a972b	-0.03383557
24	0xbcdddaa5	-0.027081797
25	0x3e95455b	0.29154477
26	0x3cd992f7	0.026559336
27	0xbcb5d128	-0.02219446
28	0xbca6d37b	-0.020364514
29	0x39c5198b	0.000375938
30	0x3ea3035f	0.3183851
31	0x3e52d6af	0.20589708
32	0xbe689e68	-0.22716677
33	0xbd7e5441	-0.06209207
34	0x3ccb3e59	0.024810003
35	0x3e6feb58	0.2342962
36	0x3cea51f5	0.028603533
37	0xbd0fe920	-0.035134435
38	0xbd8dcad8	-0.06923455
39	0xbe517725	-0.20455606
40	0x3e3268ec	0.17422837
41	0x3e837876	0.25677842
42	0x3b6909ea	0.0035558888
43	0x3a908fbc	0.0011029164
44	0x3e80b1d0	0.2513566
45	0x3e29f383	0.16596799
46	0x3bbb889f	0.0057230736
47	0xbd9c6bec	-0.07637772
48	0x3e2b9164	0.16754681
49	0x3dd3e3bb	0.103461705
50	0x3c67fac4	0.014158908
51	0x3deae69d	0.11469767
52	0xbe989036	-0.29797524
53	0xbbf86886	-0.0075808195
54	0x3cb6a9f9	0.022297846
55	0x3dcc8e1c	0.09988043
56	0x3e93598d	0.2877926
57	0x3b6662f9	0.0035154207
58	0x3bae576e	0.005320481
59	0x3e9288ed	0.2862009
60	0x3e03bb55	0.1286443
61	0x3b0aa616	0.0021156124
62	0x3d8d75c4	0.06907228
63	0x3da328a4	0.07966736
64	0xbda8397e	-0.08214091
65	0xbe28c0a6	-0.1647974
66	0x3d8347f9	0.06410212
67	0xbdc10e13	-0.094265126
68	0x3db0f56c	0.086405605
69	0xbd93cd76	-0.07216923
70	0xbe9e8753	-0.3096262
71	0x3dd86c46	0.105675265
72	0xbd6a5457	-0.05720934
73	0xbe535932	-0.20639494
74	0x3dd40754	0.1035296
75	0xba3982dc	-0.00070766895
76	0xbdf1fcb6	-0.11815779
77	0xbe197bc7	-0.14988624
78	0x3db55238	0.088535726
79	0xbe909e28	-0.28245664
80	0xbd086b22	-0.033305295
81	0xbea19c90	-0.3156476
82	0xbdd496a4	-0.10380295
83	0x3e6814fa	0.22664252
84	0xbe759119	-0.23981132
85	0x3da983d6	0.08277099
86	0xbe2844d1	-0.16432501
87	0x3e74657e	0.23866841
88	0x3db8508e	0.089997396
89	0xbe6d6d63	-0.23186259
90	0xbdcb4220	-0.09924722
91	0x3d0b1591	0.033956114
92	0x3d64b7e5	0.055839438
93	0x3e3715e9	0.17879452
94	0xbbf50b08	-0.0074781217
95	0x3d62b402	0.05534745
96	0xbd865a8c	-0.06560239
97	0x3ef551c6	0.4791395
98	0xbe0f8310	-0.1401484
99	0xbcc11428	-0.023569182
100	0x3d3e3030	0.046432674
101	0xbd031352	-0.032000847
102	0xbd961848	-0.0732885
103	0x3dc4675f	0.09590029
104	0x3e9e576e	0.3092608
105	0xbe3ae107	-0.18249904
106	0xbc139884	-0.0090085305
107	0x3e001e0d	0.12511463
108	0x3dd16bdb	0.1022565
109	0x3e015347	0.12629424
110	0xbe40ac57	-0.18815742
111	0xbe101892	-0.14071873
112	0xbe466ea7	-0.19378148
113	0xbd010592	-0.031499453
114	0xbe2db014	-0.169617
115	0x3cfd7223	0.030938214
116	0x3e49ab62	0.19694284
117	0xbe7be36e	-0.24598476
118	0x3e433c07	0.19065867
119	0xbe4615e4	-0.19344288
120	0x3e335371	0.17512299
121	0x3e3bded9	0.18346728
122	0x3e28696e	0.16446468
123	0xbe0ce6d1	-0.13759924
124	0x3e47bcb6	0.19505581
125	0x3c5b8402	0.013398172
126	0xbd9352c7	-0.07193523
127	0x3e0a9692	0.13534
128	0x3ddd29ed	0.10799012
129	0xbe48310f	-0.19549964
130	0xbde6f259	-0.11276693
131	0xbd9803ec	-0.07422623
132	0xbe5da36e	-0.21644375
133	0xbde939cb	-0.11387976
134	0xbe9abd2e	-0.30222458
135	0xbb6b3aea	-0.003589327
136	0x3e85afc2	0.26110655
137	0xbe49b644	-0.19698435
138	0x3d0da419	0.034580324
139	0x3dc4cad8	0.09609002
140	0x3e3f0525	0.18654306
141	0x3d4f394d	0.050591756
142	0xbe9bf083	-0.30456933
143	0x3c58557b	0.013203974
144	0x3dd71a78	0.105030954
145	0xbe625cef	-0.22105764
146	0xbe41ecdb	-0.1893801
147	0x3e4335a0	0.19063425
148	0xbdd48119	-0.10376186
149	0xbdb1612e	-0.08661114
150	0x3e12fe26	0.14354762
151	0xbd966509	-0.0734349
152	0xbdefe741	-0.1171403
153	0x3dc75cad	0.097344734
154	0xbddb9be1	-0.10723091
155	0xbd2cdb73	-0.04220147
156	0x3d315412	0.043293066
157	0xbd968dee	-0.0735129
158	0xbdc48cdb	-0.095971785
159	0xbddaf4bb	-0.1069121
160	0x3e40d68b	0.18831842
161	0x3e35841c	0.17726177
162	0xbd2a8b75	-0.041636903
163	0xba1cdaeb	-0.0005983549
164	0xbcd83ede	-0.026397165
165	0xbd9b8e69	-0.07595522
166	0xbd82ffb0	-0.06396425
167	0x3e0ab067	0.13543855
168	0xbee092d5	-0.43862024
169	0x3d6c4046	0.057678483
170	0x3b89b78d	0.004202789
171	0x3cd06fca	0.02544393
172	0x3d5e3bbc	0.054256186
173	0xbda33bf8	-0.079704225
174	0xbe98cc8f	-0.29843566
175	0xbe820776	-0.25396317
176	0x3d5d8134	0.054078296
177	0x3e85f3e6	0.26162642
178	0xbe05656c	-0.1302697
179	0x3c491a4b	0.012274335
180	0x3d9660dc	0.07342693
181	0xbe4359c6	-0.19077215
182	0x3e0d97c4	0.13827425
183	0x3daa2765	0.08308295
184	0xbd4ace95	-0.04951342
185	0xbc4bec65	-0.012446498
186	0xbd49f690	-0.049307406
187	0xbccadcfe	-0.02476358
188	0xbe89d42a	-0.2691968
189	0xbe0bb1a0	-0.13641977
190	0xbd879531	-0.06620253
191	0x3e24940d	0.16072102
192	0xbddefe70	-0.10888374
193	0x3e5cf21c	0.21576732
194	0xbd5485d0	-0.051885426
195	0xbe20f97d	-0.15720172
196	0xbe7a4e5c	-0.24443954
197	0x3c4cd2b8	0.012501411
198	0xbe8a2422	-0.26980692
199	0xbe775bc1	-0.24156095
200	0xbd646c6f	-0.055767473
201	0xbea32df1	-0.31870988
202	0x3defed4a	0.11715181
203	0xbc2fcdf9	-0.01073026
204	0x3e24759c	0.1606049
205	0xbddb002a	-0.10693391
206	0x3e0fb0d1	0.14032294
207	0x3e5ef1ed	0.21771975
208	0x3cf040c1	0.029327752
209	0x3dfc3797	0.123152904
210	0x3cafc79b	0.021457484
211	0xbd7a7f5b	-0.061156612
212	0x3e4f57bb	0.2024831
213	0x3dc80cc6	0.09768061
214	0xbe73c47d	-0.23805423
215	0xbe654044	-0.22387797
216	0x3e21420d	0.15747853
217	0x3d16972e	0.03676527
218	0xba930c65	-0.0011218904
219	0x3e964059	0.29345968
220	0xbd9bf7af	-0.07615601
221	0x3ea48f90	0.3214078
222	0x3ca43670	0.02004549
223	0xbe12abde	-0.14323375
224	0xbd0ae3f8	-0.033908814
225	0xbe33c4b8	-0.17555511
226	0xbe5e96cb	-0.2173721
227	0x3eb860a3	0.36011228
228	0xbd865e62	-0.06560971
229	0xbe5ca3b1	-0.21546818
230	0xbce8d628	-0.02842243
231	0xbcf27c1e	-0.0296002
232	0x3db9aba5	0.09065942
233	0x3da402da	0.080083564
234	0x3d60d2f9	0.0548887
235	0xbef37aa3	-0.47554502
236	0xbcbe0da7	-0.02319987
237	0xbc0bbad5	-0.008528431
238	0xbdecd2dd	-0.115636565
239	0x3e02bf07	0.12768184
240	0x3ebec690	0.37260866
241	0x3e823447	0.2543051
242	0xbe0f7986	-0.14011201
243	0x3e64a6ce	0.22329256
244	0x3e6bc2eb	0.23023574
245	0xbe6ad2e0	-0.22932005
246	0x3e1c6ec3	0.15276627
247	0xbc201909	-0.009771594
248	0xbe801cd2	-0.25021988
249	0x3e4a7dd8	0.19774568
250	0xbe010afe	-0.1260185
251	0xbe24d87a	-0.16098204
252	0x3d01c91e	0.03168594
253	0xbe24d27c	-0.16095918
254	0x3ea1f90d	0.31635323
255	0x3e9244b4	0.2856804

network_body._body_endoder.seq_layers.0.bias f4 [128]
0	0x3c80698e	0.015675332
1	0xbc923f8b	-0.017852565
2	0x3ce8d5d9	0.028422283
3	0x39c7424f	0.00038005642
4	0x3cdcb960	0.026943862
5	0x3cbaffca	0.022827048
6	0x3c5ef33d	0.013607797
7	0xbbc9c95f	-0.0061580385
8	0x3cb4ecb4	0.022085525
9	0xbcc91000	-0.024543762
10	0x3d3db3dd	0.04631411
11	0x3c8d2d77	0.017233593
12	0xbb639860	-0.0034728274
13	0x3c877fde	0.016540464
14	0xbc42c6d1	-0.011888222
15	0x3d25a42d	0.040439773
16	0xbccfa24c	-0.025345944
17	0xbc0e4806	-0.008684164
18	0xbb0d9c1a	-0.0021607936
19	0x3bd235e7	0.006415117
20	0x3c054714	0.008134622
21	0xbc9e6765	-0.019336412
22	0xbae47555	-0.0017429987
23	0xbc8e280b	-0.017353078
24	0xbc57ca4c	-0.01317079
25	0x3cccfa13	0.025021588
26	0x3cdc70b0	0.026909202
27	0x3c0898f9	0.008337253
28	0x3d023402	0.03178788
29	0x3bc6019d	0.006042673
30	0x3a656471	0.00087506237
31	0x3c3d8834	0.011568118
32	0x3c68479b	0.014177228
33	0x3b3e2edf	0.0029019637
34	0x3ab62096	0.0013895209
35	0xbc80d17b	-0.015724888
36	0x3ca251a1	0.019814314
37	0x3bc664a6	0.0060544787
38	0x3b935be0	0.0044970363
39	0xbc5c52a5	-0.013447438
40	0x3c97e765	0.018542955
41	0xbc522c8a	-0.012828002
42	0xbcd3694c	-0.025807045
43	0x3c51f596	0.0128149
44	0x3ca91b17	0.0206428
45	0x3c907e92	0.017638478
46	0x3c91d9c9	0.017804043
47	0x3cc662be	0.024217006
48	0xbcdaf059	-0.026725935
49	0x3ca45a0f	0.020062475
50	0xba982a2b	-0.0011609247
51	0x3c1ffad4	0.009764392
52	0x3c0a6fcc	0.008449506
53	0xbc612892	-0.013742583
54	0x3c66f95b	0.014097537
55	0xbc78cee5	-0.015186046
56	0x3c680349	0.0141609395
57	0x3cc300b6	0.02380405
58	0x3c53d2c1	0.012928666
59	0xbc2ecf69	-0.010669568
60	0x39d137c9	0.0003990515
61	0x3d32be94	0.04363878
62	0x3b8fbc53	0.0043864637
63	0xbcb6f353	-0.022332823
64	0x3c621ac3	0.013800326
65	0xbbcc774e	-0.006239808
66	0xbb79e7ee	-0.0038132626
67	0x3d07dd1f	0.033169862
68	0x3d11552e	0.035481624
69	0x3cce7c98	0.025205895
70	0x3b78221b	0.0037862125
71	0xbc518f20	-0.012790471
72	0xbc1c832c	-0.009552758
73	0x3d07a9dc	0.033120975
74	0xbc6c6745	-0.014428918
75	0x3c86bdf9	0.016448008
76	0xbc98f54d	-0.018671656
77	0xbc14a8ec	-0.009073477
78	0x3b96921c	0.0045950543
79	0xbca32bed	-0.019918406
80	0x3ca1c990	0.019749433
81	0xbcbc40ce	-0.02298012
82	0xbcca25f9	-0.02467631
83	0xbbd37821	-0.0064535295
84	0x3c3fc98c	0.011705767
85	0x3c614aa6	0.013750708
86	0x3c73a41a	0.014870668
87	0x3d48adae	0.04899376
88	0x3c1bdb1d	0.00951269
89	0x3cee84c4	0.029116042
90	0xbb0e703e	-0.0021734382
91	0x3b80a874	0.003926331
92	0xbc8bb498	-0.017053887
93	0x3c6849ee	0.014177782
94	0xbc805157	-0.015663786
95	0x3cfe846b	0.031069001
96	0xbc066732	-0.008203315
97	0x3d236390	0.039889872
98	0x3cc47e6b	0.023986062
99	0x3c266adc	0.010157313
100	0x3c36d165	0.011158322
101	0x3c409c7b	0.011756058
102	0x3c307748	0.010770626
103	0x3cad14ca	0.021128077
104	0x3b50ca15	0.0031858732
105	0xbc34bde5	-0.0110316025
106	0x3d2566a8	0.040381104
107	0x3c2b5bcb	0.010458897
108	0x3c70b12c	0.014690679
109	0x3b034ae8	0.0020033661
110	0x3cc4e892	0.02403668
111	0xbbfe4344	-0.0077594835
112	0xbca982b0	-0.0206922
113	0xbb697cef	-0.0035627445
114	0xbc9eba58	-0.019375965
115	0x3be48686	0.0069740443
116	0x3bddae8d	0.006765193
117	0xbac4b1cf	-0.0015006604
118	0xbbd85a82	-0.0066025862
119	0x3c6baa42	0.014383854
120	0x3c86a022	0.01643378
121	0xbc5ddff9	-0.013542169
122	0x3c8eec9b	0.017446807
123	0x3b8d14fa	0.004305479
124	0x3ba434eb	0.005011191
125	0xbc7ba0e0	-0.01535818
126	0x3c77d83e	0.01512724
127	0x3cbb949b	0.022898009

network_body._body_endoder.seq_layers.2.weight f4 [128, 128]
0	0x3d9ef674	0.07761851
1	0xbc67ecd5	-0.014155586
2	0x3c1963ae	0.009362144
3	0xbd56c599	-0.052434538
4	0x3d7f862a	0.06238381
5	0xbc5a878a	-0.013337979
6	0xbd2eb85b	-0.042656284
7	0x3dec5852	0.11540283
8	0x3d3b9a2d	0.04580133
9	0xbbac79ea	-0.0052635567
10	0xbc23e372	-0.010002958
11	0x3ded1084	0.11575416
12	0xbd4a2da6	-0.04935994
13	0x3d2da6af	0.04239529
14	0x3cc5c026	0.024139475
15	0x3d89728d	0.06711302
16	0xbc8b0a75	-0.01697276
17	0x3d4141d6	0.047181927
18	0x3d6b9718	0.05751714
19	0xbd35ba2d	-0.044367004
20	0x3d982c7c	0.0743036
21	0xbdbaa630	-0.09113729
22	0x3dfe3b72	0.12413682
23	0xbdb8762e	-0.09006916
24	0xbd0c10a4	-0.034195557
25	0xbd57ab0e	-0.052653365
26	0xbe05cce2	-0.13066438
27	0xbe2bb439	-0.16767968
28	0xbbe6c1da	-0.007042152
29	0xbe090f88	-0.13384831
30	0xbaf74c50	-0.0018867347
31	0xbd954e35	-0.072903074
32	0xbcaf841a	-0.021425296
33	0xbd8856d7	-0.066571884
34	0xbe42c9ef	-0.19022344
35	0xbd09bc5c	-0.0336269
36	0x3d89ad58	0.06722516
37	0x3de13e4c	0.1099821
38	0x3cf99a4c	0.030469082
39	0xbde32ec9	-0.11092908
40	0xbda8665e	-0.0822265
41	0xbcf38c38	-0.029729947
42	0xbdecd2cb	-0.11563643
43	0xbd3b2356	-0.045687996
44	0x3c09596a	0.008383134
45	0x3bfa7ceb	0.007644286
46	0x3e23ced7	0.15996872
47	0x3d1325fe	0.035924904
48	0xbc3fea9d	-0.011713651
49	0x3c02f261	0.007992358
50	0x3d846cb2	0.064660445
51	0xbd729335	-0.05922242
52	0xbab05cd6	-0.0013455402
53	0xbd9c3591	-0.076274045
54	0x3e121166	0.1426445
55	0xbe666d8a	-0.22502723
56	0x3d5defcd	0.05418377
57	0xbb1b1674	-0.0023664506
58	0xbd5fd973	-0.054650735
59	0x3ddadadc	0.10686275
60	0xbc7070f8	-0.014675371
61	0x3b0be4ff	0.002134621
62	0x3acb827f	0.0015526562
63	0x3d01bc5f	0.031673785
64	0xbc9ec933	-0.019383049
65	0xbd0c64b3	-0.03427572
66	0xbdcce464	-0.100044996
67	0xbd0b26c5	-0.03397252
68	0xbd25cf74	-0.040481046
69	0x3c81cd0e	0.015844848
70	0xbdaa3321	-0.08310533
71	0x3dad550c	0.08463487
72	0x3c7d3ca8	0.015456356
73	0xbcb72bae	-0.022359695
74	0x3e0ce140	0.13757801
75	0xbc0d0fdc	-0.008609738
76	0x3d517c28	0.051143795
77	0x3dcdb720	0.10044694
78	0xbdcddf5d	-0.10052369
79	0x3d5c4ace	0.053782277
80	0x3d2e0eb9	0.04249451
81	0xbd84eb49	-0.064901896
82	0xbd328b4f	-0.043589886
83	0x3cc4c3b2	0.024019096
84	0xbd2852c7	-0.041094568
85	0xbcd8ebc4	-0.02647961
86	0x3db83dec	0.08996186
87	0xbd22ca9c	-0.039744005
88	0xbdac44fe	-0.08411597
89	0x3e01d651	0.12679411
90	0x3e0c1941	0.13681509
91	0xbdeee16c	-0.116640896
92	0xbe16be90	-0.14721131
93	0xbd899195	-0.06717221
94	0xbcd49275	-0.025948742
95	0x3e006017	0.12536655
96	0xbd29af74	-0.04142709
97	0xbd2dbf59	-0.04241881
98	0xbdd25242	-0.10269596
99	0xbd8e8665	-0.069592275
100	0xbe32eba7	-0.17472707
101	0xbd474494	-0.048649386
102	0x3cbcc2e7	0.023042155
103	0xbce160b7	-0.027511938
104	0xbddb9859	-0.107224174
105	0xbe254a35	-0.16141589
106	0x3d818dac	0.0632585
107	0xbd2dafed	-0.042404104
108	0xbd287c60	-0.04113424
109	0xbdc2a5f2	-0.09504308
110	0x3d94edbb	0.07271906
111	0x3cdb590e	0.026775863
112	0xbe66b5fb	-0.22530358
113	0x3ce12a5f	0.027486024
114	0x3d343fa7	0.044006016
115	0xbddb4cf8	-0.1070804
116	0x3e027bbf	0.12742518
117	0x3dc043ed	0.09387956
118	0xbc784d50	-0.0151551515
119	0xbc9c99e1	-0.019116344
120	0xbe16b089	-0.1471578
121	0x3dbc41c5	0.09192232
122	0x3b2e9a95	0.002664243
123	0x3d1e2d9d	0.03861772
124	0xbdd0f7d1	-0.10203517
125	0xbd8337dc	-0.06407139
126	0x3cb879e4	0.02251906
127	0xbe022a83	-0.1271153
128	0xbe20919f	-0.1568055
129	0x3dfc8d31	0.123316176
130	0xbd199b8d	-0.03750186
131	0xbd960d0d	-0.07326708
132	0xbd872b04	-0.066000015
133	0xbe3d9dda	-0.18517247
134	0xbdeff4a4	-0.11716583
135	0x3e547cb3	0.20750694
136	0x3d074284	0.03302242
137	0x3dff3446	0.12461142
138	0xbe097f22	-0.13427404
139	0x3dccdc48	0.10002953
140	0x3e061e5f	0.13097523
141	0x3e0a78c0	0.13522625
142	0xbe5c122b	-0.21491306
143	0x3e083b42	0.13303855
144	0xbc8f3003	-0.017478948
145	0xbd1dcd80	-0.03852606
146	0xbd21b203	-0.039476406
147	0x3d177271	0.036974374
148	0x3de6f9d5	0.112781204
149	0x3e3e428c	0.18580073
150	0xbd52ef3c	-0.051497683
151	0xbd80168c	-0.062543005
152	0x3c4829d8	0.012217008
153	0x3ddd15ca	0.107951716
154	0x3d8e08cb	0.06935271
155	0xbd7c3448	-0.061573297
156	0xbe49b2a0	-0.19697046
157	0x3e06a14d	0.13147469
158	0xbd755424	-0.059894696
159	0xbda6c700	-0.08143425
160	0xbd489603	-0.048971187
161	0x3c8dee98	0.017325684
162	0xbdefd575	-0.117106356
163	0x3db2e10f	0.08734333
164	0xbdcabcc4	-0.098992854
165	0x3e41b661	0.18917228
166	0x3d440ac6	0.047861837
167	0x3d68448f	0.056706008
168	0x3d9b4ae6	0.07582645
169	0x3c2142b8	0.009842567
170	0xbd576677	-0.052587952
171	0x3d5cc951	0.053902928
172	0x3e2b4cdd	0.1672854
173	0x3c29d903	0.010366681
174	0xbe154643	-0.14577584
175	0x3d6cb038	0.057785243
176	0xbdbdc033	-0.09265175
177	0x3dcac809	0.09901435
178	0xbda8fb34	-0.08251038
179	0xbe021e4b	-0.12706868
180	0x3dfec033	0.12439003
181	0x3c0ec862	0.008714767
182	0xbcd19efe	-0.025588509
183	0x3e168bde	0.14701793
184	0xbd65ca03	-0.056100857
185	0xbb11cce3	-0.0022247366
186	0xbd756846	-0.059913896
187	0x3deba50f	0.11506092
188	0x3d64ad77	0.05582949
189	0xbc673e15	-0.014113923
190	0xbd17296e	-0.036904745
191	0x3c92f9d2	0.01794139
192	0x3dab4f83	0.08364775
193	0x3e518723	0.20461707
194	0x3d90c8f6	0.0706958
195	0x3caaa07a	0.020828474
196	0x3e407e29	0.18798126
197	0xbd7573b6	-0.059924804
198	0xbd565846	-0.052330278
199	0x3e0aaa64	0.13541561
200	0xbb72ce86	-0.0037049367
201	0xbdc66f6f	-0.09689223
202	0x3d3bb895	0.045830328
203	0x3b8e6ed8	0.0043467097
204	0xbe755b6f	-0.2396066
205	0xbd31f22c	-0.043443844
206	0xbcc5410a	-0.024078865
207	0x3b1d26e4	0.002397948
208	0xbb4a8262	-0.0030900468
209	0xbd80c652	-0.062878266
210	0xbd44811a	-0.047974683
211	0x3db9851f	0.09058594
212	0x3dabcd02	0.083887115
213	0x3e3828a3	0.17984252
214	0xbe06e695	-0.13173898
215	0xbe1f38ad	-0.15548964
216	0xbdeeae99	-0.116543956
217	0xbcb9ac37	-0.022665126
218	0xbdb9ef93	-0.09078898
219	0xbdca43ce	-0.09876214
220	0xbd442b72	-0.047892995
221	0x3da1b533	0.07895889
222	0xbd21e7d0	-0.039527714
223	0x3d148f27	0.036269333
224	0xbafa00c1	-0.0019073711
225	0x3c2e1a7c	0.010626432
226	0x3cf08f00	0.029365063
227	0x3d9f9c9d	0.077935435
228	0x3d53e7c2	0.051734693
229	0xbda6cb64	-0.081442624
230	0x3dd63bd6	0.104606315
231	0xbd094bac	-0.033519432
232	0x3e236b04	0.15958792
233	0xbd9b622e	-0.07587086
234	0x3d2c60ec	0.04208462
235	0x3cba271c	0.022723727
236	0x3d9ccc8e	0.07656203
237	0x3ae25abb	0.0017269471
238	0x3d724f9e	0.05915796
239	0xbd77a6a9	-0.060461674
240	0xbdf43452	-0.11924042
241	0x3e1ccc4e	0.15312311
242	0x3e2f39de	0.17111918
243	0x3a856a5f	0.0010178796
244	0x3dd1d343	0.10245373
245	0x3defce6a	0.11709292
246	0xbdfd1a5e	-0.12358545
247	0xbd3195a9	-0.043355618
248	0x3cb59e51	0.022170218
249	0x3d1636a1	0.036673192
250	0x3d3d9707	0.04628661
251	0x3e49b2cf	0.19697116
252	0x3ce4897f	0.027897594
253	0x3dc1a393	0.094550274
254	0x3d881b20	0.06645799
255	0xbc3b6f2f	-0.011440082

network_body._body_endoder.seq_layers.2.bias f4 [128]
0	0x3c05f12f	0.008175178
1	0xbc25a557	-0.010110221
2	0x3bf9db67	0.0076250318
3	0x3b688687	0.0035480575
4	0xb975d736	-0.00023445193
5	0xbc8ae4b4	-0.016954757
6	0x3d2a4b53	0.04157574
7	0xbb23055e	-0.0024875025
8	0xb9674bea	-0.00022058157
9	0xbc055c46	-0.0081396755
10	0x3b00e612	0.0019668383
11	0xbad94401	-0.0016576053
12	0xbc48bef1	-0.012252555
13	0xbba7bc30	-0.0051188692
14	0xbbec1ec6	-0.007205817
15	0x3c632839	0.01386457
16	0xbb7c437a	-0.0038492368
17	0xbbe6bc6c	-0.0070415046
18	0x3c794361	0.015213818
19	0x3b2fb673	0.002681163
20	0x3c972f31	0.01845512
21	0x3cce2538	0.025164232
22	0xbceffd27	-0.029295517
23	0x3be1f03f	0.0068950946
24	0x3c62616d	0.013817173
25	0xbb720f60	-0.0036935434
26	0x3bed12ab	0.0072348914
27	0x3cd75b78	0.026288733
28	0x3c857467	0.016290857
29	0xbb29e340	-0.0025922805
30	0xbb4dd8ad	-0.0031409666
31	0x3c5edb57	0.013602099
32	0xbb915dad	-0.004436216
33	0xbd0e98e2	-0.03481377
34	0xbb0efa57	-0.0021816695
35	0x3a947501	0.0011326374
36	0xbc2d35f2	-0.010571944
37	0x3c143728	0.009046353
38	0x3c340ccb	0.010989378
39	0x3bb7c225	0.0056078606
40	0x3acdbb24	0.0015696031
41	0x3c307227	0.010769404
42	0xbc83d689	-0.01609351
43	0x3bea5e41	0.007152349
44	0x3c479c5e	0.012183277
45	0x3c35483d	0.011064586
46	0xbb6d968b	-0.003625306
47	0xbbff427e	-0.007789909
48	0x3c9d7d29	0.01922472
49	0x3cabdaeb	0.020978412
50	0x3d203158	0.039109558
51	0x3c19feec	0.009399157
52	0xbb561966	-0.0032668947
53	0x3bae0c23	0.0053115054
54	0x3cd8407d	0.026397938
55	0x3beecca4	0.0072875787
56	0x3c120956	0.008913359
57	0x3cdf646e	0.027269568
58	0x3cb30106	0.021851074
59	0x3b22d942	0.0024848734
60	0x3c54aaac	0.0129801445
61	0x3bdca5b4	0.0067336205
62	0xbc5863e8	-0.013207413
63	0x3ba2a418	0.004963409
64	0x3ba9fe7a	0.0051878067
65	0xbc1bf704	-0.009519342
66	0xbb904cca	-0.004403685
67	0xb9ec708d	-0.00045097285
68	0x3c1650db	0.009174551
69	0x3c857268	0.016289905
70	0x3c0cd7c5	0.008596365
71	0x3b84f30f	0.004057295
72	0x3c190090	0.009338513
73	0xbc453911	-0.0120375315
74	0x3c22ec40	0.009944022
75	0x3b454dbb	0.0030106145
76	0x3b614bbb	0.0034377414
77	0x3c15569e	0.009114889
78	0x3c0a5340	0.0084427
79	0x3d1c4103	0.038147938
80	0xbcd2549b	-0.025675109
81	0xb99b527d	-0.00029625362
82	0x3c6ab617	0.01432564
83	0x3b43fac7	0.0029904114
84	0x3c86630c	0.016404651
85	0x3a0a40b4	0.0005273924
86	0xbc36c205	-0.011154656
87	0xbc828d1e	-0.01593643
88	0x3d05f1f6	0.032701455
89	0xbc159460	-0.009129614
90	0xbb985ee9	-0.004649986
91	0x3baf5f18	0.005351912
92	0xbba8ae33	-0.0051477193
93	0xbb984020	-0.004646316
94	0x3be50884	0.0069895405
95	0xbb850668	-0.0040596016
96	0x3bf5727b	0.007490454
97	0x3cb8f946	0.0225798
98	0xbbe710c9	-0.0070515615
99	0x3c326312	0.010887878
100	0xbaf468c2	-0.0018646943
101	0xbc82ef29	-0.015983181
102	0x3d091c36	0.03347417
103	0xbbf81423	-0.00757076
104	0xbc64775b	-0.013944472
105	0xbc9a0207	-0.018799795
106	0xbce20e9f	-0.027594863
107	0x3cb60a03	0.02222157
108	0x3d02fe38	0.031980723
109	0x3ba6d1b1	0.005090915
110	0x3b12a3cb	0.002237546
111	0x3b8754ce	0.0041299826
112	0x3c3e80bd	0.011627373
113	0x3b927ccf	0.0044704448
114	0xba340149	-0.00068666466
115	0xbb833314	-0.0040038917
116	0xbb74e038	-0.003736509
117	0xbc532bec	-0.01288889
118	0x3cb6f0e0	0.022331655
119	0xbc84c350	-0.016206414
120	0xbb53a500	-0.0032294393
121	0x3c9905c1	0.018679501
122	0xbce6ff29	-0.028197842
123	0x3b1fd16b	0.0024386297
124	0x3c5f4a72	0.013628589
125	0x3c9734a1	0.018457713
126	0x3c83ff7c	0.016113035
127	0xbd00bcd0	-0.031430066

action_model._continuous_distribution.log_sigma f4 [1, 2]
0	0x3d2801b4	0.04101725
1	0x3e08b37f	0.13349722

action_model._continuous_distribution.mu.weight f4 [2, 128]
0	0x3d0f7eca	0.035033025
1	0xbc916a34	-0.017750837
2	0xbcd8dbea	-0.02647205
3	0x3cd3b159	0.025841402
4	0x3ceedecc	0.029158972
5	0xbcfda0cd	-0.030960465
6	0x3c779bc5	0.015112822
7	0xbc5ddc95	-0.01354136
8	0xbc7d2dd9	-0.015452825
9	0xbcdf0b49	-0.02722706
10	0x3c845369	0.016153054
11	0x3ca89b2b	0.020581802
12	0x3cee50b4	0.029091217
13	0x3d1f1d40	0.038846254
14	0xbcb94c9a	-0.022619534
15	0x3cf13690	0.029444963
16	0xbd219149	-0.039445195
17	0xbc173444	-0.00922877
18	0xbcb71ac2	-0.022351626
19	0x3934582c	0.00017198984
20	0x3cdaaba8	0.02669318
21	0xbd15e984	-0.03659965
22	0xbcdf55d4	-0.027262606
23	0x3b545ba7	0.0032403262
24	0xbcae1643	-0.02125085
25	0xbbea362d	-0.0071475715
26	0x3cf97390	0.030450612
27	0x3c3f86b8	0.011689834
28	0xbce40fea	-0.02783962
29	0x3c968187	0.01837231
30	0xbb4f5e24	-0.0031641806
31	0x3d1547b3	0.03644533
32	0xbc818c9d	-0.01581412
33	0xbbae34a9	-0.005316336
34	0xbbcf45bb	-0.006325451
35	0x3b437bf9	0.0029828532
36	0x3d0c9692	0.034323283
37	0xbb7eb349	-0.0038864186
38	0xbc1f9eb1	-0.009742425
39	0xbcab5ca8	-0.020918205
40	0x3ccb968c	0.02485206
41	0xbb270c7d	-0.0025489621
42	0xbc926386	-0.017869722
43	0xbcc21e12	-0.02369598
44	0x3cee3a64	0.029080577
45	0xbb35812e	-0.0027695405
46	0xbc17ffbe	-0.009277282
47	0x3cf0db61	0.029401483
48	0x3c7677c3	0.015043202
49	0x3d39a0ad	0.045319248
50	0xbc829977	-0.015942318
51	0x3c76d5bf	0.0150656095
52	0x3d0ecdf9	0.0348644
53	0xbbf85d08	-0.0075794496
54	0xbd45d577	-0.04829928
55	0xbd13d9db	-0.036096435
56	0xbd1bbf2b	-0.03802411
57	0x3bbfc67b	0.005852518
58	0xbc7d7f16	-0.015472194
59	0xbd3df7c4	-0.046378866
60	0xbcd97216	-0.026543658
61	0xbd3b0098	-0.045654863
62	0x3ca2ed09	0.019888418
63	0x3a33b5e6	0.0006855413
64	0xbc2340c2	-0.00996417
65	0xbd278b40	-0.040904284
66	0xbd8cafb8	-0.06869453
67	0x3c492d0b	0.0122788055
68	0xbbdec043	-0.0067978217
69	0xbb884a39	-0.0041592387
70	0xbce159e7	-0.02750869
71	0xbb243a9e	-0.0025059353
72	0x3d2892e4	0.04115571
73	0x3d00fea7	0.031492855
74	0x3c96ff79	0.018432366
75	0x3c1d3662	0.009595485
76	0xbcd2907a	-0.025703657
77	0xbbf7c91d	-0.0075618164
78	0x3abd4525	0.0014440162
79	0x3d4e06ba	0.050299384
80	0xbc66ca6a	-0.014086345
81	0xbc6f6678	-0.014611833
82	0xbc5556d2	-0.013021188
83	0x3ae48ef8	0.0017437628
84	0xbcbdb3a0	-0.023156941
85	0x3d1ad041	0.037796263
86	0xbb0000a1	-0.0019531625
87	0x3bcf5cba	0.0063281925
88	0x3b7a8571	0.003822651
89	0xbca1d4b2	-0.019754741
90	0x3b4cb89d	0.0031237968
91	0x3c7409cb	0.014894913
92	0xbd415108	-0.047196418
93	0xbc47ef5f	-0.012203067
94	0xbc691c45	-0.014227931
95	0xbd1877d3	-0.03722365
96	0xbc8ee623	-0.017443722
97	0x3c1add4c	0.009452175
98	0x3d13ddfc	0.036100373
99	0xbc89619c	-0.016770177
100	0x3a453421	0.00075227214
101	0x3cbded91	0.02318457
102	0xbca71f9c	-0.020400815
103	0xbd214b8c	-0.039378688
104	0x3cd38e78	0.02582477
105	0x3d64bf49	0.055846486
106	0xbc8a84d7	-0.016909046
107	0xbb376767	-0.0027985217
108	0x3c362073	0.011116135
109	0x3bdb0e11	0.0066850265
110	0x3cb773bb	0.022394052
111	0x3c00a516	0.00785186
112	0x3a487a00	0.0007647574
113	0xbc69ae49	-0.014262744
114	0xbc6e97e4	-0.014562581
115	0xbcc928a3	-0.02455551
116	0xbc575c3a	-0.013144547
117	0x3d16c7e1	0.036811713
118	0xbd5e87ba	-0.054328658
119	0xbc0444c1	-0.008073033
120	0x3d5d4c82	0.05402804
121	0x3c33ac32	0.0109663475
122	0x3c999e04	0.018752106
123	0x3c0e2b3a	0.008677298
124	0x3c941ef6	0.01808117
125	0x3c9353d5	0.01798431
126	0xbc932542	-0.017962102
127	0x3c492949	0.01227791
128	0xbc72b38a	-0.014813313
129	0xbc3047e2	-0.010759326
130	0x3d369b24	0.044581547
131	0xbc9e6cdc	-0.019339018
132	0xbc955e1d	-0.018233353
133	0x3d44480c	0.04792027
134	0x3c4da5cb	0.012551735
135	0x3d864d18	0.06557673
136	0xbd2e3a23	-0.042535912
137	0xbc7e6b49	-0.015528508
138	0xbd21398f	-0.039361533
139	0xbcdd2df2	-0.026999447
140	0x3cbb6f0a	0.022880096
141	0x3d189fd4	0.0372618
142	0x3d24da2c	0.040247127
143	0xbb3edc59	-0.0029123037
144	0x3d4189c0	0.04725051
145	0xbca2b18e	-0.019860055
146	0xbc3e55dd	-0.011617151
147	0x3beb573e	0.007182031
148	0xbd09015d	-0.033448566
149	0x3ca2ee30	0.019888967
150	0xbcac8ee1	-0.021064224
151	0xbd44c36a	-0.048037924
152	0xbbc79b3e	-0.0060915044
153	0x3b05e485	0.0020430398
154	0xbcad1ffe	-0.02113342
155	0x3bc073a6	0.0058731614
156	0xbd0f4394	-0.034976557
157	0xbc83bbbb	-0.016080728
158	0xbd2e0698	-0.042486757
159	0xbc4fc487	-0.012681133
160	0xbcdfa6ca	-0.02730121
161	0xbd479901	-0.0487299
162	0x3d1407c6	0.036140226
163	0xbc0fedbe	-0.0087847095
164	0xbc47d1cd	-0.0121960165
165	0xbce482eb	-0.027894458
166	0xbd09e693	-0.03366716
167	0x3bdc4d33	0.00672307
168	0xbc4bab26	-0.012430942
169	0x3cab88d5	0.02093927
170	0xbca1229d	-0.019669825
171	0xbc5d6999	-0.013513946
172	0xbc132737	-0.0089815175
173	0x3beda2a0	0.0072520524
174	0x3b1f8000	0.0024337769
175	0x3cbd146f	0.023081033
176	0xbd5d2edb	-0.053999763
177	0x3cc67a65	0.024228284
178	0x3ce5676d	0.028003419
179	0xbca49885	-0.020092258
180	0x3c39762d	0.011319679
181	0x3b97be0b	0.004630809
182	0x3ce3e375	0.02781842
183	0xb9ec5e8d	-0.00045083874
184	0x3ca53adb	0.020169666
185	0xbcacc04a	-0.021087784
186	0xbd30897d	-0.04309987
187	0xbcc5fcce	-0.024168398
188	0x3abfa288	0.0014620582
189	0xbbae7d17	-0.0053249705
190	0xbcda4fc5	-0.026649365
191	0x3cf4c54a	0.029879231
192	0xbc833278	-0.016015276
193	0x3d0c8662	0.034307845
194	0xbc6503a1	-0.013977916
195	0x3bb997c3	0.0056638434
196	0xbc06a2ba	-0.008217508
197	0xbd02f48e	-0.031971507
198	0xbcbaae27	-0.02278812
199	0x3d0159d0	0.031579792
200	0x3b6c960f	0.0036100184
201	0x3c4f6db0	0.012660429
202	0xbcada153	-0.02119509
203	0x3c0e61a9	0.008690276
204	0xbb256343	-0.0025236167
205	0x3c0b9af4	0.00852083
206	0xbcb0ee76	-0.021598082
207	0x3ca650b0	0.020302147
208	0xbd274307	-0.040835407
209	0xbc32a7f3	-0.0109043
210	0x3cc43d61	0.023955049
211	0x3c5b8711	0.013398902
212	0xbc8ec003	-0.017425543
213	0xbb739def	-0.0037172993
214	0xbc03617e	-0.008018849
215	0x3c94e5e2	0.018176023
216	0x3c8e2762	0.017352764
217	0x3b6d5d53	0.0036218956
218	0xbd0dba9b	-0.03460179
219	0xbb7ef859	-0.003890535
220	0x3cf5db9f	0.03001195
221	0x3d7c1cdf	0.06155097
222	0xbd14b19a	-0.036302187
223	0x3bce43e1	0.006294713
224	0x3d2d024c	0.04223852
225	0x3d27ba50	0.040949166
226	0x3c801985	0.015637169
227	0xbc5c6ed7	-0.013454161
228	0x3c931c7b	0.017957916
229	0x3bca1be6	0.0061678765
230	0x3ca3a55d	0.019976312
231	0x3b9d8fff	0.0048084254
232	0x3d07a47d	0.033115853
233	0xbc3b7190	-0.01144065
234	0xbd02d054	-0.03193696
235	0xbd2d1651	-0.04225761
236	0x3c9a5dbd	0.018843526
237	0x3cc64094	0.024200715
238	0x3d0d4143	0.034486067
239	0xbce548f6	-0.027988892
240	0x3c359a21	0.0110841105
241	0xbb4065f1	-0.0029357637
242	0xbd154058	-0.036438316
243	0xbc1147cc	-0.008867215
244	0xbb8435d1	-0.0040347357
245	0xbb00aa16	-0.001963263
246	0xbd04c60b	-0.03241543
247	0x3cd331bc	0.025780551
248	0xbad7a717	-0.0016452995
249	0x3d3485df	0.044072982
250	0xbd3d2f7c	-0.046187863
251	0x3d48d059	0.04902682
252	0xbd1a3a52	-0.037653275
253	0x3cb967ef	0.022632567
254	0x3b3fac3e	0.0029246951
255	0xbc55736c	-0.013028007

action_model._continuous_distribution.mu.bias f4 [2]
0	0xbb92a2fd	-0.004474996
1	0x3b67f24a	0.0035392218

onnx::LSTM_99 f4 [1, 512, 128]
0	0xbd3f0589	-0.046636138
1	0x3d73a85f	0.059486743
2	0xbe11b43c	-0.1422891
3	0xbd351aa5	-0.044214863
4	0xbdd0a887	-0.10188394
5	0x3d11559f	0.035482045
6	0xbdd38940	-0.10328913
7	0x3de97aac	0.11400351
8	0x3dd53306	0.104101226
9	0x3e42c542	0.1902056
10	0xbdb28893	-0.08717456
11	0x3e03037e	0.12794301
12	0x3e0322ef	0.12806295
13	0xbcbc2327	-0.02296598
14	0x3b544f4a	0.0032395893
15	0x3db05982	0.08610822
16	0xbdde90d2	-0.10867466
17	0xbd00b087	-0.03141835
18	0xbd2b94f9	-0.04189012
19	0x3e26309c	0.1622948
20	0x3d88fcad	0.06688819
21	0xbcada648	-0.021197453
22	0x3e608617	0.21926151
23	0xbdb4af4d	-0.088224985
24	0xbde9de26	-0.114193246
25	0x3da83a04	0.082141906
26	0xbda1a841	-0.0789342
27	0x3e0712eb	0.1319081
28	0xbd3f612f	-0.04672354
29	0x3ddb5330	0.10709226
30	0x3e115734	0.14193422
31	0xbe0b5cd6	-0.13609633
32	0x3e1bad11	0.15202738
33	0xbdcebda3	-0.10094764
34	0xbe05331d	-0.1300778
35	0x3ddb16b9	0.106976934
36	0x3dfede5f	0.12444758
37	0x3e062336	0.1309937
38	0xbcfc262b	-0.030779919
39	0xbd9967b7	-0.07490485
40	0xbc357985	-0.011076336
41	0xbe2127e5	-0.15737875
42	0xbe35c57a	-0.17751113
43	0xbd485a3b	-0.048914175
44	0x3d2f99bf	0.042871233
45	0x3c9afa93	0.018918311
46	0x3d2cc9e4	0.042184725
47	0xbce7f8a6	-0.028316807
48	0xbe122740	-0.14272785
49	0xbe0215fb	-0.12703697
50	0xbcc8c568	-0.024508193
51	0x3dd7b607	0.10532766
52	0xbe1f75d5	-0.15572293
53	0x3dabb086	0.083832785
54	0x3d885013	0.06655898
55	0x3d85109e	0.0649731
56	0x3db3d7eb	0.087814175
57	0x3d80f326	0.06296377
58	0xbdf2c26b	-0.118534885
59	0xbe0dc525	-0.13844736
60	0x3dc4c764	0.09608343
61	0x3dcafc98	0.0991146
62	0xbde99a92	-0.11406435
63	0x3e157158	0.14594018
64	0x3db0a0e6	0.08624439
65	0xbdfba633	-0.12287559
66	0x3de08fbe	0.10964917
67	0xbdc103e4	-0.0942457
68	0x3dc49e3b	0.096004926
69	0xbe223f5c	-0.15844482
70	0xbe370b3c	-0.1787538
71	0xbd1c43c2	-0.038150556
72	0xbce2f23a	-0.027703393
73	0x3e13b858	0.1442579
74	0xbe10e0af	-0.1414821
75	0xbd7bf383	-0.061511528
76	0x3ddc2ef2	0.107511416
77	0xbcf6d8ae	-0.030132618
78	0x3e1ce284	0.15320784
79	0x3da8e2f5	0.082464136
80	0xbcd49988	-0.025952116
81	0x3d898db0	0.06716478
82	0xbd48f079	-0.049057458
83	0x3dbb0f71	0.091338046
84	0x3cab2672	0.020892356
85	0xbdc14bd1	-0.09438289
86	0x3e1dc561	0.15407325
87	0xbdc0a3b1	-0.09406222
88	0x3d686812	0.056739874
89	0x3d6be56f	0.05759185
90	0x3e0c86e6	0.13723335
91	0x3db07c19	0.0861742
92	0xbd52e07e	-0.051483624
93	0x3c83e6be	0.016101237
94	0xbcf617a2	-0.030040566
95	0x3df0112d	0.11722026
96	0x3d6fbe3e	0.05853104
97	0xbdec878e	-0.115492925
98	0xbd82d9c0	-0.06389189
99	0x3d3ddd0e	0.046353392
100	0xbe0d97a9	-0.13827385
101	0xbdc77015	-0.09738175
102	0xbd510bff	-0.05103683
103	0xbcbc98e7	-0.023022128
104	0xbe108aa4	-0.14115387
105	0xbdbc161d	-0.09183905
106	0x3bd8510f	0.00660146
107	0xbcd3543f	-0.025797008
108	0xbd2c74b1	-0.042103473
109	0xbd319197	-0.043351736
110	0xbd6d460c	-0.05792813
111	0x3df615ee	0.120159015
112	0xbcd9b648	-0.026576176
113	0xbcb05838	-0.021526441
114	0xbe31f113	-0.17377119
115	0xbd8a4f91	-0.06753457
116	0xbca33002	-0.019920353
117	0x3d6fbc44	0.058529153
118	0xbe0fa624	-0.14028221
119	0x3cd98a65	0.02655525
120	0xbd624210	-0.055238783
121	0xbdb6a1f3	-0.08917608
122	0xbdc1c081	-0.09460545
123	0xbddc1c5d	-0.10747597
124	0xbd6e9df9	-0.058256123
125	0x3e36efdb	0.17864935
126	0x3e237659	0.15963115
127	0x3cd230c4	0.025658019
128	0x394d6964	0.00019589585
129	0x3d9f7570	0.07786071
130	0x3d397e9c	0.04528676
131	0xbe284375	-0.16431983
132	0x3d4c7a42	0.04992128
133	0x3c529ee7	0.012855268
134	0x3c83700a	0.016044635
135	0xbdf5f591	-0.12009729
136	0x3d421791	0.047385756
137	0xbda4d9e8	-0.08049375
138	0xbdcadc52	-0.09905304
139	0x3d9dac20	0.07698846
140	0xbc7d7d0d	-0.015471709
141	0x3cc36de6	0.023856115
142	0x3c89646d	0.01677152
143	0xbe18f93d	-0.14938827
144	0x3d1a62e9	0.037691984
145	0xbd2901e3	-0.041261565
146	0x3e0e6ccd	0.13908692
147	0xbd91bb8c	-0.0711585
148	0xbd5ad799	-0.053428266
149	0xbdd9cf77	-0.10635274
150	0x3d2e0e0f	0.042493876
151	0x3d8123bd	0.06305645
152	0xbe291d55	-0.16515096
153	0x3c781e99	0.015144014
154	0xbdfd4eb7	-0.12368529
155	0x3d72553d	0.05916332
156	0x3d467d77	0.048459496
157	0xbd86c039	-0.06579632
158	0xbdd96486	-0.106148764
159	0xbaae9a59	-0.0013321146
160	0xbe21e087	-0.15808307
161	0x3e1f932b	0.15583484
162	0xbd633b1d	-0.055476297
163	0x3e036dbf	0.12834834
164	0xbe0bdef5	-0.1365927
165	0x3db12459	0.08649511
166	0x3e13b180	0.1442318
167	0xbe3290ab	-0.17437999
168	0x3dd26569	0.10273249
169	0x3de2a897	0.11067312
170	0xbb9cead8	-0.0047887377
171	0xbb91f637	-0.0044544
172	0x3e4bac09	0.19889845
173	0x3dd01982	0.10161115
174	0x3c841d12	0.016127143
175	0x3e5fe2fc	0.21863931
176	0xbe4ae95d	-0.19815584
177	0xbe1ee054	-0.15515262
178	0xbd44b054	-0.048019722
179	0xbdcb0dfe	-0.09914778
180	0x3dfe7b54	0.12425867
181	0xbdc3bb96	-0.095572636
182	0x3df95def	0.121761195
183	0xbd5a4662	-0.05328978
184	0x3e20780d	0.15670796
185	0x3d0367cb	0.032081407
186	0xbde3c282	-0.11121084
187	0x3d372e33	0.044721793
188	0x3d816048	0.06317192
189	0x3db15020	0.08657861
190	0x3df5003c	0.11962935
191	0x3db59c19	0.08867664
192	0x3dbbe217	0.091739826
193	0xbdbb1783	-0.09135344
194	0xbe155836	-0.14584431
195	0x3bff4ee4	0.007791387
196	0x3e0b49cc	0.1360237
197	0xbd8975d9	-0.06711931
198	0xbcc9dbd0	-0.024640948
199	0x3d37be83	0.04485942
200	0xbd5cd0ca	-0.053910054
201	0xbdab9be7	-0.083793454
202	0xbd6191aa	-0.055070557
203	0xbd671bbe	-0.05642294
204	0x3df2a7b7	0.11848395
205	0xbd59e6a0	-0.053198457
206	0xbd9cc487	-0.07654672
207	0xbe1b2ab1	-0.15153004
208	0x3d75c6f4	0.06000419
209	0xbd4686dc	-0.048468456
210	0xbe2c657b	-0.16835587
211	0xbd2c905d	-0.042129863
212	0xbd604c11	-0.054760043
213	0x3c64e778	0.013971202
214	0x3daee379	0.08539481
215	0xbe1518a6	-0.14560184
216	0x3d843656	0.06455676
217	0xbd877053	-0.06613221
218	0x3c855d8a	0.016279954
219	0x3c8e309e	0.017357167
220	0xbd90c54f	-0.07068884
221	0xbdbb45ae	-0.0914415
222	0x3d8e014e	0.069338426
223	0x3af677e5	0.0018804042
224	0x3da1b2c7	0.07895427
225	0x3e096875	0.13418753
226	0x3e149d5f	0.14513157
227	0xbcbd39ca	-0.023098845
228	0xbca015f1	-0.019541712
229	0x3e08be7b	0.13353913
230	0xbd601c0d	-0.05471425
231	0xbd1a0e37	-0.037611213
232	0xbd565115	-0.05232342
233	0xbd7acb7f	-0.061229225
234	0xbd79dca5	-0.06100144
235	0x3e0022dc	0.12513298
236	0xbe0d2248	-0.13782609
237	0xb84a99a2	-4.8303635e-05
238	0xbe6bdf38	-0.2303437
239	0x3dc5f839	0.09666485
240	0x3d06188d	0.032738257
241	0x3cf2d189	0.02964093
242	0xbe22b464	-0.15889126
243	0x3e01deab	0.12682597
244	0xbd677301	-0.05650616
245	0x3cb6957b	0.022288075
246	0x3e100e96	0.14068064
247	0xbd559bfb	-0.052150708
248	0x3dc01eca	0.093808725
249	0xbc3ffa47	-0.011717386
250	0x3dffef10	0.124967694
251	0x3d280ae0	0.041025996
252	0x3e012a4f	0.12613796
253	0x3d81d9fa	0.06340404
254	0xbe2521cc	-0.16126174
255	0x3dbb6362	0.09149815

onnx::LSTM_100 f4 [1, 512, 128]
0	0x3db7a4ca	0.08966978
1	0xbdba91a6	-0.091098115
2	0x3de57253	0.11203446
3	0xbd8eb52f	-0.06968152
4	0x3e040af8	0.12894809
5	0x3e18604e	0.14880487
6	0x3dccb086	0.09994607
7	0xbe3023be	-0.17201135
8	0xbd88821a	-0.0666544
9	0x3da68dde	0.08132528
10	0x3c222534	0.009896565
11	0xbcf77d8e	-0.030211236
12	0xbcbf3547	-0.023340834
13	0xbe01ff68	-0.12695086
14	0xbb1eef24	-0.0024251426
15	0x3e01983c	0.12655729
16	0x3e39dc07	0.1815034
17	0x3d991598	0.07474822
18	0xbdf51010	-0.11965954
19	0x3e127b8b	0.1430494
20	0x3e05f7ec	0.13082856
21	0xbe468157	-0.19385277
22	0x3d407678	0.04698798
23	0xbddb3746	-0.10703902
24	0xbcf580ab	-0.02996858
25	0xbe1888ab	-0.14895885
26	0x3d975ec8	0.07391125
27	0x3d2e579c	0.04256402
28	0xbdffc987	-0.1248961
29	0x3e0c817b	0.13721268
30	0x3b86d1e6	0.0041143773
31	0xbd0cd3de	-0.03438174
32	0x3d73568f	0.05940872
33	0x3d91b0f1	0.07113827
34	0xbdeb0839	-0.11476178
35	0x3d6d769c	0.057974443
36	0x3d8af977	0.06785863
37	0x3db73255	0.08945147
38	0x3cb2eb42	0.021840695
39	0x3d148fb1	0.036269847
40	0x3cca4a37	0.024693592
41	0xbe090354	-0.13380176
42	0xbdad0855	-0.08448855
43	0x3ce6399b	0.02810364
44	0x3e1d2ddf	0.1534953
45	0xbce94382	-0.028474573
46	0xbda5d9af	-0.080981605
47	0xbe0ef256	-0.13959631
48	0xbd97bd3a	-0.07409139
49	0xbde691d8	-0.11258286
50	0x3c9d4a98	0.019200608
51	0xbdb7c025	-0.089721955
52	0x3dc69144	0.09695676
53	0x3dfdbc1f	0.12389397
54	0x3e496c4f	0.19670223
55	0xbd3125e4	-0.043249026
56	0x3d30b4fa	0.043141343
57	0xbd30ab89	-0.04313234
58	0xbd82abcb	-0.06380423
59	0xbe225d96	-0.15856013
60	0xbd71dda1	-0.059049252
61	0x3e3cac8e	0.184252
62	0xbdfa8ce4	-0.12233904
63	0xbd4ccb03	-0.049998295
64	0x3dac1080	0.084015846
65	0x3e1afcb3	0.1513546
66	0xbe0c3c59	-0.13694896
67	0xbdeb6116	-0.11493127
68	0xbd98dcde	-0.07464002
69	0x3d958492	0.073006764
70	0x3d74b935	0.05974694
71	0xbde8807a	-0.1135263
72	0x3c116234	0.008873511
73	0x3dd824b1	0.10553873
74	0x3dcb560a	0.0992852
75	0xbe3412b7	-0.17585264
76	0xbccb6d23	-0.024832314
77	0xbdb74c74	-0.08950129
78	0xbd0b8c16	-0.034069143
79	0x3d0d796a	0.034539618
80	0x3cd39355	0.02582709
81	0x3e17a6d4	0.14809734
82	0xbd503a44	-0.050836816
83	0x3b373f49	0.0027961305
84	0x3ded50af	0.11587655
85	0x3c6f9aa9	0.014624276
86	0x3e322869	0.17398228
87	0x3c0d20c0	0.008613765
88	0xba085b8c	-0.000520163
89	0x3dc2136b	0.0947636
90	0xbd13ac59	-0.036053035
91	0xbd6da9c0	-0.058023214
92	0xbe071a5d	-0.1319365
93	0xbdb38ec3	-0.08767464
94	0xbdf5d346	-0.12003188
95	0xbcc37ea9	-0.023864107
96	0xbd531479	-0.051533196
97	0x3e368221	0.17823078
98	0xbdea0005	-0.11425785
99	0x3e09faf8	0.13474643
100	0x3d01c293	0.0316797
101	0x3dfd4dbc	0.12368342
102	0xbd851060	-0.06497264
103	0xbdb004da	-0.08594675
104	0xbd28ae0f	-0.04118162
105	0xbd00e6da	-0.031470157
106	0xbd9a29c4	-0.075274974
107	0x3d2ba9d6	0.041910015
108	0x3cbbb972	0.022915576
109	0x3e01f8eb	0.12692611
110	0x3d655059	0.05598483
111	0x3c4e74a7	0.012601054
112	0xbc5dcf62	-0.013538213
113	0x3e0a6b1f	0.13517426
114	0xbdfc9124	-0.12332371
115	0x3d253a4b	0.040338796
116	0x3e2ccedd	0.16875787
117	0xbe3668d5	-0.17813428
118	0x3dfd7d38	0.12377399
119	0x3c3656e3	0.011129114
120	0xbde926eb	-0.11384376
121	0x3d598eaa	0.05311457
122	0xbd80311d	-0.062593676
123	0xbdcdbbc4	-0.10045579
124	0x3d0ed4f8	0.03487107
125	0x3da1edc5	0.07906679
126	0xbd323f04	-0.043517128
127	0x3c93fc6c	0.0180647
128	0x3d7b50a9	0.06135622
129	0x3d9aef08	0.07565123
130	0x3d017959	0.031609867
131	0x3e2197a9	0.1578051
132	0x3e058946	0.13040647
133	0x3dd7ae41	0.10531283
134	0xbd6dc3d2	-0.058048077
135	0xbcf43e3d	-0.029814834
136	0x3b78642f	0.003790151
137	0x3e1053df	0.14094494
138	0xbdad8d65	-0.084742345
139	0xbdf3cf42	-0.11904766
140	0xbe1b71db	-0.15180151
141	0x3d868500	0.065683365
142	0xbe0ef34a	-0.13959995
143	0xbe2661d6	-0.16248259
144	0xbc8cdb51	-0.017194422
145	0x3cb10ce8	0.0216126
146	0x39a61bdb	0.0003168274
147	0xbd813584	-0.063090354
148	0xbe041882	-0.12899974
149	0xbdc2e5aa	-0.09516461
150	0xbd7a7b53	-0.061152767
151	0xbe0a1142	-0.13483146
152	0x3c8047e0	0.015659273
153	0xbe139f4d	-0.14416237
154	0xbdee8d28	-0.11648017
155	0x3df421a0	0.11920476
156	0x3b8676dc	0.0041035246
157	0xbddcd350	-0.10782492
158	0x3ddc970a	0.10770996
159	0xbbf486e7	-0.0074623707
160	0xbc846620	-0.016161978
161	0x3d9842b3	0.07434597
162	0xbe38df4c	-0.18053931
163	0x3c6acd70	0.014331207
164	0x3c8286c2	0.015933398
165	0xbda304d9	-0.07959909
166	0x3d35f632	0.044424243
167	0xbd9fc7db	-0.07801791
168	0xbdec1d56	-0.11529033
169	0x3c1a50c8	0.009418674
170	0xbdc79866	-0.097458646
171	0xbdaafaaa	-0.083485916
172	0x3e27bd4d	0.16380806
173	0xbd8a8c8f	-0.06765091
174	0x3db27c01	0.08715058
175	0xbd86d518	-0.06583613
176	0x3bfee2fa	0.0077785226
177	0x3d882eee	0.06649576
178	0xbdb258d5	-0.087083496
179	0xbe16a8ab	-0.14712779
180	0x3de01e02	0.109432235
181	0x3d83c1c5	0.06433443
182	0xbbab335e	-0.0052246293
183	0x3e1bb8c1	0.15207197
184	0x3dbae25d	0.091252066
185	0xbe052b2d	-0.13004752
186	0xbdea19bd	-0.114306904
187	0xbdd98de1	-0.106227644
188	0x38c1b726	9.237071e-05
189	0x3d9cadb2	0.07650317
190	0xbdbdadc8	-0.09261662
191	0x3db1ce72	0.086819544
192	0x3e087229	0.13324799
193	0xbceb10b7	-0.028694494
194	0xbd39e4c0	-0.04538417
195	0xbd8c76d1	-0.068586
196	0x3dab1486	0.08353524
197	0xbe0fdab4	-0.14048272
198	0x3ca72ab6	0.020406108
199	0x3df77f13	0.12084784
200	0x3d409c5f	0.047024127
201	0xbdffea23	-0.1249583
202	0x3d8a60b4	0.06756726
203	0xbdc706d3	-0.097180985
204	0x3c6a0032	0.014282273
205	0x3cd739a0	0.026272595
206	0x3d941e3a	0.07232328
207	0x3de03ef9	0.10949511
208	0x3cb33672	0.021876547
209	0xbde478fc	-0.111558884
210	0x3d68fa4c	0.056879327
211	0x3e3b396d	0.18283625
212	0x3d7b460e	0.061346106
213	0xbd976a26	-0.07393293
214	0xbdf10128	-0.11767799
215	0xbc982a1b	-0.018574765
216	0xbd0c4285	-0.034243125
217	0xbe133752	-0.14376572
218	0x3e004615	0.12526734
219	0xbd35a749	-0.04434899
220	0xbe457a97	-0.19285046
221	0xbd0bacf2	-0.03410048
222	0x3bca89f0	0.006180994
223	0x3dec4fcf	0.1153866
224	0xbd933e3e	-0.07189606
225	0xbdab867e	-0.08375262
226	0x3db6a2a8	0.08917743
227	0x3cbcfd8a	0.023070116
228	0x3d731827	0.059349205
229	0xbda1a604	-0.07892993
230	0x3d3493ab	0.04408614
231	0x3ceca398	0.028886601
232	0xbe31440f	-0.17311119
233	0xbd0a4ffb	-0.03376768
234	0xbc89f6d8	-0.016841337
235	0x3db2a4c0	0.0872283
236	0xbceabfcf	-0.028655915
237	0x3d10c0bb	0.035340052
238	0xbdd04637	-0.101696424
239	0xbdbd9039	-0.09256024
240	0x3de1d118	0.110262096
241	0xbdc61555	-0.096720375
242	0xbdb77ca9	-0.08959324
243	0xbd669ae6	-0.056300066
244	0xbd0d8614	-0.034551695
245	0xbe2eb34b	-0.17060582
246	0x3cfa336e	0.030542102
247	0x3dc795e0	0.09745383
248	0xbdbfde80	-0.093686104
249	0x3c982018	0.018569991
250	0x3e110848	0.14163315
251	0xbe134466	-0.1438156
252	0x3d298977	0.041390862
253	0x3d6a9b4e	0.057277016
254	0xbdcf401b	-0.10119649
255	0x3c7b0a36	0.015322259

onnx::LSTM_101 f4 [1, 1024]
0	0xbd350bc0	-0.04420066
1	0xbd1ac6d4	-0.037787274
2	0xbd5754a7	-0.052570965
3	0xbce70e44	-0.028205045
4	0x3d38cc2a	0.04511658
5	0xbd0937c3	-0.033500444
6	0xbd261971	-0.040551607
7	0xbb81f3d5	-0.0039658346
8	0xbcc902b2	-0.024537418
9	0xbc97ed25	-0.018545697
10	0xbbb4c5e3	-0.005516754
11	0xbce66cee	-0.028128114
12	0x3c162597	0.009164236
13	0x3b69da38	0.0035683047
14	0x3c9230eb	0.017845592
15	0xbd70a9f1	-0.05875582
16	0xb99683e9	-0.0002870851
17	0x3c92a08d	0.017898822
18	0x3c5ae860	0.013361067
19	0xbcc24972	-0.023716662
20	0xbbe12e35	-0.0068719634
21	0x3cdce106	0.026962768
22	0x3cc45e7f	0.02397084
23	0xbc5ef482	-0.0136081
24	0xb96fe77b	-0.0002287905
25	0xbcd4d79d	-0.025981719
26	0xbd17d413	-0.037067484
27	0x3b8fb8a8	0.0043860264
28	0xbc85a452	-0.016313706
29	0x3b915d53	0.004436174
30	0x3c8d4bad	0.017248
31	0xbb332602	-0.0027335887
32	0xbc9294b1	-0.017893167
33	0xbc25e0fb	-0.01012444
34	0xbd001799	-0.031272504
35	0xbce3d469	-0.027811246
36	0xbc93d385	-0.018045196
37	0xbd097f00	-0.033568382
38	0x3bca8c20	0.006181255
39	0xbbc9b036	-0.006155039
40	0x3c0f897b	0.008760805
41	0x3caf5760	0.021403968
42	0xbd3b4b5a	-0.045726158
43	0xbd1ccfb1	-0.038284007
44	0xbd8e6041	-0.06951953
45	0xbd3ac6c3	-0.04559971
46	0xbd0cf531	-0.03441352
47	0x3beedba0	0.007289365
48	0x3b91906a	0.0044422643
49	0xbd62e13f	-0.055390593
50	0x3b83109d	0.003999783
51	0x3ca1e240	0.019761205
52	0xbc0ceaa4	-0.008600865
53	0xbca7e5ec	-0.020495377
54	0xbc2d2dc6	-0.010569995
55	0x3bfefaa4	0.0077813435
56	0xbc2247d8	-0.009904824
57	0xbbb3dcd9	-0.0054889736
58	0xbc0e1557	-0.00867208
59	0x3c209db4	0.009803224
60	0x3c92bc43	0.017912036
61	0x3c032090	0.008003369
62	0x3c34141f	0.010991125
63	0xbcc31ef7	-0.023818476
64	0x3c44a9e2	0.012003394
65	0x3d4b3add	0.049616683
66	0xbd191f49	-0.03738335
67	0xbd14c6bf	-0.03632235
68	0xbcd72a5f	-0.026265321
69	0x3b86580b	0.004099851
70	0xbd117be8	-0.035518557
71	0x3d46f670	0.048574865
72	0xbce3e556	-0.027819317
73	0x3bc84286	0.006111446
74	0x3c29f5fe	0.0103735905
75	0xbc0d764b	-0.00863416
76	0x3c4d7feb	0.012542705
77	0x3cc1ae31	0.023642631
78	0x3c50c3da	0.012742007
79	0xb90aa54f	-0.00013222288
80	0xbbbb1f8b	-0.0057105473
81	0xbd02a753	-0.031897854
82	0xbc596454	-0.013268549
83	0xbc9fedab	-0.019522509
84	0x3d1b919d	0.037980665
85	0x3b3790a7	0.0028009804
86	0xbc312cb1	-0.010813878
87	0xbc29780a	-0.010343561
88	0xbd5f3f2d	-0.05450361
89	0x3c99edb1	0.018790098
90	0x3b9f9458	0.004869979
91	0xbd2e511b	-0.042557817
92	0xbbaeb467	-0.005331564
93	0x3d1e2192	0.038606234
94	0xbd560637	-0.05225202
95	0x3d047069	0.032333765
96	0x3d2d4690	0.04230362
97	0xbd5df67a	-0.054190136
98	0xbbb690ba	-0.005571452
99	0xb92db7ba	-0.00016567009
100	0xbcc06cd6	-0.023489397
101	0xbc81e966	-0.015858363
102	0x3ad7c9cb	0.0016463337
103	0xbcaea92f	-0.021320907
104	0x3c4c076b	0.01245294
105	0xbd2ad1e3	-0.04170407
106	0xbd50334a	-0.050830163
107	0xbc8ff2ce	-0.017571833
108	0xbc2e3e59	-0.010634982
109	0xbc9a2520	-0.01881653
110	0xbcb82ce6	-0.022482347
111	0x3cb8b1b5	0.022545675
112	0xbd1f75ac	-0.03893058
113	0x3c646f5c	0.013942566
114	0xbcaf6538	-0.02141057
115	0xbd0e1784	-0.034690395
116	0x3ab0ff43	0.0013503808
117	0x3a417101	0.00073792046
118	0xb918a353	-0.00014556693
119	0xbd3b5809	-0.045738254
120	0xbb29db6a	-0.0025918134
121	0xbc7674fa	-0.015042538
122	0xbcc5c067	-0.024139596
123	0xbc705783	-0.014669302
124	0x3cab574d	0.020915652
125	0xbbcdb985	-0.006278219
126	0xbd3e25f6	-0.04642292
127	0x3bb3b8d8	0.0054846816
128	0xbc9a430b	-0.018830797
129	0xbc282c78	-0.010264508
130	0x3c3548c0	0.011064708
131	0xbca6b462	-0.020349685
132	0x3c35a967	0.011087752
133	0x3c32a3c3	0.010903302
134	0xbc792e7f	-0.015208839
135	0xbb32ea2c	-0.0027300222
136	0xbbff480c	-0.007790571
137	0xbc0b5598	-0.008504294
138	0xbb714436	-0.0036814339
139	0xbc152334	-0.009102631
140	0xbc28fd52	-0.0103143025
141	0x3d2235de	0.039602153
142	0x3cc8008d	0.024414325
143	0x3bf1ae30	0.007375501
144	0x3ca76ba8	0.020437077
145	0xbb982f4d	-0.0046443106
146	0xbc9b405d	-0.01895159
147	0xbca681d9	-0.020325588
148	0xbc8ca446	-0.017168175
149	0x3c87d923	0.016583031
150	0x3c0a8058	0.008453451
151	0x3c82d356	0.015969913
152	0xbcea16ea	-0.02857538
153	0xbcef167e	-0.02918553
154	0xbaaa1a36	-0.0012977782
155	0xbb4e4f23	-0.0031480275
156	0x3c0efe90	0.008727685
157	0x3c3aabe2	0.011393519
158	0xbb5a7100	-0.0033331513
159	0xbcc937ce	-0.024562743
160	0xbc7d5339	-0.015461736
161	0x3d1e7f9f	0.038695928
162	0xbca4bbd2	-0.020109091
163	0xbce524a2	-0.02797157
164	0xbc51ff0f	-0.012817158
165	0xbcc1f4d6	-0.023676317
166	0xbccb059e	-0.024782952
167	0xbc450b82	-0.012026669
168	0xbd0b84c1	-0.03406215
169	0xbca5635d	-0.020188982
170	0xbc793fff	-0.015213012
171	0xbc44e4a9	-0.012017407
172	0xbc53c20e	-0.012924684
173	0xbd819903	-0.06328013
174	0xbce330ab	-0.027733168
175	0xbcb76313	-0.02238611
176	0x3b7ac5f2	0.0038264957
177	0x3c559a8b	0.013037334
178	0xbb1600a0	-0.0022888556
179	0xbcb00625	-0.021487305
180	0x3b142c21	0.002260931
181	0xbc482fdd	-0.012218443
182	0x3a8f7340	0.0010944381
183	0xbc8b5364	-0.017007537
184	0x3ba5d291	0.005060502
185	0xbc1cfab7	-0.009581259
186	0x3b15a898	0.0022836085
187	0x3c34ee18	0.011043094
188	0xbca54a2b	-0.020176968
189	0x3c95b8af	0.01827654
190	0xbd06b6ce	-0.03288918
191	0xbc9f9964	-0.019482322
192	0xbd09d347	-0.033648755
193	0x3d0ff6ff	0.035147663
194	0x3d023c12	0.03179557
195	0xbca03667	-0.019557191
196	0xbd2f14a1	-0.042744283
197	0xbcb6882b	-0.022281727
198	0xbc6fcfca	-0.014636943
199	0xbc77d01c	-0.015125301
200	0xbbda8088	-0.006668154
201	0x3bc05ce0	0.0058704466
202	0xbca15999	-0.019696044
203	0x3b939741	0.004504115
204	0xbcbb8cf6	-0.022894364
205	0xbd10fd6a	-0.035397924
206	0xbcafa3a2	-0.02144033
207	0x3bdbe0f1	0.0067101647
208	0x3c2b6b53	0.0104626
209	0xbcb9fc29	-0.022703247
210	0xbb9366a1	-0.0044983183
211	0xbcf23f41	-0.029571177
212	0xbcb66272	-0.02226374
213	0x3b882ed1	0.0041559716
214	0xbd3a2e69	-0.045454416
215	0xbce487ec	-0.027896844
216	0xbd293c38	-0.041317195
217	0xbca22a8e	-0.019795682
218	0x3b4d6725	0.0031341997
219	0xbb60160b	-0.0034192826
220	0xbc1d4e12	-0.009601133
221	0x3ccb9d59	0.024855303
222	0x3c6ab2cf	0.014324858
223	0xb9a9261e	-0.0003226259
224	0x3c8fce62	0.017554466
225	0xbca37346	-0.019952428
226	0x3b276ed9	0.0025548248
227	0xbd0dc68a	-0.03461317
228	0xbc3e6696	-0.011621138
229	0xbce45e4c	-0.027876996
230	0xbc404c39	-0.011736923
231	0xbc5dc304	-0.013535265
232	0xbaa735e9	-0.0012757155
233	0x3bb9350c	0.0056520756
234	0xbd258dc1	-0.04041839
235	0xbc5d3541	-0.013501466
236	0xbcf357a4	-0.029704876
237	0xbcd07386	-0.02544571
238	0xbc46be60	-0.01213035
239	0xbbb5b6be	-0.005545466
240	0xbc86c5ab	-0.016451677
241	0xbc455cd7	-0.0120460605
242	0x3c816307	0.01579429
243	0xbbf7f361	-0.007566855
244	0xbcdd3c3d	-0.027006263
245	0xbcb5d0aa	-0.022194225
246	0x3ce9a96b	0.028523168
247	0xbcb655cd	-0.02225771
248	0xbbde90ea	-0.0067921774
249	0xbad2b66b	-0.0016076093
250	0x3cb2c401	0.021821978
251	0xbb74e913	-0.0037370368
252	0xbc998e27	-0.018744541
253	0xbca2c319	-0.01986842
254	0xbcf5b748	-0.029994622
255	0xbc4775cc	-0.012174081
