Experimentos/results/sac4.3/KartAgent/KartAgent-349987.onnx (onnx, 93578 bytes, 14 tensors)

network_body.observation_encoder.processors.0.normalizer.running_mean f4 [20]
0.055624727 0.053550452 0.0017257745 0.061293114 0.039169833 0.20502684 0.0050630197 0.1351898
0.03890128 0.15286237 0.00786883 0.121203564 0.014260507 0.5351929 0.0186549 0.33352908
0.011568959 0.5753198 0.01557768 0.30755535
00000000: c1d6 633d b857 5b3d 6233 e23a 7d0e 7b3d
00000010: 8c70 203d 8ef2 513e b0e7 a53b 326f 0a3e
00000020: f356 1f3d f487 1c3e 44ec 003c 9339 f83d
00000030: e7a4 693c 6702 093f 29d2 983c 53c4 aa3e
00000040: bb8b 3d3c 2948 133f 8739 7f3c e577 9d3e

network_body.observation_encoder.processors.1.normalizer.running_mean f4 [12]
0.0017257754 0.032615453 0.0002942958 0.0065399706 0.0016657709 0.033801142 0.0002628664 0.0065865545
0.0017914904 0.031901147 0.00033144013 0.006557411
00000000: 6a33 e23a c897 053d b74b 9a39 404d d63b
00000010: ff55 da3a 1173 0a3d 55d1 8939 06d4 d73b
00000020: 71d0 ea3a c7aa 023d 24c5 ad39 8ddf d63b

network_body.observation_encoder.processors.2.normalizer.running_mean f4 [3]
-0.18220972 0.032852434 0.75357467
00000000: 2f95 3abe 4690 063d 45ea 403f

network_body._body_endoder.seq_layers.0.weight f4 [128, 35]
0.29317078 -0.1656889 -0.09200471 -0.17136589 0.27118447 0.23886475 -0.15960434 0.002973591
0.11772591 -0.043678153 -0.013967058 0.026193023 0.07157795 0.009133967 0.20629272 0.11069095
0.2971436 0.0034716795 -0.19875306 -0.2473294 0.17604427 -0.2555419 -0.2468114 0.07964895
0.25424886 -0.17895132 -0.35931042 -0.10630217 -0.05905753 0.010888722 -0.17652835 0.13635762
0.19704473 0.048615325 -0.2846873 -0.107478574 -0.0039134454 0.046327066 -0.018930783 -0.040390458
-0.00035292938 -0.15356512 0.0686852 0.09490222 -0.10085126 -0.3932925 -0.37859073 -0.26168692
0.018697117 0.045912676 -0.044562552 0.038447518 -0.19147119 0.06438537 0.14367631 0.543466
-0.06227377 0.15191315 -0.050031293 0.057281565 -0.30743372 0.025273163 0.081579246 -0.07147294
-0.024080185 -0.07297753 -0.084219635 -0.14622426 0.053824253 0.12352525 0.046884652 -0.31632167
-0.019584976 -0.04248714 0.072206 -0.1193139 -0.2489103 -0.18690939 -0.13774668 -0.07281088
0.07907853 0.19029559 0.04972302 0.07554941 -0.22057098 0.121390924 0.07034547 -0.28708422
-0.20337334 -0.032314375 -0.094841115 -0.0076671396 0.13998884 -0.25054252 -0.04326797 -0.18926796
-0.40671268 0.1386734 -0.38153854 0.14350204 0.13420948 0.18997741 0.03151645 0.13542484
-0.08863693 0.35223082 -0.15058698 0.013565024 0.2749945 0.11010795 0.14286682 -0.13719779
-0.07624978 0.13288864 0.07841382 0.06526466 0.18888436 0.009357662 -0.30133927 -0.20387542
0.14732769 -0.19173846 -0.16529612 0.069157876 -0.06005508 0.07097845 0.19317558 0.07950513
-0.07901769 -0.034247335 0.19880873 -0.10442523 -0.120269865 0.0139633715 -0.14119875 -0.19492294
0.19903038 0.20813408 -0.16843705 0.33590338 0.04378939 0.019985793 -0.33710834 0.025790352
-0.064577825 -0.10579554 0.031133542 -0.053781074 -0.14812931 -0.36662608 0.25132665 -0.3450046
0.2175778 -0.035570897 -0.2841974 -0.08740804 0.08610569 -0.09457953 0.07973195 -0.19427733
0.17969768 -0.16018419 0.45319647 0.3038378 -0.1069383 -0.14270943 -0.23835106 -0.0681447
0.09349238 -0.19943914 -0.5109417 0.07290137 -0.11372745 0.17889604 -0.041006435 -0.23735723
-0.2896837 -0.06482848 0.018850895 -0.40154514 -0.26736352 -0.10605836 0.06588675 0.18196626
-0.070539735 0.13543251 0.018890893 -0.016206058 0.10682408 -0.06545911 -0.068419605 -0.27879187
-0.5226754 0.044942178 -0.07665185 0.14168128 0.12396474 -0.114406824 0.12982567 0.2371509
-0.046988815 0.1411195 0.04706079 0.13545911 0.042520974 0.038343426 0.1329486 -0.013312904
-0.22361769 -0.1118375 0.18284279 -0.120037094 0.20628469 -0.12363641 -0.1584576 -0.32156083
0.31259826 0.14689529 -0.14840144 -0.07194311 -0.39307925 -0.29401416 -0.11870274 -0.021043958
-0.20960264 0.03450572 0.1934923 0.3277785 0.24923371 0.19567245 -0.19660802 -0.034865886
-0.07940766 0.53000194 0.15721153 0.3391352 -0.019158015 0.017513132 -0.1858575 0.14306338
0.100941256 0.38044766 0.25361422 -0.05922937 -0.24756435 -0.19405156 0.07836243 0.18805224
0.1197669 -0.13448949 0.10670692 0.12672293 -0.063457526 0.09667225 -0.0057492456 -0.13447998
00000000: 7b1a 963e 5aaa 29be f76c bcbd 8a7a 2fbe
00000010: b1d8 8a3e f698 743e 526f 23be 94e0 423b
00000020: 481a f13d dde7 32bd 16d6 64bc c092 d63c
00000030: 7697 923d a2a6 153c 663e 533e f0b1 e23d
00000040: 3523 983e 1e85 633b ec85 4bbe eb43 7dbe
00000050: f344 343e 63d6 82be 21bc 7cbe fd1e a33d
00000060: e82c 823e 043f 37be 89f7 b7be f4b4 d9bd
00000070: 4fe6 71bd 9c66 323c d9c3 34be 55a1 0b3e
00000080: 18c6 493e dd20 473d 89c2 91be ba1d dcbd
00000090: 5c3c 80bb 73c1 3d3d bb14 9bbc 7770 25bd
000000a0: 6109 b9b9 2d40 1dbe d3aa 8c3d 185c c23d
000000b0: 1b8b cebd a25d c9be a5d6 c1be d4fb 85be
000000c0: b22a 993c ee0e 3c3d 3987 36bd 257b 1d3d
000000d0: 0611 44be 7adc 833d e21f 133e 9620 0b3f
000000e0: c812 7fbd 1f8f 1b3e 9ded 4cbd 13a0 6a3d
000000f0: f467 9dbe aa09 cf3c 0513 a73d 6860 92bd
00000100: cf43 c5bc 3e75 95bd 587b acbd d0bb 15be
00000110: d276 5c3d cefa fc3d 1f0a 403d eaf4 a1be
00000120: ac70 a0bc ff06 2ebd bde0 933d d95a f4bd
00000130: 57e2 7ebe 2d65 3fbe 770d 0dbe df1d 95bd
00000140: edf3 a13d d9dc 423e 5eaa 4b3d a6b9 9a3d
00000150: 5cdd 61be ce9b f83d 4911 903d b4fc 92be
00000160: 1a41 50be 145c 04bd 0f3c c2bd a13c fbbb
00000170: 3c59 0f3e 1c47 80be c139 31bd 76cf 41be
00000180: a53c d0be 6600 0e3e 0559 c3be 33f2 123e
00000190: 366e 093e 7089 423e 6517 013d cfac 0a3e
000001a0: 4787 b5bd 9957 b43e 7933 1abe d63f 5e3c
000001b0: 14cc 8c3e 4780 e13d ae4b 123e 947d 0cbe
000001c0: d828 9cbd f613 083e 6d97 a03d 7aa9 853d
000001d0: e76a 413e e150 193c 2449 9abe b8c4 50be
000001e0: 12dd 163e 1657 44be 6343 29be a5a2 8d3d
000001f0: 51fc 75bd 265d 913d d2cf 453e 96d3 a23d
00000200: 07d4 a1bd ef46 0cbd 8494 4b3e e5dc d5bd
00000210: 0c50 f6bd a0c6 643c 6896 10be e199 47be
00000220: 9fce 4b3e 1a21 553e c37a 2cbe 87fb ab3e
00000230: 815c 333d 3fb9 a33c 7799 acbe 4a46 d33c
00000240: 6141 84bd 55ab d8bd c50b ff3c 8b49 5cbd
00000250: 36af 17be 6ab6 bbbe e3ad 803e 71a4 b0be
00000260: b7cc 5e3e cab2 11bd 5282 91be fd02 b3bd
00000270: 2e58 b03d eab2 c1bd 814a a33d a3f0 46be
00000280: ab02 383e 5307 24be 5e09 e83e a190 9b3e
00000290: 7802 dbbd 6c22 12be 4d12 74be 738f 8bbd
000002a0: ef78 bf3d c639 4cbe 13cd 02bf 504d 953d
000002b0: f0e9 e8bd 8630 373e 5df6 27bd c60d 73be
000002c0: 6c51 94be cbc4 84bd 316d 9a3c 5397 cdbe
000002d0: dfe3 88be 2035 d9bd a2ef 863d 5d55 3a3e
000002e0: 2377 90bd d2ae 0a3e 13c1 9a3c 91c2 84bc
000002f0: 95c6 da3d 6d0f 86bd 941f 8cbd cfbd 8ebe
00000300: 0ece 05bf 4a15 383d a5fb 9cbd e614 113e
00000310: 3ae1 fd3d 204e eabd 05f1 043e afd7 723e
00000320: 5877 40bd a181 103e d1c2 403d cbb5 0a3e
00000330: 792a 2e3d ff0d 1d3d ae23 083e 5e1e 5abc
00000340: 09fc 64be 0f0b e5bd 243b 3b3e 02d6 f5bd
00000350: 4b3c 533e 1635 fdbd b642 22be 9fa3 a4be
00000360: e10c a03e b86b 163e 8cf6 17be e956 93bd
00000370: af41 c9be 0689 96be 6c1a f3bd 6164 acbc
00000380: 13a2 56be df55 0d3d d822 463e 95d2 a73e
00000390: 1f37 7f3e 5c5e 483e 9d53 49be 88cf 0ebd
000003a0: 7ca0 a2bd 35ae 073f 0ffc 203e 21a3 ad3e
000003b0: 45f1 9cbc b377 8f3c 6e51 3ebe 357f 123e
000003c0: 4aba ce3d 09ca c23e b9d9 813e 7f9a 72bd
000003d0: 8281 7dbe 74b5 46be 7b7c a03d c490 403e
000003e0: 5948 f53d 9db7 09be 2889 da3d a8c3 013e
000003f0: 05f6 81bd 1afc c53d 2b64 bcbb 1fb5 09be

network_body._body_endoder.seq_layers.0.bias f4 [128]
0.0044277958 -0.008173507 0.008372306 -0.0009865024 0.055421565 0.032991804 0.011571327 -0.061261952
-0.011877199 0.02922696 -0.01409275 -0.001444567 0.002660577 0.0064455755 0.037704967 -0.020868452
0.011705114 0.044677775 0.024357874 0.07353883 0.05131556 -0.036266305 0.080068275 0.029589165
0.019825872 -0.021908976 0.067947365 -0.0111557385 0.037517644 -0.007855245 0.034483112 0.023555357
-0.042873126 0.06769301 0.023123277 -0.041121356 0.030034358 0.016552376 0.030362828 -0.0098292
0.024924431 -0.010244376 -0.042205967 0.031767897 -0.031958718 0.079945095 0.0037711586 -0.04587509
0.023212725 -0.00896809 0.01266908 0.009087492 0.0590099 0.030628394 0.061410602 0.053994276
0.011682528 -0.0008244441 0.0827484 -0.007068356 0.008742037 0.005541954 0.013219431 0.019826949
0.040104665 0.05190033 0.028138496 0.01426966 -0.021570867 0.022789195 -0.020436483 0.032368947
0.028801013 0.0145417685 -0.022227118 -0.011143638 -0.02642735 0.00013603267 0.0008156399 0.04981518
0.06174064 -0.01412863 -0.012425699 0.0046952744 0.013894156 0.057639834 0.03981326 -0.0058478178
0.04721924 0.0034858864 0.031866968 0.038834304 -0.0025857938 -0.007741556 0.06134555 0.021580815
0.015095699 -0.008596841 -0.0010341561 0.042468984 0.010626732 0.042006653 0.015956191 0.0031786594
-0.010138623 0.030772513 -0.017082542 -0.015270483 0.04855508 -0.029719947 -0.020147273 0.017768256
0.018867658 0.097950056 0.023076406 0.049510088 -0.0014544392 -0.012294411 0.04445311 0.050702907
0.017125158 -0.005087679 0.030173402 0.013059192 0.037013747 0.021252211 -0.044648286 0.04070509
00000000: 0b17 913b 2cea 05bc ff2b 093c 874d 81ba
00000010: b901 633d 6a22 073d aa95 3d3c d0ed 7abd
00000020: 9598 42bc 616d ef3c 47e5 66bc a057 bdba
00000030: 135d 2e3b 6835 d33b 8670 1a3d 51f4 aabc
00000040: cec6 3f3c 0b00 373d 2a8a c73c 879b 963d
00000050: 4430 523d fa8b 14bd d6fa a33d fa64 f23c
00000060: de69 a23c 747a b3bc fd27 8b3d 8fc6 36bc
00000070: 1aac 193d 49b3 00bc 2a3e 0d3d 2af7 c03c
00000080: bb9b 2fbd a2a2 8a3d 076d bd3c de6e 28bd
00000090: 9d0a f63c d998 873c 77bb f83c a70a 21bc
000000a0: 522e cc3c 07d8 27bc 2ae0 2cbd 0e1f 023d
000000b0: 25e7 02bd 41ba a33d 8b25 773b 85e7 3bbd
000000c0: 9d28 be3c e5ee 12bc f991 4f3c b4e3 143c
000000d0: 5db4 713d 66e8 fa3c af89 7b3d 1a29 5d3d
000000e0: 1368 3f3c 821f 58ba fe77 a93d ab9d e7bb
000000f0: c33a 0f3c 4899 b53b 5096 583c 206c a23c
00000100: ca44 243d 7195 543d b482 e63c 4bcb 693c
00000110: 63b5 b0bc 68b0 ba3c 696a a7bc 4d95 043d
00000120: 1af0 eb3c 9940 6e3c a515 b6bc ce93 36bc
00000130: 2b7e d8bc fea3 0e39 abd0 553a 010b 4c3d
00000140: c1e3 7c3d c57b 67bc 2995 4bbc d1da 993b
00000150: 50a4 633c bf17 6c3d 3b13 233d 0d9f bfbb
00000160: f668 413d 7873 643b f086 023d b810 1f3d
00000170: 6c76 29bb e1ac fdbb 7945 7b3d 40ca b03c
00000180: f353 773c c4d9 0cbc 858c 87ba f5f3 2d3d
00000190: bf1b 2e3c 2b0f 2c3d 8fb6 823c 0e51 503b
000001a0: 781c 26bc a316 fc3c b0f0 8bbc 0c31 7abc
000001b0: b1e1 463d 3f77 f3bc e50b a5bc bc8e 913c
000001c0: 5990 9a3c 0a9a c83d bb0a bd3c 17cb 4a3d
000001d0: e2a2 beba 7f6e 49bc 7714 363d daad 4f3d
000001e0: 0f4a 8c3c 8bb6 a6bb 362e f73c 39f6 553c
000001f0: ba9b 173d 1e19 ae3c 1fe1 36bd 61ba 263d

network_body._body_endoder.seq_layers.2.weight f4 [128, 128]
0.07413158 0.011758535 -0.024097446 0.07943025 -0.09881183 0.03773694 0.029546201 -0.19700003
0.08616251 -0.006628862 -0.06935069 0.055761427 0.0634505 0.05781428 0.025572881 0.1340221
-0.08998058 -0.019205427 -0.08251212 -0.11476892 -0.09533758 -0.24772452 0.0669414 0.024161533
0.01643889 -0.056076553 0.14168 -0.0026164472 0.18249565 0.045749377 0.023217931 -0.04871736
-0.08262378 -0.027158912 -0.05830908 0.11956454 0.06283286 0.0371596 0.03439824 -0.17380203
0.050356608 -0.03451057 -0.100800775 -0.21545295 -0.05291292 0.03560522 0.06333405 -0.022572402
-0.08843342 -0.12403722 -0.08428181 0.035569258 0.046474695 0.096760444 -0.10852936 -0.16149737
0.018163038 -0.16284545 -0.030667393 -0.0069826804 -0.13717835 0.034087583 0.03591376 0.027546229
0.0821485 -0.047474757 0.07775175 -0.190144 -0.15665832 -0.06155587 -0.19451253 0.17905702
0.0680504 0.013621288 0.0135595035 -0.095715836 0.0584171 0.101158015 -0.096203886 -0.043889783
0.25898394 0.1404868 -0.12881269 0.03142072 0.081246 0.09675387 -0.056628343 0.057984754
0.06338683 0.1238878 -0.017057907 -0.08312015 -0.07669089 -0.10782603 -0.050580714 -0.006685439
-0.11120015 -0.003992568 -0.0062697204 -0.026024535 -0.02864516 0.16051507 -0.078358494 -0.01937796
0.00020218412 0.06443291 -0.061207872 -0.050185192 0.104491144 0.08685418 -0.05829335 -0.025441706
-0.041356634 0.0651874 0.066033654 -0.0705233 0.040009677 -0.014956066 -0.009068272 -0.104694
-0.06296106 -0.110268086 0.092248574 0.06578907 -0.09116009 -0.059568275 -0.036769602 -0.17736755
-0.03231391 -0.068801664 -0.09235244 -0.18222064 0.03827883 0.090666056 -0.043186016 -0.03734793
-0.017347636 0.033386126 -0.0017063064 -0.051725626 0.0021168215 -0.12553856 0.1371602 0.07840036
0.07786835 0.026802719 0.03796627 -0.07805579 0.039888363 -0.0020484924 -0.093170166 0.0014418607
-0.17689292 -0.17375806 -0.05457523 -0.046427254 0.21106534 -0.01378341 0.119153015 0.00059199973
-0.0009426633 -0.12233623 -0.09885505 -0.03806377 -0.016888464 0.12259789 0.08636893 -0.014197515
0.025975427 -0.006338299 -0.15131028 -0.032066252 -0.21977024 0.074006915 0.18255933 0.0053544813
-0.039642684 -0.0020995722 -0.1891489 -0.0243484 -0.018432287 0.15420857 -0.16992086 -0.023591926
-0.1666929 -0.04458402 0.12710136 0.029797083 -0.020555539 0.05408066 0.048274595 0.070272505
-0.0047843466 0.10749267 -0.0542318 -0.06411688 -0.027100652 -0.022117719 -0.04383019 0.001705046
-0.19982392 0.14005797 0.09455954 0.0039733066 -0.0080306465 -0.082956724 -0.085677214 -0.07852761
0.08453768 0.09538656 0.06575948 0.0009922889 0.10679067 0.043636218 0.008478857 0.009151617
0.007237256 0.10340894 -0.10556195 0.24972719 0.00025450476 -0.008357155 -0.16714753 0.13601546
-0.037192952 -0.073028445 0.14532758 0.004395699 0.0020569984 0.19420472 -0.077803865 -0.007398889
0.097223125 -0.059228465 0.029090077 -0.01784778 -0.02707263 0.13904801 0.040427763 -0.16230907
0.04474788 -0.095270395 0.05018244 0.04335072 0.066566706 -0.007387313 0.16501354 0.013530698
-0.1618829 0.032325193 -0.05473742 -0.15818271 0.08290475 -0.08149294 -0.053104702 -0.036285345
00000000: 4cd2 973d dfa6 403c 0268 c5bc 54ac a23d
00000010: db5d cabd 0d92 1a3d e00a f23c 60ba 49be
00000020: f875 b03d ed36 d9bb bc07 8ebd 1866 643d
00000030: 56f2 813d abce 6c3d 387e d13c 173d 093e
00000040: bd47 b8bd b354 9dbc 1dfc a8bd f80b ebbd
00000050: 5940 c3bd 7fab 7dbe 9318 893d 68ee c53c
00000060: daaa 863c 87b0 65bd 9014 113e b378 2bbb
00000070: 24e0 3a3e b363 3b3d 8833 be3c db8b 47bd
00000080: a836 a9bd 5e7c debc 80d5 6ebd 41de f43d
00000090: 84ae 803d aa34 183d 2be5 0c3d 29f9 31be
000000a0: bb42 4e3d f55a 0dbd a370 cebd b39f 5cbe
000000b0: 38bb 58bd c7d6 113d 48b5 813d c2e9 b8bc
000000c0: 951c b5bd 3a07 febd f19b acbd 12b1 113d
000000d0: 405c 3e3d 572a c63d a444 debd 915f 25be
000000e0: a7ca 943c f5c0 26be 2f3a fbbc f8ce e4bb
000000f0: 7b78 0cbe 6c9f 0b3d 4f1a 133d a1a8 e13c
00000100: 793d a83d e474 42bd 4f3c 9f3d 1cb5 42be
00000110: 0a6b 20be 0222 7cbd 4b2e 47be b95a 373e
00000120: 025e 8b3d d32b 5f3c ae28 5e3c aa06 c4bd
00000130: c546 6f3d ef2b cf3d 8b06 c5bd c6c5 33bd
00000140: 8b99 843e c6db 0f3e 79e7 03be 03b3 003d
00000150: 4e64 a63d e526 c63d 1ff3 67bd 6c81 6d3d
00000160: f4d0 813d e3b8 fd3d 06bd 8bbc e63a aabd
00000170: 1d10 9dbd e5d3 dcbd b92d 4fbd 8711 dbbb
00000180: e7bc e3bd 16d4 82bb 3a72 cdbb 6831 d5bc
00000190: 41a9 eabc 105e 243e 6b7a a0bd 87be 9ebc
000001a0: 6301 5439 67f5 833d 1bb5 7abd fd8e 4dbd
000001b0: 74ff d53d 9be0 b13d 02c5 6ebd 206b d0bc
000001c0: 9365 29bd f980 853d a73c 873d 856e 90bd
000001d0: 30e1 233d 4a0a 75bc 1793 14bc cf69 d6bd
000001e0: baf1 80bd 3cd4 e1bd d2ec bc3d 6cbc 863d
000001f0: 24b2 babd ddfd 73bd b99b 16bd d79f 35be
00000200: 975b 04bd e3e7 8cbd 4723 bdbd 0c98 3abe
00000210: 43ca 1c3d 20af b93d d2e3 30bd 25fa 18bd
00000220: a11c 8ebc e4bf 083d 24a6 dfba 40de 53bd
00000230: 5fba 0a3b 2e8d 00be b973 0c3e 5e90 a03d
00000240: 7179 9f3d 6091 db3c 8582 1b3d b7db 9fbd
00000250: fb61 233d 0040 06bb 00d0 bebd d1fc bc3a
00000260: 6b23 35be a2ed 31be 478a 5fbd 812a 3ebd
00000270: 8321 583e d0d3 61bc 7f06 f43d 6e30 1b3a
00000280: 101d 77ba 6b8b fabd 8474 cabd c1e8 1bbd
00000290: ad59 8abc 9a14 fb3d 32e2 b03d b29c 68bc
000002a0: 6bca d43c 81b1 cfbb 15f1 1abe e757 03bd
000002b0: 730b 61be f090 973d d5f0 3a3e a574 af3b
000002c0: 5e60 22bd fa98 09bb 40b0 41be 4c76 c7bc
000002d0: 4fff 96bc dae8 1d3e bcff 2dbe db43 c1bc
000002e0: 8bb1 2abe bc9d 36bd dc26 023e 0319 f43c
000002f0: 1764 a8bc af83 5d3d 95bb 453d 08eb 8f3d
00000300: 02c6 9cbb 1e25 dc3d 2a22 5ebd b64f 83bd
00000310: 3002 debc 3830 b5bc 4987 33bd da7b df3a
00000320: a49e 4cbe 5b6b 0f3e 6fa8 c13d 8332 823b
00000330: f992 03bc 37e5 a9bd 8977 afbd 15d3 a0bd
00000340: 1722 ad3d 075a c33d e8ac 863d b10f 823a
00000350: 11b5 da3d e4bb 323d e7ea 0a3c aaf0 153c
00000360: 8126 ed3b 11c8 d33d dd30 d8bd 7cb8 7f3e
00000370: 0d6f 8539 73ec 08bc b928 2bbe a347 0b3e
00000380: a357 18bd f08f 95bd c1d0 143e cc09 903b
00000390: b5ce 063b 9add 463e a257 9fbd 6172 f2bb
000003a0: eb1c c73d 8c99 72bd 504e ee3c 8235 92bc
000003b0: 6cc7 ddbc 9a62 0e3e 9597 253d 5934 26be
000003c0: 8e49 373d 201d c3bd 1a8c 4d3d 8690 313d
000003d0: 2054 883d 4611 f2bb 4ff9 283e dcaf 5d3c
000003e0: a2c4 25be 6c67 043d 5834 60bd a6fa 21be
000003f0: f7c9 a93d c5e5 a6bd 5184 59bd f19f 14bd

network_body._body_endoder.seq_layers.2.bias f4 [128]
0.0049161976 0.021683509 -0.07326698 0.08388001 -0.061569586 0.05154986 0.010832475 0.07508403
-0.056172222 0.02373081 0.03744278 0.027610045 0.04867267 -0.054901212 -0.07860375 0.04286926
-0.0014301599 -0.020289464 -0.07286648 -0.07174234 0.008108678 0.034414537 -0.06755471 0.019292805
-0.063815095 -0.007676306 -0.04340492 0.020098083 -0.072978765 0.040209405 -0.0047261254 0.037687145
0.009201806 -0.027924895 0.045884777 -0.013846508 0.03360583 -0.027428795 0.056257397 -0.033061214
0.034297418 -0.007860075 -0.0026968413 0.0469108 -0.02108434 0.036218647 -0.02489469 0.030660508
0.038767077 -0.00067974173 -0.02401063 0.0014895991 0.040434957 -0.052400164 0.030569958 -0.05523858
-0.08538959 0.06742521 -0.09051264 -0.017187502 -0.036570653 -0.023026051 0.01900139 -0.033684976
-0.0696215 0.0025595704 -0.03359485 0.040939543 0.06759982 0.015371858 -0.030718865 0.010038384
-0.003952895 0.052361928 0.060176246 0.038256347 -0.021105228 0.07642997 0.053587027 -0.019131321
0.018472388 -0.015521754 0.03461994 -0.061287154 -0.0775406 0.044120017 0.0052052196 0.051765583
0.0024238152 -0.12300877 0.02606486 -0.025474139 0.029459184 0.08607495 0.056520507 -0.00011843696
0.058159318 0.02009124 -0.0349251 0.022297181 0.004710552 0.011906239 -0.020233883 -0.0054765604
-0.046368457 -0.06388646 -0.017038083 0.011916326 0.06074559 0.0070819166 -0.13933527 -0.03255209
-0.057191376 0.025828604 -0.0013375705 0.0144612845 -0.050003864 0.022374973 0.026114183 0.07349682
0.006250385 -0.029136734 0.018634725 -0.019097192 0.017964225 0.07892014 -0.017736774 0.038760632
00000000: 0e18 a13b 9da1 b13c 000d 96bd 48c9 ab3d
00000010: 6430 7cbd f225 533d b17a 313c a8c5 993d
00000020: d814 66bd 1e67 c23c 9a5d 193d 762e e23c
00000030: fe5c 473d 18e0 60bd 01fb a0bd ad97 2f3d
00000040: 3474 bbba 1736 a6bc 053b 95bd a6ed 92bd
00000050: 43da 043c 42f6 0c3d 205a 8abd f20b 9e3c
00000060: 7db1 82bd 8689 fbbb 5bc9 31bd bca4 a43c
00000070: e475 95bd 9eb2 243d 9ddd 9abb d65d 1a3d
00000080: 2cc3 163c c0c2 e4bc adf1 3b3d 77dc 62bc
00000090: 44a6 093d 5ab2 e0bc 286e 663d 326b 07bd
000000a0: 737b 0c3d 8bc7 00bc 7dbd 30bb 8a25 403d
000000b0: 11b9 acbc 015a 143d f3ef cbbc bf2b fb3c
000000c0: 3aca 1e3d b230 32ba f1b1 c4bc a73e c33a
000000d0: 209f 253d 8ea1 56bd d96d fa3c d941 62bd
000000e0: bde0 aebd 3a16 8a3d b15e b9bd cecc 8cbc
000000f0: 1ccb 15bd 21a1 bcbc cea8 9b3c 42f9 09bd
00000100: b895 8ebd 77be 273b c19a 09bd 39b0 273d
00000110: c671 8a3d 3fda 7b3c 21a6 fbbc 0978 243c
00000120: 4987 81bb 7679 563d 5e7b 763d b0b2 1c3d
00000130: dfe4 acbc 5187 9c3d 127e 5b3d 4ab9 9cbc
00000140: 6853 973c f44e 7ebc a3cd 0d3d 3d08 7bbd
00000150: 9bcd 9ebd 31b7 343d 8c90 aa3b 2608 543d
00000160: dfd8 1e3b 06ec fbbd f985 d53c 24af d0bc
00000170: 6354 f13c 1048 b03d 0c82 673d 5c61 f8b8
00000180: 7738 6e3d 6296 a43c 9f0d 0fbd 94a8 b63c
00000190: f95a 9a3b 6312 433c 87c1 a5bc b874 b3bb
000001a0: daec 3dbd e8d6 82bd 7393 8bbc b23c 433c
000001b0: 5ed0 783d 6c0f e83b e8ad 0ebe 5755 05bd
000001c0: 8141 6abd 8296 d33c 6b51 afba 06ef 6c3c
000001d0: dad0 4cbd b84b b73c 69ed d53c 8085 963d
000001e0: 08d0 cc3b 29b0 eebc daa7 983c b771 9cbc
000001f0: b629 933c e2a0 a13d b64c 91bc 78c3 1e3d

action_model._continuous_distribution.mu.weight f4 [2, 128]
0.04949557 0.08337547 -0.04787276 0.039398238 -0.08451355 -0.048286248 -0.095492646 0.05909041
-0.045368496 -0.068714365 0.0042461297 -0.059462592 0.017035274 0.034154154 -0.03620669 -0.05211173
0.018117126 -0.04686314 -0.0199309 -0.046357848 0.08985356 -0.06817477 -0.032406136 0.06654863
0.048844237 0.039368305 0.066226766 0.023773266 0.016471142 0.07430873 -0.047926057 0.0154411355
-0.017111903 0.06254484 0.077438645 -0.08274133 -0.02194903 -0.0056508374 0.027793143 -0.09758982
0.041753177 -0.044978913 0.06929946 0.05577004 0.040756833 -0.07620401 0.05312389 -0.006789828
-0.027039485 -0.042857897 -0.092982985 -0.014448257 -0.057267807 -0.000947214 -0.03441579 -0.055522133
-0.015191625 -0.012850114 0.010780366 0.010930022 -0.027056629 0.010372569 -0.058694657 -0.064254105
0.018620633 0.13156569 0.053532206 0.045368202 0.015958877 -0.038928475 -0.122047156 0.086645484
0.059930395 -0.033078212 0.06949912 -0.079404786 -0.010128388 -0.012648434 0.043696612 -0.050366696
-0.0225729 0.040357616 -0.0035206159 0.028372379 -0.055170733 -0.049749073 -0.056070663 0.013334897
-0.04317571 0.0071224603 -0.016105924 0.038522746 0.024313055 0.029120373 0.050380938 0.046029147
-0.04467136 -0.05796587 -0.042421844 0.084136434 0.09893257 -0.027947221 0.07290077 0.020857304
-0.069692776 0.01433381 -0.09736159 -0.06417159 -0.08022776 0.07286131 -0.019716196 -0.041409798
-0.032462176 -0.049834512 -0.04319477 0.05017539 0.0051987073 0.035782635 0.07309358 0.012155269
-0.048434697 -0.0755421 0.010538312 0.02110701 -0.069823995 0.061743964 0.041350234 0.09668932
0.053619523 0.018326756 0.014577074 -0.06981111 -0.0027344136 0.08107067 -0.078888685 -0.046466827
0.04169841 0.009732251 -0.067450434 0.0069383862 0.02509399 0.088961154 -0.074368365 0.08564299
0.082906924 0.004674509 -0.0510217 0.06766495 0.0006129524 -0.04616466 -0.048505414 -0.0267779
-0.037510514 0.11220549 -0.04342976 0.09104921 0.06451254 0.012290748 0.0166495 -0.07260777
-0.07658956 -0.046776984 -0.020844113 -0.051903598 -0.016166227 0.06586275 -0.030252716 -0.027458256
0.10561178 0.034902915 -0.07659947 0.008180922 0.014593392 0.02329704 -0.06650017 0.04952818
-0.04083293 0.011984028 -0.050550025 -0.06004159 0.008701314 -0.0542563 0.0046230513 -0.08263634
-0.052695543 -0.056436665 0.03894183 -0.039673038 -0.089738615 0.05590497 0.08838522 0.0022882863
0.047830336 0.045489598 0.075610414 -0.03265014 -0.041646585 0.06087865 0.0151074985 0.005735294
-0.0052705947 -0.004376479 -0.0030577038 -0.028064137 -0.04756879 -0.05028306 0.0035588033 0.035878923
-0.087014236 0.081543535 -0.03147231 -0.043156456 -0.07406207 0.0073107444 -0.057716694 -0.046613343
0.030863546 -0.051477715 0.051406406 -0.0536802 0.057271257 0.024813917 0.031385373 -0.035465054
-0.003958661 -0.007870444 0.09006827 0.007758496 -0.033538155 0.12646638 -0.017624471 -0.06363367
0.014508933 0.08323764 -0.06393909 -0.03962652 0.078866124 -0.068169154 0.026637772 -0.07013339
-0.020305173 -0.024846425 -0.04506967 0.07950038 0.0077202935 -0.01259195 0.05481253 -0.026712492
0.12116452 0.020921648 0.079665855 -0.052549172 0.038110837 -0.12508659 0.05089239 -0.036849383
00000000: debb 4a3d c2c0 aa3d 3a16 44bd 0c60 213d
00000010: 7115 adbd cdc7 45bd a691 c3bd c908 723d
00000020: 51d4 39bd 1eba 8cbd 1e23 8b3b 0c8f 73bd
00000030: 8f8d 8b3c 3ae5 0b3d 774d 14bd 1c73 55bd
00000040: 5e6a 943c 90f3 3fbd 2046 a3bc bae1 3dbd
00000050: 2505 b83d 379f 8bbd 4cbc 04bd a64a 883d
00000060: e510 483d a940 213d e6a1 873d 27c0 c23c
00000070: 7dee 863c 2d2f 983d 1d4e 44bd d1fc 7c3c
00000080: 432e 8cbc 8217 803d 2798 9e3d 4974 a9bd
00000090: 74ce b3bc a92a b9bb 72ae e33c 2cdd c7bd
000000a0: 6105 2b3d cf3b 38bd e0ec 8d3d 206f 643d
000000b0: a3f0 263d d910 9cbd 7098 593d 357d debb
000000c0: e981 ddbc c38b 2fbd dd6d bebd 62b8 6cbc
000000d0: a691 6abd 754e 78ba 92f7 0cbd 2d6b 63bd
000000e0: 4be6 78bc 4989 52bc 22a0 303c d613 333c
000000f0: dda5 ddbc b5f1 293c cf69 70bd a897 83bd
00000100: 4c8a 983c 28b9 063e 9644 5b3d 02d4 393d
00000110: 31bc 823c 7773 1fbd dcf3 f9bd 3073 b13d
00000120: 9379 753d 057d 07bd 8e55 8e3d fa9e a2bd
00000130: 8af1 25bc 613b 4fbc 38fb 323d 4f4d 4ebd
00000140: cdea b8bc 074e 253d 22ba 66bb 316d e83c
00000150: b5fa 61bd afc5 4bbd 5aaa 65bd 9d7a 5a3c
00000160: 03d9 30bd 8763 e93b 92f0 83bc 07ca 1d3d
00000170: 2c2c c73c d98d ee3c 3e5c 4e3d 0f89 3c3d
00000180: 51f9 36bd 9f6d 6dbd 87c2 2dbd b94f ac3d
00000190: 299d ca3d 92f1 e4bc 004d 953d f0dc aa3c
000001a0: 16bb 8ebd 5bd8 6a3c 8365 c7bd 656c 83bd
000001b0: 744e a4bd 4f38 953d dc83 a1bc 529d 29bd
000001c0: 0ff7 04bd 461f 4cbd 00ed 30bd b684 4d3d
000001d0: eb59 aa3b d090 123d 16b2 953d e526 473c
000001e0: 7663 46bd d1b5 9abd e2a8 2c3c 9ce8 ac3c
000001f0: e2ff 8ebd 3de7 7c3d dd5e 293d 0d05 c63d
00000200: 25a0 5b3d fe21 963c aed4 6e3c 21f9 8ebd
00000210: d933 33bb 6108 a63d 6490 a1bd 0054 3ebd
00000220: f4cb 2a3d 0574 1f3c 7423 8abd 675b e33b
00000230: e991 cd3c 4431 b63d 714e 98bd 9865 af3d
00000240: 1bcb a93d a02c 993b 21fc 50bd ec93 8a3d
00000250: 8aae 203a 2817 3dbd 9dad 46bd 545d dbbc
00000260: a0a4 19bd fecb e53d 67e3 31bd 0278 ba3d
00000270: 271f 843d 225f 493c 8864 883c 62b3 94bd
00000280: fdda 9cbd 3999 3fbd 46c1 aabc de98 54bd
00000290: 096f 84bc 0de3 863d 8bd4 f7bc 23f0 e0bc
000002a0: fd4a d83d 5cf6 0e3d 2fe0 9cbd 4609 063c
000002b0: 1f19 6f3c 6fd9 be3c 3e31 88bd 10de 4a3d
000002c0: 6e40 27bd a858 443c 8b0d 4fbd 2cee 75bd
000002d0: f58f 0e3c db3b 5ebd f77c 973b 3e3d a9bd
000002e0: 48d7 57bd 222a 67bd 7881 1f3d 3280 22bd
000002f0: e1c8 b7bd 9cfc 643d 4f03 b53d 13f7 153b
00000300: bee9 433d 4d53 3a3d a2d9 9a3d 27bc 05bd
00000310: 9c95 2abd e45b 793d 7185 773c 22ef bb3b
00000320: f4b4 acbb 9168 8fbb c263 48bb c3e6 e5bc
00000330: 7ed7 42bd 9cf5 4dbd d03a 693b c7f5 123d
00000340: 8534 b2bd 4c00 a73d 1ce9 00bd d3c4 30bd
00000350: dbad 97bd f88e ef3b 5768 6cbd a2ed 3ebd
00000360: 8cd5 fc3c 4cda 52bd 868f 523d c5df 5bbd
00000370: 4495 6a3d 8e46 cb3c f38d 003d ce43 11bd
00000380: a8b7 81bb 09f3 00bc b775 b83d fb3a fe3b
00000390: 4e5f 09bd 6780 013e 3261 90bc 5f52 82bd
000003a0: e0b6 6d3c 7f78 aa3d 7ff2 82bd 6b4f 22bd
000003b0: 9084 a13d 459c 8bbd 7537 da3c 18a2 8fbd
000003c0: 0957 a6bc bb8a cbbc f99a 38bd 18d1 a23d
000003d0: 84fa fc3b 774e 4ebc 1a83 603d 28d4 dabc
000003e0: 1b25 f83d e063 ab3c da27 a33d cd3d 57bd
000003f0: 1c1a 1c3d b316 00be 8a74 503d 61ef 16bd

action_model._continuous_distribution.mu.bias f4 [2]
0.014531696 0.003879401
00000000: 5a16 6e3c 8c3d 7e3b

action_model._continuous_distribution.log_sigma.weight f4 [2, 128]
-0.00911641 -0.01836505 0.03735476 -0.04145377 0.04980793 -0.024744693 0.02434104 -0.055021588
0.019117644 -0.015577043 -0.015461509 -0.01445599 -0.022594865 0.057812843 0.046585824 -0.021332739
0.0016394646 -0.010228655 0.048138686 0.0324172 0.002954353 -0.020959651 0.0348786 0.016639208
0.0580299 -0.009709764 0.031579383 0.0061132023 0.045114286 -0.018782089 0.0058305166 -0.03194684
0.004382198 -0.003569948 -0.017112676 -0.017843463 -0.01985101 0.0013329099 -0.023697644 -0.00075511204
-0.04050457 -0.007915728 0.02201103 -0.028522497 0.017910272 -0.041521776 -0.012125655 -0.0044271867
-0.008591438 -0.012470062 0.002282761 0.0073743127 -0.02152033 0.010428558 -0.004911358 0.033100106
0.0587361 -0.03892693 0.044838108 0.013583351 0.009455068 0.0063131824 0.009541591 0.010503169
0.03356393 -0.0008079391 0.010818549 -0.040783577 -0.023987735 -0.011062572 0.024411738 0.0025499838
0.006710756 -0.019192375 -0.023244109 -0.029163603 0.024360057 -0.033284172 -0.02469373 0.011980141
-0.02554277 0.028941058 -0.0013678725 0.032371815 0.045837764 -0.054617614 -0.0057052094 -0.037714258
-0.01923931 0.088827245 -0.003656475 0.017907823 -0.019797593 -0.026452325 -0.0296944 -0.005696985
-0.03161788 -0.0338077 0.016535172 -0.0147346305 -0.0032886765 0.0073762643 0.016795637 -0.01855961
0.011038231 0.035135884 0.027915413 -0.029754492 -0.048658796 0.009262753 0.06951785 0.010069403
0.010694404 -0.016960671 -0.0035908234 -0.013625521 0.02030819 -0.010078389 -0.024711274 -0.02403345
0.0037130837 0.021909153 0.007940561 0.0031192882 -0.025914708 -0.05238489 0.021736719 -0.0115928175
0.006563554 -0.009960823 0.04072455 -0.031162595 0.039318908 -0.03888496 -0.002388261 -0.020675657
0.022399193 -0.0145359095 -0.014292686 -0.01066928 -0.008030611 0.061250605 0.042586476 -0.039536435
-0.02184656 0.016461821 0.020682786 0.031583697 0.008869435 -0.0069337753 0.0354951 0.007024128
0.03489067 0.021187047 0.020098355 -0.008231191 0.049096923 0.007855732 -0.007884275 -0.030490521
-0.013565553 0.012323594 -0.051797796 0.011957941 0.0006562819 0.015862068 -0.031534135 0.019966578
-0.022165967 0.013899939 0.013815825 -0.032650433 0.007196326 -0.018168617 0.017407838 -0.020898947
-0.033580817 0.013655308 0.03799163 -0.007245735 -0.009182637 0.0064469227 -0.011000711 0.032902528
0.043822493 -0.04473619 0.02997758 -0.015118255 -0.00050135364 0.0051892092 -0.016183686 -0.0031508678
0.03774729 0.011358029 0.017296936 -0.0054535638 -0.028012335 -0.02760908 0.0032074247 -0.001605445
0.011885068 -0.018354578 -0.025991362 -0.029750051 -0.006640071 -0.035350554 -0.023086198 0.0071709473
-0.016640328 -0.010973925 -0.030367909 0.04217137 0.062803745 -0.015806342 -0.008453726 -0.02852777
-0.0059070103 0.083082035 -0.019495292 0.011731108 -0.0009123664 -0.0354591 -0.018096346 0.011144871
-0.01852228 -0.023592936 0.014789148 -0.0015864944 -0.012914567 0.01595091 0.013092295 -0.010948431
0.009161358 0.0318497 0.010265102 -0.0020919754 -0.05050556 -0.0050375536 0.049075942 0.026011337
0.020658059 -0.024033027 -0.0012690844 -0.015761347 -0.0018114158 -0.0035669322 -0.023357257 -0.046042845
0.0063209534 -0.0010572992 -0.027640015 -0.009273213 0.009002248 -0.036427293 0.01953729 -0.004384703
00000000: ff5c 15bc 4d72 96bc 4e01 193d 6ecb 29bd
00000010: 6603 4c3d 62b5 cabc dc66 c73c 515e 61bd
00000020: 9b9c 9c3c db36 7fbc 4552 7dbc d1d8 6cbc
00000030: de18 b9bc 29cd 6c3d c7d0 3e3d ffc1 aebc
00000040: 4ee3 d63a 1796 27bc 122d 453d e6c7 043d
00000050: d29d 413b 93b3 abbc dddc 0e3d f34e 883c
00000060: c3b0 6d3d b415 1fbc 6259 013d 4251 c83b
00000070: c2c9 383d e5dc 99bc eb0d bf3b b1da 02bd
00000080: 8b98 8f3b caf5 69bb e22f 8cbc 742c 92bc
00000090: 969e a2bc 09b5 ae3a 9021 c2bc b6f2 45ba
000000a0: 1fe8 25bd f8b0 01bc 7a50 b43c 03a8 e9bc
000000b0: 90b8 923c bd12 2abd afaa 46bc ef11 91bb
000000c0: 1ac3 0cbc 3b4f 4cbc 609a 153b 38a4 f13b
000000d0: 674b b0bc 8bdc 2a3c 75ef a0bb fa93 073d
000000e0: 4495 703d d871 1fbd 2aa8 373d b48c 5e3c
000000f0: 6ee9 1a3c d0de ce3b 5554 1c3c 7c15 2c3c
00000100: 557a 093d e0cb 53ba 4940 313c ae0c 27bd
00000110: ed81 c4bc ca3f 35bc 20fb c73c a11d 273b
00000120: e7e5 db3b 5439 9dbc 6e6a bebc 82e8 eebc
00000130: be8e c73c fc54 08bd 814a cabc 5a48 443c
00000140: 123f d1bc cc15 ed3c 2f4a b3ba 4f98 043d
00000150: 61c0 3b3d b8b6 5fbd c4f2 babb 447a 1abd
00000160: c29b 9dbc 0feb b53d 79a1 6fbb 6db3 923c
00000170: 902e a2bc 8cb2 d8bc ac41 f3bc c6ad babb
00000180: c081 01bd f179 0abd c574 873c 8569 71bc
00000190: d686 57bb 97b4 f13b 0197 893c 530a 98bc
000001a0: b2d9 343c a5ea 0f3d ddae e43c b1bf f3bc
000001b0: 724e 47bd cdc2 173c 605f 8e3d 23fa 243c
000001c0: 9537 2f3c 1bf1 8abc 0554 6bbb 943d 5fbc
000001d0: 5c5d a63c d41f 25bc 4c6f cabc cce1 c4bc
000001e0: 3557 733b d37a b33c 2019 023c f96c 4c3b
000001f0: 154b d4bc 8a91 56bd 3411 b23c cdef 3dbc
00000200: 1513 d73b b832 23bc c9ce 263d b348 ffbc
00000210: dd0c 213d d645 1fbd 5f84 1cbb ff5f a9bc
00000220: 837e b73c 0628 6ebc df2b 6abc 34ce 2ebc
00000230: d392 03bc eae1 7a3d 286f 2e3d f5f0 21bd
00000240: 8ff7 b2bc f1da 863c f26e a93c e85d 013d
00000250: 1b51 113c b934 e3bb 4f63 113d a82a e63b
00000260: 85e9 0e3d 7590 ad3c 4ea5 a43c 1edc 06bc
00000270: db19 493d 54b5 003c 0c2d 01bc 42c7 f9bc
00000280: 0e42 5ebc e6e8 493c ed29 54bd 3deb 433c
00000290: 550a 2c3a 2bf1 813c f029 01bd f390 a33c
000002a0: 6795 b5bc 92bc 633c c55b 623c 76bc 05bd
000002b0: 28cf eb3b 5ad6 94bc e29a 8e3c 4534 abbc
000002c0: 0a8c 09bd 83ba 5f3c 1d9d 1b3d a16d edbb
000002d0: c572 16bc b540 d33b 533c 34bc cdc4 063d
000002e0: 377f 333d 4c3d 37bd 8b93 f53c 8fb2 77bc
000002f0: 466d 03ba 3e0a aa3b a693 84bc ca7e 4ebb
00000300: e79c 1a3d 0717 3a3c 4eb2 8d3c cfb3 b2bb
00000310: 207a e5bc 702c e2bc a833 523b cc6d d2ba
00000320: 97b9 423c 575c 96bc d6eb d4bc 61b6 f3bc
00000330: f494 d9bb becb 10bd 441f bdbc 44fa ea3b
00000340: 4c51 88bc facb 33bc 1fc6 f8bc e3bb 2c3d
00000350: 409f 803d 4d7c 81bc 7f81 0abc 12b3 e9bc
00000360: 988f c1bb ea26 aa3d 97b4 9fbc d533 403c
00000370: df2b 6fba 903d 11bd ca3e 94bc fa98 363c
00000380: 09bc 97bc f945 c1bc 2f4e 723c ebf1 cfba
00000390: 9f97 53bc 7cab 823c 1181 563c 0c61 33bc
000003a0: 8519 163c d574 023d f52e 283c 8619 09bb
000003b0: ebde 4ebd 1012 a5bb db03 493d ba15 d53c
000003c0: 173b a93c e9e0 c4bc 6857 a6ba f11d 81bc
000003d0: 076d edba 31c3 69bb b857 bfbc 6c97 3cbd
000003e0: 0020 cf3b 1395 8aba 506d e2bc adee 17bc
000003f0: 2a7e 133c c934 15bd ab0c a03c 8ead 8fbb

action_model._continuous_distribution.log_sigma.bias f4 [2]
-0.102470875 -0.10164001
00000000: 40dc d1bd a328 d0bd

onnx::Div_66 f4 [20]
0.22920221 0.22513463 0.04154099 0.08176719 0.19400643 0.40372503 0.07099491 0.15192373
0.19336759 0.35985863 0.088373035 0.15300037 0.118574634 0.49876255 0.13531381 0.20594586
0.10694843 0.4942973 0.12384628 0.20359744
00000000: fcb3 6a3e b189 663e e326 2a3d 8e75 a73d
00000010: 9fa9 463e 0cb5 ce3e c865 913d e591 1b3e
00000020: 2702 463e 643f b83e ecfc b43d 21ac 1c3e
00000030: 42d7 f23d ce5d ff3e b48f 0a3e 79e3 523e
00000040: c707 db3d 8914 fd3e 1ea3 fd3d d97b 503e

onnx::Div_69 f4 [12]
0.041540828 0.17763582 0.017235875 0.023271993 0.04081457 0.18072475 0.016299237 0.022788746
0.042322226 0.17574494 0.018280922 0.02398819
00000000: b726 2a3d 2ae6 353e 4032 8d3c e8a4 be3c
00000010: 2e2d 273d e90f 393e fa85 853c 77af ba3c
00000020: 125a 2d3d 7bf6 333e dfc1 953c e182 c43c

onnx::Div_72 f4 [3]
1.0787615 0.019803325 1.2774267
00000000: db14 8a3f 953a a23c b882 a33f
