Experimentos/results/sac4.3/KartAgent/KartAgent-6400.onnx (onnx, 93578 bytes, 14 tensors)

network_body.observation_encoder.processors.0.normalizer.running_mean f4 [20]
0	0x3d41e3c4	0.047336355
1	0x3e3a3602	0.18184665
2	0x3a75b8bb	0.0009373535
3	0x3dad3b68	0.084585965
4	0x3d0d6afa	0.03452585
5	0x3e909e0c	0.2824558
6	0x3b23d07d	0.0024996095
7	0x3e120d82	0.14262965
8	0x3d5990ea	0.053116716
9	0x3e65906b	0.22418372
10	0x3b851966	0.0040618656
11	0x3e011356	0.12605032
12	0x3c21413d	0.009842214
13	0x3ef699f9	0.48164347
14	0x3ba3d07d	0.004999219
15	0x3e89495e	0.26813787
16	0x3c8e0ecc	0.01734104
17	0x3f05e62b	0.52304333
18	0x3b851965	0.004061865
19	0x3e7ce99b	0.24698488

network_body.observation_encoder.processors.1.normalizer.running_mean f4 [12]
0	0x3a23d07c	0.0006249023
1	0x3e0b2da4	0.1359163
2	0x00000000	0.0
3	0x3c2f0bde	0.010683982
4	0x3a4cc49c	0.00078112795
5	0x3e07d19d	0.13263555
6	0x3923d07d	0.0001562256
7	0x3c2ec7d6	0.010667762
8	0x39a3d07c	0.00031245116
9	0x3e0c9e3a	0.13732234
10	0x00000000	0.0
11	0x3c318173	0.010834086

network_body.observation_encoder.processors.2.normalizer.running_mean f4 [3]
0	0x3edc1e86	0.42992038
1	0x3d0cbcdb	0.034359794
2	0x3e102aa0	0.1407876

network_body._body_endoder.seq_layers.0.weight f4 [128, 35]
0	0xbd3cabb1	-0.046062175
1	0x3ce33901	0.027737143
2	0xbcd000c4	-0.02539099
3	0x3da55dca	0.080745295
4	0x3b8c1db6	0.0042760028
5	0xbd699323	-0.057025086
6	0xbdb9eccf	-0.09078371
7	0x3d5c9a43	0.053858053
8	0xbe712770	-0.235502
9	0x3e8a17e9	0.26971367
10	0xbe00cb98	-0.12577665
11	0x3deab1e0	0.11459708
12	0x3d769baf	0.060207065
13	0xbe18f1b2	-0.1493595
14	0xbe92c6c0	-0.2866726
15	0x3dc221c8	0.094790995
16	0xbe13a5e4	-0.14418751
17	0x3db85938	0.09001392
18	0xbe135b3c	-0.14390272
19	0xbe2a04a8	-0.16603339
20	0xbd4c8b83	-0.049937736
21	0xbd54e7db	-0.051978927
22	0xbe6631da	-0.22479954
23	0xbdb8d4e6	-0.09024982
24	0x3e92694c	0.2859596
25	0x3e1481ed	0.14502688
26	0x3cc785df	0.024355827
27	0xbdb1497f	-0.086565964
28	0xbdfde797	-0.12397688
29	0x3dcb3b9c	0.09923479
30	0xbd1412ce	-0.036150746
31	0x3eb4f7e9	0.3534539
32	0x3d84555d	0.06461594
33	0xbe93554e	-0.2877602
34	0xbdd160cd	-0.102235414
35	0x3e653c99	0.22386397
36	0x3daa4074	0.08313075
37	0x3cff6fcd	0.03118124
38	0xbe3fe623	-0.18740134
39	0x3e492f06	0.19646844
40	0xbd4cbed7	-0.049986687
41	0x3d96b32d	0.07358394
42	0xbe2f9ca3	-0.17149596
43	0x3e09e587	0.13466464
44	0xbd18fa34	-0.037347987
45	0x3e0b7a9d	0.13620992
46	0xbceb077d	-0.028690094
47	0x3ccf6a2f	0.025319187
48	0x3e6b7ccd	0.22996826
49	0x3d7a6598	0.061132044
50	0xbd838292	-0.06421389
51	0xbe3b8e91	-0.18316104
52	0xbe80d90e	-0.251656
53	0xbe3777ee	-0.17916843
54	0x3cf48604	0.02984906
55	0xbc975044	-0.01847089
56	0x3e4cd8c4	0.20004565
57	0xbd6e2bc7	-0.058147218
58	0x3ea3d694	0.31999648
59	0xbde3e433	-0.1112751
60	0x3cc9aab8	0.024617538
61	0x3da8f159	0.082491584
62	0xbdbe7c8f	-0.093011014
63	0x3e169fa3	0.14709334
64	0x3db00e28	0.0859645
65	0x3d97cfeb	0.07412704
66	0xbd08313b	-0.033250075
67	0x3e39a2e7	0.18128549
68	0x3dad5f8c	0.0846549
69	0xbe666b05	-0.22501762
70	0xbd0ad300	-0.03389263
71	0xbe4b755a	-0.19868985
72	0xbd0adbec	-0.03390114
73	0x3e24d78d	0.16097851
74	0xbe6038a4	-0.21896607
75	0xbe738182	-0.23779872
76	0xbec715e6	-0.38883895
77	0xbde6f600	-0.112773895
78	0x3e76ba76	0.24094567
79	0xbe2783f4	-0.1635893
80	0xbe66e791	-0.22549273
81	0x3dc00c65	0.09377364
82	0x3bdada0b	0.006678825
83	0x3e2d86db	0.16945975
84	0x3c193b09	0.009352454
85	0xbe094c79	-0.13408078
86	0xbe3cbbfa	-0.18431082
87	0x3e3b57c1	0.18295194
88	0xbdfe43af	-0.12415253
89	0x3c5bef2c	0.013423722
90	0x3c50c695	0.012742658
91	0xbcf21e3f	-0.029555438
92	0x3e3bf471	0.18354966
93	0x3e3d4edd	0.18487115
94	0xbdf3f65a	-0.11912222
95	0xbe3752fc	-0.1790275
96	0xbe853cf6	-0.26023072
97	0xbe303c6e	-0.17210552
98	0x3d1f2d23	0.038861405
99	0x3e77479d	0.24148412
100	0xbdacc6a7	-0.084363274
101	0x3d9a7f57	0.075438194
102	0xbe5b86b3	-0.21438102
103	0x3e84d321	0.2594233
104	0x3e605d75	0.21910651
105	0x3eb2786e	0.34857506
106	0xbde07787	-0.10960298
107	0x3de9bb22	0.11412646
108	0x3de13177	0.10995763
109	0xbd8a5d86	-0.067561194
110	0xbd45923a	-0.048235156
111	0xbe0f4974	-0.13992864
112	0x3e0f1459	0.13972606
113	0x3da553b5	0.080726065
114	0x3cf1975b	0.029491117
115	0xbd2c2b31	-0.042033378
116	0x3e28d729	0.16488327
117	0xbd8054b1	-0.062661536
118	0x3df5e89a	0.12007256
119	0xbd74846f	-0.05969661
120	0x3dd6e164	0.104922086
121	0x3df66181	0.12030316
122	0x3e40eba2	0.18839887
123	0x3d9ea7ea	0.07746871
124	0x3d319f03	0.043364536
125	0x3d0d82e3	0.03454865
126	0xbb192091	-0.0023365358
127	0xbe8b3491	-0.27188542
128	0x3dc31190	0.09524834
129	0x3d8bc588	0.068247855
130	0x3e558bb5	0.20854075
131	0xbd787c89	-0.06066564
132	0x3e847420	0.25869846
133	0xbe83fdf3	-0.25779685
134	0xbd924217	-0.07141512
135	0xbd6e6357	-0.058200207
136	0xbe3069e4	-0.17227894
137	0x3e97c862	0.29645067
138	0x3e06d613	0.131676
139	0xbe0b170c	-0.1358301
140	0xbe3e0ae6	-0.18558845
141	0x3d9d3bba	0.076774076
142	0xbe58e854	-0.21182376
143	0xbd6f6fb6	-0.058456145
144	0x3b760e0f	0.0037545
145	0x3e77992e	0.24179527
146	0x3df51610	0.11967099
147	0x3e6d727a	0.231882
148	0x3e1a876b	0.1509072
149	0xbdd0e39e	-0.101996645
150	0x3dc008ae	0.093766555
151	0xbd44b77f	-0.048026558
152	0x3bfb6ed7	0.0076731252
153	0x3eb2e0f6	0.34937257
154	0xbed0d65b	-0.4078854
155	0xbe4d081e	-0.20022628
156	0xbe0c7f78	-0.137205
157	0x3e5815ec	0.21102113
158	0x3e226e76	0.1586245
159	0xbe55360f	-0.20821403
160	0xbb24e9af	-0.00251637
161	0xbdaed805	-0.08537296
162	0x3e4590f0	0.1929357
163	0x3e02d947	0.12778197
164	0x3c381072	0.01123439
165	0x3e2a141a	0.1660923
166	0xbe7c2525	-0.24623545
167	0x3e08dc5c	0.1336531
168	0xbd00036c	-0.031253263
169	0xbda6401d	-0.081176974
170	0xbe90c940	-0.28278542
171	0xbe5eb985	-0.21750458
172	0xbd927a62	-0.07152249
173	0xbde30a6d	-0.11085973
174	0xbe10a32b	-0.14124744
175	0xbe162445	-0.14662273
176	0x3db6ee6a	0.089321926
177	0x3d9df75c	0.07713196
178	0x3de54f1c	0.111967295
179	0xbd0a5373	-0.03377099
180	0xbe4b66a0	-0.19863367
181	0xbdca403e	-0.098755345
182	0xbea86df8	-0.328964
183	0xbe9730df	-0.29529473
184	0x3e38ec1d	0.1805882
185	0x3e0595c5	0.13045414
186	0xbd34c552	-0.04413349
187	0x3d1552c6	0.036455892
188	0xbee865cb	-0.45390162
189	0x3da1eff9	0.07907099
190	0x3eb616e2	0.35564333
191	0x3ddbd945	0.107348
192	0xbdd150b3	-0.1022047
193	0xbc523e04	-0.0128321685
194	0x3e1cc000	0.15307617
195	0xbd6592cc	-0.0560482
196	0x3ebaae88	0.36461282
197	0xbe0a1e24	-0.1348806
198	0x3ea9a763	0.33135518
199	0xbd9cfeb8	-0.07665771
200	0xbdd6dd41	-0.104914196
201	0xbd1c6f2e	-0.038191967
202	0x3de9636a	0.11395915
203	0xba8c8589	-0.0010720949
204	0x3cb6df15	0.02232317
205	0xbe83c380	-0.25735092
206	0xbd488ade	-0.04896056
207	0x3d8a6bcf	0.06758844
208	0xbe084cd6	-0.1331056
209	0x3dfcd0b4	0.123444945
210	0xbdba705e	-0.091034636
211	0x3de6aa79	0.11262984
212	0xbd8c3a41	-0.068470486
213	0x3c0268d1	0.0079595605
214	0xbe0ffafe	-0.1406059
215	0xbece2e6d	-0.40269795
216	0xbe3c2d83	-0.18376736
217	0x3d7bdcaa	0.06148974
218	0x3e15fe4c	0.14647788
219	0xbdcc1c99	-0.09966392
220	0xbd52f7f1	-0.051505987
221	0x3dd26ea3	0.102750085
222	0xbe0f2a40	-0.13980961
223	0xbe148e0c	-0.14507312
224	0x3c8ef7d1	0.017452152
225	0xbddba54a	-0.10724886
226	0xbe3cc81f	-0.18435715
227	0x3de95fc3	0.11395218
228	0xbe517f5f	-0.20458744
229	0xbd86d397	-0.06583326
230	0xbe24104f	-0.16021846
231	0x3e98a8b5	0.29816213
232	0x3d6cee7b	0.05784462
233	0x3d8f3334	0.06992188
234	0x3cbb341b	0.022851994
235	0xbd844ebe	-0.064603314
236	0xbe749ff7	-0.23889147
237	0xbd0500ed	-0.032471586
238	0xbe97beb8	-0.29637694
239	0x3e297f7f	0.16552542
240	0xbdb65472	-0.089028254
241	0x3e803258	0.2503841
242	0xbc969102	-0.018379692
243	0xbdff2123	-0.12457492
244	0xbd563614	-0.052297667
245	0xbe0fecb5	-0.1405514
246	0xbd3fc962	-0.046822913
247	0xbea7e4e8	-0.3279183
248	0xbe0effeb	-0.13964812
249	0xbe087c8a	-0.13328758
250	0xbdd2402e	-0.102661476
251	0x3b6dd624	0.0036290968
252	0x3eb00c89	0.34384564
253	0x3e1903ea	0.149429
254	0xbd845cfe	-0.06463049
255	0xbe913dfa	-0.28367597

network_body._body_endoder.seq_layers.0.bias f4 [128]
0	0xbb4117ef	-0.0029463728
1	0xbc6943d1	-0.01423736
2	0x3b403633	0.002932918
3	0x3c7f1768	0.015569545
4	0x3b932ea1	0.0044916426
5	0x3c6917fc	0.01422691
6	0xbc5d2d4c	-0.013499569
7	0xbc902ebe	-0.017600413
8	0xbc638bf0	-0.013888344
9	0x3c1024ba	0.008797819
10	0x3b39cf3a	0.0028352276
11	0xbc1eaaa5	-0.0096842395
12	0x3cb3aea0	0.021933854
13	0x3c7f9be7	0.015601135
14	0xbc55d033	-0.013050127
15	0x3bfb8e2e	0.0076768612
16	0x3ca9c366	0.020723056
17	0x3c4de6a8	0.0125672
18	0x3c12a597	0.0089506125
19	0xbbe049ed	-0.00684475
20	0x3c9fae7d	0.019492382
21	0x3c79e525	0.015252386
22	0xba768f02	-0.0009405465
23	0x3c95d986	0.0182922
24	0x3ba19185	0.0049306774
25	0x3ca14d14	0.019690074
26	0x3a3801ca	0.00070193096
27	0x3c83abf2	0.0160732
28	0x3c3f9261	0.011692614
29	0x3cb4f915	0.022091428
30	0xba2e0dfb	-0.00066396565
31	0x3c5e5465	0.013569926
32	0xbc57d90e	-0.013174308
33	0xbc498532	-0.012299823
34	0x3c99f1ff	0.01879215
35	0x3c97198b	0.018444797
36	0x3c826fe8	0.015922502
37	0x3b92b246	0.0044768183
38	0x3bfa7492	0.007643291
39	0x3c083d3e	0.0083153825
40	0xbc3c7e2a	-0.011504689
41	0xbc6f2080	-0.014595151
42	0x3aa51ce5	0.0012597112
43	0x3a039a35	0.0005020232
44	0x39e3aab1	0.0004342399
45	0x3cd113b2	0.025522087
46	0x3cab2f0b	0.020896455
47	0x3c9986a6	0.018740963
48	0x39f74ea2	0.00047170097
49	0x3cae76e4	0.021296926
50	0xbc257300	-0.010098219
51	0x3c5f4639	0.013627582
52	0x3c502a0d	0.012705338
53	0xbca3f377	-0.020013554
54	0xbc5f534c	-0.013630699
55	0x3bc60c45	0.006043943
56	0xba9696e0	-0.0011489056
57	0x3c223321	0.009899885
58	0x3bcd70fa	0.0062695714
59	0x3bbe6d62	0.0058113793
60	0xbbdfb67d	-0.006827174
61	0x3c804efa	0.015662659
62	0xbb257a68	-0.0025249962
63	0xbc2ad5be	-0.010426937
64	0xbc20f80e	-0.009824766
65	0x3c01a681	0.007913233
66	0xbc42b5af	-0.011884137
67	0xbc968939	-0.01837598
68	0x3c6cad6d	0.014445645
69	0x3acc3e74	0.0015582577
70	0x3c858c09	0.016302126
71	0x3c418957	0.0118125295
72	0xbc8f3343	-0.017480498
73	0x3c134384	0.008988265
74	0xbc272a59	-0.010202968
75	0xbba0ba92	-0.0049050534
76	0x3cd64eb3	0.026160574
77	0x3c8ba427	0.017046047
78	0xbc4f609f	-0.012657314
79	0x3c45848c	0.012055527
80	0x3c1dd7a1	0.0096339295
81	0x3c3bf1d4	0.011471231
82	0x3cc23b3c	0.023709886
83	0x3c8d2bb6	0.017232757
84	0xbc324589	-0.010880836
85	0x3c8fb363	0.017541593
86	0xba867d76	-0.0010260779
87	0x3c849bb6	0.01618753
88	0x3cc7d644	0.024394162
89	0x3c932bae	0.017965164
90	0x3bb2448f	0.0054403017
91	0x3c09583d	0.008382854
92	0x3c667005	0.0140647935
93	0xbc8791e4	-0.016549058
94	0x3ca4d261	0.020119848
95	0x3c30d908	0.010793932
96	0x3c93950a	0.018015403
97	0xbb8ba15d	-0.0042611794
98	0xbc62ed22	-0.013850482
99	0xbc79c4c0	-0.015244663
100	0x3c04c446	0.008103436
101	0xbbb35020	-0.005472198
102	0x3c7393e6	0.014866805
103	0xbbe8e686	-0.0071075587
104	0x3c6cfbb3	0.014464307
105	0x3c6c32a4	0.014416371
106	0x3c9817f8	0.018566117
107	0x3ba21e9d	0.004947497
108	0x3b05f0a1	0.0020437615
109	0x3c7299a9	0.014807143
110	0x3c800ebe	0.01563203
111	0x3c7b9f9c	0.015357878
112	0x3c867777	0.016414387
113	0x3c5cd650	0.01347883
114	0x3c99eddd	0.01879018
115	0xbc714230	-0.014725253
116	0x3c86b289	0.016442554
117	0x3c038cd8	0.008029185
118	0xbc073cfa	-0.008254284
119	0x3c83adf0	0.01607415
120	0x3bb8a084	0.0056343693
121	0xba8e4c92	-0.001085656
122	0x3c5fd1d5	0.013660868
123	0x3c8387d3	0.016055977
124	0xbbe28bb1	-0.006913625
125	0x3c49ff6a	0.012328962
126	0x3a82a806	0.0009968288
127	0x3c2ac3fb	0.010422702

network_body._body_endoder.seq_layers.2.weight f4 [128, 128]
0	0xbd1756a1	-0.03694785
1	0xbb44d492	-0.0030033928
2	0x3d7c2b10	0.061564505
3	0x3d9d97ab	0.07694944
4	0x3d5e8e5b	0.05433498
5	0x3d8868e8	0.06660634
6	0x3d2236f2	0.03960318
7	0xbe36f39c	-0.17866367
8	0x3e02458b	0.12721841
9	0x3d98a990	0.074542165
10	0xbdf1d221	-0.11807657
11	0xbd74b3cc	-0.05974178
12	0xbcc4c07c	-0.024017565
13	0x3d91f221	0.071262605
14	0x3e48692c	0.1957137
15	0xbdc892da	-0.09793635
16	0xbd56fcf4	-0.05248733
17	0xbdce1ca2	-0.10064055
18	0xbd0d68b2	-0.034523673
19	0xbd8907ee	-0.066909656
20	0x3e4a3c14	0.1974948
21	0xbdaa17a7	-0.083052926
22	0x3e1bf853	0.15231447
23	0xbd921bac	-0.07134184
24	0xbcbb82a3	-0.02288944
25	0xbd5a4af6	-0.053294145
26	0xbdef5512	-0.11686148
27	0xbd071d08	-0.03298667
28	0x3c1cd026	0.009571111
29	0xbe1a7aab	-0.15085857
30	0xbd6e3dd4	-0.058164433
31	0xbdba3582	-0.09092237
32	0x3dae456f	0.08509337
33	0x3dedec8e	0.11617385
34	0xbd815912	-0.06315817
35	0xbe6777f6	-0.22604355
36	0xbd3a1a0a	-0.04543499
37	0xbe0161de	-0.1263499
38	0xbd3fd976	-0.046838246
39	0xbdc4b2a9	-0.09604389
40	0x3cb656f6	0.022258263
41	0x3bfabcad	0.0076518864
42	0xbb1eb01f	-0.0024213863
43	0xbe2c1ba0	-0.16807413
44	0x3d30203c	0.04299949
45	0x3e4f1fff	0.2022705
46	0xbddce2a5	-0.107854165
47	0xbdc85d3d	-0.09783409
48	0xbd312e81	-0.04325724
49	0x3c705863	0.014669511
50	0x3dfe3192	0.124117985
51	0xbcc562f2	-0.024095032
52	0xbd7d8a87	-0.061899688
53	0xbe0296d3	-0.12752847
54	0xbbd514a3	-0.006502704
55	0xbdcbfdb2	-0.09960498
56	0x3d4c4646	0.049871705
57	0xbe2ad90a	-0.16684356
58	0xbd2bba56	-0.04192575
59	0x3e475c5a	0.19468823
60	0x3b54a8d5	0.0032449265
61	0x3dbcbdf0	0.09215915
62	0x3ca671be	0.020317908
63	0x3ce16ce8	0.02751775
64	0xbc52fcfe	-0.012877701
65	0x3b926730	0.0044678673
66	0xbd0378b5	-0.032097537
67	0x3e1bc1fb	0.15210716
68	0x3dae4a6b	0.08510288
69	0xbda30e2c	-0.079616874
70	0x3d05c7a1	0.032661084
71	0x3b0863b6	0.0020811385
72	0x3d5a0d13	0.053235125
73	0xbd962b87	-0.07332521
74	0x3e1d5ccb	0.15367429
75	0xb981f78c	-0.00024789234
76	0xbdc9e616	-0.098583385
77	0xbe09e8b8	-0.13467681
78	0x3e6ccde1	0.23125412
79	0x3c5b5449	0.013386794
80	0xbd2850f5	-0.04109283
81	0x3d67f0d5	0.05662616
82	0x3b4f2620	0.0031608418
83	0xbb95505c	-0.0045566987
84	0xbd831673	-0.06400766
85	0x3d00956f	0.03139251
86	0x3d7751b8	0.060380667
87	0xbd97f95b	-0.07420608
88	0xbc7a6f1e	-0.015285281
89	0x3bd7c84f	0.006585158
90	0x3c1d0a1c	0.00958493
91	0xbd362b04	-0.044474617
92	0x3d1a1786	0.03762009
93	0xbe14f09d	-0.14544912
94	0xbd41f261	-0.04735029
95	0x3cc593f2	0.024118397
96	0xbcd7805a	-0.02630632
97	0x3d0ed8d4	0.034874752
98	0xbd84d41f	-0.064857714
99	0xbdf6085a	-0.12013312
100	0xbd9b62fb	-0.075872384
101	0x3da018dd	0.07817242
102	0x3de558f9	0.11198611
103	0x3d3d15fc	0.046163544
104	0x3de9cbb5	0.11415807
105	0x3cd57341	0.026055934
106	0xbcf9ed54	-0.030508675
107	0xb97e499a	-0.00024250746
108	0x3d3a44b2	0.04547567
109	0x3d782ae4	0.06058778
110	0x3d269166	0.040666007
111	0xbcbee2be	-0.023301478
112	0xbdfc2853	-0.12312379
113	0xbb4b35d2	-0.0031007421
114	0xbd852520	-0.06501222
115	0x3dfcb136	0.12338488
116	0xbe06400b	-0.13110368
117	0xbd2280a6	-0.03967347
118	0x3d34c618	0.04413423
119	0x3d8d03e8	0.06885511
120	0x3a5fdab4	0.0008539364
121	0xbbd3f4d9	-0.006468397
122	0xbc8a1e3c	-0.01686012
123	0x3d2c7fd3	0.04211409
124	0x3d0094ce	0.03139191
125	0xbe51901a	-0.20465127
126	0x3a3bd18e	0.000716471
127	0xbdafcbac	-0.08583769
128	0x3a1a41e7	0.0005884454
129	0x3d10f40a	0.035388984
130	0x3dfa2111	0.12213338
131	0x3c081ade	0.008307187
132	0xbd467306	-0.04844954
133	0x3df1eee3	0.11813142
134	0xbd7c9f2b	-0.061675232
135	0x3d0900d0	0.03344804
136	0xbdd72c0b	-0.105064474
137	0x3d5a1cbf	0.05325007
138	0x3cbb30d3	0.02285043
139	0xbd3bc6ef	-0.045844015
140	0xbda3e6d9	-0.08003015
141	0x3e844537	0.25834057
142	0xbd90a668	-0.070629895
143	0x3dbb6bab	0.091513954
144	0xbcf7b093	-0.030235564
145	0x3d00e8f0	0.031472147
146	0xbe1cc20e	-0.15308401
147	0x3d8805ec	0.066417545
148	0x3c2330b9	0.009960347
149	0xbe08548f	-0.13313507
150	0x3dab5506	0.08365826
151	0x3dbe4bd4	0.09291807
152	0xbde5b8eb	-0.11216911
153	0xbd6d72ee	-0.057970934
154	0xbdcbc285	-0.09949211
155	0x3d038ff6	0.032119714
156	0x3b322e31	0.0027188177
157	0xbae09cf6	-0.0017136622
158	0xbe002949	-0.12515749
159	0xbde1a803	-0.11018374
160	0x3e7e3e72	0.24828508
161	0xbdb3d280	-0.08780384
162	0xbde3278f	-0.110915296
163	0x3c822972	0.015888903
164	0x3c75c0b5	0.014999558
165	0x3bbcc0b8	0.0057602786
166	0xbd64f70c	-0.055899665
167	0x3d64077d	0.055671204
168	0x3d095f20	0.033537984
169	0x3e24af6d	0.16082545
170	0xbdd45727	-0.103681855
171	0x3d617b81	0.055049423
172	0x3e6150cf	0.22003482
173	0xbd639bea	-0.055568613
174	0xbe1193dc	-0.1421656
175	0xbc52af9a	-0.0128592495
176	0xbdaded66	-0.08492546
177	0xbddf6c84	-0.109093696
178	0x3e0c849f	0.13722466
179	0x3d9bb599	0.076029964
180	0x3d65368b	0.05596022
181	0xbd8a0e2d	-0.06740985
182	0x3dc517f0	0.09623706
183	0xbda57cc6	-0.08080439
184	0xbe1ac85f	-0.15115498
185	0xbd50ac7e	-0.05094575
186	0xbd993a96	-0.074818775
187	0xbe36304b	-0.1779186
188	0x3db8fcc3	0.090325855
189	0xbd85a3ae	-0.0652536
190	0xbd8dc3a7	-0.06922083
191	0x3da7ba7b	0.08189865
192	0xbd4f6cf8	-0.05064103
193	0x3bfc666b	0.007702639
194	0xbdced038	-0.10098308
195	0x3db300fa	0.08740421
196	0x3db0845b	0.08618995
197	0xbb8a75ea	-0.0042254822
198	0x3e061134	0.130925
199	0xbcf94452	-0.030428085
200	0xbbaf0352	-0.005340972
201	0xbe3d87a4	-0.18508774
202	0x3d4b795f	0.049676295
203	0xbd7b9f24	-0.061431065
204	0x3dcacfac	0.099028915
205	0x3cd33ebf	0.025786756
206	0xbd9f65f5	-0.07783119
207	0xbc4132fa	-0.011791939
208	0xbbc01ce7	-0.0058628204
209	0xbbbe461d	-0.005806698
210	0xbd1ac1d0	-0.03778249
211	0xbcdde1a7	-0.027085138
212	0x3de56647	0.112011485
213	0xbd0a405f	-0.033752795
214	0xbcf36511	-0.029711278
215	0xbd060221	-0.032716874
216	0xbe5e4c58	-0.2170881
217	0xbd3d018a	-0.046144046
218	0x3d9866fa	0.07441516
219	0x3cabd117	0.020973725
220	0xbd2188a5	-0.039436955
221	0xbca89226	-0.020577502
222	0xbe0ec9cb	-0.13944165
223	0xbe03b750	-0.12862897
224	0x3d013836	0.031547748
225	0xbd06043e	-0.03271889
226	0x3dde4967	0.10853844
227	0x3d730363	0.0593294
228	0x3d8e2726	0.06941061
229	0xbae10f86	-0.0017170764
230	0xbc25bdf7	-0.010116092
231	0x39fd58a9	0.00048321977
232	0x3d9200db	0.071290694
233	0x3db0aa96	0.08626287
234	0x3bc0fc44	0.0058894474
235	0x3d71385d	0.058891643
236	0x3cf0e2fb	0.029405108
237	0xbe1dc202	-0.1540604
238	0xbdbb791f	-0.091539614
239	0x3e282282	0.16419414
240	0x3c9fcefa	0.019507874
241	0xbd92e793	-0.071730755
242	0x3c97dd09	0.018538015
243	0x3d86d21f	0.06583046
244	0xbdcf0a3f	-0.10109376
245	0x3cd409a7	0.025883509
246	0x3e016c4f	0.12638973
247	0xbd417d63	-0.04723872
248	0x3e71e6fb	0.23623268
249	0x3c0c52d2	0.008564668
250	0x3d43902a	0.047744907
251	0x3d93dcf4	0.07219878
252	0xbd11a719	-0.035559747
253	0x3d3eb718	0.04656133
254	0xbe0160be	-0.1263456
255	0x3d7da471	0.0619244

network_body._body_endoder.seq_layers.2.bias f4 [128]
0	0xbc02c53c	-0.007981595
1	0xbc8cdeb5	-0.017196039
2	0x3bff6c75	0.0077949115
3	0xbc714034	-0.01472478
4	0xbc2d392f	-0.010572716
5	0x3c4c84d7	0.012482843
6	0x3c4d8e12	0.012546079
7	0x3c359939	0.011083894
8	0x3c912c45	0.017721305
9	0xbb9d1e65	-0.004794883
10	0xbc8e6e39	-0.017386543
11	0xbb99b711	-0.0046910127
12	0xbc58db5e	-0.013235895
13	0x3c44152c	0.011967938
14	0xbb30f138	-0.0026999246
15	0x3a656d43	0.0008751938
16	0x3c79e8dc	0.015253272
17	0x3bcc6057	0.0062370705
18	0xbc8003d2	-0.015626822
19	0xbb21719d	-0.002463437
20	0x3c75a1ac	0.014992159
21	0xbca4838b	-0.020082256
22	0x3bde5a2d	0.006785652
23	0xbc9be8e1	-0.019031944
24	0x3c8286ea	0.015933473
25	0x3c5ecf65	0.013599251
26	0xbc8ab5f2	-0.016932461
27	0x3c4d27d4	0.012521703
28	0x3c71fb46	0.014769381
29	0xbc6f1c67	-0.014594174
30	0xbb87a1ab	-0.0041391454
31	0x3c4907ca	0.012269923
32	0x3b3da676	0.002893833
33	0xbc0c0c38	-0.008547835
34	0xbc23014d	-0.009949041
35	0xbc9c8c26	-0.019109797
36	0x3c59a756	0.013284525
37	0xba07d37e	-0.0005181356
38	0xbc54c878	-0.012987249
39	0xbc7215f6	-0.014775744
40	0x3c72cb30	0.0148189515
41	0xbc8eaf9d	-0.017417723
42	0xbc1624c1	-0.009164036
43	0xbc9ecc89	-0.01938464
44	0x3c824b96	0.015905183
45	0x3c58cdb4	0.013232637
46	0xbc8dc82b	-0.017307362
47	0x3c9234cf	0.017847447
48	0x3c961f9c	0.01832562
49	0xbc8758ea	-0.01652189
50	0xbc4a9e0c	-0.012366783
51	0xbc92a402	-0.01790047
52	0x3c4342a1	0.011917741
53	0xbc349b72	-0.011023389
54	0x3c5afc6d	0.013365847
55	0x3c1c4a55	0.0095392065
56	0xbc9fcee1	-0.019507827
57	0x3c00c832	0.00786023
58	0xbc9a9180	-0.018868208
59	0xbc86259e	-0.01637536
60	0x3c8ca3a6	0.017167877
61	0xbbc7dcfe	-0.0060993424
62	0x3b827bcd	0.0039820434
63	0x3972fd23	0.00023173219
64	0xbbfa4524	-0.0076376367
65	0xbc381cc1	-0.011237324
66	0xbc613974	-0.013746608
67	0xbc81c54b	-0.015841147
68	0xbb587008	-0.003302576
69	0xbc431af9	-0.011908286
70	0x3c7b96fd	0.015355823
71	0xbc844e4b	-0.016150614
72	0xbc1ea120	-0.00968197
73	0xbc8fc5d1	-0.01755038
74	0x3c760f4d	0.015018296
75	0xba3ab247	-0.00071219023
76	0xbc8ada71	-0.016949864
77	0x39a4700f	0.00031364008
78	0x396eaff4	0.00022762996
79	0x3c47f92d	0.012205404
80	0xbca8f30e	-0.02062371
81	0x3c43ceb3	0.011951136
82	0x3c2697d9	0.010168039
83	0xbcb588c4	-0.022159941
84	0x3c80f248	0.015740529
85	0x3c78b345	0.01517946
86	0xbc198947	-0.009371108
87	0x3c96bb97	0.018399997
88	0xbc00dc2d	-0.007864994
89	0xbc58b3af	-0.013226434
90	0xbc5df584	-0.013547305
91	0x3b290d4c	0.002579528
92	0xbc5a5a3a	-0.013327176
93	0x3bc63e9c	0.006049944
94	0x3c59b875	0.013288607
95	0xbc8fef00	-0.017570019
96	0x3c8eb451	0.017419966
97	0xbbd6ab2d	-0.0065511675
98	0xbc34738d	-0.011013878
99	0x3c888adc	0.016667776
100	0xbceab2e3	-0.028649753
101	0xbc67d892	-0.0141507555
102	0x3c5f9dec	0.013648491
103	0x3ca48c08	0.020086303
104	0x3cace025	0.021102974
105	0xbc4b0add	-0.012392727
106	0xbc8ac8e3	-0.016941493
107	0x3b9c2be1	0.004765973
108	0x3cc5bba7	0.024137331
109	0xbc7f732e	-0.015591426
110	0xbc4f44b1	-0.012650655
111	0xbc7b8548	-0.015351601
112	0xbca459c2	-0.020062331
113	0x3c82e2d5	0.015977303
114	0xbc79d2de	-0.015248029
115	0xbb69c363	-0.0035669438
116	0x3c548654	0.012971479
117	0xbbe9629e	-0.007122352
118	0xbb6a3f5a	-0.0035743327
119	0x3ca246fd	0.01980924
120	0x3c8fe9ae	0.017567482
121	0xbc4ade87	-0.012382156
122	0xb9b8e14c	-0.00035263074
123	0x3c74e12f	0.014946266
124	0x3cb00bf6	0.021490078
125	0xbc940e73	-0.018073296
126	0xbc8dc6f8	-0.01730679
127	0x3c07a6e4	0.008279536

action_model._continuous_distribution.mu.weight f4 [2, 128]
0	0x3c1a1829	0.009405174
1	0xbc5944d1	-0.013261036
2	0x3cb447b1	0.022006841
3	0xbbb06a54	-0.005383769
4	0xbbadcc11	-0.0053038676
5	0xbb894270	-0.004188828
6	0x3b7ab8fc	0.0038257232
7	0x3c657c78	0.014006726
8	0x3cad9fa7	0.021194292
9	0x3d561613	0.052267145
10	0xb8503df5	-4.9648766e-05
11	0xbcc96732	-0.02458534
12	0x3baf8ab0	0.005357109
13	0xbc5d83c6	-0.013520187
14	0xbc9b181a	-0.018932391
15	0x3bd738a1	0.00656803
16	0xbcb64de1	-0.022253932
17	0x3ae0fefb	0.0017165834
18	0xbbb3f427	-0.0054917517
19	0xbcd98f68	-0.02655764
20	0xbb8704dc	-0.0041204523
21	0x3a6fb9c6	0.0009144809
22	0x3c884975	0.01663659
23	0xbc619c3b	-0.013770158
24	0x3c7191c4	0.014744226
25	0xbbcbfeb9	-0.0062254337
26	0xbab26ca2	-0.0013612697
27	0xbcdba7f0	-0.026813477
28	0xbc004e1f	-0.0078311255
29	0x3c52c7c2	0.012865009
30	0xbd0b4eea	-0.034010805
31	0xbcde2e6c	-0.027121745
32	0xbbda1710	-0.0066555813
33	0x3c06dcc1	0.008231343
34	0xbc0ed991	-0.008718864
35	0xbc604bf8	-0.013689987
36	0x3bd24954	0.006417433
37	0x3c3c3383	0.011486891
38	0xbc1e11c4	-0.00964779
39	0xbc5206bd	-0.012818989
40	0xbc3e1808	-0.011602409
41	0x3c9b5c35	0.018964866
42	0x3d21612e	0.03939932
43	0x3b555a57	0.0032555067
44	0x3c54144a	0.01294429
45	0x3c33f9b8	0.010984831
46	0xbc39cfef	-0.011341079
47	0x3bb811d5	0.00561736
48	0xbcb61e91	-0.022231372
49	0xba47f7e6	-0.00076281873
50	0x3b1547e7	0.0022778453
51	0xbc215c20	-0.0098486245
52	0x3ce8492c	0.028355204
53	0x3c743b8e	0.014906777
54	0x3c157f3f	0.009124576
55	0xbccac965	-0.024754236
56	0x3ca9730c	0.020684741
57	0xbb487ddd	-0.0030592598
58	0xbc3945cb	-0.011308144
59	0xba70c5f8	-0.0009184773
60	0x3cb1cea3	0.021704977
61	0xbbcbe65b	-0.006222529
62	0x3d0c5e8e	0.034269862
63	0x3b9f0926	0.0048533855
64	0xbccb99ab	-0.024853548
65	0xbb9b2ae6	-0.0047353385
66	0xbc127a28	-0.008940257
67	0x3cd65fef	0.026168792
68	0xbd005e12	-0.031339712
69	0xbc8877af	-0.016658632
70	0x39bbfcf4	0.00035855884
71	0xbcaea6a1	-0.02131969
72	0xbcb505ab	-0.02209743
73	0xbd0ee097	-0.034882154
74	0xbc63a728	-0.013894834
75	0x3cf4fe66	0.029906463
76	0x3c652353	0.013985473
77	0xbcb052ed	-0.021523917
78	0x3bc0c286	0.005882564
79	0x3cbea20a	0.023270626
80	0xbc1bce3b	-0.009509618
81	0xbb762064	-0.0037555927
82	0x3b7a10b2	0.0038156924
83	0xba3c1fc0	-0.0007176362
84	0x3ca32fc1	0.019920232
85	0xbc22e259	-0.009941661
86	0xbd120687	-0.035650756
87	0xbc84f41f	-0.016229687
88	0x3cb6ddb1	0.022322508
89	0xbca9a732	-0.020709608
90	0xbba7b412	-0.0051179016
91	0x3c1f3529	0.009717264
92	0xbbefdcd8	-0.007320028
93	0xbbc0bf78	-0.0058822
94	0x3cde4cf8	0.027136311
95	0xbbe03e5f	-0.0068433727
96	0x3ad9808c	0.0016594096
97	0xbbc4077b	-0.005982337
98	0x3cc6d404	0.024271019
99	0xbaacfe5c	-0.0013198364
100	0xbb0749ca	-0.0020643347
101	0xbb1a1878	-0.002351312
102	0x3c341a35	0.010992576
103	0xbb342169	-0.0027485734
104	0xbc3e4a47	-0.011614389
105	0xbcad8a8b	-0.021184226
106	0xbc929ab5	-0.017896036
107	0x3c6f43a1	0.014603526
108	0x3af25f38	0.0018491512
109	0xbcc4ae5f	-0.024008928
110	0x3c2e1b62	0.010626646
111	0x3b69633b	0.0035612124
112	0xbc1c57b2	-0.009542393
113	0x3c45ca76	0.012072196
114	0xbc8f57cb	-0.017497918
115	0xbc12bdd0	-0.008956388
116	0xbcb1baca	-0.021695513
117	0x3cb84373	0.0224931
118	0x3cb8aad6	0.022542398
119	0x3b19d08b	0.0023470249
120	0xbd3a4ce5	-0.04548349
121	0x3c66664e	0.014062477
122	0x3a929209	0.0011182438
123	0xbbeebbc7	-0.0072855684
124	0x3b160c11	0.0022895376
125	0x3cc50d4b	0.02405419
126	0xbc704610	-0.014665142
127	0xbc97da9e	-0.018536862
128	0x3c0644aa	0.008195082
129	0x3c7beb91	0.015375988
130	0x3b469e75	0.003030685
131	0x3ca1c665	0.019747922
132	0xbc92d23c	-0.017922513
133	0x3ca07c10	0.019590408
134	0x3d6ab304	0.05729963
135	0xbc9dfed8	-0.019286558
136	0xbd53870d	-0.051642466
137	0xbcc2970d	-0.023753667
138	0xbcf1aa98	-0.02950029
139	0xbce11dd3	-0.027480042
140	0x3c961560	0.01832074
141	0x3aa9532d	0.0012918465
142	0xbca00e97	-0.019538207
143	0x3d17b852	0.037041016
144	0x3d0e0fd5	0.034683067
145	0x3bfc5081	0.0077000265
146	0x3d0a15f2	0.033712335
147	0xbca264f2	-0.019823525
148	0x3d2eb6fc	0.042654976
149	0x3b850a38	0.004060056
150	0xbc8c3893	-0.01711682
151	0x3c716669	0.014733889
152	0x3c6f5fb9	0.014610224
153	0x3bbd75f2	0.0057818824
154	0xbc470d6f	-0.012149199
155	0x3c53457d	0.012894985
156	0x3bd9270a	0.0066269683
157	0xba76b326	-0.00094108505
158	0x37a92898	2.0165273e-05
159	0xb9ce2646	-0.00039319898
160	0xbc76e5d5	-0.015069445
161	0xbaa541e8	-0.0012608143
162	0x3c2db048	0.010601111
163	0xb9d1bb9d	-0.0004000337
164	0xbc88ae1b	-0.016684582
165	0xbd1d84c1	-0.038456682
166	0xbd279f70	-0.040923536
167	0xbc2a296d	-0.010385853
168	0xbb65e493	-0.0035078868
169	0x3ba2c6fd	0.004967569
170	0x3d165bfc	0.036708817
171	0xbb654390	-0.0034982897
172	0xbc202a90	-0.009775773
173	0x3c9f3221	0.019433083
174	0x3a0038bc	0.00048912666
175	0x3c8b92ef	0.017037837
176	0xbc59901a	-0.013278985
177	0xbb743b6c	-0.0037266864
178	0x3c17ca03	0.009264472
179	0xbc9e1f56	-0.019302052
180	0x3c187324	0.009304795
181	0xbb8d3c3d	-0.0043101595
182	0x3c64c6e6	0.013963437
183	0xbc879125	-0.016548702
184	0x3b43d626	0.002988228
185	0x3b8fd56f	0.004389457
186	0x3c5a2c0c	0.013316166
187	0x3c1eaeb2	0.009685205
188	0xbb423c06	-0.0029637828
189	0xbc846300	-0.016160488
190	0x3c17d39f	0.009266763
191	0x3bfd81d7	0.0077364254
192	0xbc9aae6a	-0.018881995
193	0x3cc0f910	0.023556262
194	0xbc5d68f2	-0.01351379
195	0x3c39a7ea	0.011331538
196	0xbb501bdc	-0.0031754887
197	0x3c78caf4	0.015185107
198	0x38e5e271	0.00010961749
199	0x3cb6ab1e	0.022298392
200	0x3c873621	0.016505303
201	0xbc032e9a	-0.008006716
202	0x3c9ece96	0.019385617
203	0xbc9f5221	-0.019448342
204	0x3cf6ba97	0.03011827
205	0xbc70c8d7	-0.014696321
206	0xbc2715f1	-0.010198102
207	0x3cc601ea	0.024170835
208	0x3bc04cf9	0.005868551
209	0x3bddc8d0	0.0067683235
210	0xbcfd87e3	-0.030948585
211	0xbc31ff72	-0.010864126
212	0xbccf5ff5	-0.02531431
213	0xbce42376	-0.02784894
214	0xba3bb14a	-0.0007159902
215	0xbadc2265	-0.0016794918
216	0x3c4c6c4e	0.012476994
217	0xbc033cb5	-0.008010079
218	0x3c357099	0.011074209
219	0x3cd35854	0.025798954
220	0x3b39b2b0	0.0028335266
221	0xbc532c8f	-0.012889042
222	0xbcdb1371	-0.026742669
223	0xb9c6709d	-0.00037849406
224	0xbbe03560	-0.0068423003
225	0x3c99b465	0.018762777
226	0x3bd67bf0	0.006545536
227	0x3d001e0a	0.031278647
228	0xba32173a	-0.0006793622
229	0xbc63c1e0	-0.013901204
230	0x3c6741f1	0.014114843
231	0xbc221ace	-0.009894086
232	0xbd0a9583	-0.03383399
233	0xbc6d6142	-0.01448852
234	0xbc098a4a	-0.008394787
235	0xbb540011	-0.0032348672
236	0x3bc11dfa	0.005893466
237	0xbaee7bda	-0.001819487
238	0xbce59ccb	-0.028028866
239	0x3c814ddb	0.015784195
240	0x3bc496e3	0.0059994324
241	0xbbca028c	-0.0061648544
242	0x3c8672d6	0.01641218
243	0x3b1c8d45	0.0023887914
244	0x3b9bf459	0.004759353
245	0xbc09fe26	-0.00842241
246	0x3c383015	0.011241932
247	0xbc4942df	-0.01228401
248	0x3bd7a6e6	0.006581175
249	0xbbbac465	-0.0056996816
250	0xbc07af1b	-0.0082814945
251	0x3cb5e829	0.02220543
252	0xbb77d182	-0.0037814085
253	0x3c18b638	0.009320788
254	0x3cc8a5da	0.024493147
255	0xbc2b9b49	-0.010474035

action_model._continuous_distribution.mu.bias f4 [2]
0	0xbaf41753	-0.0018622674
1	0xbb229ffd	-0.0024814599

action_model._continuous_distribution.log_sigma.weight f4 [2, 128]
0	0x3c183c08	0.009291656
1	0x3cf70fbd	0.030158872
2	0xbcfe673c	-0.031055085
3	0x3c9102a1	0.017701449
4	0x399878cc	0.000290817
5	0xbc1f7c0b	-0.009734164
6	0xbca53d14	-0.020170726
7	0xbc43575c	-0.011922684
8	0xbd48a659	-0.048986766
9	0x3cd5e6bf	0.026111005
10	0x3cace3ae	0.02110466
11	0x3c38e8b1	0.011285947
12	0xbae9914d	-0.0017819792
13	0xbc2b5ca1	-0.010459096
14	0xbca42691	-0.020037921
15	0xbc36b126	-0.011150634
16	0xbd278863	-0.040901553
17	0xbb330557	-0.0027316415
18	0x3cf2e976	0.029652338
19	0xbbf5bd16	-0.0074993474
20	0xbc6655ba	-0.014058525
21	0x3d11ef3f	0.035628553
22	0x3c4666e8	0.012109496
23	0x3ccd6b28	0.02507551
24	0xbc73e4f0	-0.014886126
25	0xba4e7cc8	-0.000787687
26	0x3c9e6862	0.019336883
27	0x3be80ead	0.0070818276
28	0xbcf51a1e	-0.02991968
29	0x3c03dae5	0.008047794
30	0x3b420505	0.0029605043
31	0xbbc2aca8	-0.0059409924
32	0xbb87fc58	-0.0041499548
33	0xbb7161bf	-0.0036831943
34	0xbc050a91	-0.008120195
35	0x3d3e1ebc	0.04641603
36	0x39d44740	0.00040488876
37	0x3ce4dde9	0.027937846
38	0xbb5cef8f	-0.0033712124
39	0x3ca7acba	0.020468105
40	0xbcb17f79	-0.021667229
41	0x3c737f6b	0.014861922
42	0x3bab2b3e	0.0052236607
43	0x3ce9af62	0.028526012
44	0xbb8b0b53	-0.0042432933
45	0xbc610267	-0.013733483
46	0x3c30fa87	0.010801918
47	0xbcaeef35	-0.021354297
48	0xbc896ea6	-0.016776394
49	0x3d03b96b	0.03215925
50	0x3c6d06a4	0.014466915
51	0x3d070d3a	0.0329716
52	0xbbd00168	-0.006347824
53	0xbb93ef89	-0.004514639
54	0xbb68dabc	-0.0035530766
55	0x3c3ac926	0.011400497
56	0x3c3f3269	0.011669734
57	0x3c75f6a3	0.015012416
58	0x3ce86ef4	0.02837322
59	0x3b26afd9	0.0025434403
60	0xbcb3ea55	-0.021962324
61	0x3b8fd2cd	0.004389143
62	0xbc4cf4d1	-0.012509541
63	0xbc0efefb	-0.008727784
64	0xbb4523df	-0.0030081195
65	0x3c82f3e0	0.01598543
66	0x3bcaa271	0.0061839153
67	0x3bee6c81	0.0072761183
68	0xbc1e33d7	-0.009655914
69	0x3b46f952	0.0030361009
70	0x3ba50cb4	0.0050369147
71	0x3c8c6a2a	0.017140467
72	0xbc3db7cf	-0.011579468
73	0x3cf6791a	0.030087043
74	0xbc9efa4f	-0.019406466
75	0xbbb156ff	-0.005411982
76	0x3c02976a	0.00797067
77	0xba66f186	-0.00088097935
78	0x3c93adca	0.018027205
79	0xbc923636	-0.017848115
80	0x3c83281b	0.016010335
81	0x3aff89b2	0.0019495992
82	0x3c9d328e	0.019189145
83	0x3c96c262	0.018403236
84	0xbc6dea09	-0.01452113
85	0xbc9d4882	-0.019199613
86	0xbbb950cb	-0.005655383
87	0xbca7d33f	-0.020486472
88	0x3c88858a	0.016665239
89	0x3c845248	0.016152516
90	0xba3eee22	-0.00072834094
91	0x3bafa8bf	0.0053606923
92	0x3c91abc3	0.017782098
93	0x3c869f1c	0.016433291
94	0xbbf259f1	-0.0073959758
95	0x3ccc8116	0.024963897
96	0xbca80558	-0.02051036
97	0xbb9fce8e	-0.004876918
98	0xb7ba08a8	-2.2176959e-05
99	0xbd5a9a2b	-0.053369682
100	0x3c400980	0.011721015
101	0x3c024bff	0.007952689
102	0xbc14f9b7	-0.00909274
103	0xbc08f8de	-0.008360116
104	0xbd280c77	-0.041027512
105	0x3b57a727	0.0032906027
106	0x3b57f4f9	0.0032952412
107	0xbc5cd167	-0.01347766
108	0xbc0d70de	-0.008632867
109	0x3d168cca	0.03675536
110	0x3cca860a	0.024722118
111	0x3cbd39db	0.023098877
112	0x3cd372e8	0.025811628
113	0xbcd19ddc	-0.025587969
114	0x3cc01130	0.023445696
115	0x3c379ead	0.011207265
116	0x3be7557e	0.007059752
117	0xb90cfa8f	-0.00013444781
118	0x3cfed5fd	0.031107897
119	0xbc2c9117	-0.010532639
120	0xbcfd8134	-0.030945398
121	0x3cd8f406	0.026483547
122	0x3bacfd4b	0.0052792183
123	0xbcfa18a0	-0.03052932
124	0xbcad20e8	-0.021133855
125	0x3ce6a13f	0.02815306
126	0x3bde5551	0.006785073
127	0xbc6cf049	-0.014461585
128	0x3b247f7c	0.00251004
129	0x3c83cdb6	0.016089302
130	0x3cf188d1	0.029484184
131	0x3c4c1d1f	0.012458115
132	0x3ccfef12	0.025382552
133	0xbc0bc394	-0.008530516
134	0xbcc69b20	-0.024243891
135	0xbc125a84	-0.008932713
136	0xbc8b2274	-0.016984202
137	0xbcbe0463	-0.023195451
138	0x3d05f2aa	0.032702126
139	0xbbf1b357	-0.0073761153
140	0x3c37cb84	0.0112179555
141	0x3b380700	0.0028080344
142	0x3c81bca1	0.015837016
143	0xba6a0d0a	-0.00089283346
144	0xbc73fe58	-0.014892183
145	0xbb502693	-0.0031761273
146	0x3b41d114	0.0029574083
147	0x3c55ae59	0.013042056
148	0xbd04d38b	-0.032428306
149	0x3ce49b0c	0.027905963
150	0xbc74d1ec	-0.014942627
151	0x3ce80d0b	0.028326532
152	0xbcc3c61a	-0.023898173
153	0xbca26d50	-0.019827515
154	0x3c20ae03	0.009807113
155	0xbcc3ea1c	-0.023915343
156	0x3c238e2d	0.009982628
157	0x3c4279cb	0.011869858
158	0x3b13b808	0.002254011
159	0xbb8960ae	-0.0041924333
160	0xbb0c35d7	-0.0021394396
161	0xbadccf63	-0.0016846474
162	0x3c345822	0.011007341
163	0x3d2a5805	0.04158785
164	0xbc11f224	-0.0089078285
165	0xbc32ea7f	-0.010920166
166	0x3d1be286	0.038057826
167	0x3c43bb26	0.011946475
168	0x3b12d62a	0.0022405484
169	0x3c7d43ba	0.015458042
170	0xba7f74c1	-0.0009744876
171	0x3ce231fd	0.027611727
172	0xbc98da8b	-0.018658897
173	0xbbf13562	-0.0073611
174	0x3cd43b73	0.025907254
175	0xbce7d4fb	-0.0282998
176	0xbc60458c	-0.013688456
177	0xbbe8443d	-0.0070882128
178	0xbb000863	-0.001953625
179	0x3d0cab35	0.034342963
180	0xbcd5a7db	-0.026081016
181	0x3c8c68b4	0.01713977
182	0xbc8cde0d	-0.017195726
183	0xbc5c277d	-0.013437149
184	0x3c847352	0.01616827
185	0xbd1016e9	-0.0351781
186	0x3c9a5861	0.01884097
187	0x3c9bccae	0.019018497
188	0xbcb8cbec	-0.022558175
189	0xbb134bd1	-0.002247561
190	0x3b794050	0.0038032718
191	0xbbb0ca4b	-0.005395209
192	0x3c96796c	0.018368445
193	0x3bb19e5a	0.0054204883
194	0x3c8a2d08	0.016867176
195	0x3d30a99b	0.0431305
196	0x3c26f5ff	0.010190486
197	0x3c298465	0.010346507
198	0xbd4def04	-0.05027677
199	0x3c82f079	0.015983807
200	0x3d5b3705	0.053519268
201	0x3cdd6bd0	0.027028948
202	0xbbc3a4ec	-0.005970588
203	0x3b9c4d38	0.0047699474
204	0x3d75f731	0.060050193
205	0x3bb67462	0.005568073
206	0xbcccac58	-0.024984524
207	0xbc77ca97	-0.015123985
208	0x3c8d3529	0.017237263
209	0xbbea2e4e	-0.007146633
210	0xbd0d7323	-0.03453363
211	0x3c99707a	0.01873039
212	0xbc414091	-0.011795179
213	0xbbbf28a3	-0.0058337017
214	0x3cc91b11	0.02454904
215	0xbce34c43	-0.027746325
216	0xbc36c795	-0.0111559825
217	0x3c17b7f8	0.00926017
218	0x3c7b20ca	0.015327642
219	0xbb92a628	-0.004475374
220	0xbc6264b1	-0.013817952
221	0xbca3c7e0	-0.019992769
222	0xbccd7223	-0.025078839
223	0xba2d80d3	-0.00066186226
224	0xbbdaebe8	-0.0066809542
225	0x3c0cb056	0.008586964
226	0x3c1510ad	0.009098214
227	0xbc025fa6	-0.007957375
228	0x3be3b977	0.0069495994
229	0x3c46464d	0.012101722
230	0xbc7d3df7	-0.015456668
231	0xbc99cf99	-0.018775748
232	0xbcce5f24	-0.025191851
233	0x3cdc23c7	0.026872529
234	0x3cea3855	0.028591314
235	0x3ba4214a	0.005008851
236	0xbc025f85	-0.007957344
237	0x3cefda6d	0.029278958
238	0xbb245c5d	-0.0025079467
239	0x3a9e28fa	0.0012066655
240	0x3c46e6e8	0.012140013
241	0x3bcfd267	0.0063422206
242	0x3c2d5eb7	0.010581664
243	0xbb97767e	-0.0046222797
244	0xbccc0252	-0.02490345
245	0x3c63ecbf	0.013911425
246	0xbcf755dc	-0.030192308
247	0xbcabc8f0	-0.020969838
248	0xbc506dbf	-0.012721478
249	0xbc50c8f4	-0.012743223
250	0xbc0fb3a6	-0.008770859
251	0xbad8d295	-0.001654225
252	0xbc3f3bb4	-0.011671949
253	0x3c3a32af	0.011364623
254	0x3d1e6ed5	0.038679916
255	0x3b44bdbf	0.0030020324

action_model._continuous_distribution.log_sigma.bias f4 [2]
0	0xbc94ae96	-0.018149655
1	0xbc83aeed	-0.016074622

onnx::Div_66 f4 [20]
0	0x3e59d489	0.21272482
1	0x3ec5975f	0.3859205
2	0x3d0765c0	0.03305602
3	0x3dc60a7e	0.0966997
4	0x3e3b651b	0.18300287
5	0x3ee6968f	0.45036742
6	0x3d52d68a	0.05147413
7	0x3e186adc	0.14884514
8	0x3e660143	0.22461419
9	0x3ed59f4a	0.4172309
10	0x3d84c02e	0.06481968
11	0x3e075e2c	0.13219517
12	0x3dcbca22	0.09950663
13	0x3effe84f	0.49981925
14	0x3d92b145	0.07162718
15	0x3e35508c	0.17706507
16	0x3e06486b	0.13113563
17	0x3effcedb	0.49962506
18	0x3d84c02f	0.064819686
19	0x3e1f123e	0.15534303

onnx::Div_69 f4 [12]
0	0x3ce4e5f2	0.027941678
1	0x3eaf9432	0.34292752
2	0x3c4cc8b4	0.012499023
3	0x3cba92b8	0.02277504
4	0x3cfab9ff	0.030606268
5	0x3eadc739	0.33941057
6	0x3c90cc6b	0.0176756
7	0x3ccf6fec	0.025321923
8	0x3cb15466	0.02164669
9	0x3eb0570e	0.34441417
10	0x3c4cc8b4	0.012499023
11	0x3cbf5289	0.023354786

onnx::Div_72 f4 [3]
0	0x3f0d4c9d	0.5519503
1	0x3c59b21e	0.013287095
2	0x3f3503cc	0.7070892
