Experimentos/results/sac4.4/KartAgent/KartAgent-849997.onnx (onnx, 93578 bytes, 14 tensors)

network_body.observation_encoder.processors.0.normalizer.running_mean f4 [20]
00000000: 8e05 023d 1fb2 dd3c 4729 883a 2a90 523d
00000010: 65d9 c83c b249 e63d 0ec9 6f3b 0882 f03d
00000020: d759 bd3c d311 9c3d 4a63 863b 01cb cf3d
00000030: d422 b33c d126 a83e 7261 563c 2b57 e03e
00000040: 4644 0c3c 70cd 293f 6e2d c13b 84fd c13e
0.03174358 0.027062474 0.0010388278 0.051407017 0.024517724 0.11244525 0.0036588344 0.117435515
0.023114128 0.07620587 0.0041011916 0.10146142 0.021867193 0.32842115 0.013084756 0.43816504
0.0085611995 0.663291 0.005895308 0.3788873

network_body.observation_encoder.processors.1.normalizer.running_mean f4 [12]
00000000: 5012 243b 6c4a 8a3c 7a8c 8939 118a a33b
00000010: 5e70 1c3b d537 903c b6d1 9a39 04c3 a53b
00000020: f07a 2e3b 6188 863c dde9 8039 8703 a33b
0.002503533 0.01688119 0.0002623534 0.004990824 0.0023870687 0.017604748 0.00029529416 0.005058648
0.002662357 0.016422452 0.00024588304 0.0049747857

network_body.observation_encoder.processors.2.normalizer.running_mean f4 [3]
00000000: 2a03 e0bd 199b 153d c8f8 c93e
-0.109381035 0.036524866 0.39447618

network_body._body_endoder.seq_layers.0.weight f4 [128, 35]
00000000: cc0a ad3e 67ae c93d e43f 1fbe cde9 19be
00000010: 5494 913e e9b9 5dbe 03e3 86bd 919b dcbd
00000020: c822 cabe b2bf a1bd ad0c c23d a7a9 d4bd
00000030: 8782 dd3d a1af d03d 9e2e acbe 0744 353e
00000040: 96bd b93e 4899 0abc 4c94 70be 69bd 04be
00000050: ef73 ff3d cc50 393e ea12 afbd 42f8 94bd
00000060: b809 8cbc 68ca b0bd 5f6c 143e d170 873e
00000070: 320f a3bb 1028 bb3d 30be dabc e4bc 933e
00000080: 2b30 a0bd dc7d ee3d abfb 2e3f 6ee5 df3d
00000090: 7e27 9abc 9efd 5b3e 8c62 153e 72ec 4f3e
000000a0: 1385 4b3e 3288 51be 7cd3 333e 0ca5 303e
000000b0: 6e6a 59bc dc84 833e 958e d4bd 894b 1b3f
000000c0: 4f08 94bd 60aa d8bd 87a2 793e af13 cd3c
000000d0: 59ee 633e 13ed 823e 32ce fb3d 2617 ee3d
000000e0: 53c8 9c3e 67d4 b6bd bbc9 123b f038 b33e
000000f0: 7dde ce3e 6116 6fbd 51b5 cc3d cb0e 04be
00000100: 8ac2 8f3c feac 953d 196c 3e3e 1b5e 1abd
00000110: 8fa8 5fbe b5b0 b13e 214c 073e 36a8 cd3e
00000120: 8435 acbd 7cec 923e 895b bcbe af20 afbd
00000130: b41f 95be 8d01 ac3d df7e 823e b226 c4bd
00000140: 9e25 3d3d 5abe 45bd 61bc 04bc 302a 8e3e
00000150: 00ba 9e3d b2bc 843e 22b4 1d3e 9da6 a8be
00000160: 014e 10bb 9882 9c3d f071 6d3e 48bf 95bc
00000170: e23d 59be 8bca 9e3d 67ec b6bd a191 3bba
00000180: d22d 573d 1bb0 9f3e 9d19 95be 6284 0d3d
00000190: f9a6 8d3e 591d a03d ebff 3cbe a875 733d
000001a0: ffac 0fbc 66fa fbbd 778e 673d 1f43 17bd
000001b0: d4b8 a0bd 6c00 00be 6e29 f93c 7844 a1bd
000001c0: f106 243e 4545 d2be b037 98be d297 31be
000001d0: 196a a73e 75e6 ecbc e346 b1be 0b68 333e
000001e0: a08e cbbe 24aa a9bc f677 213e 7848 e1bd
000001f0: 75bb 81be 7d3a 7bbd 7031 643d 2af6 50be
00000200: cc82 8abd fe78 06bd 20b0 3bbe dfcf a83c
00000210: 21d8 983e dcdc 153e 27ea c3be b3a3 183e
00000220: 90f1 9b3d ef78 bb3e b4c8 ac3c b450 3c3f
00000230: 0aff c3bd e648 1ebe 4b99 babd 95fc 7cbd
00000240: a553 0abe eece 81be 85ae de3d 23fa 5f3d
00000250: c0dc fdbd 26fe 07be 5017 54be c4f5 30bb
00000260: e754 4ebe 118d a13e fb5f 143e e2ad e7be
00000270: e45a f03d 656d e3bb 523a 83be d5f2 d83d
00000280: 0d20 1dbe 6b23 3dbd 9bf4 0ebe 50c6 ed3d
00000290: 48e2 4c3c 871b abbd 58fd 46be 0f97 31bd
000002a0: 65e5 23be 939a 903d 8e4c 943e a1c7 b13d
000002b0: d481 c7bd 35bd 31be 2bb1 f03e 1d71 a0bb
000002c0: a064 de3d 1c02 1b3e 7b1c d13e 2838 90bd
000002d0: 564e 013d 0b5e 42be 786e 6b3e 8335 91bd
000002e0: 4375 1f3d df6c a93d 0ac1 683d 603d bf3e
000002f0: b414 36be e9a9 1b3e a67e 87bd 189b 883e
00000300: e125 18be 915d 6a3d 7352 643b edb7 e3bd
00000310: 84bd 79be c897 c5bd 8a9c c6bc 5a09 2cbd
00000320: 5a3d 533d 457d 983b a6f4 70bc cc18 0e3e
00000330: 7a24 95bc 394e b0be 7165 4a3c 73a5 36bd
00000340: bff8 003e d8fb 6c3f 0ae2 b1be 9739 533e
00000350: 4e2a b6bd 465a 96be 23e4 473e 3122 a33c
00000360: 968e a5bb 0600 93bb 7c39 663e 88ad debd
00000370: 7bee 003d 5944 a3bd 2a82 3c3e 77c6 28be
00000380: 07f5 acbe 916d 8f3e 286e ac3e ab3d bbbd
00000390: bc00 3dbe 34fb ccbe 7f08 e73e 9cd3 e63d
000003a0: e239 a4bd e147 58bd 6180 943e 4c27 10be
000003b0: 0250 49be e5c4 2fbe f7e4 7bbd 614e bb3c
000003c0: ad12 d43c f57d 833d adb2 103f 0928 e8bd
000003d0: d102 51be 7308 703e de66 7d3e f4c2 a13d
000003e0: 8dda af3d 9c48 c2bc 2de0 1d3e 9d0b dbbe
000003f0: c665 0f3e e011 6abd 7f9b 42bc 8da2 823c
0.337973 0.09847718 -0.15551716 -0.15030594 0.28433478 -0.2165295 -0.06586268 -0.107718594
-0.3947966 -0.07897891 0.09475074 -0.10383921 0.10815912 0.101897486 -0.33629316 0.17701732
0.36277455 -0.008459397 -0.23494071 -0.12962879 0.124732845 0.18097228 -0.085485294 -0.07273914
-0.017094478 -0.08632356 0.14494465 0.2645326 -0.0049761767 0.09138501 -0.026702017 0.2885505
-0.07821687 0.116450995 0.68352765 0.10932432 -0.01881766 0.21483466 0.14588374 0.2030504
0.19874983 -0.2046211 0.17561144 0.1725046 -0.013270004 0.256873 -0.10378758 0.6066213
-0.07228147 -0.105793715 0.24378406 0.0250338 0.22258891 0.25571498 0.12295188 0.11625509
0.30621585 -0.08927231 0.0022398073 0.35004377 0.4040412 -0.05837095 0.09995521 -0.12896268
0.017548818 0.07308386 0.18595923 -0.037687402 -0.21841644 0.3470513 0.13212635 0.40167397
-0.08408645 0.28696048 -0.36788586 -0.08551156 -0.2912575 0.08398733 0.2548742 -0.09577693
0.046178453 -0.048277237 -0.008101554 0.27766562 0.077503204 0.25925213 0.15400746 -0.32939616
-0.002201915 0.07642096 0.23187995 -0.018279687 -0.21215013 0.07753476 -0.08931809 -0.0007155184
0.052533932 0.31189045 -0.29121104 0.03455008 0.27666453 0.078180976 -0.18457 0.059438378
-0.008769273 -0.12303619 0.05653235 -0.036929246 -0.07847753 -0.12500161 0.030415263 -0.078743875
0.16018273 -0.41068473 -0.29729986 -0.17343071 0.32698134 -0.028918484 -0.34624395 0.17520158
-0.39757252 -0.020711012 0.15768418 -0.110001504 -0.2533833 -0.061335076 0.05571121 -0.20406404
-0.06763229 -0.03283023 -0.18328905 0.020606933 0.29852393 0.14635032 -0.38264582 0.14906196
0.07614434 0.36615703 0.021091796 0.73560643 -0.09570129 -0.15457496 -0.091112696 -0.06176432
-0.1350847 -0.25353187 0.10873131 0.05468191 -0.1239562 -0.13280544 -0.20712018 -0.0027001956
-0.20149575 0.31552938 0.14489739 -0.4524985 0.11736086 -0.006940531 -0.25630432 0.105931915
-0.15344258 -0.046176355 -0.13960497 0.11610091 0.0125051215 -0.0835486 -0.1943258 -0.04335695
-0.16005476 0.07060733 0.28964657 0.08680654 -0.097415596 -0.17357333 0.47010168 -0.0048962967
0.108590364 0.15137523 0.4084204 -0.07041961 0.031568848 -0.18981187 0.22991359 -0.07090285
0.03893019 0.08272719 0.05682472 0.37351513 -0.17781335 0.15201534 -0.06615953 0.26680827
-0.148582 0.057218138 0.0034839183 -0.111190654 -0.243887 -0.096480906 -0.024244566 -0.042001106
0.05157218 0.004653605 -0.014706766 0.13876647 -0.01820587 -0.3443468 0.012353287 -0.04459138
0.12594889 0.92571783 -0.34742767 0.20627438 -0.08894788 -0.29365748 0.19520621 0.019913765
-0.005052398 -0.004486087 0.22482866 -0.10872942 0.031477433 -0.07972021 0.18409029 -0.16481958
-0.3378069 0.2801328 0.33677793 -0.091426216 -0.18457311 -0.40035403 0.4512367 0.1127083
-0.08018853 -0.052802924 0.29004195 -0.1407749 -0.19659427 -0.17164953 -0.061497655 0.022864522
0.025887812 0.06420509 0.5652264 -0.11335761 -0.2041123 0.23440723 0.24746272 0.078985125
0.08586607 -0.023716263 0.15417548 -0.42782298 0.14003667 -0.057145953 -0.0118778935 0.01594665

network_body._body_endoder.seq_layers.0.bias f4 [128]
00000000: 5cf4 1dbb 2828 adbc 808b 0e3d e4f3 a13c
00000010: 3f2f ef3b 1a5d 143c 4871 c4bb 87aa 703c
00000020: 09e7 f8bc 75e7 abbb 3867 993c 2726 f93c
00000030: 9c6b db3c 1845 a13d 86fe 75bc 9f34 72bb
00000040: 042e 22bd ac3d 873b b7b5 243d c70f 29bd
00000050: b85a d4bb fae1 583b 8ecc 38bd dbea 2d3b
00000060: b46c c6bb c210 b03a 2215 68bd 59e2 8a3d
00000070: f061 233d 0d20 d03c df88 d53c 1ce3 573d
00000080: fc22 953b 76d2 41bd 5c4f 3d3d 6959 b53d
00000090: d122 18bd 45e2 5e3d 4763 83bc 22ad 9fbb
000000a0: 3197 3d3c 3360 913c ea56 5bbd 5a00 babd
000000b0: e8cd 9c3c 781c cebc c963 fc3a 4e66 683c
000000c0: f487 81bd 205c 743c 3d09 c63d 42f8 5e3b
000000d0: 445c 623c 0e1f 423c 37e4 343c dc76 8b3c
000000e0: a23f b73c ab29 043d be91 393c 3f96 09bd
000000f0: e98d c83d 1bf0 31bd c811 58bc aba7 093d
00000100: c7d6 993d b743 e0bc dbfa a4bc 66fa 30bc
00000110: 6137 e8bc 6f73 433c 203a 73bd 6173 5c3d
00000120: f38a f93c d247 82bc b910 a73d 8af4 45bd
00000130: d6ac 183d d797 063d df16 babd 6099 abbd
00000140: 7d26 cc3c 22d7 90bd e3dd b8bb 6b82 903d
00000150: f849 953c 725a 62bd 6ddd a03c a653 613e
00000160: 2a6e a03c 958c 113d be66 763d c2b8 873d
00000170: 6161 a33c f3dd a83d 219e d7bb 85d9 44bc
00000180: 8ae8 91bc 3695 cbbd f137 8c3d fae6 cf3c
00000190: 922a 56bd b4b5 a43d f70f 59bb d451 403d
000001a0: 86dc a73c 1e40 afbc 1b94 ba3d 184b 06bc
000001b0: e0dd bf3d e423 a33c 63a6 a43d c79a 193c
000001c0: 2054 103d 42e2 99bb 360e 923c 2416 3cbe
000001d0: f6ac 6abd 8211 a6bd d002 04bd a500 e43c
000001e0: 5b67 ad3b aa42 d03d bde9 2f3c 8384 283b
000001f0: f109 95bd 4de2 473c 30d9 273d 5392 23bc
-0.0024101948 -0.021137312 0.034801006 0.019769616 0.0072993333 0.0090554 -0.0059949495 0.014689094
-0.030383604 -0.0052460977 0.018725976 0.0304137 0.02678471 0.07874507 -0.015014296 -0.0036957634
-0.039594665 0.004127225 0.04021236 -0.041274812 -0.006480541 0.0033093677 -0.045116954 0.002653769
-0.006055439 0.0013432729 -0.05666078 0.06781454 0.039888322 0.025405908 0.026066242 0.052706823
0.0045512896 -0.04731985 0.04621826 0.08854944 -0.03714258 0.054415006 -0.01603855 -0.004872934
0.011571691 0.017746067 -0.053549685 -0.09082098 0.019141153 -0.02516006 0.0019255813 0.014184548
-0.06324759 0.014914542 0.09669731 0.0034022485 0.013815943 0.011848224 0.011040739 0.01702445
0.02236921 0.0322663 0.011326252 -0.03359055 0.09792692 -0.043441873 -0.013187833 0.033607166
0.07511669 -0.027376039 -0.020139148 -0.010801887 -0.02834672 0.011929377 -0.059381604 0.05382097
0.030461764 -0.015903387 0.081574865 -0.048328914 0.037274204 0.03285965 -0.090863936 -0.08378863
0.024920696 -0.07072283 -0.0056416853 0.07056125 0.018223748 -0.055262037 0.019636834 0.22004566
0.01958378 0.03553446 0.060156576 0.06627037 0.019943895 0.082454585 -0.0065801297 -0.012014751
-0.017811079 -0.09940569 0.068466075 0.025378693 -0.052286692 0.080424696 -0.0033121088 0.046953037
0.020490896 -0.021392878 0.0911028 -0.008196615 0.09368491 0.019914575 0.08039548 0.009375281
0.035236478 -0.0046961615 0.017829042 -0.18367821 -0.057293855 -0.08108808 -0.032229245 0.027832339
0.005291862 0.10168965 0.01073688 0.0025713749 -0.07277287 0.01219995 0.04097861 -0.009983617

network_body._body_endoder.seq_layers.2.weight f4 [128, 128]
00000000: 8444 bfbd 40a9 ad3d 37ce 16bd e343 b93b
00000010: d3ae b33d 3fc3 1a3d 91c7 1abe 1690 013e
00000020: 17a0 1fbb 6a83 e3bd 686c 41be 1716 453e
00000030: 7800 a1bd 947f 273d 33ff 19bb e29a 1ebd
00000040: 4461 6d3d e64c 5d3c 659f b83a ffc7 933d
00000050: d658 fb3d 3113 0f3c ced3 833e 5b84 8c3c
00000060: 1c89 67bd 9d5d d33c b96f e2bd 9fae f9bd
00000070: 54ef 02bc 447b 7ebd b7f3 ef3c 116d 4a3e
00000080: a92b 5c3d de6b 993c 3da7 de3d f7fc 053c
00000090: 10cd 2bbe c003 afba ff4a 263d 8bba 2abd
000000a0: da6b 95bd f8fe 86bd 9714 a33c 9869 a8bc
000000b0: eb35 303d 2902 703d 1557 dc3c 773c b53c
000000c0: e5b8 4b3d 3f2f 843e 4341 fabc 4ce4 2f3c
000000d0: 8daa a2bd cd3e 163d 54a7 29be 49f3 ca3b
000000e0: ffee dcbd f3b1 583c 97d4 17bd 37e3 26bd
000000f0: 74a2 3ebe cc3d c93d 3210 bf3d ef22 173d
00000100: 2421 75be 76b1 d3bd 265b 44bb 356e 023e
00000110: 0fc9 2f3e 1f08 33bd d3ea ad3d e5be 4bbe
00000120: d70f 9a3d 5022 08be 107a 903d 9b18 f4bd
00000130: 4e03 3a3d e6e5 04be 5b7c 0bbe cd9f 3c3e
00000140: 3053 16bc 0914 603d 121d 98bb fb4c 963d
00000150: e7e2 1abc a21a 8c3d 734d 933d 58ff c2bd
00000160: 4297 29be f228 81bc 0465 83bd 88ff 16be
00000170: b736 973d e39b 743d e368 653d 5c65 4a3c
00000180: c75f 663d fb84 ebbc 43ce 78bd e35f b6bc
00000190: 7131 d3bd 3afa a0bd 1e76 2dbe 6e6b debd
000001a0: 772d c23c ba5a e9bc 9b57 20be d43b 823e
000001b0: cebd 483e 4341 7bbd 4eb2 c53d 2042 97bc
000001c0: f3a5 983d 1f4c 753d c1c9 493d 65ca 96bd
000001d0: 3c4f 4c3d c26e e4bd 2332 3f3d 5685 67bd
000001e0: e1a0 d7bc e87b 0bbd 0bbc 25be 74ca 8fbd
000001f0: cc84 babd 6747 d93d c175 aebd 5d9d 903d
00000200: b983 2abd 9a4d 613d 8dad c4bd b092 11be
00000210: edb9 dfbc cbc5 0e3d ed33 abbd 05d9 8bbe
00000220: 795e 33bc 6241 363d 088e 823d e796 e03c
00000230: d105 bebd e6e4 a0bd 625d 8e3d e922 7a3e
00000240: 8535 ba3d e30f 833c be2b 333c b512 563d
00000250: 56e8 04be cbbb 0abe dc93 0d3e 76f8 d7bd
00000260: bbb4 14be 4a6a f23d a55e 883d e904 88be
00000270: a484 91be 04e4 0dbe a3ae 80be 6ec2 f9bd
00000280: 0f7c b33b 03b9 843b a580 a23d 883b a83c
00000290: 9a03 9b3d 50a2 dfbd 34f5 89bd 738f 7abd
000002a0: ac89 cabd 0ebe 95be c8d9 b9bd 0272 923e
000002b0: cedb 0b3e 2dc5 0e3e 5761 8fbd 406a b6bd
000002c0: 01a1 073e d7f4 c1bc ca46 19bd 599f 38be
000002d0: ecef c1bd 4483 843d 0cd1 9abd f4df 033e
000002e0: 107d 413b db7f 00bd f745 26bd f965 d4bd
000002f0: 5138 a33c 7198 023e 739a 143e 6aa3 743d
00000300: 81e2 5ebe 5a8d 17bd 269e 81bd 3b42 d73b
00000310: 5207 003e ec2f 7fbe 4c10 9c3e 1bc6 00be
00000320: b5bb 4dbd 7c5c 1cbd 075a 253e b89a 3bbe
00000330: 085a e6bc 8be7 b9bd fa23 7abe fd56 8a3e
00000340: 4c2a bcbe a71d d9bd 77fd fa3c 8e6e 05be
00000350: 7587 5abd cab9 aa3d 7bb5 423d 5c8f 0ebe
00000360: 52ff 9ebe 68d8 ebbd 04f6 90bd 0edf 8fbe
00000370: 76f8 f8bc 0a9d 24be 3dec 25bd e812 883d
00000380: 3604 70be c2a8 053e de30 7d3d 469c 553d
00000390: 8ae5 143e 7219 7e3d 805c 17bd a7fa db3d
000003a0: b3b8 31bd 2679 26bd c30c 393e 013f 10bd
000003b0: 2fc6 11be 6d28 6abe f35a 213c b77b 0fbe
000003c0: 5eaf 89bd c5e6 133e 1760 f4bd 0b71 93bb
000003d0: 07b0 47bd 23c1 da3c f185 6c3d 3e19 8abd
000003e0: 4696 263e 59d5 04bf a406 8abd 6d75 c538
000003f0: 29b1 503d 7c87 24bc d097 45be 4aca b2bd
-0.0933924 0.084795475 -0.036817756 0.0056538447 0.087735794 0.037783857 -0.15115191 0.1265262
-0.0024356896 -0.111090496 -0.1888901 0.19246708 -0.078614175 0.040893152 -0.0023498058 -0.038721927
0.057954088 0.013507104 0.0014085589 0.072158806 0.122728035 0.008732603 0.25747532 0.017152956
-0.056527242 0.025801474 -0.11056466 -0.121915095 -0.007991631 -0.062129274 0.029291017 0.19768168
0.053752575 0.018728193 0.10871742 0.008177987 -0.16777444 -0.0013352558 0.040598866 -0.041681807
-0.07295962 -0.065916 0.019907279 -0.020558164 0.04302017 0.05859581 0.026896993 0.022123558
0.049736876 0.25817296 -0.030548697 0.010735583 -0.07942686 0.036680985 -0.16567737 0.0061935526
-0.107877724 0.01322602 -0.037067976 -0.040744033 -0.18616658 0.0982624 0.09329261 0.03689855
-0.23938423 -0.10336582 -0.0029961555 0.12737353 0.17166542 -0.043708917 0.08492055 -0.19897039
0.075225525 -0.13294339 0.070545316 -0.119187556 0.045413308 -0.12978324 -0.13621657 0.18420334
-0.009175107 0.054706607 -0.0046421373 0.073389016 -0.009453512 0.06841017 0.07192507 -0.09521359
-0.16561607 -0.015766595 -0.064157516 -0.14745915 0.07383483 0.059718978 0.05600823 0.0123532675
0.056243684 -0.028749933 -0.06074358 -0.02226252 -0.103121646 -0.07860227 -0.1693959 -0.10860334
0.02370332 -0.028485645 -0.15658419 0.2543627 0.19603655 -0.061341535 0.096531495 -0.018464148
0.07453527 0.059887048 0.049264673 -0.073628224 0.04988025 -0.11153938 0.046678673 -0.056523643
-0.02632183 -0.034053713 -0.16185014 -0.07021037 -0.0910736 0.10609322 -0.085185535 0.07061265
-0.041629527 0.055005647 -0.09603415 -0.14216113 -0.027310336 0.0348566 -0.083595134 -0.2731401
-0.010947817 0.044495948 0.063747466 0.027415706 -0.09278453 -0.07856159 0.06951405 0.2442738
0.09092239 0.015998786 0.010935722 0.052263934 -0.12979254 -0.135482 0.13825935 -0.10545437
-0.14522068 0.11836679 0.06658677 -0.26566246 -0.2842151 -0.13856512 -0.25133237 -0.12195288
0.0054774354 0.0040503754 0.07934693 0.0205362 0.07569046 -0.109196305 -0.06736222 -0.06117196
-0.0988954 -0.29246563 -0.090747416 0.28602606 0.13658068 0.13942404 -0.07000988 -0.08906984
0.13245012 -0.023676319 -0.037421025 -0.18029536 -0.094695896 0.064703494 -0.07559404 0.128784
0.0029524006 -0.031371932 -0.040594067 -0.10371012 0.019924315 0.12753464 0.14512043 0.059726156
-0.21766092 -0.037000038 -0.063289925 0.0065691746 0.12502792 -0.24920624 0.30481184 -0.12575571
-0.05022784 -0.038174137 0.16147624 -0.1832074 -0.028119102 -0.090773664 -0.24427786 0.27019492
-0.3675102 -0.10601359 0.03063844 -0.13030455 -0.05335184 0.08336218 0.047536355 -0.13921875
-0.3105417 -0.115158856 -0.07078174 -0.28099865 -0.030391913 -0.1607553 -0.040508498 0.06644231
-0.23439106 0.13052657 0.06181418 0.052150987 0.14540687 0.062035985 -0.03695345 0.107411675
-0.043389034 -0.04064288 0.18071274 -0.035216335 -0.14235757 -0.22866984 0.009848344 -0.14012037
-0.06722902 0.144435 -0.1193239 -0.0044995598 -0.048751857 0.026703423 0.057744924 -0.06743096
0.16268262 -0.5188804 -0.06739548 9.415564e-05 0.050950203 -0.010042068 -0.19296193 -0.0872999

network_body._body_endoder.seq_layers.2.bias f4 [128]
00000000: 301f 83bd adbb 58be 7e3a 3ebd 072d 263d
00000010: e25c 2ebd fabc 5dbc a06b abbd 1bbb 403c
00000020: 1fa5 2cbe 5f1f d13b 679d 2fbd c447 8b3d
00000030: 30fc 483e 539f 81bc 74af 983c 6ead 93bc
00000040: 7b22 3b3d b567 54bd 702f 4f3d e2ff cf3d
00000050: 9ad3 2bbc 2a72 efbd 2ccb 9c3b 54c8 4dbd
00000060: 2616 943d 01e3 bbbc 0bd7 31bd 3f1a d0bd
00000070: b01a 233d 7e2f 17bd bafa b23b c0dd 813d
00000080: 7c90 27bd bad4 c4ba ac3b 96bd fa40 ae3c
00000090: 798d 86bd 47a9 c83e d674 073d cc0d 00be
000000a0: f0ee b0bd b209 003d ef51 223e e704 afbd
000000b0: 0cde 273e 65ed 18bd 5d38 a43b 3348 dabd
000000c0: 9028 8ebd af00 533d da43 13be e344 623d
000000d0: 4f9e 9cbd 81f6 06be 981b dabd 54ac 033d
000000e0: f0bb 29bd 58e5 96bb b62f 0abe f55b 3d3c
000000f0: 1167 f33d 24c4 063c 5f0d b5bd 2414 8639
00000100: 4bed a13d 6779 7fbd b5aa 043c dd9c 333d
00000110: f0a3 08bd 024d babd 0a73 84bd 235d 643d
00000120: 1e70 25bd 5ac8 8ebc 2080 d63d 1405 3c3d
00000130: af48 053d 7938 0e3d 76cf 2c3c 9381 bfbc
00000140: 3ced 13bd d4ac f9bb 5228 033e 4cc8 1f3d
00000150: d5b4 583e d136 4e3d 8adb 7ebd 6e3a dc3d
00000160: 815b f0bd 5d24 bdbd f503 aebc e48e ecbd
00000170: 8bc7 af3d 5332 30be 8645 d9bc 209e c9bc
00000180: 9cae 3e3e 0945 65bd b203 2d3d 5a36 2abd
00000190: 4bb9 473e 2013 05bd fc51 06be 8491 87bd
000001a0: 37bc 793b 5cfe b23b 3475 8fbc 4973 833d
000001b0: cc77 8f3c 275b f9bb a9b3 2dbd e15a b33b
000001c0: 208c 863c a3d4 7c3e def6 543c 3579 a8bc
000001d0: 96e8 943e 0485 5dbd bc09 82bc 7007 8a3d
000001e0: e81c c3bc c31a b0bc 3a7f f0bd deb9 d3bc
000001f0: 7536 de3c c28f 2c3d ad5d 463d d6da 2d3c
-0.06402433 -0.21165343 -0.0464425 0.040570285 -0.04256905 -0.013533825 -0.08370137 0.011763359
-0.16859864 0.0063819136 -0.04287472 0.068007976 0.19627452 -0.015823042 0.01863835 -0.018027034
0.04568718 -0.051856715 0.05058235 0.10156228 -0.010487461 -0.11691697 0.004784962 -0.050239876
0.07230787 -0.022935392 -0.04341797 -0.10161256 0.039820373 -0.036910526 0.005462018 0.063411236
-0.040909275 -0.0015017011 -0.073356 0.021271218 -0.065699525 0.39191648 0.033070408 -0.12505263
-0.08639324 0.031259246 0.15851568 -0.08545857 0.16393298 -0.037335772 0.005011602 -0.10658302
-0.069413304 0.051514324 -0.14381352 0.055241477 -0.076473825 -0.13179971 -0.10649794 0.032146767
-0.041438997 -0.0046049766 -0.13494763 0.011557569 0.11884893 0.0082254745 -0.08840441 0.00025573478
0.07906588 -0.062371638 0.00809734 0.04385077 -0.033359468 -0.09096719 -0.064672545 0.055752885
-0.040390126 -0.01742952 0.10473657 0.04590328 0.03254002 0.034721825 0.010547509 -0.023377215
-0.036114916 -0.0076194797 0.1280835 0.039009377 0.21162732 0.050345246 -0.062221088 0.10753332
-0.11736203 -0.09235451 -0.021242121 -0.11550692 0.08582982 -0.17206697 -0.02652241 -0.024611533
0.18621296 -0.05597404 0.042239852 -0.04155574 0.19504277 -0.032488942 -0.13117212 -0.06619552
0.003810657 0.005462451 -0.017511941 0.06418473 0.017513178 -0.007609743 -0.042407665 0.00547348
0.016424239 0.2469049 0.012998311 -0.020565609 0.290837 -0.05408193 -0.015873782 0.067397
-0.023817495 -0.021497136 -0.117430165 -0.025845464 0.027125577 0.042129286 0.04842918 0.010611257

action_model._continuous_distribution.mu.weight f4 [2, 128]
00000000: 5550 c0bb 2441 fcbd 50dc 12be 19d6 823a
00000010: e270 0dbe 45d3 653c d9c4 17bd 38d5 cabd
00000020: dcb6 e73c caa7 003e df48 c93d 7ed4 0dbe
00000030: 0633 dd3c fb01 4dbd 306e d8bb 29b9 f1bc
00000040: 5c00 2a3d b735 273d 265f 683c 82c4 8a3b
00000050: b3d7 92bd e217 dc3d f94b 37bd 26a9 fbbd
00000060: d050 12ba 1288 5bbe c60b 08bd 2892 4e3e
00000070: 6536 9b3c 7d3b 17bc bd30 3fbd 19a5 353c
00000080: 04ef 2dbb fd8e 83bd 6b15 f8bd 5389 18bb
00000090: 3a7d bc3d cd34 6b38 648e 68bc f2e6 633d
000000a0: 9b5d ba3b 835b 9e3d 2b20 713c 3155 003e
000000b0: 9e82 cbbd 4b31 4ebd 6949 27bd afda 0a3e
000000c0: 65bc 02bc ec01 803b 236b 07be 4e48 9e3d
000000d0: 72be edbd 28b5 6d3d 88dd 77bd 744a 3ebc
000000e0: d5b9 1c3d 801a 53bd ea3d c83d 263d c53d
000000f0: 5432 25bd 56d1 30bd 1278 91bc 9bde a43b
00000100: 9c86 75bd e3d6 ecbd 6b7d d43c ad5c 18bc
00000110: 1f62 09bd 91ee 703d 2ff1 463d 6c7f b63b
00000120: d1d1 b93d be1d 8b3c 24b7 093b fae8 a63a
00000130: ce82 3c3c ea10 0e3e a582 77bd 6c6c 61bc
00000140: d29e f8bc 21f6 723b 0dcf d33c 0b1e 1a3c
00000150: 44b0 64ba f81b e9bc b111 a73d 1499 ba3c
00000160: abe8 41bb 699e bc3d 4fd9 0c3e f48e b3ba
00000170: 7cae 053c e6e2 2cbe e28b 0e3e bf46 3a3d
00000180: 75b9 413d ff0a adbd 2fac 043e 7c2b c33d
00000190: 2f28 573c 755e b9bd 5ba9 b5bd 1922 68bd
000001a0: 7bf8 9d3c e425 c53d 4cef e8bc d961 80bd
000001b0: a6ec 39bd 790d 88bc 8eb6 91bd bc53 43bc
000001c0: 490a 2dbd 6983 023c 9d11 5d3c af0b a4bd
000001d0: 1279 e2bb 9d8b 17be 2175 0abe 81f8 beba
000001e0: eedc d63d 3871 b2bc b914 0b3e e997 88bc
000001f0: 47c1 6b3d 46a1 c5bb a395 723c 4daa bfbd
00000200: 090c a638 54e3 0abd 4516 e33c a2a0 fbba
00000210: 62e8 04bd 1d81 0f3e 7370 dc3d cb86 d0bd
00000220: 64eb 4d3c 61fb efbc 1252 f63c e179 ee3b
00000230: 7b8b 45bd 3098 82be f1ec 4fbc a48a 1a3c
00000240: 6761 b9ba a86d 7b3c 23bd 91bd c0af 93bd
00000250: 63c6 9b3c 0a7c 67bd fa08 dcbd 0ebb 153c
00000260: 3755 77bb 9434 283d 0cc9 c03c 9ab9 103d
00000270: 64a0 27bd 1fb4 bb3d ae4c d5bd de2e 203d
00000280: d9c0 313d b07c e7bd 097e 463e b5ed 1bbc
00000290: 358e cc3d f120 93bc fe2a 72bd e838 f33c
000002a0: e2d0 02be efde c4bd b86e 52bd ed4a 72bb
000002b0: 43c4 c4bd deae a6bd 91fc d43d 76ed ef3a
000002c0: 8d53 1ebd cff2 56be 8b67 003e b322 d13d
000002d0: 221d 9ebd b62c a73c 238a a1be be76 c5bd
000002e0: 9b51 8dbd 07e2 b23d d9c5 063d 7c0f 9ebc
000002f0: 4336 873d b738 743d 3b6a 6dbb f375 32be
00000300: c4da 37bd 95ac 80bd acb2 483d 475a aabd
00000310: 56be 8ebc eadd 313d 41ae cf3c 108a d83b
00000320: d66d bd3d 61b6 0abd fd57 ddbb e3ec dd3d
00000330: 6d2b bbbd 7774 f0bd c242 0f3e e4cb 073e
00000340: 69f9 5e3d 2800 db3a 00a0 22bd c6e0 bcbd
00000350: 834f 17bd 39c0 a93d 1082 5abe c970 ecbd
00000360: 22b4 26be 9749 7fbd a68e f83d b955 5e3b
00000370: 1d65 a3bd 44f3 973c 1833 df3d 2596 763d
00000380: 54e3 25bd 9e3b 58be 549f 983d a168 e4bd
00000390: bd45 92bc 4e69 f6bd e000 0a3e 30a9 923d
000003a0: 2212 10be cc2c 1b3d 8940 6dbd 8486 22bd
000003b0: df8f 41bc 4f71 cebb 14e3 383e 42fc b2bd
000003c0: 1227 623c 2baa b1bc 62e8 663d 3f3e 96bd
000003d0: 8648 383c d3f4 0b3e 66b4 19be ef14 f3ba
000003e0: 5e77 0dbe c863 c93d 5f62 383d 9963 603d
000003f0: 6f46 6dbd eece 99bb ec95 9bbd a6a8 043d
-0.0058689513 -0.12317112 -0.14341855 0.0009982019 -0.13812593 0.014027421 -0.037052963 -0.099039495
0.028285436 0.12564006 0.09828352 -0.1385059 0.027001869 -0.050050717 -0.0066049322 -0.029507237
0.04150425 0.04082271 0.014182841 0.0042348513 -0.071700476 0.10746743 -0.044750188 -0.12288122
-0.00055815 -0.21438625 -0.033214353 0.20172942 0.018946836 -0.009230492 -0.04667734 0.011086726
-0.002654017 -0.06423757 -0.1211346 -0.002327521 0.092035726 5.607754e-05 -0.014194105 0.05564017
0.005687428 0.07732298 0.014717142 0.12532498 -0.099370226 -0.05033998 -0.040841494 0.13559984
-0.007979487 0.003906479 -0.13224463 0.07728635 -0.1160859 0.058034092 -0.060514003 -0.011614431
0.03826316 -0.051538944 0.09777434 0.09630804 -0.0403312 -0.04316839 -0.01775745 0.0050314195
-0.059942827 -0.11564424 0.02593871 -0.009299439 -0.03354084 0.058821265 0.048569854 0.005569389
0.090732224 0.016981956 0.0021013701 0.0012734227 0.011505796 0.1387364 -0.060427327 -0.01375876
-0.030349169 0.0037072974 0.025855565 0.009406577 -0.00087237754 -0.02845572 0.08157671 0.022778071
-0.0029588144 0.09209902 0.13754772 -0.001369922 0.008159276 -0.1688343 0.13920549 0.045477625
0.047296006 -0.08449363 0.12956308 0.09529778 0.013132139 -0.090512194 -0.088701926 -0.056673143
0.019283524 0.09626368 -0.028434418 -0.06268663 -0.0453917 -0.016607987 -0.07114898 -0.011921819
-0.042246137 0.007965901 0.013492969 -0.08010041 -0.0069114054 -0.14799352 -0.13521244 -0.001456991
0.10491358 -0.021782503 0.13582124 -0.016673999 0.05755737 -0.006031188 0.014806184 -0.09358654
7.9177385e-05 -0.033908203 0.02772058 -0.0019197653 -0.03244818 0.14014097 0.107636355 -0.1018196
0.0125683285 -0.029294671 0.030068431 0.0072777127 -0.048228722 -0.25506735 -0.012690769 0.009432469
-0.0014143408 0.015345968 -0.07116153 -0.07211256 0.019015497 -0.056514777 -0.107439 0.009138836
-0.003774 0.041065767 0.023533367 0.035333253 -0.040924445 0.09165215 -0.10415016 0.039107196
0.043396804 -0.11303079 0.19384016 -0.009517123 0.09988061 -0.017960044 -0.05912303 0.029690221
-0.12774995 -0.09612834 -0.05137512 -0.0036970929 -0.096077465 -0.08138822 0.10399736 0.0018305022
-0.0386539 -0.20991062 0.12539499 0.102116965 -0.077204004 0.020407062 -0.31550702 -0.09641789
-0.06900331 0.087345175 0.032903526 -0.019294493 0.066021465 0.0596244 -0.0036226648 -0.17427807
-0.044886366 -0.062829174 0.04899852 -0.08318 -0.017424744 0.043424524 0.025351645 0.006608255
0.09249465 -0.033865336 -0.006754874 0.10836198 -0.09139142 -0.11740964 0.1399031 0.13261372
0.054437075 0.0016708421 -0.03970337 -0.0922256 -0.036941063 0.08288617 -0.21338677 -0.115449496
-0.16279653 -0.06232604 0.12136583 0.0033925606 -0.0797827 0.018548615 0.10898417 0.060201783
-0.0405 -0.21116492 0.074522644 -0.11152769 -0.01785552 -0.12031804 0.13476896 0.07161176
-0.14069417 0.03788452 -0.057922874 -0.039679065 -0.011814087 -0.0063001285 0.18055373 -0.087395206
0.01380326 -0.021687588 0.05637396 -0.07336091 0.01124776 0.13667612 -0.15010223 -0.0018545667
-0.13815066 0.09833485 0.04501569 0.054782484 -0.0579285 -0.0046938574 -0.07596955 0.0323874

action_model._continuous_distribution.mu.bias f4 [2]
00000000: 4351 01bb 81c1 3abc
-0.0019732274 -0.011398674

action_model._continuous_distribution.log_sigma.weight f4 [2, 128]
00000000: d314 153e e3cb 213e fa33 12be 7578 f3bd
00000010: 65bb 373e e8b2 08bd a8d5 073d 034d ae3c
00000020: c739 a53e 7a17 443c 5b54 fb3d 319b 3ebe
00000030: 499c a1be 91ce 96bd e498 21bd 802b d53d
00000040: 47fd 7ebd ba07 a7bd a438 49be 530a 64be
00000050: 2eba ebbc b3cf 293e ee91 13bd bc5f c83d
00000060: 0eda 0abd 035b a63d 3e6f 2f3d ffeb d73d
00000070: 0fcf 8fbd 7912 acbc 3d06 7fbc 8cf0 cfbd
00000080: 4b30 293d 8272 463d d012 813e f6cc c63c
00000090: e24b d63d d111 cebe 745d 38bd 11e2 8f3e
000000a0: 951a 2e3e 646a d43c a7e0 8ebe b737 483d
000000b0: c684 a8be 9957 5ebd ef0c 8a3d 6dd2 e63d
000000c0: eabf 573e 0191 6cbe 80df 923e 980e 37be
000000d0: 6d97 163e 7e83 663e 4ef1 f63d 38d7 763c
000000e0: 01db 4d3d 4fe2 043c 1be9 993e ba60 f93c
000000f0: 37b1 a5bd a1c6 1c3c 0f1d 71bd 0b70 a23d
00000100: ebc9 18be 54ad 5d3d 6b36 d7bc 596f a5bd
00000110: d43d 323e eb51 9fbc 67ba fa3d 935c c6bd
00000120: 6b37 aa3c 6a78 8dbc 1a3f 04be 5257 c8bd
00000130: c05a 9b3c 2554 923d 65b2 213a 5d29 6fbd
00000140: f4c9 acbc 3fb9 39bc b017 07be 6a15 aebd
00000150: 8e1f 66be 4ed5 f9bd d2b4 b7bc 022c 70be
00000160: 1365 833d 3f99 d93d 15a1 313d 9f04 d63c
00000170: 5b55 90bd f22c 973e 0552 293e 2953 d1bc
00000180: 0f7c 9bbe 04fc b5bb ac4d 39bd 7b0c 263d
00000190: b59e 53be e8eb 5dbd bbf3 6a3e 0ceb a43d
000001a0: 2041 0a3d e675 2a3d d231 3a3e cbc0 1cbe
000001b0: 9919 c9bd 8e28 15bc 2d0c 113e bb54 113d
000001c0: 57ae 60bd ddf7 9cbe 3395 b5bd 6280 6c3d
000001d0: 8a74 b1be 0d3c 013e 7961 e23d 940a cabb
000001e0: f647 953c 6646 9ebd c758 623e c70c bebd
000001f0: b56f 9dbd 3a9d 65bd b6e4 9abd 91ac 803d
00000200: dc19 7fbc 1512 603e fb30 d9bd 27d5 a1bc
00000210: 2db8 643d 39b8 f4bc 0a64 4ebd 2ed9 dd3c
00000220: 0445 7b3e d31f 123d a0a1 813d ad45 06be
00000230: e25e 6ebe 31c1 24bd b309 fabc 76f0 d93d
00000240: a873 05be e2c4 a73d fb15 1abe ca01 01be
00000250: 07b6 53bd 2b99 283e 8aa1 a63c 1218 6f3d
00000260: 3a91 f8bc 035c ce3d 2787 c83c 98fa 6e3d
00000270: 14dd 95bb c030 7fbd d1ea 1e3d b279 f7bd
00000280: dacb 873c 0d65 c53c a8b5 8c3e 8009 3f3c
00000290: e69d 3b3d 3631 9bbe 9cdb 06ba 83de 283e
000002a0: afd3 8a3e a605 eebc dc51 99be 7280 4d3d
000002b0: 4a79 afbe 705d 66bd 2697 063d b7a3 903d
000002c0: aa10 3d3d f762 82bb 19de 963e 4b6f 18be
000002d0: 8ce3 2b3d 0783 0f3e b390 1a3e 0cac dd3c
000002e0: cc4f a73d 8e88 4cbd d4b5 363e 9fec 073c
000002f0: e0bf bcbd 036a bb3d 2d21 183e fb37 313d
00000300: 1af5 85bd 5c6e 2c3c 96f6 98bd 04d7 36bc
00000310: f854 f83d b3e2 7ebd 2b01 113e f7bf 71bd
00000320: de1e bb3c a7f0 3a3c dda7 b1bd 8e29 b8bd
00000330: 63c9 193c 1f56 adbd 4356 413d 9acf 1fbd
00000340: 213d 8e3c f173 57bd 7338 5cbe 4540 0cbd
00000350: 280a 39be ae92 e6bd a54e 8a3d 754f 34be
00000360: 7545 993e be10 db3d b598 653c 1f81 513e
00000370: 0b1d 42bc 664e 743e 3f7a 6d3c 97f6 e1bd
00000380: be01 83be e2a5 6e3e d510 b03a a160 723d
00000390: 82a3 52be a6c9 0f3d 808e 5b3e cdca b93d
000003a0: 10d5 ab3c 93b3 ccbc ca6b 4f3e a257 2abe
000003b0: 2207 f6bc a9eb 6d3b 5f21 ca3d 3a7d b63d
000003c0: 5dd3 0fbd 057d 17be c37b af3d 9263 583d
000003d0: 15ba b2be d85a ab3d 6439 903c 1c85 d43a
000003e0: 1245 00bc e842 76bc cef6 173e d017 babd
000003f0: 2328 d2bd 227a 4ebd e4f7 44bd 65bc 54bd
0.14558725 0.15800433 -0.1427764 -0.1188821 0.17942579 -0.033373743 0.033162743 0.021276956
0.32270643 0.011968488 0.12271949 -0.18613888 -0.3156455 -0.07363618 -0.03945245 0.104086876
-0.062253263 -0.081557706 -0.19650513 -0.22269563 -0.0287753 0.16583137 -0.03602784 0.09783885
-0.03389936 0.08122828 0.0428307 0.105430596 -0.07021915 -0.021004902 -0.015565452 -0.101533026
0.04130582 0.048449047 0.25209665 0.024267655 0.10463692 -0.40247968 -0.045011 0.28102162
0.17002328 0.025929637 -0.2790577 0.04888126 -0.32913798 -0.05428276 0.06740748 0.11270604
0.21069303 -0.2310219 0.28686142 -0.17876661 0.14706202 0.22511098 0.12057744 0.015065961
0.050257687 0.008110597 0.30060658 0.03044163 -0.08090442 0.009568841 -0.058865603 0.07931527
-0.14920776 0.054120377 -0.026271066 -0.080778785 0.17406398 -0.019448241 0.12242585 -0.09685626
0.020778378 -0.017269332 -0.12914696 -0.0978228 0.018964171 0.071449555 0.00061682455 -0.058389056
-0.021092393 -0.01133567 -0.1319263 -0.08500178 -0.22472975 -0.12198888 -0.022425089 -0.23454288
0.06415763 0.106249325 0.04336651 0.02612525 -0.0704753 0.29526478 0.16535194 -0.02555235
-0.30368087 -0.0055537242 -0.04524009 0.040539246 -0.2066601 -0.054180056 0.22944538 0.08052644
0.033753514 0.041616343 0.18183067 -0.1530792 -0.098193355 -0.009103907 0.14164801 0.035481196
-0.054853763 -0.30657855 -0.08866348 0.057739623 -0.34659225 0.12620564 0.11053748 -0.006165812
0.01822279 -0.07728271 0.22104178 -0.09279781 -0.07687322 -0.056058146 -0.075631544 0.062829144
-0.01557013 0.21881898 -0.106050454 -0.01975496 0.055839706 -0.029873 -0.050388373 0.027081098
0.24538046 0.03567488 0.06329656 -0.13112517 -0.23278382 -0.040223304 -0.030522203 0.106415674
-0.130324 0.08191849 -0.15047447 -0.12598339 -0.051687267 0.16464679 0.0203407 0.058372565
-0.030342687 0.100761436 0.024478508 0.058344454 -0.0045734737 -0.06230235 0.038798157 -0.120837584
0.016576696 0.024096036 0.27482343 0.01165998 0.04580488 -0.30310982 -0.00051444187 0.16491131
0.27114627 -0.029055428 -0.29945266 0.050171323 -0.34272224 -0.056241453 0.03285899 0.07062476
0.04615847 -0.0039790827 0.29466322 -0.14886205 0.041965052 0.14014827 0.15094261 0.027059577
0.08169517 -0.049934916 0.178428 0.008296161 -0.09216285 0.091510795 0.14856406 0.043266278
-0.0654089 0.010524359 -0.074689075 -0.011159662 0.121255815 -0.062227916 0.14160602 -0.059020963
0.022841867 0.011409915 -0.086745955 -0.08992301 0.009386393 -0.08463692 0.047201406 -0.039016344
0.017363133 -0.052600805 -0.21505909 -0.03424098 -0.1807028 -0.11258446 0.067532815 -0.17608435
0.29935804 0.10696553 0.014013459 0.20459412 -0.011847745 0.23858032 0.014494478 -0.110333614
-0.25587267 0.23305467 0.0013432751 0.059174184 -0.20570186 0.035104416 0.21441078 0.09071884
0.02097562 -0.024987971 0.20255962 -0.16634992 -0.030032698 0.0036303794 0.09869646 0.08910604
-0.03511368 -0.14793785 0.085685275 0.052829333 -0.34907594 0.083669364 0.017605491 0.0016213986
-0.007828968 -0.0150306 0.14840242 -0.09086573 -0.10261562 -0.050409444 -0.04808797 -0.05193748

action_model._continuous_distribution.log_sigma.bias f4 [2]
00000000: 80e9 07bf df1e cfbe
-0.5309067 -0.4045324

onnx::Div_66 f4 [20]
00000000: 1b87 333e c729 263e 9b05 043d 4e57 773d
00000010: 9c5d 1e3e 9cbf a13e 3f59 773d 53d1 003e
00000020: 64e0 193e 48d9 873e 86e7 823d 3032 e93d
00000030: 5ec3 153e 9774 f03e 3cbd e83d 9c4d 593e
00000040: d5b1 bc3d b7f6 f13e becc 9c3d dd5f 363e
0.17532007 0.16226874 0.03223191 0.060385995 0.15465397 0.315915 0.060387846 0.12579851
0.15027004 0.2653296 0.06391816 0.11386526 0.14625308 0.4696395 0.113642186 0.21221012
0.09213606 0.4725854 0.07656239 0.17810006

onnx::Div_69 f4 [12]
00000000: 7ebc 4c3d 46ec 033e e5f6 843c 6b6d a23c
00000010: 30ee 473d b4ab 063e 2908 8d3c 5d31 a93c
00000020: 471b 533d ef25 023e 53be 803c 8a9a 9f3c
0.049984448 0.128831 0.01623101 0.019827565 0.048811138 0.13151437 0.017215805 0.020653421
0.051539686 0.12709783 0.015715754 0.01948287

onnx::Div_72 f4 [3]
00000000: 1783 2c3f 1337 973c 0a9f 733f
0.6738753 0.018458879 0.9516455
