Experimentos/results/sac2/KartAgent/KartAgent-549981.onnx (onnx, 90702 bytes, 8 tensors)

network_body._body_endoder.seq_layers.0.weight f4 [128, 35]
00000000: ac65 953d edbe 60bb c84a 893c 468e c7bc
00000010: ca6c 28be 5cf5 153d 01ca 5a3c 663d 39be
00000020: 7f29 be3d 8cbb 2dbd 063a 05bf 6777 4ebe
00000030: 64d6 9f3b bcac 93bd ad09 3f3e 59a1 9abe
00000040: 6189 bf3d 8f85 ab3e d516 f73d 3b5c 2bbd
00000050: a2aa 823d 786d e83e f990 933e fb54 813e
00000060: 4ccb 583d 5dae 4e3e b8d6 a2bd 196c df3e
00000070: 59a6 633c 0561 c0bc 03f5 153b a04c 363e
00000080: 4ccb b4be 15b3 acbe 346a cfbe 531e 2fbe
00000090: 864c 7b3e f886 993e bea7 273f 7b68 b9bd
000000a0: e9ef 603e ce3e 30be 205e d63e d5b4 2d3d
000000b0: 0679 dc3d d87c adbd df98 9b3d 86d8 06be
000000c0: 2631 a8bd 496b 3bbe fb8d ee3e 47c3 e53e
000000d0: c096 8f3c 96b0 023e c0a7 4a3e 8841 343d
000000e0: 67bb 403e 3864 913e 1f9a 11be 382c 863d
000000f0: e28d 97bd 0665 8a3d f670 c0bd a3a6 26be
00000100: 585a c6bc efd5 ca3d adea b73e ea48 0c3d
00000110: 74ea 1fbe d3e3 7c3e 0558 8e3e 3503 2e3d
00000120: 1dc5 ca3e 2f6a cc3e b6a1 aebd a780 7dbe
00000130: 2f7b 48be a731 d83d 0031 7f3d 9b14 b9bd
00000140: d2af b3bd 7d9e 32bc d390 93be fa01 ad3d
00000150: 0d4d ddbe 2318 a43e 88c4 48be c4cd 3fbe
00000160: b802 b93c 10f2 803d 060e 043f 7135 203d
00000170: 3f87 bdbc 4bae 5f3e b327 103f 1bdd 96be
00000180: 85d7 73bc 77c3 833e 870c 9abe 97fb bd3d
00000190: 8dc6 30be 2b75 c53e 5c67 323e 1a3d 363d
000001a0: 329f 21bb e15d 6bbc 150f c83e 106b 133e
000001b0: 93d9 063f a02a 3abe b842 983e 7e28 f93d
000001c0: 20df b0be 7f68 3ebe 2473 05be f807 083d
000001d0: e62e 83bc 4af2 023e c608 d33d 7319 51bf
000001e0: 8ba5 17be 9b05 aa3e c29f cfbd 104b 103d
000001f0: 5e03 793d 43e9 38be 401a a13e f198 933e
00000200: ce06 213e 7bb2 28be 10cc f9be 8137 823d
00000210: 1007 453e 3d86 ac3e f0f4 343d 74e1 243b
00000220: 5d94 d53d b170 2b3e 67a0 64bd 35cd 203e
00000230: ab32 bfbc f6c5 16bf c024 ffbd a7e2 b6be
00000240: 60ad f1bd a1b6 5ebe 0c4b c93d 9ff9 c13e
00000250: 63f6 4d3e e073 4e3e 5010 053e db41 87be
00000260: a599 303d c961 063e 3f93 85be 82cc 9f3d
00000270: a205 ac3e f2ba 2abe 9c87 ae3e c3c9 e43c
00000280: 0176 533d 3235 8f3d 9086 bd3d cbf6 0e3e
00000290: b7bc b03d f1f1 82be 30a1 283e 2e02 2dbe
000002a0: 126d 80be feac 5a3e f944 56be 724d a13c
000002b0: ed06 14be 1e4d 6ebe 12d6 633e 7594 093e
000002c0: 692b babd c369 7ebd 9bf0 053e 73b4 6e3e
000002d0: 8801 413c d06b 71be 79ae 823e f311 7ebe
000002e0: d693 073e 92cd b6bd 4e11 203e 81f1 2b3e
000002f0: 1c04 81bd a3b3 1fbe 36a7 96bd 9e7a dcbd
00000300: 4aac b6bb 1ce7 e63c 3ba0 913e cab7 a9bd
00000310: ba76 b439 06cc 953e b5f6 0dbd 63b0 30be
00000320: f50c 15be ce8d 873d 5eba 40bd 8c23 983b
00000330: a849 e23e 9be4 04bd e2ab fd3c 3156 8c3f
00000340: 0be1 523e 34df afbe ee88 9cbe 6003 0a3e
00000350: f86c c53e 3038 4dbe bb27 563e 8fa4 023e
00000360: f186 a73e 0c03 313d 40a3 b0bd 3d2c 2d3e
00000370: b9b8 963b 2da1 9b3e 6ded a2be 5d4d b43e
00000380: 45db 0cbf bf0f b93e 76a3 f23d 460e 09bd
00000390: bd2a 433c 39e5 9c3d 12cb 97bb 6d03 cdbd
000003a0: 8a29 30be 06d0 48bd abbe 3c3e 5673 0fbe
000003b0: 79a8 37be 027d c6bc 44f4 2b3e 2b44 193e
000003c0: 88db 2b3e a54d c33e 67d2 0cbe 24c4 853e
000003d0: d2be c93c a586 a4be bb31 fabe 3e7c 2d3d
000003e0: dd1f 2ebe d740 0cbe 0ec7 c13c 1bc7 20be
000003f0: ab1e 143e 1bf5 bd3e bc71 26be 6ca4 60be
0.07294783 -0.0034293488 0.016759291 -0.024359833 -0.1644775 0.036610946 0.013353826 -0.18089828
0.092852585 -0.042415187 -0.5204166 -0.20162736 0.0048778523 -0.07210681 0.18656035 -0.30201223
0.09352375 0.33500335 0.12064902 -0.041836005 0.06380202 0.45396018 0.28821543 0.25260147
0.052928254 0.20183702 -0.079511106 0.4363716 0.013894641 -0.023483763 0.0022881634 0.17802668
-0.35311353 -0.3373038 -0.40510714 -0.17101412 0.2454091 0.29985785 0.6549033 -0.09053131
0.21966518 -0.17211458 0.41868687 0.042408783 0.10765271 -0.08471078 0.07597517 -0.13168535
-0.08212499 -0.18302645 0.46592698 0.44875547 0.017527938 0.12762675 0.19790554 0.044007808
0.18821488 0.28396773 -0.14218949 0.06551403 -0.07400109 0.0675755 -0.093965456 -0.16274504
-0.024213001 0.09904086 0.3592123 0.034249224 -0.1561678 0.24696283 0.2780153 0.042483527
0.3960351 0.39924762 -0.08526938 -0.24756108 -0.19578241 0.105563454 0.06230259 -0.09037133
-0.087737694 -0.010902044 -0.2882143 0.084476426 -0.43222848 0.32049665 -0.1960622 -0.18730837
0.022584304 0.0629617 0.515839 0.039113466 -0.02313578 0.21843831 0.56310576 -0.29465565
-0.014882927 0.25735065 -0.30087683 0.092765026 -0.17263241 0.38565955 0.17422241 0.044491865
-0.0024661538 -0.014365644 0.39074007 0.1439631 0.5267574 -0.18180323 0.29738402 0.121659264
-0.3454523 -0.1859455 -0.13032204 0.033210725 -0.016013574 0.12787738 0.10304408 -0.8167946
-0.14809243 0.33207402 -0.10137893 0.035227835 0.060794227 -0.18057732 0.3146534 0.28827623
0.15725252 -0.16474335 -0.487885 0.06358243 0.19240975 0.33696166 0.044178903 0.0025158795
0.10428689 0.16742207 -0.055817034 0.1570328 -0.02333959 -0.58895814 -0.124581814 -0.35719797
-0.11800647 -0.21749355 0.09828767 0.37885758 0.2011352 0.2016139 0.12994504 -0.2641743
0.043115277 0.1312324 -0.26088902 0.07802679 0.33598047 -0.16672876 0.34087837 0.027928239
0.05162621 0.06992568 0.092541814 0.13961332 0.086297445 -0.25575212 0.16467738 -0.16895363
-0.25083214 0.21355054 -0.20924748 0.01969025 -0.14455767 -0.23271605 0.2224963 0.13435538
-0.09090311 -0.06211258 0.13080065 0.23311023 0.01178015 -0.23576283 0.25523737 -0.24811535
0.13239989 -0.08925928 0.15631601 0.16791345 -0.06299612 -0.1559587 -0.07356112 -0.10765575
-0.0055747377 0.028186373 0.2844256 -0.08287008 0.00034420734 0.2925722 -0.034659106 -0.17254786
-0.14555724 0.06618844 -0.047052734 0.0046429094 0.4419682 -0.032444578 0.03096575 1.0963804
0.2059366 -0.34349978 -0.3057322 0.1347785 0.385597 -0.20040965 0.20913593 0.12758087
0.3272014 0.043215796 -0.086248875 0.16911407 0.0045996574 0.30396405 -0.31821766 0.35215273
-0.5502208 0.36144826 0.11847584 -0.033460878 0.011912045 0.07660908 -0.004632362 -0.10010419
-0.17203346 -0.04902651 0.18432109 -0.14008841 -0.17935361 -0.02422953 0.16792399 0.1496741
0.16782963 0.38145176 -0.13752137 0.26126206 0.024627123 -0.32133976 -0.48866066 0.042354815
-0.17004342 -0.1369661 0.023654487 -0.15700953 0.14464824 0.37101063 -0.16254324 -0.21937722

network_body._body_endoder.seq_layers.0.bias f4 [128]
00000000: e6ce 00bd 98a4 b73d 1242 be3c 9a84 96bd
00000010: 0a2c 5a3d 399e 523d 264e 55be cdd1 2f3e
00000020: 4c05 563d a571 cfbd fd8c bf39 c10d e6bd
00000030: 5ea3 c73d e635 e93d 8b0b e03b 3aad ca3d
00000040: f27f 00be c051 163e ab02 2a3e 9261 643e
00000050: 4731 db3d 9517 58bd 308c f03c 96dc 533d
00000060: 8f3e 613d 24e6 16bd 57c4 5d3d a24a e2bc
00000070: 943a be3d f4f9 2d3e 11de 15be 4249 9e3e
00000080: fefa 9e3d de8a d73d f2a8 cdbc 15b6 9a3d
00000090: c424 113e 2b4f 093e c8ed 243d 8214 eb3d
000000a0: 6f30 213d 35ae c1bd de5d 11be afca a1bc
000000b0: a57f ddbd 4726 a73d 7c12 9c3d 9bdd 953d
000000c0: eb78 af3d 611e be3d e8b9 08be 2582 2e3e
000000d0: e469 593e 425c febd 2330 dd3d 494e a83d
000000e0: 2ab8 053e 6d05 33bb cd4a cb3c a7e5 043d
000000f0: 6657 8f3d 594d 38bd bd62 2cbd 24de f5bc
00000100: 54c1 33bd 5579 b63c 5470 2bbd fc03 f53d
00000110: 0fb4 633e a645 1abe 5517 1bbc 7e25 bb3d
00000120: 8857 f53e c025 583d a885 723e a510 0e3e
00000130: 91ed c5bd c2ac 563e b6f6 713d 5200 eabd
00000140: ce2b 6c3e b39d 9ebd 902d 583d 12e9 833c
00000150: 38c5 01bd 6bd9 2d3e 65d1 dbbc db78 2c3e
00000160: a02f a03c d87c 503e eeb1 8bbb 7f57 4e3d
00000170: 8b78 c1bc 19d5 003e 28ca 1f3e 5022 3b3d
00000180: f65a 0b3e c89a 813e ed58 d13c 52e3 09be
00000190: 0f92 a43e 2d44 393e e482 b13c 6643 643d
000001a0: b3e2 373d 3bac cfbb e1fe 32be 139b 9cbb
000001b0: 7694 05bd b495 2cbe 7e7a 00bd e50a 88bd
000001c0: 4840 dd3c 263e e33d 1d1b 873d 3882 a13c
000001d0: 5cf1 7f3d 21ba a0bd 7551 08be ae83 643e
000001e0: 7fde 403d 0d06 d8bd f2c2 02bd 311c 873e
000001f0: 4a11 e13d 2975 583d 4c6e 0cbd 6669 423d
-0.031447314 0.08966941 0.023224864 -0.073495105 0.053264655 0.051420424 -0.20830593 0.17169876
0.052251145 -0.10129098 0.00036535403 -0.11233092 0.09747957 0.113872334 0.0068373135 0.098963216
-0.12548807 0.14679623 0.1660258 0.22302845 0.10702758 -0.052756865 0.029363722 0.05172404
0.0549913 -0.036840573 0.054142322 -0.027623478 0.09288517 0.16989881 -0.14635493 0.30915266
0.07762717 0.10524534 -0.025104973 0.07554261 0.14174181 0.13409106 0.04026583 0.11478521
0.03935283 -0.094570555 -0.14195964 -0.019749967 -0.10815362 0.08161598 0.07620713 0.073176585
0.08567985 0.09283138 -0.13352168 0.17041834 0.212318 -0.124199405 0.10800197 0.08218057
0.13058534 -0.0027316466 0.024815941 0.032445576 0.06999092 -0.04499564 -0.04208635 -0.030013151
-0.043885544 0.022274652 -0.04185517 0.119636506 0.22236656 -0.15065631 -0.009466012 0.091380104
0.47918344 0.052770376 0.23683798 0.13873537 -0.09664453 0.2096434 0.059073173 -0.11425842
0.23063585 -0.077449225 0.052777827 0.016102348 -0.031682223 0.1697747 -0.026833246 0.16842978
0.01955396 0.20360124 -0.004263154 0.05037641 -0.02361705 0.1258129 0.1560446 0.04568702
0.13608918 0.253134 0.025555098 -0.13465622 0.32142684 0.18092413 0.021668859 0.05572834
0.04489393 -0.00633767 -0.17480041 -0.0047792285 -0.032612287 -0.16853982 -0.031366818 -0.06642703
0.02700819 0.11095838 0.06596968 0.019715413 0.062486038 -0.07848001 -0.13312323 0.22315857
0.04708719 -0.10548029 -0.031924196 0.26388696 0.10989626 0.052846108 -0.034284875 0.047463797

network_body._body_endoder.seq_layers.2.weight f4 [128, 128]
00000000: 247a 13be 0ee7 63bc 5b53 8cbe 0c94 21be
00000010: d282 233e 6226 77be 7a7a b53d 37c0 613d
00000020: b63b 8f3c 8b31 86bd d88b 35be fbbe 99be
00000030: 9276 ffbd 726d 55be a923 17bc bfdd 3fbc
00000040: e8a4 59be fb56 b43c c151 d1bd be97 f93b
00000050: 8373 db3d e151 8ebe d65b 013d fc58 6ebe
00000060: c3ac b73d 5737 3abd bfdf 33be 9096 013e
00000070: 67d2 023e a892 443c bb64 cdbd b5cb 02be
00000080: 91ec 98bd ba92 b8bc 7c32 41be a12c 453e
00000090: 4459 d2bc c64c 733e 9c73 bdbd 3369 63bd
000000a0: 5fd7 25be d1f8 fbbd 638e 90be 0172 883d
000000b0: 9793 c43c f742 5c39 0e61 0b3d 5efe 0d3e
000000c0: d87b f3bc d156 1bbe 6c54 503e 276d 54bb
000000d0: 9dbd 0cbe 60a0 76be bdb3 02be 038d 83be
000000e0: 04c3 debd 6897 7ebe 8c1c 503c 64f4 d4bb
000000f0: 21b1 983d 26dc 9f3d 2eb7 17be f3eb 27be
00000100: 3a63 70be c58b 783c c7bc 1ebe 27f9 85be
00000110: 0bfd 173d 4cc1 15be efd4 a3be c245 10be
00000120: 0d35 ae3c d96a 6abd 57df 7ebd 78f4 9abe
00000130: fd10 5cbd 787e c5bd a4ca 6bbd 5a2b cbbd
00000140: 66ef 56bc 016f c13d c860 9a3d 4982 bf3d
00000150: d9ad 5cbe 5796 293d 6b8b 86be 59a4 0d3e
00000160: 38fc 4abd 78fe 143c d72c babd 07f0 32be
00000170: ef54 2f3e eba5 e0be 9dd4 38be 5781 aabc
00000180: 051d 213e aab7 063d 305c bf3a 124f 423d
00000190: f32b 59be 9c56 10be 94fe 0d3e 868a 5ebe
000001a0: 2166 19be 9e99 f4bd ccc1 25bd b2a0 77be
000001b0: a445 33be c7bb 82be 48dd 28bd e938 89be
000001c0: 973a 783d dcc5 9a3d 107b e23d 770d 3dbe
000001d0: 7266 ad3d 17e2 cabe 7bf6 583c df7b 3bbe
000001e0: f032 f23d 5071 113e 03c1 f5bb 4eae 163e
000001f0: fd87 dd3d 98a6 c5bd 71ad 13be 7a70 21be
00000200: 6b2d 3fbd 1a1f 893d e1d2 593d d95e fd3d
00000210: 632e 77be 63a4 2a3e a1c6 84be 3525 b93d
00000220: 7ee0 e33d b308 363e 01bb 673d ba84 71bd
00000230: ea10 b13e a29e c73c 1891 83be a140 773c
00000240: de0c 3e3d 49da 853e 1c66 6b3d 747f 053e
00000250: 337c 833e 2001 dfbd c1cc cbbd 2823 97be
00000260: 8c6f e83d 2fae f0ba 6c5c 193e 7c85 a9bd
00000270: 0947 83be 6847 0a3e 922d 183d 58f8 1c3e
00000280: 798b 46be 663d 33be 09de 30be 7f4d 533d
00000290: f9a0 0f3e 9635 e43d 6663 a03d e66b 133d
000002a0: 2e98 46bc d37c 6d3c 4de4 0d3e 7878 233e
000002b0: 5083 7fbe 0b03 823e b447 e4bd b19f 01bf
000002c0: d315 a3bc 7aed 1d3e 2ed2 993e 4e32 9c3d
000002d0: 5fd5 5f3d f704 1e3d 5ccc 613e 7340 f43d
000002e0: 97dc debc 720c 743d 120e 25be b06e 593d
000002f0: 7e43 6dbd 22d5 b8bd 2e55 823e 7254 6fbb
00000300: 8ffc 99be d798 f23d 0c6d e23d 4e7f d73d
00000310: 870c 903c 4348 913e a241 3a3d 5f88 a93d
00000320: b150 123e e3d4 b53e fd92 263c 848f 01bd
00000330: b06a 57be 8e73 6abb c1d7 45be 6d55 febd
00000340: 5f12 32bd 788d 3f3e 65b5 9a3e 1286 0fbe
00000350: 58c7 c5ba 4819 d63c 098d 493e 17f8 6b3d
00000360: 81c1 a9bc 9c0f d0bd 0256 aa3c 27ff 9dbc
00000370: 0c9d 47be 98b7 4e3d 8c3f 50be ab52 023d
00000380: 486e a13d b8ea 05be 1fc0 f43d 76d9 853d
00000390: a06e 403d 0e87 323a 2e81 ca3d ba9f d3bd
000003a0: 6a82 973c 6cfb 94bc bae3 94bd 28fc afbd
000003b0: 7774 91bd a368 a13d eb7a 41be e591 ea3d
000003c0: 436f 2ebd 930e d5be 3a3e 6dbe d3fc 643e
000003d0: 763d dabe 4fd3 493e feda f33d b020 223d
000003e0: 70ca 873c 40dd 033c f50f 53bd e4b3 0cbe
000003f0: 2dac 15bd 85ef 763e 8a30 f63d 6c38 b1bc
-0.14402062 -0.013910068 -0.27407345 -0.15779132 0.15967873 -0.24135736 0.08861251 0.05511495
0.017484527 -0.06552418 -0.17729127 -0.3002852 -0.12473787 -0.20842531 -0.009224811 -0.011710583
-0.21254313 0.022014132 -0.102206714 0.007616966 0.107153915 -0.27796844 0.031581722 -0.23276132
0.089684986 -0.045462932 -0.17565821 0.12655091 0.12775575 0.011997856 -0.100289784 -0.1277302
-0.074669965 -0.022530902 -0.18866915 0.19255306 -0.02567733 0.23759755 -0.09250566 -0.055520248
-0.16195439 -0.12303317 -0.28233632 0.066623695 0.023996158 0.00021005781 0.034028105 0.13866565
-0.02972214 -0.15169837 0.20344704 -0.0032413693 -0.13744207 -0.24084616 -0.12763877 -0.2569352
-0.1087704 -0.24862444 0.012702119 -0.00649886 0.0745566 0.07805662 -0.14815971 -0.16398601
-0.23475352 0.015170042 -0.155017 -0.2616665 0.037106555 -0.14624518 -0.31998393 -0.1408911
0.021265531 -0.057230804 -0.062224712 -0.3026464 -0.05372714 -0.096432626 -0.0575663 -0.09920378
-0.0131186005 0.094450004 0.07537991 0.09351022 -0.21550693 0.04140314 -0.26278242 0.13832225
-0.04955694 0.009093873 -0.09090584 -0.17474376 0.17122243 -0.43876585 -0.18049856 -0.020813627
0.15733726 0.03289 0.0014599618 0.04743869 -0.21208172 -0.14095539 0.13866645 -0.2173253
-0.14980365 -0.11943363 -0.040468022 -0.24182394 -0.17507035 -0.25533888 -0.041226655 -0.26801232
0.06060275 0.0755727 0.110586286 -0.18462168 0.084668055 -0.39625618 0.013242359 -0.18308972
0.11826122 0.14203382 -0.0074998154 0.1471493 0.10816953 -0.09650916 -0.14421631 -0.15765563
-0.046674173 0.06695385 0.053179625 0.123716064 -0.24138789 0.16664271 -0.25932792 0.090403
0.11126803 0.17776756 0.056574825 -0.05896447 0.34583217 0.024367634 -0.25696635 0.015091092
0.04639899 0.261431 0.057470426 0.13036901 0.25680694 -0.108888865 -0.09951163 -0.2951901
0.11349401 -0.0018362458 0.14976662 -0.08277413 -0.25640133 0.13503802 0.037152834 0.1532911
-0.19389142 -0.1750389 -0.172722 0.051587578 0.1402625 0.11143033 0.07831459 0.03599157
-0.012121243 0.014495092 0.13856621 0.15963924 -0.24952435 0.25392947 -0.11146489 -0.50634295
-0.019907868 0.15422621 0.30043167 0.07626782 0.054646846 0.038578954 0.22050613 0.11926355
-0.027204795 0.05958218 -0.16118649 0.053084075 -0.057925694 -0.09025027 0.25455612 -0.003651884
-0.300755 0.11845558 0.11055955 0.10522328 0.017584099 0.28375444 0.04547275 0.08277964
0.14288594 0.35513982 0.010166881 -0.031631008 -0.21036792 -0.0035774442 -0.19320585 -0.124186374
-0.04347455 0.1870631 0.30216518 -0.14015988 -0.0015089316 0.026135102 0.19682707 0.057609644
-0.020722153 -0.10159227 0.020792965 -0.019286705 -0.19493502 0.050468057 -0.20336741 0.03181712
0.078823626 -0.1307782 0.11950707 0.06535618 0.0469805 0.0006810286 0.0988792 -0.103332
0.018494803 -0.018186294 -0.07269998 -0.08593017 -0.07102292 0.07881286 -0.18894546 0.114536084
-0.042586576 -0.41612682 -0.23168269 0.2236207 -0.42625016 0.19709514 0.11907004 0.039581954
0.016576022 0.008048356 -0.05152889 -0.13740498 -0.036541153 0.24114807 0.12020977 -0.02163335

network_body._body_endoder.seq_layers.2.bias f4 [128]
00000000: 0ec9 97bc a3b3 153e e37e d13d 8111 063e
00000010: 0f7b 723e 51d8 6fb8 f492 1a3d 6380 16be
00000020: 8068 923d a091 ff3c 53b0 9bbd 2128 4fbe
00000030: 6e2a 793d 238c 0c3e 8759 fcbc 9512 50be
00000040: 21ac a1bd 21b8 bb3d 46e0 1cbe e422 583c
00000050: e546 373e e82a 9bbe 0cf8 973d f185 533e
00000060: e5d8 283c 6e26 53be 75f8 103e 433f d7be
00000070: 6832 9dbe a5c7 12be b2bc b23a b4b6 dc3d
00000080: ef07 1b3b 67e9 2b3e 2de0 6abe 7740 61bc
00000090: 4861 14bd 711d f0be 89c0 103e fc0e f43d
000000a0: 7c08 b13d 755e cdbd d8ab cc3c 1a73 adbd
000000b0: 7e11 97be fb4f adbc 2bcc 923c 632a 20be
000000c0: dc4e c3be 685a 5c3e 7b70 8c3d 4d8b 1d3c
000000d0: 6f09 463e 568a f3ba e8cb 013d a148 56be
000000e0: 4bc7 cc3c 5cdd 82bd 9540 e6bd dea9 b4bd
000000f0: 3809 febc f3dc 223d 679d c5bd 4da3 b73d
00000100: 4ab9 d33d 18db 783d 2773 cabe de8c 063e
00000110: 5c8a 15be 1a73 083c dad6 4a3b 96b0 a13d
00000120: 3919 03be 04b2 42be 915c 2c3d a50b 2ebd
00000130: 4eee 5eba c195 2f3e d62c cd3d 64f0 c63d
00000140: 7203 a33d 5887 06be db0a 793d 29ea 833d
00000150: c2d9 90bb 6fa9 8c3d 594e b0be 9d99 6dbd
00000160: a7d4 eebd caf2 16be cec7 6d3c e450 3fba
00000170: 8ec6 c43d 0864 fa3d 9038 42be 749f 5ebd
00000180: 389b 873d ab02 593e b6e0 c3bd 51bd 6f3e
00000190: 780b 8abd 0805 afbd 060f 433e 07fc 51be
000001a0: a3b7 983d 6b3f 59be 2951 71bd 5145 a53e
000001b0: d73d 293e 6671 55be aefd 973d ed28 28be
000001c0: 2eb4 4b3d ac09 eabd f23c fa3b 3f6f 0ebe
000001d0: 501d 0a3d f090 03bd 3938 463d ac29 8ebe
000001e0: d248 46bd 6de2 8abe f837 dbbd 347c d53d
000001f0: b0f5 b4be 527c 7abe 118d bdbd 9daf de3d
-0.018528488 0.14619307 0.1022928 0.13092615 0.23679756 -5.71835e-05 0.0377378 -0.14697413
0.07148838 0.03119737 -0.076019906 -0.20230152 0.06083148 0.13725333 -0.030804409 -0.20319588
-0.07894159 0.09165979 -0.15319929 0.013191912 0.17898138 -0.30306172 0.07420358 0.20656563
0.010305618 -0.20620129 0.14157279 -0.42040452 -0.3070252 -0.14333971 0.0013636558 0.10777035
0.0023655852 0.16788255 -0.22937079 -0.01374828 -0.036225587 -0.46897462 0.14135946 0.119169205
0.086441964 -0.10027782 0.024984285 -0.084692195 -0.29505533 -0.021156302 0.01791962 -0.15641169
-0.38146102 0.21518862 0.068573914 0.009615731 0.19339536 -0.0018580656 0.0316886 -0.20926143
0.024997374 -0.06389877 -0.11242787 -0.08821462 -0.031010255 0.039761495 -0.09649163 0.08966694
0.103380755 0.06075582 -0.3954098 0.13139674 -0.14603561 0.008328224 0.0030950815 0.07895009
-0.1280259 -0.1901322 0.042080466 -0.042491574 -0.0008504138 0.1714697 0.100183174 0.097138196
0.079596415 -0.13137567 0.06080137 0.06441147 -0.00442049 0.068682544 -0.34434775 -0.058007825
-0.11661654 -0.14741054 0.014512969 -0.00072981254 0.09608184 0.12226111 -0.1896689 -0.054351285
0.066214025 0.21192424 -0.095643446 0.23412062 -0.06740469 -0.085458815 0.190487 -0.20506297
0.07456901 -0.21215598 -0.05891529 0.32279447 0.16527496 -0.2084404 0.074214324 -0.16421862
0.04973238 -0.11427626 0.00763666 -0.13909625 0.03371936 -0.032120645 0.04839346 -0.27766168
-0.04840929 -0.27125874 -0.107040346 0.104240805 -0.35343695 -0.24461487 -0.09255422 0.10873339

action_model._continuous_distribution.mu.weight f4 [2, 128]
00000000: 3091 b43c 27f4 e63d 54bf af3c 97dc 5d3e
00000010: 9948 133e b158 a93c 97a8 f03d 4304 0d3e
00000020: 0fe3 15bc 8b94 8a3d fb79 073e bd60 0dbe
00000030: 524e f9bc 110d 0e3d ac27 16be d9b0 12be
00000040: 4ee0 3fbd 2f15 1fbe 4280 d13d 89e0 d33d
00000050: fdde 4b3d 1341 46bc 911b 363d 36c4 953b
00000060: 9dc1 d6bc 87b2 0abe 7363 243e c4ed ba3d
00000070: 0763 05be 3269 e03d 37c2 d7bd bbc8 33bc
00000080: 0300 363c 68a0 c7bd d8ed 643d e0b3 dd3d
00000090: 373b 3d3e 9b88 1dbd eabf da3d c629 123e
000000a0: ac9c 573d e9f9 c73d 5461 4b3b f296 2d3e
000000b0: b6df 9ebd a2c8 ebbd 07f2 19be cc82 c13d
000000c0: eeab 483d bbcf 373e 8a8d 253d 8848 4b3d
000000d0: 2490 213e cba0 be3b a724 073e 8194 f3bc
000000e0: 0aea 59be 578d 793e a540 edbd 5954 a3bd
000000f0: 82e7 853c bad3 dcbd cae8 bf3e d753 4f3e
00000100: 5427 26be 01e0 ce3c 4330 72bb b042 a53d
00000110: 40ae 133d 8794 25be d92e 31be b0eb 4cbe
00000120: 0a1a 46be 0ad1 5bbe f36f 90bd 97f5 8bbc
00000130: 8903 423e f9de 413e 9fcb 0abd c580 9cbd
00000140: 0e59 ce3d 8041 443d 1438 dfbd 7e57 803d
00000150: a0ae 5f3e 29b2 653c 3f67 28bd 5322 173e
00000160: c818 9c3c 26b8 ff3c 68b6 4ebd 8275 14be
00000170: 1e54 9bbb d6ad 1fbe bafb 003e 2b83 cfbd
00000180: b13d 75bd a5ee 89bc 3268 eabd ca13 fd3d
00000190: 7331 eebd 67dd bdbd 890c 893e 6b40 5a3d
000001a0: cc6f 483b 5392 993d 4bf9 20be b414 443e
000001b0: b827 26be e9a5 1cbe 5f74 913d 3518 19be
000001c0: acd2 87bd 0706 e7bd 1804 aabd 2aa2 723d
000001d0: 8ce5 3b3e 4112 fd3d 3fb3 033e 35a4 6dbe
000001e0: d4e2 0d3d 3450 2b3e 2e21 debd f349 e13d
000001f0: 60c4 d9bb 344b 3c3d bef0 133d 40ad eebc
00000200: 7c32 a83d 540f 47bd d68f 74bd 08ef ddba
00000210: edf4 833d ec7a 81bd 368a b3bd 4a85 a23d
00000220: ff12 95bd 5468 e9bb 359a 0cbe 6838 1f3c
00000230: afce 85bd fd78 e03c 1f9a b33d a852 8f3d
00000240: d519 ff3d ef51 4a3d 8167 1c3e bbd5 ab3d
00000250: 8bc3 073e 27b4 b43d 3ea0 4bbe 7028 16be
00000260: fe1f d5bc 82d4 5a3d df64 e33d 2cee e33c
00000270: a613 98bd fbc4 0f3d 1dac 29be ecd6 4b3d
00000280: 4b17 dbbc 0a73 29bb 760d 4dbe 93b0 a4bd
00000290: 5eab 91be 9501 063d be3d cbbd 6476 833d
000002a0: 6ee8 2c3d d799 45be 3cbf 27bd 95c5 933c
000002b0: 97c1 80be c4bc 333e 1ae9 cb3d 2da0 ac3d
000002c0: 5f5a c93d 9256 16be 83d3 773d c6a3 0ebe
000002d0: f512 0ebc b013 d8bd fc1f 473b 94cf 873d
000002e0: c68b d0bd 2a1d 6a3c 404e 793c f259 40bd
000002f0: 205c e53d 64d7 98bc c5fb 9a3d 4853 543d
00000300: d1c5 913d 657b 7abd 9d40 2b3d a250 423d
00000310: 5ea0 b63d 6a99 cabc 9bc8 7abc a27c 203d
00000320: 6f15 17be ee98 d03c 094e 43bd 6e0f 0abc
00000330: adaf e9bc d554 93bd b64d a23d d3c7 e0bd
00000340: a3ef 2ebd 9fe2 0f3c d8d4 103d e084 d63d
00000350: b34d ac3d 8c11 0f3d 2d86 da3d b62b 0d3e
00000360: 04ac 343d 0104 fabd 1c1f 8abd 4c88 9abd
00000370: d86c c6bd 6020 15bd c091 a33d 52bb 84bd
00000380: 516c 0a3d 6ba5 043e 0e68 343d 97f0 cbbd
00000390: 7980 18bd c699 28be 0a3d 3e3d 02b7 813d
000003a0: 13df 03bc 31bb 983d 9907 c4bd e697 2abd
000003b0: 9504 9a3c f75c 46be 8137 3a3d a992 48be
000003c0: 6784 b2bd 20f2 70bd 1beb 35bd a442 dfbd
000003d0: 2b0d 18bd 7315 4d3d 6ea4 9dbd e61c d93b
000003e0: e519 723e eddf b53d 1768 b7bd 184c afbd
000003f0: d6f2 f83d 4799 f6bd a4c3 473c 6541 ef3d
0.022041887 0.11277037 0.021453537 0.2166618 0.14383163 0.020672174 0.11750906 0.13771157
-0.009148373 0.067666136 0.13230126 -0.13806434 -0.030432854 0.03468043 -0.14663571 -0.14325275
-0.046844773 -0.15535425 0.10229541 0.10345561 0.049773205 -0.012100476 0.044459883 0.0045705093
-0.026215369 -0.13544665 0.16053562 0.091273814 -0.13026057 0.109575644 -0.105350904 -0.010973151
0.011108401 -0.09747392 0.055890888 0.10825324 0.1847962 -0.038460355 0.10681136 0.14273748
0.05263965 0.097644635 0.0031033354 0.16952112 -0.07757513 -0.11512877 -0.15033732 0.09448776
0.04899209 0.17950337 0.040418185 0.049629718 0.15777642 0.005817508 0.13197576 -0.029733898
-0.21280685 0.24370323 -0.115845956 -0.079750724 0.016345743 -0.10782571 0.3748229 0.20246826
-0.1622594 0.025253298 -0.0036955036 0.0806936 0.03605485 -0.1616994 -0.17303027 -0.20011783
-0.1934587 -0.21466461 -0.070526026 -0.01708488 0.18946661 0.18932714 -0.033885594 -0.07641748
0.100755796 0.04791403 -0.10899368 0.06266688 0.21843958 0.0140195275 -0.04111409 0.14759187
0.019054785 0.031215739 -0.050466925 -0.1449795 -0.004740252 -0.15593657 0.12596026 -0.1013244
-0.059873287 -0.016837427 -0.11445655 0.1235729 -0.116305254 -0.09270745 0.26767376 0.05328409
0.0030584214 0.07498612 -0.15720098 0.19148523 -0.16226089 -0.15297665 0.07102274 -0.1495064
-0.06631979 -0.112804465 -0.08301562 0.059236683 0.18349284 0.12356997 0.12861346 -0.23207171
0.03464015 0.16729814 -0.10846172 0.11000433 -0.006645724 0.045970157 0.03611826 -0.029135346
0.08212754 -0.048598602 -0.059707485 -0.0016932199 0.064432 -0.063222736 -0.08766596 0.07935579
-0.07279014 -0.0071230326 -0.137307 0.009718038 -0.065335624 0.027401442 0.08769631 0.06998187
0.12456099 0.049394544 0.15273859 0.08390375 0.13258187 0.08823424 -0.19885346 -0.14663863
-0.026016232 0.05342532 0.11103224 0.02782353 -0.07425623 0.035099965 -0.16569562 0.049765512
-0.026744505 -0.0025855922 -0.20024666 -0.08041491 -0.28451055 0.032716352 -0.09923886 0.064190656
0.04221385 -0.19296966 -0.04095386 0.01803855 -0.25147697 0.17552477 0.0995657 0.084289886
0.0983169 -0.14681461 0.060504448 -0.13929662 -0.008671512 -0.1055063 0.0030384054 0.06631389
-0.1018291 0.01428918 0.01521641 -0.04696078 0.11199212 -0.018657394 0.075675525 0.051837236
0.071178086 -0.061152834 0.041809667 0.04744018 0.08917306 -0.024731357 -0.015306617 0.03918136
-0.1475427 0.025463548 -0.047681842 -0.00842653 -0.028526152 -0.07193915 0.079249784 -0.109756134
-0.042709004 0.008782058 0.035359234 0.10474563 0.084132574 0.034928843 0.10670123 0.13786206
0.04410936 -0.12207795 -0.06744215 -0.07545528 -0.09688729 -0.03640783 0.07986784 -0.06481041
0.033794705 0.12953727 0.044044547 -0.09957998 -0.037231896 -0.1646491 0.04644493 0.06333734
-0.0080487905 0.07457579 -0.09571762 -0.041648768 0.018801013 -0.19371401 0.04546309 -0.19587196
-0.0871666 -0.05882466 -0.044413667 -0.109013826 -0.037121933 0.050069284 -0.07697378 0.0066257594
0.2364269 0.08880601 -0.089554004 -0.085594356 0.12155692 -0.12040954 0.01219264 0.11682395

action_model._continuous_distribution.mu.bias f4 [2]
00000000: 32bd 153d 5ee1 b1bc
0.036557384 -0.021713909

action_model._continuous_distribution.log_sigma.weight f4 [2, 128]
00000000: 9e3a da3d 24b2 aabd a251 f0bd 0f4f 433e
00000010: cf52 4cbe e494 a2bc 5d22 fabd 36c4 763e
00000020: 054d 74bd 7bd4 a93b 3e12 353c b26d 993d
00000030: 983f b93d 7587 873d 962e 6bbc 2206 2b3e
00000040: 88ef b43d 42b6 56bd e458 ff3d ba53 8d3c
00000050: 16aa 0fbd 07fd cc3d 9f16 973d 2132 97bc
00000060: 90de 21bd 1571 3b3d df83 003e 2faa a13e
00000070: f599 023e 50ba 75bc b95c 0e3d efbb 26bd
00000080: 8a5b 36bc 2dab ae3d 2cf4 393e 9606 63bd
00000090: 4cf1 c93d d744 983e f1b4 fbbc 50b8 a5bd
000000a0: 8f3d 72bd 69d3 413d a24a 343d a281 ea3d
000000b0: e610 1f3d 93af 113d 200d 05be b38b 083e
000000c0: ff0f 1d3e 08e9 2abe ef5c 91bd bead 353d
000000d0: 8e63 df3c 3340 263d 4ebd ea3c b7f6 873d
000000e0: 1fd5 053e aa5c 9cbc f208 f0bc 7bf5 d33c
000000f0: 3d30 ad3d f48e 153e 4eb8 be3d fe42 bb3c
00000100: 6628 db3d 359b 70bd 84ea 893e 6384 3cba
00000110: a03e 21bb e5b1 163e 7a44 a13c 707f da3d
00000120: 4fbc 80bd 8ad0 eabc 9d64 02bd 80b0 1fbd
00000130: 72d7 1d3e 0049 373d 0c6d 0bbe 268a 0d3d
00000140: ff94 79bd 2ac7 f13c 3e64 133e b12e 7b3e
00000150: f7c4 6c3d 9ddb 823d ab94 2c3e 6732 3fbc
00000160: ca7b d23b e419 94bb 90dd bbbd c2c6 f33d
00000170: 2ac2 01be f853 8cbc 2d2b 19be c104 f03d
00000180: 2022 88bc 87d1 7fbd a395 8b3d 8155 bcbd
00000190: 7fd0 4f3b e8a7 213d 43b1 7d3c 9332 e63d
000001a0: dd74 e8bc 7db2 1a3e b319 833d c948 c8bc
000001b0: 2a5f 9f3d 29a4 e23d d610 55bd b4c3 9a3d
000001c0: c9cb dfbc ed48 223e 4542 433d d470 eabc
000001d0: 538d 6dbc 923c fbbb 64cb 2ebc 8927 183d
000001e0: 6422 1a3d f3e9 853d 4ae3 133e 4b29 c1bb
000001f0: 49bc 3d3e 8cca c6bc 3d28 a23c d61b bcbc
00000200: 888c 84bc 4185 febd 135d 633d 0515 3e3c
00000210: 6deb 8fbd 114b 023e 4f4c 9abd 7803 403e
00000220: 16ae 02bd 914b 043e b372 9d3d e48c 88bc
00000230: 2ff7 843d bfdb f13b 33b6 103d cfd6 a23d
00000240: b912 513e f896 73bd bb4e f53d 9497 a63c
00000250: fd01 623c 963e 683e 3517 133e 23b4 ec3d
00000260: 01e2 b83a 8902 433e a8f7 533c 8a9d bf3e
00000270: a021 173e 0fd3 903d 5949 9b3d 707e d7bd
00000280: e8b7 6c3c 7702 4b3d 6b5c f73d 029b 153d
00000290: b33f 873e f453 973e 46db 133e c884 813b
000002a0: 0538 c1bd f215 033e 2630 b73d 629b b93d
000002b0: 2de0 ac3d 3ffd 6bbd c07d dbbd bfd9 823e
000002c0: 3cd4 1b3e d850 45bd 08de 8f3d 2b55 a43d
000002d0: e84a e2bc 81d0 a83c 75c7 9e3d df86 4d3d
000002e0: e87c 6ebc e36e 1d3d 01ba 9ebb 4a91 be3d
000002f0: eb8b 943e c01d 0c3d 6bdd 593b 73dd 3bbc
00000300: 5234 853c 531b 033e f18d af3e cc43 3ebc
00000310: 65e9 b4bb 672b 013b d507 c7bc d05b 55bc
00000320: 247f 9d3c 2162 fcbb c43f ad3d 098e 34bd
00000330: 2a7b 87bd 947e f23d 20b6 98bc e968 e43d
00000340: 4a5f 89bd 1d7b 753e 047b 8cbd 76b2 a2bd
00000350: 71f7 153d 5965 e03c c615 453e 443f d93b
00000360: ce11 edbc 5441 193d bad2 c9bc d9cf 7a3d
00000370: 83fb 4fbd 0711 dcbd 0904 92bb d200 a03d
00000380: 783c b53b cf60 9cbd f768 52bd 02ee eb3c
00000390: fac3 153d 4561 503d 271b d9bb 6365 893e
000003a0: 0776 a1bd f760 eb3d 7776 28bd 431e fdbb
000003b0: 4cea 7abc c686 f63c a267 86bd 3fe2 d23d
000003c0: 4457 6b3d e426 a53d 3ee4 e6bc c5d8 d93c
000003d0: c433 d63c c789 f53c ba48 ce3b aec9 4b3d
000003e0: 31d2 013e da23 863b 2644 2c3d 32dd f0bd
000003f0: 79d3 003e 87ea f93d 8d3c cf3d 5726 9dbd
0.106557116 -0.08334759 -0.1173432 0.19073127 -0.19953464 -0.019846387 -0.122135855 0.24098286
-0.059643764 0.0051828003 0.011051713 0.07491626 0.09045333 0.06617633 -0.014354369 0.16701558
0.088347495 -0.05241991 0.124681264 0.017251838 -0.035074316 0.10009199 0.073773615 -0.01845652
-0.039518893 0.04576214 0.12550305 0.31575152 0.12754042 -0.014998034 0.034756396 -0.04070657
-0.011130223 0.08528743 0.1815955 -0.055426203 0.09860477 0.2974002 -0.030725928 -0.080917954
-0.059140738 0.047320757 0.044016488 0.11450507 0.038834475 0.03556783 -0.12993288 0.13334541
0.15338133 -0.16690457 -0.07097804 0.044355147 0.027269151 0.04058857 0.02865472 0.06638854
0.1306958 -0.019087154 -0.02930114 0.02587389 0.08456466 0.14605314 0.09312497 0.022859093
0.10701065 -0.058741767 0.26936734 -0.0007191358 -0.0024603978 0.14716299 0.019685972 0.10668838
-0.06285917 -0.028663892 -0.031834234 -0.038986683 0.15414217 0.044747353 -0.13615817 0.034555577
-0.06093311 0.029513914 0.14393708 0.2452953 0.057805028 0.06389544 0.16853587 -0.011669732
0.006423448 -0.004519688 -0.09173119 0.119031444 -0.12671724 -0.017129883 -0.14957877 0.11719657
-0.016617835 -0.06245568 0.0681565 -0.09195996 0.0031709967 0.03946677 0.015484157 0.11240115
-0.028376037 0.1510715 0.06401386 -0.02444877 0.07781823 0.11066467 -0.05201801 0.07556859
-0.027318852 0.15848131 0.04767062 -0.028618254 -0.014499026 -0.0076671327 -0.010668609 0.03714708
0.037630454 0.06538763 0.14442173 -0.005894815 0.18528856 -0.024266504 0.019794578 -0.022962492
-0.016180292 -0.1242776 0.055508684 0.011601691 -0.07027326 0.12723948 -0.07534086 0.18751323
-0.031904303 0.12919451 0.07687893 -0.016668744 0.06492459 0.007380932 0.03533001 0.07951128
0.20417298 -0.059470147 0.11977907 0.02033595 0.013794419 0.22680125 0.14364322 0.11557796
0.001410544 0.19043936 0.012937464 0.3742488 0.1475892 0.07071506 0.07582349 -0.10522163
0.014448144 0.049562898 0.12078174 0.03652478 0.26415786 0.2955624 0.14439115 0.0039525963
-0.09434513 0.1280134 0.089447305 0.0906284 0.08441196 -0.05761456 -0.10717344 0.25556752
0.1521768 -0.0481728 0.07024771 0.08024057 -0.027623609 0.020607235 0.07752887 0.05017745
-0.014556147 0.038435828 -0.0048439507 0.093050554 0.29013 0.03420806 0.0033243548 -0.011466372
0.0162603 0.12803392 0.3428798 -0.011612844 -0.005520987 0.0019709708 -0.024295727 -0.013022378
0.019225664 -0.0077021276 0.08459428 -0.044080768 -0.066152886 0.11840549 -0.018641531 0.111528225
-0.06707628 0.23972745 -0.06859401 -0.07944195 0.03661293 0.027392076 0.19246587 0.0066298563
-0.028939154 0.037415817 -0.024636615 0.061233375 -0.05077697 -0.10745435 -0.0044560474 0.078126565
0.00553089 -0.07635652 -0.051369634 0.028800014 0.03656385 0.050874013 -0.0066255513 0.26835164
-0.0788384 0.11493104 -0.041128602 -0.0077245547 -0.01531465 0.030093562 -0.06562735 0.10297059
0.05745627 0.080640584 -0.028185006 0.026592622 0.02614773 0.029972924 0.006295291 0.049752884
0.12677838 0.0040936293 0.04205718 -0.1176094 0.1258067 0.12202936 0.10118971 -0.07673328

action_model._continuous_distribution.log_sigma.bias f4 [2]
00000000: 9113 b7be 6ac8 eabe
-0.35757115 -0.4585603
