Experimentos/results/sac2/KartAgent/KartAgent-649959.onnx (onnx, 90702 bytes, 8 tensors)

network_body._body_endoder.seq_layers.0.weight f4 [128, 35]
000000 8c f0 8c 3d c8 1e 37 3d ae 51 d8 bc 5f 5f ac 3c
       0.06881818 0.04470709 -0.026406135 0.02104157
000010 36 80 13 be 47 a2 de 3d 05 00 cd 3d 11 32 a9 bd
       -0.14404377 0.10870796 0.10009769 -0.082615025
000020 88 fe 04 3e 71 fb 5d 3d 78 af e9 be 36 a7 cb bd
       0.12987721 0.05419487 -0.45641685 -0.09944002
000030 3e 73 00 3d 81 18 7d 3c 05 4a 0f 3e 7f c6 3e be
       0.031359904 0.015447737 0.1399308 -0.18630408
000040 0d f7 f7 3d 6c 58 d8 3e ff b0 20 3e 35 26 75 3d
       0.12107668 0.4225496 0.15692519 0.05985089
000050 0e fe b6 3d 20 ac e6 3e 3d d6 98 3e fa c1 8d 3e
       0.08935176 0.45053196 0.2985095 0.27687055
000060 7a a5 94 3d 20 e4 35 3e c3 d7 90 bd 0c 1d ee 3e
       0.07258125 0.17762804 -0.07072403 0.46506536
000070 ab ab 30 3d 21 9c 4d bd c5 26 4e 3c c6 5c 41 3e
       0.043132465 -0.050197724 0.012582486 0.18883047
000080 09 58 c1 be 49 94 5c be c3 dc b2 be 21 6f 52 be
       -0.37762478 -0.21540941 -0.34934053 -0.20550205
000090 38 ad 64 3e a9 de 90 3e a3 e6 2b 3f f7 86 86 bd
       0.22331703 0.28294876 0.671488 -0.06568711
0000a0 5b 60 36 3e fb 90 72 be dc b2 a8 3e f3 a2 6b 3d
       0.17810194 -0.23688118 0.3294896 0.057528447
0000b0 49 28 d9 3d ea f8 11 be 05 8b ab 3d f2 ea 08 be
       0.10603387 -0.1425511 0.08376125 -0.13370875
0000c0 da 89 f4 bd cf 86 36 be a5 d3 d0 3e 0c 01 e5 3e
       -0.119403556 -0.17824863 0.40786472 0.4472736
0000d0 54 e4 82 bb a0 0e 14 3e 3e 05 11 3e 25 5f 8b 3d
       -0.003994504 0.14458704 0.14162156 0.06805257
0000e0 4c 1a 3a 3e 53 25 8b 3e f3 f3 e3 bd 27 9c 47 3d
       0.18174094 0.27176914 -0.11130514 0.048732903
0000f0 d9 02 8b bd bd 73 60 3d c7 ee 5b bd 87 76 43 be
       -0.067876525 0.054797877 -0.053694513 -0.19088183
000100 d9 c7 16 bd 58 da b1 3d 7a 29 c5 3e d0 a4 5c 3d
       -0.036811683 0.08684224 0.38508207 0.053868115
000110 1b b8 72 be cb 07 74 3e 6c cb 96 3e 2b 63 56 3b
       -0.23703043 0.23831098 0.29452074 0.0032712917
000120 77 e2 aa 3e 82 e7 ad 3e 59 c2 7c bd 16 1a 69 be
       0.33375904 0.3396569 -0.061708782 -0.22763857
000130 d5 09 3c be 3f 06 c0 3d 44 0e c6 3c fd 21 c3 bd
       -0.18363126 0.09376191 0.024176724 -0.09527967
000140 22 67 95 bd 98 2d e0 bc 65 35 6d be d1 f5 53 3d
       -0.07295062 -0.02736549 -0.231649 0.0517481
000150 b3 8c e0 be be ec 95 3e dc a3 d7 bd 1a 6b 5b be
       -0.43857345 0.29282182 -0.105293006 -0.21427575
000160 4e eb 4d 3d 83 12 7d 3c 38 6e 06 3f 2f d9 8e bc
       0.050273232 0.015446308 0.5251193 -0.017437546
000170 fa 76 1f bd 80 6d 1d 3e 25 d6 02 3f be 4d a9 be
       -0.038931824 0.15373802 0.5110801 -0.33067125
000180 be 83 2a bc 55 0f 4b 3e 6b be 8a be 5e a4 86 3d
       -0.010407386 0.19830067 -0.27098402 0.06574319
000190 52 f3 40 be 4e 76 b0 3e a4 ad 0b 3e d1 06 c4 bc
       -0.1884282 0.3446526 0.13640457 -0.023929032
0001a0 49 ce 69 bd de 81 26 bd 32 66 b4 3e d8 2f 07 3e
       -0.057081494 -0.040651195 0.3523422 0.13201845
0001b0 e5 ae 09 3f d2 56 1c be a7 73 8f 3e 27 fc 59 3d
       0.5378249 -0.15267494 0.28017923 0.053218987
0001c0 e0 81 b8 be 9b 5d 0e be 9e 83 f0 bd ec 8f 9a bc
       -0.36036587 -0.13902895 -0.11743854 -0.018867455
0001d0 f7 f5 3c bc 53 fb e7 3d 5f 01 35 3e c3 01 4b bf
       -0.011533252 0.11327233 0.17676304 -0.79299563
0001e0 15 3a 36 be 34 f7 a0 3e 6f 19 e4 bd 4b 25 60 3d
       -0.17795594 0.314386 -0.111376636 0.054723065
0001f0 02 df ad 3d 8a 20 33 be 93 9c 95 3e 7d 85 99 3e
       0.08489801 -0.17492881 0.2922102 0.29984656
000200 46 ae 1d 3e 24 00 33 be 00 c8 fb be 3e bc 58 3d
       0.15398511 -0.17480522 -0.49176025 0.052913897
000210 04 7f 4c 3e 05 dc ba 3e ad b1 1d bc d6 ca 66 3c
       0.19970328 0.36495987 -0.009624881 0.014086446
000220 b5 91 be 3d 29 46 82 3e 99 b9 19 bd 6a 14 35 3e
       0.09305135 0.25444153 -0.037530515 0.17683569
000230 42 4d a5 bd 69 f1 0d bf 45 ce ad bd ba 3b b2 be
       -0.080713764 -0.5544649 -0.084866084 -0.34811193
000240 70 c9 04 be 53 40 79 be c2 ae 93 3d d2 e6 90 3e
       -0.12967467 -0.24340944 0.07211067 0.28301102
000250 62 37 37 3e d9 9c 3f 3e 9d cb 81 3d cf bf 7b be
       0.1789222 0.18712176 0.06337664 -0.24584888
000260 b3 87 cd 3c a8 d9 1b bc 61 d9 55 be eb dd 13 3c
       0.02508912 -0.0095123425 -0.20883705 0.009025077
000270 a5 47 c5 3e ba db 80 be 90 1e b4 3e d5 06 0d bd
       0.38531223 -0.25167638 0.35179567 -0.034430344
000280 f4 e2 42 3d aa bc 04 3e 89 29 a3 3d 94 23 3a 3e
       0.04757972 0.12962595 0.079669066 0.18177634
000290 7a bd 2d 3d c2 c8 19 be dc 02 30 3e 72 90 09 be
       0.042417027 -0.1501799 0.17188591 -0.13434008
0002a0 a6 3f 93 be a4 95 a5 3e 89 73 63 be 59 d8 b5 3d
       -0.28759497 0.3234073 -0.22212042 0.08879156
0002b0 d9 57 24 be 58 c6 b7 be 7e b4 a7 3e 2c 8b 27 3e
       -0.16049136 -0.35893512 0.32754892 0.16361684
0002c0 71 dd e3 bd aa a4 9f 3c af da 2e 3e 9d 58 6c 3e
       -0.11126221 0.019487698 0.17075609 0.23080678
0002d0 ad a9 00 3d 4b db 65 be 6b 6e 79 3e 2e 96 38 be
       0.031411815 -0.22446935 0.24358527 -0.18026039
0002e0 d9 da 06 3e 32 ad 94 bd 20 b0 13 3e bb a1 46 3e
       0.13169421 -0.07259597 0.14422655 0.19397633
0002f0 04 8c 08 3d 80 2b 2b be 36 a9 9b bd 57 5d d7 bd
       0.033336654 -0.16715813 -0.07600634 -0.1051585
000300 dc d6 07 3c 0b f8 3c 3d 34 d7 97 3e 4f f4 84 bd
       0.008290973 0.04613499 0.29656374 -0.06491911
000310 de 59 4a 3b 01 0c 8e 3e d2 4c b2 bc c1 59 4d be
       0.003087632 0.27743533 -0.021765146 -0.2005377
000320 98 57 fd bd c8 f8 a4 3d 80 bb 9e bc 7e 83 c9 3c
       -0.12370223 0.08055264 -0.019376516 0.024598833
000330 10 8d e8 3e 07 e5 42 bd 75 ca 3d 3d c0 7b 88 3f
       0.45420122 -0.0475817 0.046335656 1.0662766
000340 c6 e0 71 3e 69 bf c0 be e0 cb 95 be 7c ef 07 3e
       0.236209 -0.37646034 -0.29257107 0.1327495
000350 a2 a3 cb 3e e3 b1 63 be 2b 3e 53 3e 47 a3 7d 3d
       0.3977328 -0.22235827 0.20629184 0.06192329
000360 1e e7 90 3e 97 a3 11 3c 1d cf be bd 03 04 72 3e
       0.28301328 0.0088891005 -0.093168475 0.23634343
000370 4a 2b 80 bd 3a aa a8 3e a7 8c ad be d6 29 a9 3e
       -0.06258257 0.32942373 -0.33896372 0.3303973
000380 cf e0 0e bf e8 e1 e2 3e 5a 62 67 3d b9 d9 ec 3a
       -0.5581178 0.44312978 0.05649028 0.0018070258
000390 65 e3 45 3d dd f7 03 3e b8 bd 0d bc 19 40 8d bd
       0.048312563 0.12887521 -0.0086511895 -0.06896991
0003a0 14 00 22 be 7c fd 45 bd e5 ff 67 3e ec f9 f1 bd
       -0.15820342 -0.048337445 0.2265621 -0.11815247
0003b0 7b 1a 36 be d5 98 21 bc 3c 8d 0c 3e 49 76 23 3e
       -0.17783539 -0.009863098 0.13725752 0.15963091
0003c0 fe 04 3a 3e a3 ec b2 3e aa 50 f9 bd a5 72 9c 3e
       0.18165967 0.34946164 -0.121735886 0.30556217
0003d0 ec de 84 3d a0 48 a5 be ba 11 eb be 83 9c d7 3d
       0.064878315 -0.3228197 -0.45911962 0.10527899
0003e0 9d d8 0f be ac fb fd bd 30 25 13 3c 08 70 cf bd
       -0.14047475 -0.12401518 0.008981034 -0.1012879
0003f0 cd d5 17 3e 3d d6 ab 3e 99 14 0e be 6e 5e fe bd
       0.14827652 0.33561888 -0.13875045 -0.12420355

network_body._body_endoder.seq_layers.0.bias f4 [128]
000000 3a 59 b3 3d 38 ac 98 3c 0e 6d e4 bc 82 53 9e bd
       0.08757253 0.018636808 -0.027884033 -0.077307716
000010 57 e2 61 bd 24 a2 87 3d a2 c7 3c be 06 40 71 3e
       -0.055147495 0.06622723 -0.18435529 0.23559579
000020 05 67 04 3e c5 e8 ee bd 92 7a 16 be 28 11 da bd
       0.12929924 -0.11665491 -0.14695194 -0.106478035
000030 27 36 7d 3d 77 02 18 3e 64 fb 32 3c 8d bb e2 3d
       0.06181922 0.1484469 0.010924194 0.11070929
000040 61 d3 57 be de cd d5 3d 3f ad 6f 3e ff 1f 82 3e
       -0.21076728 0.10439657 0.23405932 0.25415036
000050 48 e0 05 3e e8 09 dc bd ce 12 f2 3c b3 45 99 3c
       0.13073838 -0.10744077 0.029549982 0.018709993
000060 74 a8 13 3d 78 78 11 bc a8 0f d3 3c 83 3d da bd
       0.03604932 -0.00887882 0.025764301 -0.10656264
000070 59 89 44 3d c5 63 4c 3e a7 09 19 be ff 93 bb 3e
       0.047982547 0.19959934 -0.14945088 0.3663635
000080 a1 7d 66 3d 0a 8c 25 3e c3 a8 73 bd c8 07 3d 3d
       0.056272153 0.16166702 -0.059487116 0.04615
000090 4d b3 46 3e ae f2 1f 3e e1 a0 13 3d cd 7c 85 3d
       0.19404335 0.15619919 0.036042098 0.065179445
0000a0 24 19 2c 3d 5f 27 6d bc 0d 11 b3 bd d3 98 45 3d
       0.042016163 -0.014474719 -0.087434866 0.048241448
0000b0 a4 65 8e bd 26 69 d7 3d ea 00 8a 3d c5 49 fe 3c
       -0.0695298 0.10518102 0.067384556 0.031041035
0000c0 a7 89 15 3d e8 89 d2 3d 80 69 94 bd 66 94 79 3e
       0.03650823 0.1028021 -0.07246685 0.24373016
0000d0 50 03 ef 3d da 1f 37 bd 43 cd 2d 3d 33 7e 19 3e
       0.11670554 -0.04470811 0.04243208 0.14989547
0000e0 c2 60 c6 3d cb a1 c4 bd c9 c1 e6 3d 4e 6d ec 3d
       0.09686424 -0.09601172 0.1126743 0.11544286
0000f0 56 b7 82 3c 0c 94 a3 3b 7c d0 47 bc b0 cc 8f bb
       0.015956562 0.004992014 -0.012195703 -0.0043884143
000100 a5 8c e3 bd 50 13 e7 3d 6e a8 7d bd d3 a1 36 3e
       -0.1111081 0.112829804 -0.061928205 0.17835169
000110 f1 61 76 3e a5 57 58 be f7 ca a2 bd 56 1b b0 3c
       0.24060799 -0.21127184 -0.07948869 0.02149741
000120 72 9f 0c 3f 4e d6 e1 3d 15 62 8f 3e f6 c0 15 3d
       0.54930794 0.110272035 0.28004518 0.036560975
000130 83 3b a1 37 44 16 95 3e 92 40 e7 3d fc 95 e2 bd
       1.9220408e-05 0.2911855 0.11291613 -0.110637635
000140 ec 5d 6b 3e fc 22 22 bd b3 a0 75 3d 66 0a 0a 3c
       0.22985047 -0.039584145 0.059967708 0.008425331
000150 8a cf 97 bd 2b 9d 67 3e 3d 9d 05 bd 33 6a 80 3e
       -0.07412632 0.22618549 -0.032620657 0.25081024
000160 a8 c0 8e 3d d7 24 43 3e a3 09 4c 3d 09 26 62 3d
       0.0697034 0.19057022 0.049813878 0.055212054
000170 77 c2 43 3d a9 e7 a3 3d a7 f8 dd 3d 45 0f 23 3d
       0.047792878 0.0800317 0.10838442 0.039809484
000180 b2 c0 5e 3e 5e 28 70 3e 65 b2 72 3d 27 4d 27 bd
       0.21753195 0.23452899 0.05925216 -0.040845063
000190 eb 4d 8e 3e 85 06 6f 3e 8b a4 3f 3d e7 f4 88 3d
       0.27793822 0.23342331 0.04678778 0.066873364
0001a0 6f 77 db 3d 9c d8 81 bd 8a 7c 29 be 1d 97 28 3c
       0.107161395 -0.06340143 -0.16551414 0.010289934
0001b0 f4 88 ae bb ed 85 d0 bd 4b 5d c6 bd 29 04 a0 3c
       -0.0053263847 -0.10181794 -0.09685763 0.019533234
0001c0 bd 27 65 3d 61 b5 d0 3d 88 cd 8d 3c f0 fb 2b 3d
       0.0559461 0.10190845 0.017309919 0.041988313
0001d0 b0 06 8a 3c a1 0e c1 bd aa 75 d4 bd 8b 67 98 3e
       0.016848892 -0.09426618 -0.10374005 0.29766497
0001e0 ba 0d 9c 3c 7c 6d f2 bd cf 79 8a 3c 14 9b 79 3e
       0.019049514 -0.11837289 0.016903786 0.24375564
0001f0 1b 83 b9 3d 71 d1 c6 3d d0 36 da bd cf 4d 3f bc
       0.090582095 0.097079165 -0.10654986 -0.011676266

network_body._body_endoder.seq_layers.2.weight f4 [128, 128]
000000 00 ab 20 be 40 60 e8 bb 1b f9 8a be ef 2a 51 be
       -0.15690231 -0.007091552 -0.27143177 -0.20426534
000010 fb 30 45 3e 27 f3 4c be 6d d7 b8 3d ff 4f c6 3d
       0.19256966 -0.2001463 0.09025464 0.09683227
000020 90 3f e1 3c f1 e3 cc bd 3e a3 40 be bb a7 99 be
       0.02749613 -0.10004414 -0.18812272 -0.3001078
000030 bc 0b eb bd 1e 43 20 be 3f ad 93 3b 18 e2 f4 3b
       -0.114768475 -0.15650603 0.0045067365 0.0074732415
000040 8a 0c 82 be 90 c6 ef 3c f6 82 18 bd c2 64 de 3c
       -0.25400192 0.029269487 -0.03723427 0.027147654
000050 a9 61 e0 3d e2 cc a9 be 08 8b 77 3d 9c 23 79 be
       0.10956127 -0.33164126 0.060435325 -0.2432999
000060 5d 80 73 3d 11 96 6f bd 98 c1 5b be 08 ca 9b 3d
       0.05944859 -0.058492724 -0.21460569 0.07606894
000070 5f d5 04 3e 21 bc 5c 3d a1 b9 07 be 87 64 84 bd
       0.1297202 0.05389035 -0.13254406 -0.064644866
000080 e5 fa 91 bd a6 82 64 3d d3 b0 28 be e8 5c 1d 3e
       -0.071279325 0.05578866 -0.16473703 0.15367472
000090 2b 5b 1e bd 55 41 49 3e 36 80 87 bd 89 af 2c bd
       -0.038661163 0.19653828 -0.06616251 -0.04215959
0000a0 20 15 db bd 33 84 c3 bd f0 30 9a be b4 36 90 3d
       -0.10697389 -0.095466994 -0.3011546 0.07041684
0000b0 d4 85 0d 3d e1 b4 c4 bb eb 3a 4e 3d 47 dc 00 3e
       0.034551457 -0.0060030078 0.050349157 0.12584029
0000c0 77 1b 4c bd be f5 e9 bd c9 f5 69 3e 82 26 33 3d
       -0.04983088 -0.11423825 0.22847666 0.043737896
0000d0 11 14 b6 bd 13 d9 7e be ce 7e 06 be 2f fb 8f be
       -0.08890546 -0.24887495 -0.1313431 -0.28121325
0000e0 ac 19 dd bd 79 de 85 be 24 e6 6d 3d 5f b8 23 3d
       -0.10795912 -0.26146296 0.058080807 0.03997075
0000f0 a3 74 9e 3d 76 54 dd 3d 03 2c 2a be db 1b 20 be
       0.077370904 0.10807125 -0.16618352 -0.15635626
000100 6f 92 7a be 85 d6 05 3d 8d 25 3a be 47 e3 50 be
       -0.24469922 0.032675285 -0.18178387 -0.203992
000110 2a df 90 3d 50 79 4c be 6f c2 ac be fb 9b dc bd
       0.07073815 -0.19968152 -0.3374209 -0.107719384
000120 e7 15 6c 3d 86 a1 52 bd 86 a3 8d bc 87 89 aa be
       0.057638075 -0.051423572 -0.017289888 -0.3330805
000130 2a 79 13 bd bf f4 a3 bd 67 c6 ef 3a 6e 88 de bd
       -0.036004223 -0.08005666 0.0018293381 -0.10865866
000140 43 63 22 bc 62 c0 b3 3d 94 17 b1 3d 5f b7 f6 3d
       -0.009911361 0.087769285 0.08647075 0.12046694
000150 85 a1 64 be 3b 96 ad 3d 16 c5 81 be fa 99 1a 3e
       -0.2232724 0.0847592 -0.25345677 0.150978
000160 db d8 75 bd d8 ba 0a 3d 7a 71 cd bd eb bc f7 bd
       -0.060021263 0.033869594 -0.100314096 -0.1209658
000170 8d 98 35 3e a2 f0 c4 be 08 40 4d be 8e 45 b8 bc
       0.17733975 -0.38464838 -0.20043957 -0.022494104
000180 ab 8d 68 3e 52 b6 1b 3d d5 35 58 3c a9 c8 f0 3c
       0.22710292 0.03801567 0.013196428 0.029392557
000190 0f 97 45 be 44 eb 03 be ea 98 df 3d dc 47 56 be
       -0.19295906 -0.12882715 0.10917838 -0.2092585
0001a0 ac f1 b8 bd 99 92 fe bd f9 5d c1 bc 78 5c 69 be
       -0.0903047 -0.12430305 -0.02360438 -0.2278918
0001b0 34 f2 23 be b0 5c 7e be e7 68 9c bd 99 19 8e be
       -0.16010362 -0.24840045 -0.07637196 -0.27753904
0001c0 34 d4 da 3d 33 97 d5 3d 8d 87 de 3d 22 ff 3d be
       0.10685006 0.104292296 0.10865698 -0.18554357
0001d0 00 27 b8 3d 00 0a d1 be de ce 93 bc 58 95 d8 bd
       0.08991814 -0.40827942 -0.018042978 -0.1057536
0001e0 f9 04 e4 3d b4 5f 0b 3e bf 97 93 3c 0c 90 14 3e
       0.11133761 0.13610727 0.018016694 0.14508075
0001f0 ec c7 1b 3e 8e 66 8a bd 3b 10 2d be a9 31 1e be
       0.15212983 -0.06757842 -0.16900723 -0.15448631
000200 7b 7f 71 bd 67 c8 68 3d be 4d b8 3c 73 92 10 3e
       -0.058959465 0.056831744 0.022498008 0.14118366
000210 c8 6d 6e be 03 ab 26 3e 6b 62 83 be e1 5e 72 3d
       -0.23284066 0.16276173 -0.25661024 0.059172515
000220 ce a0 75 3d 9a bf 1b 3e 22 56 9c 3d 50 92 d0 bb
       0.05996781 0.15209809 0.07633616 -0.006365098
000230 aa f8 c0 3e a7 98 96 3c 01 e7 86 be 74 e2 0c 3d
       0.37689716 0.018383337 -0.26348117 0.03439565
000240 c7 f8 6d 3d 69 a6 89 3e a1 f9 89 3d 0c da fe 3d
       0.05809858 0.26884773 0.06737066 0.12443933
000250 66 32 8a 3e e3 af 6c bd 88 b0 c9 bd 82 5a 8d be
       0.26991576 -0.057784926 -0.09848124 -0.27608114
000260 19 5a fb 3d 41 66 a1 3b c5 69 37 3e 99 06 aa bd
       0.12273044 0.0049255197 0.17911442 -0.0830204
000270 15 1d 6f be f6 43 00 3e 72 28 d4 3c e0 80 09 3e
       -0.23350938 0.12525925 0.025898192 0.13428068
000280 ea ba 30 be c3 7e 2b be 5c f7 2c be fa 8f 21 3d
       -0.17258802 -0.16747575 -0.16891235 0.039443947
000290 b2 21 08 3e f3 30 9d 3d 54 18 5b 3d d7 f9 04 3d
       0.13294104 0.07675352 0.053489998 0.03246483
0002a0 a2 c0 ce bc 02 d5 08 3c d1 e1 f8 3d 6d 96 36 3e
       -0.025238339 0.008351566 0.12152446 0.1783082
0002b0 df 4d 71 be f6 ae 8f 3e c2 c4 ac bd 7c 8c 01 bf
       -0.23564862 0.28063172 -0.08435966 -0.5060499
0002c0 09 38 0c bb 81 77 11 3e 9b f7 9e 3e 07 20 90 3d
       -0.0021395704 0.14205743 0.31048283 0.07037359
0002d0 1e af 85 3d 9b a6 31 3c bd 60 5a 3e 6e 36 1b 3e
       0.065275416 0.0108429445 0.21325965 0.15157482
0002e0 65 e6 4d bc e4 8e 0a 3d f4 23 47 be 2e 00 26 3d
       -0.012567137 0.033827677 -0.19447309 0.040527515
0002f0 38 da 83 bd ca 56 9c bd 14 47 86 3e 9e a0 65 3c
       -0.06438106 -0.07633741 0.26226103 0.014015345
000300 e5 1f a6 be bc 9f d6 3d 14 12 0e 3e ff b1 b3 3d
       -0.3244621 0.10479686 0.13874084 0.087741844
000310 53 4c 0c 3b f7 c0 8d 3e de a3 b6 3d 4b 9d f9 3d
       0.0021407797 0.27686283 0.08917974 0.121882044
000320 d6 c9 fc 3d 8b d9 b4 3e 1a 99 15 bd 0a 34 02 bb
       0.12343185 0.35322222 -0.036522962 -0.0019867443
000330 27 a8 33 be 97 a1 84 bd 8d 60 3c be 0c 90 03 be
       -0.17544614 -0.06476133 -0.18396206 -0.12847918
000340 88 7f ab bc 58 a1 3e 3e ca 40 91 3e 99 24 31 be
       -0.020934835 0.18616235 0.28369743 -0.17299117
000350 52 90 50 bc e7 db dd 3c 23 0b 78 3e 3e ce 74 3d
       -0.012729721 0.027082397 0.24222998 0.059767
000360 9a 59 60 bd 2d 5c c6 bd 97 e4 97 3c ab 70 0a bd
       -0.05477295 -0.0968555 0.018541617 -0.033798855
000370 a1 94 2f be 2a 96 1a 3d d1 64 6c be 3f cd 3e 3c
       -0.17146541 0.037740864 -0.23085333 0.011645614
000380 31 a3 e4 3d ca 7c 0d be 2b 97 bc 3d 29 7b 6d 3d
       0.11163939 -0.13817134 0.092085205 0.057978783
000390 0d 20 c5 3d 6c 5c 8e 3b 4a 9f 77 3d e6 97 ee bd
       0.09625254 0.0043445136 0.060454644 -0.11650066
0003a0 2d bf 15 3d 92 ce cb bc 7b 34 90 bd 6a 85 d5 bd
       0.036559273 -0.024878774 -0.0704126 -0.10425837
0003b0 45 f6 88 bd 69 00 98 3d 5d c7 24 be d2 7b cd 3d
       -0.06687597 0.07421953 -0.16091676 0.100333825
0003c0 4e e6 37 bd 10 e7 d4 be b6 3b 69 be fc 28 5d 3e
       -0.04489737 -0.41582537 -0.22776684 0.21597666
0003d0 53 04 ce be 60 5b 29 3e 91 74 bb 3d e1 15 2d 3d
       -0.40237674 0.16538763 0.09153093 0.042257193
0003e0 f1 10 16 3d 35 80 94 ba 05 2e 99 bd e7 3d d5 bd
       0.03663725 -0.0011329713 -0.07479481 -0.104121976
0003f0 82 6a 52 bd f4 25 71 3e f2 77 92 3d e7 8d a0 bb
       -0.051371105 0.23549634 0.07151784 -0.0048997286

network_body._body_endoder.seq_layers.2.bias f4 [128]
000000 c6 29 ba 3c 36 f3 13 3e 77 08 9e 3d 66 64 99 3d
       0.022724997 0.14448246 0.07716458 0.074898526
000010 10 52 85 3e 62 12 4c bd f4 cf 6d 3d c5 25 51 be
       0.2603917 -0.04982222 0.058059648 -0.20424564
000020 aa 14 45 3d 4b a4 8e 3d 71 7b ff bd 68 39 16 be
       0.04811541 0.0696493 -0.124747165 -0.14670336
000030 34 f6 ba 3c b8 d3 b4 3d ca 0c 61 bd f0 65 a5 bd
       0.022822477 0.08829445 -0.054943837 -0.08076084
000040 11 c7 c0 3d 4a 1b b1 3d ef e0 76 be 43 da 4a 3d
       0.09412969 0.08647783 -0.24109243 0.049524557
000050 c4 21 80 3e 0d 62 a1 be a7 58 4f 3d da 1c 14 3e
       0.2502576 -0.3152012 0.050621655 0.14464131
000060 db f9 4b bc 1b 3e 60 be 50 0b 39 3e 13 69 d6 be
       -0.012449707 -0.21898691 0.18070722 -0.4187704
000070 ec cc a0 be 8e 89 be bd 9b 7a 62 bd 38 89 12 3e
       -0.31406343 -0.0930358 -0.055292707 0.14310157
000080 1a 19 af bc 95 71 3d 3e 4d f1 8a be 32 9c b5 bc
       -0.021374274 0.1850036 -0.27137223 -0.022169206
000090 fd 39 54 bc bc ac 01 bf ae 5f e1 3d e5 ce 26 3e
       -0.012953279 -0.50654197 0.110045776 0.16289862
0000a0 46 c8 ef 3d 9c 0b a4 bd 16 d9 dc bb 47 87 cf bd
       0.11708121 -0.08010027 -0.006739746 -0.10133224
0000b0 cc ef 53 be f8 4d dc bc 30 8e 6f 3d ef 87 00 be
       -0.20696944 -0.026892647 0.05848521 -0.12551855
0000c0 91 9c b4 be 5b 81 32 3e eb 79 e9 3d 28 b2 e4 bb
       -0.352757 0.17432158 0.11400207 -0.0069792457
0000d0 0c f2 79 3e 50 79 6e bd 86 aa 18 3c 27 f3 52 be
       0.2440874 -0.05822116 0.009318 -0.20600568
0000e0 02 1d 4d bd f3 c0 3f bd 6c cf c0 bd fb c1 aa bd
       -0.050076492 -0.04681487 -0.094145626 -0.0833778
0000f0 99 34 ab 3d 81 34 08 bd b1 a1 12 bd 0a 78 d7 3d
       0.083596416 -0.033253197 -0.035798732 0.105209425
000100 a0 32 93 3d b0 45 50 3c 24 4d e4 be b4 14 47 3e
       0.0718739 0.012711927 -0.44590104 0.19441491
000110 22 e6 ea bd 5e 06 aa bd 6a e1 ae bc 40 cb dd 3c
       -0.114696756 -0.08301996 -0.02134772 0.027074456
000120 94 34 d3 bd f3 f3 5b be df 2d 1a 3d 4f 02 2d bd
       -0.10312763 -0.21479778 0.037641402 -0.04223853
000130 90 37 30 3c 41 28 2b 3e 37 14 4b 3e df d3 e5 3c
       0.010755435 0.16714574 0.1983193 0.02805513
000140 c5 24 e2 3d 25 cd 85 bd 4c 00 10 bc 9b 34 cd 3d
       0.110421695 -0.06533269 -0.008789133 0.10019799
000150 a9 c5 2f 3d d6 51 15 3e 01 2f cf be 74 a2 ae bb
       0.042913113 0.14581999 -0.4046555 -0.0053294245
000160 09 90 8a bd 26 35 20 be a8 4d a9 bc 6f 96 58 bd
       -0.06765754 -0.15645275 -0.020666912 -0.05287784
000170 46 37 a1 3d cb a5 b5 3d 88 fd 11 be a7 3c e7 bd
       0.07871871 0.08869513 -0.14256871 -0.112908654
000180 13 3b f0 3d a9 39 86 3e a4 e1 b7 bd 8b 5f 42 3e
       0.117300175 0.26215866 -0.089785844 0.18981759
000190 00 41 33 bd 3f 27 f9 bd c6 3f 5c 3e 49 b5 3f be
       -0.04376316 -0.12165689 0.21508703 -0.18721499
0001a0 e3 88 78 3c d9 8f 94 be 1e d1 fa bd cd 0e a2 3e
       0.015169355 -0.29015997 -0.12246917 0.31651917
0001b0 ef fc bc 3d aa a3 24 be 3b 54 dd 3d be a4 07 be
       0.09227931 -0.16078058 0.10807081 -0.13246438
0001c0 3f cb 13 3d 15 d1 0e be ff 10 c3 bc 7c a4 16 be
       0.036082502 -0.13946946 -0.023811815 -0.14711183
0001d0 09 98 b8 bb 51 e2 ea 3c ec 2d 79 3d 22 6c 8c be
       -0.0056333584 0.02867237 0.06083481 -0.2742625
0001e0 a3 a6 e5 3c 46 ec 9e be b8 c7 1c be b7 f5 89 3d
       0.02803356 -0.31039637 -0.15310562 0.067363195
0001f0 1b f5 b2 be 54 ff 80 be ac c5 84 bd 96 47 1d 3e
       -0.34952626 -0.251948 -0.064830154 0.15359339

action_model._continuous_distribution.mu.weight f4 [2, 128]
000000 2b 3b 59 3c 9b 5a d4 3d 00 6a 62 bd 1d 16 55 3e
       0.013258736 0.10368844 -0.05527687 0.20809217
000010 13 4f e3 3d 0d a1 10 bb 43 8a 16 3d 07 dd bd 3d
       0.110990666 -0.002206865 0.03675295 0.09270673
000020 6c d3 33 bc af b5 32 3d 79 e1 d8 3d 05 33 4d be
       -0.0109757 0.0436303 0.105898805 -0.20038994
000030 38 75 ba bd d0 37 9a 3c 43 d1 0f be 8c 10 20 be
       -0.09104389 0.018825442 -0.14044671 -0.15631312
000040 37 fe 4d 3c e4 11 f5 bd e9 cb 7b 3d d8 ce b4 3d
       0.012572817 -0.11966303 0.06147376 0.08828515
000050 fb 90 71 3d a9 18 76 3d 96 1f 94 bc 83 a0 e9 bc
       0.058976155 0.06008211 -0.018081468 -0.02851892
000060 af 0f 17 3c cf cb 1a be ee 99 09 3e a1 d9 8a 3d
       0.009220048 -0.1511681 0.13437626 0.06779791
000070 67 f6 1d be af b7 ea 3d 43 d1 06 be 59 d4 41 bd
       -0.15426026 0.11460816 -0.13165765 -0.04732165
000080 44 3d 77 bc eb c0 d8 bd b6 50 0f 3c 13 0d 93 bd
       -0.01509029 -0.10583671 0.00874727 -0.07180228
000090 9a 44 10 3e 23 d6 8d bd 0e fa 9d 3d 8e 62 25 3e
       0.1408867 -0.06925609 0.0771371 0.16150877
0000a0 db 12 b1 3d dc 96 a0 3d bb 7a ae bc 5a 53 09 3e
       0.086461745 0.07841274 -0.021298757 0.13410702
0000b0 64 1a 3a be c6 05 ba bd 4d 59 2d be 1e 3a 18 3e
       -0.1817413 -0.090831324 -0.16928597 0.1486592
0000c0 74 5c bc 3d 18 d5 25 3e 54 a5 09 3d 15 08 a3 3d
       0.091973215 0.1619457 0.033604935 0.07960526
0000d0 ba f1 49 3e 3c 58 5e 3b 1f c8 ba 3d b6 51 90 bd
       0.19721118 0.0033927104 0.09120201 -0.07046835
0000e0 df 60 80 be a8 84 8f 3e b8 91 00 be d3 76 3a be
       -0.25073907 0.28030896 -0.12555587 -0.1820939
0000f0 a2 8b 1d 3d 86 d4 e7 bd cd 73 a4 3e 6b a6 29 3e
       0.038463242 -0.113198325 0.321196 0.1656739
000100 ea a3 2f be 83 49 4d bc 02 5b 13 bd fc 0d d3 3d
       -0.17152372 -0.012529734 -0.035975464 0.10305402
000110 e9 95 06 3d 31 7d 63 be 68 c6 36 be f5 64 3b be
       0.03285781 -0.22215725 -0.17849123 -0.18300231
000120 62 81 7d be 9a 88 7a be db ae e9 bd 9c 4b 30 bd
       -0.24756387 -0.24466172 -0.11410304 -0.043040857
000130 75 cc 24 3e f4 b0 1a 3e 2f 53 c2 bc 51 22 6b bd
       0.16093619 0.15106565 -0.023721306 -0.057405774
000140 9c a9 0b 3e 0d 6f 0a 3d 25 b0 0a be c6 af 9b 3d
       0.1363892 0.033797313 -0.13543756 0.076018855
000150 ac 6b 7c 3e 4d bb ea 3c 66 67 bb bd c9 69 2a 3e
       0.24650449 0.028653765 -0.09150581 0.16641916
000160 8e 2d cc 3c 82 f2 86 3c b6 23 20 bd d0 6e 35 be
       0.024924066 0.016473059 -0.039096557 -0.17718053
000170 1d b2 1d 3c b2 b3 05 be 88 54 5c 3e a2 79 8a be
       0.009624985 -0.1305683 0.21516621 -0.27045923
000180 36 de 84 bd c4 92 4e 3d e3 64 ca bd cd 90 54 3d
       -0.06487696 0.050432935 -0.09882524 0.051895905
000190 f6 36 2a be b0 44 fc bd 0b 8a 68 3e 21 68 96 3c
       -0.16622528 -0.123177886 0.22708909 0.0183602
0001a0 e0 c8 e0 bc 67 a0 15 3d 42 9e 4a be b3 80 0d 3e
       -0.027439535 0.036529925 -0.19786933 0.13818626
0001b0 69 68 2d be e1 5e 3a be 19 67 ab 3d b9 95 69 be
       -0.1693436 -0.18200256 0.08369274 -0.22811021
0001c0 78 13 1c be 78 23 02 be c9 ff eb bd d4 d0 7a 3d
       -0.15241802 -0.12708843 -0.115233965 0.06123431
0001d0 a3 a8 09 3e f9 10 b3 3d a9 eb df 3d 31 f0 8f be
       0.13443236 0.08743472 0.109336205 -0.2811294
0001e0 c2 e1 4b 3d 13 68 03 3e 2e ef 10 be cc 16 ab 3d
       0.049775846 0.1283267 -0.1415374 0.083539575
0001f0 b0 a9 5b bc a6 38 ba 3c d6 62 87 3d 35 b5 a0 bd
       -0.013407156 0.02273209 0.06610648 -0.078470625
000200 68 22 a0 3d 8b 6c 29 bd fa 2c 89 bd c2 4a 33 3a
       0.078190625 -0.04136328 -0.06698032 0.0006839448
000210 78 de e8 3d ac b8 05 be ab b5 04 be 52 48 9a 3b
       0.113705575 -0.13058728 -0.12959926 0.0047083283
000220 bd ad 8a bd e7 c8 9b 3c 2c 91 e4 bd 7b 5c 6a bc
       -0.06771419 0.019016696 -0.11160502 -0.014304276
000230 30 66 b8 bd 19 a4 ef bc c8 05 a7 3d 48 0a 5b 3e
       -0.09003866 -0.029253053 0.081553996 0.2139064
000240 43 68 27 3e 12 47 a9 3d 0c 36 b7 3d 70 74 38 3d
       0.16348366 0.08265509 0.089458555 0.04503292
000250 80 66 2b 3e b6 4c 94 3d 46 52 58 be e5 84 48 be
       0.1673832 0.07241194 -0.21125135 -0.19581945
000260 31 7d 23 bd 6a 98 d1 bc bf 7c 0d 3e 63 cd 8c bb
       -0.039914314 -0.025585372 0.13817118 -0.004296945
000270 00 9f 09 be 7e f0 12 3c 54 fa 70 be 0e f5 9a 3d
       -0.1343956 0.008968471 -0.23532993 0.07566272
000280 87 0c 63 bd 4b 59 1c 3d d6 25 3e be 92 f4 1c be
       -0.05543187 0.038171094 -0.18569121 -0.15327671
000290 7f e9 ba be d7 be e5 bc 4c f9 1f be 30 1d 6e 3d
       -0.36506268 -0.028045101 -0.15622443 0.058133304
0002a0 20 41 81 3d be 9b 79 be 2b 74 dd bd 55 6f 8b bd
       0.0631125 -0.24375817 -0.10813173 -0.06808344
0002b0 5c 37 99 be f3 db 2e 3e 17 e7 f8 3d 05 48 39 3d
       -0.29925048 0.17076091 0.12153452 0.0452347
0002c0 42 4f 34 3d aa ad 57 be f5 83 cb 3d 06 3a d7 bd
       0.0440209 -0.21062341 0.09937278 -0.10509114
0002d0 8b d6 05 bd 33 ee de bd 90 a0 8f bd d7 50 2a bb
       -0.032675307 -0.10885277 -0.07013047 -0.0025988126
0002e0 9f 50 f1 bd 03 ce a3 3c 85 7c a4 3c a3 31 e2 3a
       -0.117829554 0.019995695 0.020078907 0.0017257225
0002f0 ce c6 15 3e 79 86 31 bc 2c 2b ab 3d 73 12 95 3c
       0.14626619 -0.010835283 0.08357844 0.018197274
000300 2e 0f 94 3d 11 00 de bd e6 dd 41 bc ba 4a d0 3d
       0.07229458 -0.108398564 -0.01183269 0.10170503
000310 ea 47 76 3d c1 e5 e9 bc 00 d4 ff b9 ed 3b ef 3c
       0.060127176 -0.028551938 -0.00048795342 0.02920338
000320 57 0e 64 be 34 2a a5 bd 80 d5 c2 bd b5 1a c8 3b
       -0.22271095 -0.0806469 -0.09513378 0.0061066994
000330 f8 08 e8 bc ce 29 16 be 43 89 07 3e 52 e3 e3 bd
       -0.02832459 -0.14664385 0.13235955 -0.11127342
000340 a6 87 78 bd e7 ef 12 3c 18 3e cc 3c 9e bb e2 3d
       -0.06067624 0.00896833 0.024931952 0.110709414
000350 70 2b bd 3d 2a 64 88 3d 61 75 bf 3d 75 df ef 3d
       0.09236801 0.0665973 0.0934856 0.11712543
000360 c4 dd 00 3d de ef 13 be 46 b2 70 bd ca 38 d6 bd
       0.031461492 -0.14446971 -0.058763765 -0.104600504
000370 75 06 9b bd 8b d5 eb bc 0f fe bc 3c 25 87 d3 bd
       -0.07569591 -0.028788349 0.023070363 -0.10328511
000380 42 7a e6 3d 45 e8 ec 3d f5 99 8b 3d aa c8 82 bd
       0.112537876 0.115677394 0.06816474 -0.0638593
000390 23 74 d8 bd b5 e3 56 be db 34 7c 3d c2 71 29 3c
       -0.10569026 -0.20985301 0.061573844 0.010342063
0003a0 de 0d e4 bc 3e 58 85 3c e0 7d 73 bd 71 8f 18 bc
       -0.027838644 0.016277429 -0.059446216 -0.009311543
0003b0 59 91 8a 3c 6c d1 91 be e1 2d 13 3d ea 2f 0b be
       0.01691501 -0.2848009 0.035932425 -0.13592497
0003c0 eb 6c 4b bd fc 10 b6 bd 6d 6f 63 bd c3 04 00 be
       -0.04966442 -0.08889958 -0.055526186 -0.12501816
0003d0 33 a1 b2 bd 64 30 ef 3c d3 14 88 bd f7 51 9b bc
       -0.087221526 0.02919788 -0.06644597 -0.018959982
0003e0 9e 0b 80 3e 76 0f 7b bc 8b 50 de bd 6c 9a 7e bd
       0.25008863 -0.01532351 -0.10855206 -0.062158987
0003f0 77 5f 95 3d 27 ec 13 be bf 0b 32 bd 1f 7a 1f 3e
       0.07293599 -0.14445554 -0.043468233 0.15573929

action_model._continuous_distribution.mu.bias f4 [2]
000000 d8 7a 63 3d 48 5b c5 3c
       0.055537075 0.024091378

action_model._continuous_distribution.log_sigma.weight f4 [2, 128]
000000 98 ea aa 3d 80 a6 cc bd 67 c7 0c be 7d 97 c8 3d
       0.083455265 -0.09992695 -0.13747941 0.09794519
000010 e7 5b 5e be 01 c9 cf bc f8 4f ec bd 17 8a 88 3e
       -0.21714745 -0.0253644 -0.1153869 0.26667854
000020 97 2f 95 bd 02 0d 8a bb 8c 1b bd 3c 9c d3 91 3d
       -0.07284468 -0.0042129764 0.023084424 0.071204394
000030 e2 8f 98 3d 17 29 19 3d 6b 62 d8 bc 86 bd ba 3d
       0.074493185 0.037392702 -0.026414117 0.0911818
000040 53 e8 d6 3d 44 25 93 bc 4c 68 07 3e 3c 86 c5 ba
       0.10493531 -0.017962106 0.1322338 -0.0015069912
000050 2d 1d 16 bd f4 80 c3 3d de c9 a7 3d dc a6 1f bd
       -0.036648918 0.0954608 0.081928 -0.03897749
000060 ee b4 5e bc c8 38 67 3d 58 33 92 3d 7e e9 92 3e
       -0.013592942 0.056450635 0.07138699 0.28693765
000070 f8 ca e2 3d 9b 3b 89 bc 31 8a 0e 3c 05 01 45 bd
       0.110738695 -0.016752055 0.00869994 -0.048096675
000080 62 ba 2f bb 94 b0 f0 3d 47 ec 12 3e 1d f3 85 bd
       -0.0026813974 0.117524296 0.14347945 -0.06540511
000090 9c 58 c1 3d d8 4c 9b 3e 0c cd 3f bd e0 93 a6 bd
       0.09440729 0.30332065 -0.046826407 -0.08133674
0000a0 fb 2e 94 b9 a7 e2 34 3d 08 80 ce 3c e3 8c fa 3d
       -0.00028263763 0.044161465 0.025207534 0.12233903
0000b0 e1 0b d3 3d 7e b9 93 3c e1 2b 07 be 01 58 e0 3d
       0.10305 0.018032786 -0.13200332 0.109542854
0000c0 ed 53 47 3e 6a 08 3e be 0c 9f f1 bd e9 ca 9c 3d
       0.19465609 -0.18557897 -0.11797914 0.076558895
0000d0 81 27 bc 3c 48 7d 78 bc d4 e0 12 3d da 95 ba 3d
       0.022968056 -0.015166588 0.035858944 0.09110613
0000e0 94 be 78 3d 76 05 b4 bc 39 fd 2b bd e1 c5 6a 3d
       0.060728624 -0.02197526 -0.04198954 0.05731762
0000f0 e2 20 90 3b f1 c2 ad 3d a9 2f b8 3d 9a 30 af bc
       0.004398451 0.08484448 0.089934655 -0.02138548
000100 ad d2 16 3d 7a 1c 8e bd ac 1e 86 3e 61 64 d7 3b
       0.03682201 -0.06939025 0.26195276 0.0065732454
000110 b9 57 da bc a1 66 df 3d 8a f7 75 3c 61 be c1 3d
       -0.026653158 0.10908247 0.015012631 0.0946014
000120 33 fa 97 bd ca 72 2c bd f4 7e f6 bc d5 c4 43 bc
       -0.074207686 -0.04210166 -0.030089833 -0.011948784
000130 38 73 29 3e 36 3f f4 3c 11 28 46 bd e4 e2 5d bc
       0.16547859 0.029815298 -0.048378054 -0.0135428645
000140 b9 0b 51 bd d0 23 0c 3d 02 71 80 3d dd 7e 4a 3e
       -0.05103657 0.03421384 0.062715545 0.19774957
000150 f6 c4 71 3d 8d 66 d0 3b 3d c8 11 3e 6a ff 83 3c
       0.059025727 0.0063598813 0.14236541 0.016113002
000160 9f ca 09 3c 5f e2 10 3c 4a 1b bf bd 1c 40 b1 3d
       0.008410125 0.008843034 -0.09331377 0.08654806
000170 07 ed c4 bd a8 20 52 bc 40 b6 00 be 7e 2a b6 3d
       -0.09615522 -0.012825169 -0.12569523 0.088948235
000180 f9 0c a0 3c 50 97 88 bd 81 bb ae 3d 36 bf 0f be
       0.019537436 -0.066694856 0.08531857 -0.14037785
000190 f4 29 cb bb 93 68 18 3d 4e 9d 4c bd 11 32 c0 3d
       -0.0062000696 0.037209105 -0.049954705 0.093845494
0001a0 fd fa 3d bd 89 22 28 3e 2d 9f 4c 3c 19 20 b1 bd
       -0.04638194 0.16419424 0.012489122 -0.086487
0001b0 4b 7d 57 bb 60 5f 0b 3e 13 ff 3f bd 54 01 03 3d
       -0.0032881077 0.13610601 -0.046874117 0.03198369
0001c0 fe 58 80 bc 5b 34 13 3e b7 29 2b 3d e1 3d c2 3c
       -0.015667435 0.14375441 0.04178783 0.023711147
0001d0 74 b3 81 bd a0 6e 4c bd 55 fd dd bb be 5b bd bb
       -0.06333056 -0.049910188 -0.0067745843 -0.005778759
0001e0 81 33 64 3d b0 88 b5 3d db 62 0f 3e bf 06 9d bc
       0.05571318 0.08863962 0.14002554 -0.019168256
0001f0 eb bb 15 3e 5c 3c 13 3a 1a 06 e1 bc 5a d2 81 3b
       0.14622466 0.0005616599 -0.02746873 0.0039618434
000200 77 6c 20 3d fb 8e de bd 14 87 19 bc 02 05 1c bd
       0.03916594 -0.10867115 -0.009370584 -0.038090713
000210 3b 09 87 bd 77 2f 62 3d 30 7a 05 be 14 b3 08 3e
       -0.065935574 0.055221047 -0.13034892 0.13349563
000220 4c 6a 66 bd f2 47 15 3e db e3 64 bb 10 01 84 bd
       -0.056253716 0.14578226 -0.0034925852 -0.06445515
000230 6a bf 2d 3d 70 96 71 bd a2 07 c3 3c b0 52 b8 3d
       0.042418875 -0.05898136 0.02380735 0.090001464
000240 1c dc 40 3e 9e 57 95 bc 6d 4d 91 3d 76 a7 06 3d
       0.18833965 -0.018230256 0.07094846 0.032874547
000250 ef ad 56 3d e1 7a 7e 3e e7 41 92 3d 92 e7 6b 3d
       0.05241197 0.24851562 0.07141476 0.05759389
000260 9d 17 35 bb b7 92 c1 3d ea 33 72 3d 0f 52 a5 3e
       -0.0027632483 0.09451812 0.05913154 0.32289168
000270 03 cd f4 3d 3e 2a 44 3d aa d2 2f bc 5a 00 bb bd
       0.119531654 0.047891848 -0.010731379 -0.091309264
000280 44 0b 88 3d b3 e5 8f 3d 7a 51 62 3d 79 89 12 bd
       0.06642774 0.070262335 0.055253483 -0.035775635
000290 ca de 43 3e 93 f0 8a 3e 2b e6 ea 3d 39 a1 37 3b
       0.19127956 0.2713667 0.11469682 0.002801968
0002a0 4f 84 b9 bd 36 0e 65 bb 30 bc d7 3c 26 5c 03 3d
       -0.09058439 -0.0034951097 0.026334852 0.0320703
0002b0 8b 99 1c 3d 04 76 47 bd 25 86 a8 bd 38 ee 53 3e
       0.038232367 -0.048696533 -0.08228711 0.20696342
0002c0 c7 0c d2 3d 8c d2 b2 bd ac d6 46 3d bf 61 57 3d
       0.10256343 -0.08731565 0.04854457 0.052583452
0002d0 16 66 8c bd 87 70 74 bb de f4 50 3c bc 3e ab 3c
       -0.06855409 -0.0037298517 0.012753693 0.020903938
0002e0 68 df fd bc 03 52 f5 3c 51 cf db b9 b5 bb ec 3c
       -0.030990317 0.029946333 -0.00041925398 0.0288981
0002f0 cf 77 80 3e 0f 13 d0 3d 74 a6 eb bc 09 25 37 bc
       0.25091407 0.10159885 -0.028765894 -0.011178263
000300 4c 71 af 3c 1b 62 a0 3d 41 6d a0 3e 02 40 2f 3d
       0.021416329 0.07831212 0.31333354 0.042785652
000310 1d f0 66 bc d7 6f 21 bc 7c 44 c8 bc 42 44 6b bc
       -0.014095333 -0.009853325 -0.024446718 -0.014359536
000320 b9 8a 18 bd b2 72 ce bd 13 ad 2f 3d 64 e5 8b bd
       -0.03724167 -0.1008047 0.042889666 -0.06830862
000330 c7 5d 8d bd 30 2d 92 3d 8a f7 2b bb fe 81 a3 3d
       -0.06902652 0.07137525 -0.0026240074 0.079837784
000340 85 99 cb bd a1 c9 6d 3e 30 88 1c bc 38 0e 70 3b
       -0.09941391 0.23221447 -0.009553954 0.0036629569
000350 ac ed 19 3d e9 77 8e 3d 94 18 11 3e 87 a5 32 3b
       0.037580177 0.06956465 0.14169532 0.0027259307
000360 bf 44 2c bd e6 bf 29 3d 50 1f 10 bd 6c cf d5 3c
       -0.04205775 0.041442774 -0.035186112 0.026099883
000370 b2 d4 95 bd 52 db cf bd 64 bb 94 bc 31 69 98 3d
       -0.07315959 -0.10149254 -0.018155761 0.07441939
000380 f5 69 c7 3d 29 81 31 bd 02 1a 32 bd 15 f6 b9 3b
       0.097370066 -0.043336067 -0.043481834 0.005675087
000390 04 da 5d bd da 0e 46 3d 1c cb 76 3c 78 86 6a 3e
       -0.054162994 0.048354007 0.0150630735 0.22902858
0003a0 03 6b d8 bd 88 5e 99 3d 37 f4 4a bc 1c fd 06 bc
       -0.10567286 0.074887335 -0.012387327 -0.008239057
0003b0 e8 da 87 bc 20 20 f5 bc 5f f7 b5 bd 0a 64 60 3c
       -0.016583875 -0.029922545 -0.08885073 0.013695726
0003c0 5c ed fb 3b d4 74 b1 3d 9f 45 3a bd a4 ce 61 3c
       0.0076882076 0.08664861 -0.045476552 0.013782177
0003d0 f4 89 54 bd a4 ba 82 bd 36 d9 99 3c 1b 1d 02 3d
       -0.051889375 -0.06383255 0.018780332 0.03176604
0003e0 b8 d5 24 3e 8b 15 7d bd 3d 2e 67 3d e4 04 04 be
       0.16097152 -0.061788123 0.05644058 -0.1289249
0003f0 d3 be 2d 3d 2a f8 09 3e be bb 9c 3d 52 64 e1 bc
       0.042418312 0.13473573 0.076529965 -0.027513657

action_model._continuous_distribution.log_sigma.bias f4 [2]
000000 a3 86 b8 be 4f 27 dc be
       -0.3604022 -0.4299874
