Experimentos/results/ppo_final/KartAgent/KartAgent-4949985.onnx (onnx, 92863 bytes, 13 tensors)

network_body.observation_encoder.processors.0.normalizer.running_mean f4 [20]
0.057943404 0.5606322 0.030417958 0.30446944 0.055491757 0.18307243 0.0008007985 0.19491626
0.049767476 0.18061054 0.0020714996 0.1839568 0.038443945 0.28981557 0.0016634403 0.20691171
0.04776491 0.27219194 0.0020642348 0.2000812
00000000: 1056 6d3d 9885 0f3f 152f f93c 6be3 9b3e
00000010: 534b 633d 5777 3b3e adec 513a 2198 473e
00000020: fbd8 4b3d f8f1 383e ffc1 073b 2c5f 3c3e
00000030: 6677 1d3d b562 943e cb07 da3a aae0 533e
00000040: 23a5 433d be5c 8b3e 1d48 073b 16e2 4c3e

network_body.observation_encoder.processors.1.normalizer.running_mean f4 [12]
0.03521591 0.5358814 0.007784004 0.064361125 0.03590006 0.53983545 0.007255601 0.06447151
0.03427132 0.5240348 0.0081626875 0.06367092
00000000: 8f3e 103d 862f 093f f510 ff3b c4cf 833d
00000010: f10b 133d a832 0a3f 65c0 ed3b a409 843d
00000020: 1560 0c3d 2527 063f cbbc 053c e665 823d

network_body.observation_encoder.processors.2.normalizer.running_mean f4 [3]
-0.114003114 0.032826412 0.5559384
00000000: 777a e9bd fd74 063d fb51 0e3f

network_body._body_endoder.seq_layers.0.weight f4 [128, 35]
0.31571734 0.06800789 0.1754591 0.10649409 0.39179492 -0.07299384 0.032088503 -0.19473208
-0.0524429 0.052044045 0.14723052 0.056930654 0.25583276 -0.09358968 0.3292965 0.057935193
-0.016707635 0.19889231 0.05660284 -0.05368469 -0.32453534 -0.045143638 -0.5736867 0.100330934
0.1208939 -0.11238369 0.11287105 -0.13624851 -0.13790976 -0.0316951 0.023632146 0.1723254
-0.3596911 0.20284015 -0.25999656 0.2048802 -0.16529067 -0.29398382 -0.0020687126 0.098059155
0.11755548 0.12708396 0.19176285 -0.22217996 0.25094214 0.11318085 0.023769636 0.27961224
-0.30241263 -0.18548812 -0.059816144 -0.014984996 0.10052072 0.34967664 -0.037489288 -0.18674822
0.00013907773 -0.2531554 0.050300375 -0.18417701 -0.22942829 -0.015508919 0.17437638 0.050678536
-0.046212453 0.033445153 -0.05059002 0.002729836 0.2320244 0.30096957 0.094145626 -0.059038118
-0.008746672 0.17969766 -0.08761824 0.14839564 0.050179783 0.096608154 -0.34365502 -0.00083211047
-0.025536003 -0.20520963 0.082096204 -0.09288943 -0.09217614 -0.10215876 -0.1307782 -0.016706865
-0.20802943 -0.22235943 0.028377501 -0.21594013 0.10286171 0.05684851 0.05151772 0.2218915
-0.0059585986 -0.008590956 0.026975311 -0.54320645 -0.07101715 0.07173126 -0.029285783 0.24640726
0.11371458 0.065450676 -0.015867854 0.093636684 0.27078184 0.16727665 -0.30783275 -0.19130923
0.4099225 0.13800986 -0.31936958 0.3923865 -0.33073366 0.16537476 0.15302241 0.0033901006
0.1565365 -0.06288501 -0.11915063 0.14771459 -0.4101867 -0.08898061 -0.21643887 -0.37111723
0.2501631 0.081355914 0.07889982 0.03626547 0.03273122 0.06558316 -0.03577141 0.0011755574
-0.06951914 -0.061412677 -0.05652944 0.051523227 -0.11215533 0.24662705 0.040166795 0.039161332
-0.048837226 -0.14286634 0.32087234 -0.18796809 0.28321925 -0.028437292 0.22876512 -0.06099629
0.19648911 -0.3044069 -0.011493358 0.23278931 -0.030078292 -0.20927054 -0.101096205 -0.006812586
0.18925837 0.18146318 -0.13824962 0.3433986 -0.14096181 0.030005498 0.22785462 -0.057140835
0.28218317 0.18439168 0.34434506 0.264758 -0.30541387 0.04864596 -0.30152887 -0.023055632
0.08014995 0.23888129 -0.39564154 -0.08102138 0.006285809 -0.0754054 -0.2398776 -0.1665174
-0.009627904 -0.0123193385 -0.09474815 -0.095422044 0.17403552 0.18938793 0.07349189 -0.15388213
0.38192868 0.051038437 0.16182658 -0.1199524 -0.12816675 -0.16517913 0.12680335 -0.07079941
-0.024377823 -0.02017087 0.24791807 0.10160442 0.088183194 0.18397859 0.027565012 -0.026313422
0.16824394 -0.041263983 0.005853506 0.08410915 0.14807472 -0.061108686 -0.014072512 0.32942265
0.22503208 -0.22302851 0.16368781 0.07559685 0.08159761 0.10220836 0.14011787 0.04216192
-0.18902583 -0.023970444 0.17796448 0.06423081 -0.11403644 -0.09641105 0.012984899 0.2223636
0.1085198 0.2065269 -0.27190334 -0.21226028 -0.38123816 -0.14573516 0.10657524 -0.011993376
0.24950294 -0.11064001 0.16848384 0.009028366 0.050745808 -0.25586832 0.5731647 -0.1825974
-0.29494405 0.017818736 -0.006994035 0.06825518 0.15187438 0.33089298 -0.24855274 -0.12823589
00000000: b4a5 a13e b847 8b3d 8dab 333e 9319 da3d
00000010: 5899 c83e cb7d 95bd 3c6f 033d d967 47be
00000020: 5ece 56bd 232c 553d 99c3 163e 1e30 693d
00000030: 83fc 823e f2ab bfbd 8d99 a83e 744d 6d3d
00000040: 73de 88bc 6daa 4b3e 61d8 673d 7ae4 5bbd
00000050: 7f29 a6be 89e8 38bd 22dd 12bf 4e7a cd3d
00000060: 3997 f73d 6c29 e6bd f028 e73d bb84 0bbe
00000070: 3738 0dbe b9d2 01bd 3498 c13c 1276 303e
00000080: 6f29 b8be 54b5 4f3e 451e 85be 1dcc 513e
00000090: f541 29be 0c85 96be 3d93 07bb 3dd3 c83d
000000a0: edc0 f03d 4c22 023e 7b5d 443e 2583 63be
000000b0: 7d7b 803e 5dcb e73d 8ab8 c23c 5629 8f3e
000000c0: d4d5 9abe 99f0 3dbe c601 75bd a183 75bc
000000d0: cfdd cd3d d108 b33e 5e8e 19bd ed3a 3fbe
000000e0: 65d5 1139 969d 81be c407 4e3d e698 3cbe
000000f0: 40ef 6abe 1f19 7ebc b98f 323e 4c94 4f3d
00000100: 4549 3dbd c9fd 083d 7b37 4fbd 0ce7 323b
00000110: ce97 6d3e af18 9a3e 6ccf c03d f4d1 71bd
00000120: 344e 0fbc aa02 383e 3171 b3bd 07f5 173e
00000130: 5189 4d3d 7fda c53d 8df3 afbe fd21 5aba
00000140: e130 d1bc 7922 52be 0e22 a83d d03c bebd
00000150: d8c6 bcbd 9d38 d1bd b8ea 05be d6dc 88bc
00000160: ab05 55be 31b2 63be ef77 e83c 691f 5dbe
00000170: 29a9 d23d fcd9 683d 3f04 533d 8637 633e
00000180: 5940 c3bb 15c1 0cbc 54fb dc3c 940f 0bbf
00000190: 7171 91bd d7e7 923d bde8 efbc 2f52 7c3e
000001a0: 31e3 e83d 010b 863d 4dfd 81bc 97c4 bf3d
000001b0: eba3 8a3e 924a 2b3e 419c 9dbe 91e6 43be
000001c0: 5de1 d13e 7552 0d3e 6984 a3be e2e6 c83e
000001d0: ec55 a9be 0058 293e e8b1 1c3e 732c 5e3b
000001e0: 1b4b 203e dbc9 80bd 3f05 f4bd 7e42 173e
000001f0: fe03 d2be 773b b6bd 27a2 5dbe 1403 bebe
00000200: 6115 803e ee9d a63d 3b96 a13d 1a8b 143d
00000210: 2c11 063d 7750 863d 0b85 12bd 2915 9a3a
00000220: 0d60 8ebd dc8b 7bbd 6a8b 67bd 050a 533d
00000230: b2b1 e5bd cd8b 7c3e f085 243d a267 203d
00000240: 8b09 48bd 8e4b 12be 6149 a43e b57a 40be
00000250: 1d02 913e 53f5 e8bc 6741 6a3e 3fd7 79bd
00000260: 7134 493e 39db 9bbe a34e 3cbc 5260 6e3e
00000270: c066 f6bc 044b 56be 870b cfbd 1d3c dfbb
00000280: f2cc 413e 7cd1 393e 4f91 0dbe f1d1 af3e
00000290: 4b58 10be 17ce f53c b952 693e 820c 6abd
000002a0: 507a 903e 2cd1 3c3e ff4d b03e 5c8e 873e
000002b0: 355f 9cbe fc40 473d fe61 9abe 2adf bcbc
000002c0: a825 a43d 4c9d 743e 8791 cabe 8aee a5bd
000002d0: 30f9 cd3b 256e 9abd 79a2 75be 8a83 2abe
000002e0: 5bbe 1dbc 0dd7 49bc 510b c2bd a26c c3bd
000002f0: 5e36 323e e9ee 413e eb82 963d 4793 1dbe
00000300: 288c c33e ae0d 513d deb5 253e 9ba9 f5bd
00000310: 253e 03be b824 29be bdd8 013e 48ff 90bd
00000320: 00b4 c7bc 613d a5bc 3cde 7d3e fa15 d03d
00000330: 6499 b43d e264 3c3e 05d0 e13c 3f8f d7bc
00000340: 2448 2c3e 6c04 29bd c4ce bf3b 6b41 ac3d
00000350: e6a0 173e 1a4d 7abd 6590 66bc 16aa a83e
00000360: cf6e 663e 9661 64be c79d 273e 85d2 9a3d
00000370: a61c a73d 9e52 d13d 0f7b 0f3e fab1 2c3d
00000380: fd8f 41be aa5d c4bc 523c 363e 718b 833d
00000390: f08b e9bd 2873 c5bd 9dbe 543c 49b3 633e
000003a0: a13f de3d ca7b 533e ea36 8bbe c25a 59be
000003b0: a631 c3be 993b 15be 1f44 da3d dd7f 44bc
000003c0: b37d 7f3e 3b97 e2bd 0787 2c3e b6eb 133c
000003d0: d6da 4f3d 2c01 83be ecba 123f d0fa 3abe
000003e0: e802 97be 99f8 913c 382e e5bb 5fc9 8b3d
000003f0: f584 1b3e ce6a a93e 9c84 7ebe 4550 03be

network_body._body_endoder.seq_layers.0.bias f4 [128]
0.0054295887 -0.035764813 0.03521308 -0.001323658 0.01913038 -0.011234302 -0.050487153 -0.0078027463
-0.030025793 0.0026358226 0.0033155242 -0.03105659 0.04969388 -0.020404866 0.041643202 -0.005529912
-0.006263875 -0.0040885205 0.037126567 -0.0070284107 0.06556118 0.032481357 -0.022359684 0.08918261
0.08944394 0.06414584 0.033661727 0.003430753 0.053895768 0.07068366 0.011927359 -0.029489104
0.086078115 -0.019961936 0.01483831 0.06283446 0.017216735 -0.037248135 0.09040528 0.04367694
-0.0060241045 -0.04896963 0.0643387 -0.007565521 0.0038179217 -0.020007456 0.04434584 0.00034277013
0.053539246 0.09697287 -0.0021082924 -0.03863079 0.026310718 0.02228351 0.005492119 0.022755863
-0.06990346 0.050967433 -0.096326604 0.0130314035 0.059886612 0.0797004 0.036874827 0.007584306
0.042811204 -0.03739057 0.0150550995 0.07758992 -0.02245938 0.045468908 -0.007837063 0.011721769
0.074226394 0.016835582 -0.017941913 0.012463699 0.028245108 0.018806785 0.021707518 0.009029049
0.00082486414 0.026317716 -0.003760275 0.119763725 0.060679946 0.048517443 -0.05032951 0.053481042
0.059788834 -0.020457428 -0.06929873 0.025387833 0.044981647 0.019357467 0.061474927 0.103760056
0.0020202384 0.09471246 0.048601046 -0.037956025 0.038457047 0.05744831 0.03675043 0.026850892
-0.020420838 0.006907828 -0.0081267115 0.052626565 0.049747966 -0.059186283 0.10053657 0.06439111
0.015633188 -0.012470301 0.067019396 0.0049224906 0.04971771 0.011047649 -0.062420487 0.09033428
0.03984942 0.017572012 -0.0153094325 0.065577015 -0.033644404 0.004451041 -0.0052326913 0.03574135
00000000: b1ea b13b 207e 12bd 973b 103d 987e adba
00000010: 51b7 9c3c 1410 38bc 9ecb 4ebd 2eae ffbb
00000020: a7f8 f5bc c4bd 2c3b 4449 593b 646a febc
00000030: cf8b 4b3d 1b28 a7bc 1092 2a3d 4434 b5bb
00000040: 3141 cdbb fff8 85bb 0712 183d 954e e6bb
00000050: f144 863d 2c0b 053d a82b b7bc 5fa5 b63d
00000060: 622e b73d e55e 833d e1e0 093d 7cd6 603b
00000070: cfc1 5c3d 98c2 903d f86a 433c 2293 f1bc
00000080: b949 b03d 3787 a3bc 621c 733c 5aaf 803d
00000090: 1c0a 8d3c 8091 18bd 6726 b93d 97e6 323d
000000a0: da65 c5bb 6194 48bd 02c4 833d 31e8 f7bb
000000b0: 1936 7a3b ade6 a3bc fca3 353d d4b5 b339
000000c0: f84b 5b3d b699 c63d 472b 0abb 523b 1ebd
000000d0: 9389 d73c e88b b63c 3cf7 b33b 816a ba3c
000000e0: 8c29 8fbd 3ac3 503d e246 c5bd ab81 553c
000000f0: aa4b 753d f739 a33d 0f0a 173d c585 f83b
00000100: cd5a 2f3d db26 19bd aaa9 763c 77e7 9e3d
00000110: bcfc b7bc 9b3d 3a3d 0667 00bc aa0c 403c
00000120: 0204 983d c6ea 893c ebfa 92bc 8b34 4c3c
00000130: 4962 e73c b010 9a3c f7d3 b13c 94ee 133c
00000140: b23b 583a 4098 d73c f26e 76bb af46 f53d
00000150: 898b 783d 3aba 463d 5126 4ebd f00e 5b3d
00000160: 23e5 743d 5696 a7bc 7eec 8dbd 25fa cf3c
00000170: ad3e 383d 8d93 9e3c 22cd 7b3d 2780 d43d
00000180: fa65 043b 9bf8 c13d e411 473d c777 1bbd
00000190: 2385 1d3d eb4e 6b3d 9e87 163d 67f6 db3c
000001a0: 9a49 a7bc 105b e23b e625 05bc f48e 573d
000001b0: 86c4 4b3d 516d 72bd 1ee6 cd3d 7cdf 833d
000001c0: 2c11 803c 3c50 4cbc 7741 893d d84c a13b
000001d0: cca4 4b3d 3301 353c a0ac 7fbd 2e01 b93d
000001e0: 2539 233d 2ef3 8f3c 6ad4 7abc 3e4d 863d
000001f0: b7ce 09bd 0ada 913b ff76 abbb 8665 123d

network_body._body_endoder.seq_layers.2.weight f4 [128, 128]
-0.014694857 -0.0034534328 0.015417749 0.046117205 0.10622822 -0.21176793 -0.10088963 0.08464748
0.043265518 -0.14008212 -0.17248344 -0.013559144 -0.0640254 0.095431834 -0.13563111 0.03188893
-0.06763062 0.05683333 0.14706889 0.06495008 -0.19159652 -0.100381054 -0.14026763 0.22074305
0.14867322 -0.028872622 0.024029102 0.119038135 -0.110370316 -0.080240384 0.040438946 -0.05022506
-0.023373691 -0.18866642 -0.06382724 0.11056191 0.18254825 -0.039744955 0.01660773 -0.13357487
0.19036302 -0.003872083 0.016414562 0.05779292 -0.10067304 0.08007316 0.20318308 0.1318907
0.18407796 -0.0859109 0.1318178 -0.06745253 -0.09516821 -0.21632685 0.04135809 0.1615356
0.06567351 0.019248655 -0.018303512 -0.012842846 -0.010054478 -0.11154908 0.07937702 0.05821711
0.18693244 -0.16649537 0.010807771 0.012382459 0.05721183 -0.013846298 -0.033686634 0.17224292
-0.052843384 -0.031148206 -0.08529666 0.15508364 0.12666987 -0.13897492 -0.068779424 0.113592796
-0.18348256 -0.09844772 -0.04672758 0.14436705 0.114066884 0.030417353 -0.15251735 -0.064684294
0.025182612 -0.026040958 0.063994564 0.04431412 0.16416821 -0.06398371 0.13347669 0.02447269
0.07345829 -0.03309808 0.13183936 0.046701718 -0.121801205 0.044532206 0.13788983 0.055333
0.09042342 -0.01200378 0.021922719 -0.103781626 0.093315974 0.104478456 0.03524854 0.02762466
-0.0061643138 0.047339663 0.061952677 -0.099431224 0.12105621 -0.17309567 -0.018893527 0.037594702
0.15153405 0.06484338 -0.049448747 -0.023557654 -1.789239e-05 -0.02076125 -0.050359458 0.068935744
-0.013288282 -0.11154068 0.056359567 0.2029133 0.33129853 0.027535915 -0.074374035 0.12309292
0.051062763 -0.18652406 -0.07103118 0.010206474 0.0409592 0.015079269 -0.099734664 0.26996106
0.024259849 0.09260678 -0.023201657 0.018370168 0.12806435 -0.039299287 -0.061261933 0.033102322
-0.08341742 0.017766612 -0.0261694 0.014581192 0.061392326 -0.21881746 0.08106105 -0.03799722
0.07263361 0.083691716 0.084501825 -0.053810753 -0.012102626 0.09966615 -0.018047437 -0.0028799647
-0.009179173 -0.04545733 0.025867706 -0.083031274 -0.03370248 -0.05687424 0.08182742 0.0008844832
-0.05490807 -0.15707944 -0.15439868 0.08537269 -0.15549113 0.0029673048 -0.12153587 0.020853393
0.016434694 -0.12532654 -0.012686912 -0.03456719 0.037477735 0.11090719 0.09220799 -0.06269275
0.07534992 0.08121225 -0.005863699 -0.036869384 -0.016221017 0.08887394 0.042927492 -0.035338707
0.12046999 0.035592284 0.093825854 0.031320263 -0.010188199 0.08239899 0.0013282077 -0.03356355
0.08490467 -0.04016031 -0.10274542 0.013303403 0.09444778 -0.08576554 -0.15117732 -0.036036424
0.00033071177 0.001018932 0.024113564 -0.039353535 0.022209527 0.016457455 0.098919846 -0.068763755
-0.158379 0.15439676 0.17779438 0.02320678 0.18133552 0.20482786 -0.12725586 -0.1753463
0.0041045193 -0.16962676 -0.13843614 -0.011424938 -0.060426045 -0.005179931 -0.0064903866 0.11818896
-0.14602397 0.0126018375 0.22945528 -0.017193118 0.13743314 -0.15191153 0.034278203 0.043086395
0.15706447 -0.02817406 -0.11917552 0.027519725 0.062212195 -0.07086031 0.033131417 0.12846546
00000000: b3c2 70bc fd52 62bb ba9a 7c3c 65e5 3c3d
00000010: 2e8e d93d b1d9 58be 399f cebd a85b ad3d
00000020: 2f37 313d b071 0fbe 809f 30be 2c27 5ebc
00000030: c01f 83bd c471 c33d e2e2 0abe f79d 023d
00000040: ec81 8abd 11ca 683d 3a99 163e 8c04 853d
00000050: e131 44be 9594 cdbd 51a2 0fbe 770a 623e
00000060: cb3d 183e 4786 ecbc aed8 c43c 44ca f33d
00000070: d509 e2bd 1255 a4bd 4fa3 253d cbb8 4dbd
00000080: 2f7a bfbc c531 41be dbb7 82bd 486e e23d
00000090: eeed 3a3e 9bcb 22bd ef0c 883c dac7 08be
000000a0: 86ee 423e c6c2 7dbb d577 863c 45b8 6c3d
000000b0: ab2d cebd 66fd a33d 3a0f 503e 5b0e 073e
000000c0: ef7e 3c3e 0ef2 afbd 3ffb 063e 8d24 8abd
000000d0: 8de7 c2bd c984 5dbe 1a67 293d 9769 253e
000000e0: d57f 863d 5baf 9d3c 3ff1 95bc cd6a 52bc
000000f0: 8abb 24bc d873 e4bd 6b90 a23d 1075 6e3d
00000100: 386b 3f3e c37d 2abe 1413 313c ccdf 4a3c
00000110: f456 6a3d 95db 62bc fffa 09bd 7360 303e
00000120: 4e72 58bd 862a ffbc 04b0 aebd 3fce 1e3e
00000130: bfb5 013e 714f 0ebe 3adc 8cbd 57a3 e83d
00000140: dae2 3bbe f59e c9bd 6b65 3fbd f5d4 133e
00000150: e69b e93d d02d f93c 822d 1cbe 3379 84bd
00000160: c44b ce3c d953 d5bc 950f 833d b982 353d
00000170: b61b 283e e409 83bd 1dae 083e f37a c83c
00000180: 4d71 963d da91 07bd e600 073e 4d4a 3f3d
00000190: e972 f9bd 6767 363d fe32 0d3e dba4 623d
000001a0: ea2f b93d 81ab 44bc 4697 b33c 768b d4bd
000001b0: 721c bf3d cdf8 d53d c660 103d 1c4d e23c
000001c0: 03fe c9bb 3ce7 413d 17c2 7d3d 99a2 cbbd
000001d0: 51ec f73d fe3f 31be 99c6 9abc e7fc 193d
000001e0: be2b 1b3e 9bcc 843d c58a 4abd fbfb c0bc
000001f0: 9d17 96b7 7f13 aabc b845 4ebd 2f2e 8d3d
00000200: 18b7 59bc 716f e4bd 4ad9 663d 81c8 4f3e
00000210: f69f a93e 0093 e13c 6a51 98bd 2418 fc3d
00000220: 3027 513d 2a00 3fbe cc78 91bd 0e39 273c
00000230: d6c4 273d 0a0f 773c b041 ccbd 5638 8a3e
00000240: 97bc c63c a0a8 bd3d 6711 bebc 097d 963c
00000250: 4d23 033e 4af8 20bd cbed 7abd 4d96 073d
00000260: c1d6 aabd 498b 913c 3661 d6bc f4e5 6e3c
00000270: 8576 7b3d af11 60be 5603 a63d f9a2 1bbd
00000280: eec0 943d 9066 ab3d 4b0f ad3d aa68 5cbd
00000290: 184a 46bc c41d cc3d 38d8 93bc cabd 3cbb
000002a0: 3e64 16bc 7731 3abd 83e8 d33c 4d0c aabd
000002b0: 9d0b 0abd f7f4 68bd 2295 a73d aadc 673a
000002c0: 49e7 60bd 6fd9 20be b01a 1ebe e0d7 ae3d
000002d0: 1139 1fbe 1d77 423b cce7 f8bd bcd4 aa3c
000002e0: 0da2 863c 9a55 00be c4dc 4fbc 5396 0dbd
000002f0: 4182 193d 4f23 e33d 8bd7 bc3d 0e65 80bd
00000300: 0f51 9a3d 9c52 a63d 4624 c0bb 5a04 17bd
00000310: f0e1 84bc 8a03 b63d bdd4 2f3d 52bf 10bd
00000320: f8b8 f63d 37c9 113d c527 c03d ad49 003d
00000330: 67ec 26bc cdc0 a83d 4117 ae3a ef79 09bd
00000340: 80e2 ad3d 237f 24bd 316c d2bd 84f6 593c
00000350: d66d c13d d8a5 afbd 3ace 1abe ee9a 13bd
00000360: 6263 ad39 af8d 853a cf89 c53c 2c31 21bd
00000370: c1f0 b53c c9d1 863c 7d96 ca3d 03d4 8cbd
00000380: 1b2e 22be 2f1a 1e3e bb0f 363e 251c be3c
00000390: 05b0 393e 65be 513e 5c4f 02be fb8d 33be
000003a0: 347f 863b a3b2 2dbe 34c2 0dbe aa2f 3bbc
000003b0: 4d81 77bd 69bc a9bb 4fad d4bb 0e0d f23d
000003c0: 4f87 15be f077 4e3c 53f6 6a3e 95d8 8cbc
000003d0: 46bb 0c3e b28e 1bbe 4d67 0c3d 5c7b 303d
000003e0: 82d5 203e 49cd e6bc 4c12 f4bd 0c71 e13c
000003f0: 37d2 7e3d 361f 91bd cfb4 073d 738c 033e

network_body._body_endoder.seq_layers.2.bias f4 [128]
0.027061494 -0.010800867 -0.0149280075 0.028631115 0.027490249 0.031513695 0.018816208 -0.01499405
0.046161797 0.04357257 0.025909197 0.012484183 0.081751786 0.019037655 0.062656656 0.019327901
0.06473498 0.029044969 0.05226086 0.019184673 0.009822518 0.05833186 0.033959348 0.05554144
0.036008902 0.04042045 0.03911819 0.0225763 0.042431 0.03730103 0.022165332 0.028057111
0.047008734 0.043154433 0.008026488 0.0639444 0.013739716 0.07060645 0.035944104 0.0068682553
0.027040018 0.061410204 0.01999661 0.03669082 -0.0017417275 0.051617987 0.047374863 0.023564192
0.013177283 0.041683488 0.006802897 0.033706732 0.029059753 0.06049459 0.027699653 0.027705042
0.023882216 -0.0032159619 0.039019722 0.03357824 0.05845541 0.061362084 0.03623012 0.07122135
0.032129467 0.026345607 0.06645949 0.019407723 -0.011818997 0.028763358 0.0376944 0.032929286
0.049404427 0.028191997 0.03552595 0.010759172 -0.013974584 0.037722636 0.020466229 0.030456886
0.050072677 0.004750971 0.03301655 0.01922518 0.0042388216 0.07464551 0.015260636 -0.006786929
0.015793994 0.04719734 0.041050535 0.025263432 0.06387058 0.03922577 0.038239527 -0.0029404329
0.041852135 -0.005094713 0.013714691 0.04068838 0.045728203 0.028538482 0.012142305 0.038631454
0.010063755 0.058554813 0.04436021 0.021630121 0.037654325 0.021766495 0.030462293 0.060713
0.07196333 0.032255054 0.035476018 0.02634346 0.036219705 0.032605648 0.025945032 0.03897007
0.025583362 0.050578516 0.029612472 0.06273022 0.0099010635 0.031224767 0.0083776675 0.055920444
00000000: 11b0 dd3c 1ff6 30bc 9a94 74bc cd8b ea3c
00000010: 3b33 e13c 8114 013d 7324 9a3c 9ba9 75bc
00000020: 2714 3d3d 2779 323d 863f d43c 758a 4c3c
00000030: 7b6d a73d dbf4 9b3c 2252 803d 8c55 9e3c
00000040: c693 843d b7ef ed3c 7c0f 563d 2d29 9d3c
00000050: a0ee 203c 63ed 6e3d f518 0b3d 6c7f 633d
00000060: 127e 133d ea8f 253d 653a 203d eff1 b83c
00000070: 21cc 2d3d f7c8 183d 1294 b53c 07d8 e53c
00000080: 3b8c 403d b4c2 303d 8881 033c 48f5 823d
00000090: 8c1c 613c 1d9a 903d 203a 133d 1a0f e13b
000000a0: 0783 dd3c 4489 7b3d eecf a33c 1d49 163d
000000b0: ad4a e4ba 626d 533d 250c 423d b109 c13c
000000c0: 88e5 573c 4ebc 2a3d d6ea de3b 1210 0a3d
000000d0: b80e ee3c 2dc9 773d 62ea e23c aff5 e23c
000000e0: a3a4 c33c e3c2 52bb 25d3 1f3d 5689 093d
000000f0: f16e 6f3d cf56 7b3d 0966 143d 80dc 913d
00000100: 309a 033d bed2 d73c ea1b 883d f2fc 9e3c
00000110: 77a4 41bc 22a1 eb3c 7165 1a3d dce0 063d
00000120: 4c5c 4a3d e7f2 e63c a983 113d 3d47 303c
00000130: a7f5 64bc 0d83 1a3d cba8 a73c b880 f93c
00000140: 0219 4d3d 09ae 9b3b 5d3c 073d 207e 9d3c
00000150: d0e5 8a3b bfdf 983d bf07 7a3c e364 debb
00000160: 6862 813c ff51 413d 9b24 283d 42f5 ce3c
00000170: 94ce 823d 33ab 203d 0da1 1c3d 47b4 40bb
00000180: 256d 2b3d 8df1 a6bb 95b3 603c dca8 263d
00000190: 7f4d 3b3d 89c9 e93c 85f0 463c 043c 1e3d
000001a0: 73e2 243c 2cd7 6f3d 0db3 353d a731 b13c
000001b0: 6c3b 1a3d a64f b23c 0f8c f93c 32ae 783d
000001c0: 8361 933d e01d 043d 4d4f 113d 3dce d73c
000001d0: 1d5b 143d 808d 053d ad8a d43c 159f 1f3d
000001e0: 3394 d13c 6b2b 4f3d db95 f23c b478 803d
000001f0: 1238 223c 15cb ff3c 7c42 093c d60c 653d

action_model._continuous_distribution.log_sigma f4 [1, 2]
-0.18441086 -0.000979508
00000000: 33d6 3cbe d662 80ba

action_model._continuous_distribution.mu.weight f4 [2, 128]
0.01606937 -0.04137453 0.08246211 0.076355144 -0.078740664 -0.06587574 0.062658526 0.07714713
0.015439012 -0.041091472 0.081295066 0.038614627 0.049269423 0.036818173 0.03884737 -0.055895776
-0.14221683 0.045392282 -0.071962364 -0.067459784 0.027768891 -0.10248249 0.033236988 -0.06175403
0.07667063 0.07604372 0.070702285 -0.07818667 -0.10561626 0.09315397 0.089724004 -0.06789344
-0.07404696 0.06762031 -0.056171775 0.07432394 0.052666016 -0.10620302 -0.114542834 -0.010239565
-0.1077787 -0.0673149 -0.08880864 0.07319944 0.0058697313 0.03191417 -0.11855471 0.06394401
-0.0132563785 0.044947438 -0.03729497 -0.062064156 -0.11241423 0.02095437 0.08373919 0.068846025
0.0052142977 0.050095756 -0.1084481 0.067673385 0.13635269 -0.037120428 0.091591105 -0.003513734
0.072018035 0.07073147 -0.076408304 -0.08359749 0.030325107 0.101982236 0.092933305 0.09045203
-0.13684116 0.082125664 0.001425438 0.08348464 0.11549694 0.05779629 0.07121382 -0.06759505
0.099793375 0.0596253 0.09403082 -0.09263031 0.0026893103 -0.07771093 0.085246645 0.014236009
0.058946893 -0.06378065 0.022597356 -0.084475264 -0.07884766 0.047770187 -0.08866154 0.036263756
0.027244909 0.07952225 0.06002703 0.016093208 0.088543564 0.061095845 0.04290859 -0.063053966
-0.08616698 -0.041496024 8.101676e-05 0.04140175 0.082069546 0.034323473 -0.07207094 -0.073385894
-0.049408883 -0.09745644 -0.033641614 0.0010977295 -0.068807356 -0.031534012 -0.019696256 0.11694455
-0.07320534 0.012615927 0.054580316 -0.023160396 -0.044808272 -0.0957336 0.07486295 0.08601977
-0.061686203 -0.03927859 -0.023791824 0.059634723 -0.027060013 -0.067236364 0.026585475 0.042669553
-0.06876631 -0.09518711 0.024558986 -0.038977563 -0.09072465 0.07237587 -0.10136617 -0.046345335
-0.01791812 -0.044079274 -0.042095643 -0.009688559 -0.03808026 0.008203396 -0.05710407 -0.09160566
-0.0059649614 -0.051326293 -0.069229096 0.048827942 -0.00972353 -0.03148884 0.030986583 -0.047813643
-0.034347575 -0.016118743 0.07454789 -0.054484304 -0.015918953 -0.092872724 0.029887458 -0.07181525
0.024727834 -0.089736916 -0.00072774093 -0.081196636 0.04878121 -0.06086493 0.019919673 -0.0061243186
-0.058622114 -0.101982296 0.10518603 -0.043456472 -0.05492605 -0.06398805 0.014688924 -0.027784232
-0.020911256 0.0113281375 -0.08296919 -0.024236664 -0.029884733 -0.086580925 -0.0016035478 -0.11909334
-0.02412219 -0.021086173 -0.053276617 0.055453166 -0.009184381 0.031551432 -0.0030599234 -0.012565592
0.010586068 0.026964413 -0.097151734 0.04353752 0.054113623 -0.020066023 -0.038980175 0.043818675
0.006649851 0.05071111 0.010940024 0.009116388 0.10044089 -0.10915902 -0.0126052275 -0.003312613
0.0037274705 -0.088119686 -0.09766896 -0.009572374 -0.088992916 -0.0022400275 -0.01929979 0.0825721
-0.076993324 -0.010737943 0.06509361 -0.047743417 -0.059349738 -0.010053368 0.054514933 0.0060312264
0.049761675 -0.053081352 -0.0591792 -0.042879958 -0.014067436 -0.060739346 0.023606168 -0.097808935
-0.0859648 0.025157595 -0.0497579 -0.08617259 -0.092210606 -0.07476078 -0.08301792 0.030774105
-0.0005281063 -0.13228987 -0.006531562 -0.071634755 0.06761001 0.071738616 0.03173392 -0.05482163
00000000: e9a3 833c 5778 29bd e5e1 a83d 1660 9c3d
00000010: c942 a1bd dce9 86bd 1d53 803d 51ff 9d3d
00000020: e9f3 7c3c 884f 28bd 077e a63d 5f2a 1e3d
00000030: bcce 493d a7ce 163d 6b1e 1f3d f8f2 64bd
00000040: 4aa1 11be 42ed 393d 0161 93bd 5b28 8abd
00000050: 967b e33c 57e2 d1bd 8223 083d cbf1 7cbd
00000060: 7e05 9d3d cfbc 9b3d 5ccc 903d 5520 a0bd
00000070: 564d d8bd 82c7 be3d 38c1 b73d b70b 8bbd
00000080: efa5 97bd 847c 8a3d 6014 66bd 2637 983d
00000090: 52b8 573d f880 d9bd 6f95 eabd d9c3 27bc
000000a0: 14bb dcbd 65dc 89bd 4ee1 b5bd 97e9 953d
000000b0: e056 c03b 6fb8 023d d0cc f2bd 14f5 823d
000000c0: 4831 59bc ce1a 383d 9cc2 18bd fc36 7ebd
000000d0: 6f39 e6bd 80a8 ab3c 747f ab3d 25ff 8c3d
000000e0: b3dc aa3b 3531 4d3d 0a1a debd 5898 8a3d
000000f0: 0aa0 0b3e 970b 18bd 1e94 bb3d ad46 66bb
00000100: 317e 933d a9db 903d f57b 9cbd 2935 abbd
00000110: 5c6c f83c 10dc d03d d153 be3d ea3e b93d
00000120: 1720 0cbe 8031 a83d c3d5 ba3a fff9 aa3d
00000130: a989 ec3d cdbb 6c3d 8dd8 913d 466f 8abd
00000140: 7860 cc3d a939 743d 3b93 c03d f6b4 bdbd
00000150: 243f 303b e826 9fbd cb95 ae3d 263e 693c
00000160: 4c72 713d 6e9f 82bd 171e b93c 5e01 adbd
00000170: e27a a1bd acaa 433d 2e94 b5bd 4e89 143d
00000180: b730 df3c 90dc a23d e7de 753d e7d5 833c
00000190: 5456 b53d a33f 7a3d ebc0 2f3d 7022 81bd
000001a0: 5078 b0bd bcf7 29bd 8be7 a938 e294 293d
000001b0: 1414 a83d c596 0c3d ee99 93bd 584b 96bd
000001c0: f860 4abd 3e97 c7bd cacb 09bd b1e1 8f3a
000001d0: dfea 8cbd cf29 01bd 0b5a a1bc a080 ef3d
000001e0: aeec 95bd 08b3 4e3c 9c8f 5f3d dfba bdbc
000001f0: e188 37bd fa0f c4bd bf51 993d 222b b03d
00000200: acaa 7cbd 96e2 20bd 12e7 c2bc 8a43 743d
00000210: f6ac ddbc 38b3 89bd c8c9 d93c 45c6 2e3d
00000220: 5ad5 8cbd 76f1 c2bd ed2f c93c f0a6 1fbd
00000230: d8cd b9bd cd39 943d 1199 cfbd 9bd4 3dbd
00000240: 05c9 92bc 788c 34bd 7b6c 2cbd c3bc 1ebc
00000250: 0cfa 1bbd 8967 063c f5e5 69bd c09b bbbd
00000260: b975 c3bb 853b 52bd fcc7 8dbd cfff 473d
00000270: 714f 1fbc 71fa 00bd 93d7 fd3c 3dd8 43bd
00000280: 0bb0 0cbd 740b 84bc 90ac 983d ef2a 5fbd
00000290: 7768 82bc 0e34 bebd 8bd6 f43c e013 93bd
000002a0: 0792 ca3c fdc7 b7bd dec5 3eba 6c4a a6bd
000002b0: cece 473d 814d 79bd 952e a33c 82ae c8bb
000002c0: be1d 70bd 18dc d0bd c66b d73d 6aff 31bd
000002d0: 23fa 60bd 2b0c 83bd d0a9 703c c29b e3bc
000002e0: 154e abbc a799 393c c0eb a9bd f88b c6bc
000002f0: d4d0 f4bc 5751 b1bd 232e d2ba 36e7 f3bd
00000300: e69b c5bc e9bc acbc 9538 5abd dc22 633d
00000310: 167a 16bc 133c 013d ff88 48bb eadf 4dbc
00000320: 3071 2d3c 79e4 dc3c 7df7 c6bd 6654 323d
00000330: 3fa6 5d3d 8061 a4bc ada9 1fbd 367b 333d
00000340: fee6 d93b 74b6 4f3d c93d 333c e75c 153c
00000350: f4b3 cd3d c48e dfbd 2886 4ebc 6c18 59bb
00000360: 9448 743b 1878 b4bd aa06 c8bd 72d5 1cbc
00000370: eb41 b6bd 6dcd 12bb 981a 9ebc 901b a93d
00000380: adae 9dbd 33ee 2fbc cc4f 853d 9a8e 43bd
00000390: b618 73bd e2b6 24bc 0d4b 5f3d 98a1 c53b
000003a0: e6d2 4b3d d56b 59bd e465 72bd e5a2 2fbd
000003b0: 1a7b 66bc d2c9 78bd b961 c13c 0d50 c8bd
000003c0: 500e b0bd 4d17 ce3c f1ce 4bbd 417b b0bd
000003d0: ead8 bcbd 2e1c 99bd 4d05 aabd fa19 fc3c
000003e0: 9d70 0aba ff76 07be b706 d6bb 3eb5 92bd
000003f0: 1e77 8a3d b2eb 923d 6dfb 013d a58c 60bd

action_model._continuous_distribution.mu.bias f4 [2]
0.012652302 -0.02071505
00000000: 9a4b 4f3c 9cb2 a9bc

onnx::Div_71 f4 [20]
0.23363848 0.49631214 0.17172728 0.23730871 0.22892013 0.3867278 0.028278098 0.12409491
0.21745546 0.3847044 0.045458335 0.12673502 0.19224094 0.45367557 0.040752277 0.14630783
0.21326059 0.4450893 0.04539049 0.15487264
00000000: ed3e 6f3e a01c fe3e 47d9 2f3e 0e01 733e
00000010: 0a6a 6a3e 3001 c63e 78a7 e73c 7925 fe3d
00000020: a5ac 5e3e faf7 c43e 8532 3a3d d3c6 013e
00000030: cfda 443e 2a48 e83e dceb 263d b8d1 153e
00000040: fc60 5a3e bfe2 e33e 61eb 393d ef96 1e3e

onnx::Div_74 f4 [12]
0.1843305 0.49871725 0.087895274 0.09661098 0.18603286 0.49841502 0.08489664 0.094754495
0.18194185 0.49942887 0.08998283 0.097566485
00000000: 22c1 3c3e de57 ff3e 7002 b43d fadb c53d
00000010: 667f 3e3e 4130 ff3e 4ade ad3d a50e c23d
00000020: f74e 3a3e 24b5 ff3e eb48 b83d f0d0 c73d

onnx::Div_77 f4 [3]
0.91158956 0.051838007 1.5174958
00000000: ef5d 693f 1754 543d 4d3d c23f
