Experimentos/results/ppo2/KartAgent/checkpoint.pt (torch, 622498 bytes, 36 tensors)

network_body.observation_encoder.processors.0.normalizer.running_mean f4 [20]
0	0x3f5b69a7	0.8570809
1	0x3e10af00	0.14129257
2	0x3ac6fb48	0.0015181089
3	0x3d9d37fc	0.07676694
4	0x3f3dee91	0.7419215
5	0x3e8414a7	0.25797006
6	0x00000000	0.0
7	0x3e065f82	0.13122371
8	0x3f40fc47	0.75384945
9	0x3e7b2b79	0.24528302
10	0x3a46fb47	0.0007590544
11	0x3e08a97c	0.13345903
12	0x3ee67609	0.4501193
13	0x3f0cbde0	0.54977226
14	0x00000000	0.0
15	0x3e91d3b4	0.2848183
16	0x3ed686e9	0.41899803
17	0x3f142033	0.5786163
18	0x3b153c75	0.002277163
19	0x3e89b07b	0.26892456

network_body.observation_encoder.processors.0.normalizer.running_variance f4 [20]
0	0x448d543e	1130.6326
1	0x448bfcab	1119.8959
2	0x416fa8f2	14.978746
3	0x429ad359	77.41279
4	0x44dcd8bd	1766.7731
5	0x44dcc941	1766.2892
6	0x3f800000	1.0
7	0x4323350a	163.20718
8	0x44d607a0	1712.2383
9	0x44d58570	1708.1699
10	0x40ffd479	7.9946866
11	0x431a43f6	154.26547
12	0x450eb8e0	2283.5547
13	0x450eba7a	2283.6548
14	0x3f800000	1.0
15	0x43919d83	291.23056
16	0x450c5fdd	2245.9915
17	0x450c980c	2249.503
18	0x41af9e10	21.952179
19	0x4379ed4d	249.92696

network_body.observation_encoder.processors.1.normalizer.running_mean f4 [12]
0	0x3e1c7427	0.15278684
1	0x3e1d0247	0.153329
2	0x3f3177c1	0.69323355
3	0x3f356817	0.70861953
4	0x3e1f9013	0.15582304
5	0x3e1c3b4b	0.15256993
6	0x3f30e285	0.6909564
7	0x3f34f5c5	0.70687515
8	0x3e195838	0.14975059
9	0x3e1c7426	0.15278682
10	0x3f3245d8	0.69637823
11	0x3f35f8e8	0.71082926

network_body.observation_encoder.processors.1.normalizer.running_variance f4 [12]
0	0x44955727	1194.7235
1	0x4495c62c	1198.1929
2	0x44f5450c	1962.1577
3	0x44e0682c	1795.2554
4	0x4497c2a2	1214.0823
5	0x44952ab1	1193.3341
6	0x44f6473a	1970.2258
7	0x44e0c85a	1798.261
8	0x4492e638	1175.1943
9	0x44955727	1194.7235
10	0x44f3db7e	1950.8591
11	0x44e01aa3	1792.8324

network_body.observation_encoder.processors.2.normalizer.running_mean f4 [3]
0	0x3f2559e8	0.6459031
1	0x3d01c261	0.031679515
2	0xbe9834ae	-0.2972769

network_body.observation_encoder.processors.2.normalizer.running_variance f4 [3]
0	0x45ce77c9	6606.973
1	0x3f9f64ab	1.2452596
2	0x45a14341	5160.4067

network_body.processors.0.normalizer.running_mean f4 [20]
0	0x3f5b69a7	0.8570809
1	0x3e10af00	0.14129257
2	0x3ac6fb48	0.0015181089
3	0x3d9d37fc	0.07676694
4	0x3f3dee91	0.7419215
5	0x3e8414a7	0.25797006
6	0x00000000	0.0
7	0x3e065f82	0.13122371
8	0x3f40fc47	0.75384945
9	0x3e7b2b79	0.24528302
10	0x3a46fb47	0.0007590544
11	0x3e08a97c	0.13345903
12	0x3ee67609	0.4501193
13	0x3f0cbde0	0.54977226
14	0x00000000	0.0
15	0x3e91d3b4	0.2848183
16	0x3ed686e9	0.41899803
17	0x3f142033	0.5786163
18	0x3b153c75	0.002277163
19	0x3e89b07b	0.26892456

network_body.processors.0.normalizer.running_variance f4 [20]
0	0x448d543e	1130.6326
1	0x448bfcab	1119.8959
2	0x416fa8f2	14.978746
3	0x429ad359	77.41279
4	0x44dcd8bd	1766.7731
5	0x44dcc941	1766.2892
6	0x3f800000	1.0
7	0x4323350a	163.20718
8	0x44d607a0	1712.2383
9	0x44d58570	1708.1699
10	0x40ffd479	7.9946866
11	0x431a43f6	154.26547
12	0x450eb8e0	2283.5547
13	0x450eba7a	2283.6548
14	0x3f800000	1.0
15	0x43919d83	291.23056
16	0x450c5fdd	2245.9915
17	0x450c980c	2249.503
18	0x41af9e10	21.952179
19	0x4379ed4d	249.92696

network_body.processors.1.normalizer.running_mean f4 [12]
0	0x3e1c7427	0.15278684
1	0x3e1d0247	0.153329
2	0x3f3177c1	0.69323355
3	0x3f356817	0.70861953
4	0x3e1f9013	0.15582304
5	0x3e1c3b4b	0.15256993
6	0x3f30e285	0.6909564
7	0x3f34f5c5	0.70687515
8	0x3e195838	0.14975059
9	0x3e1c7426	0.15278682
10	0x3f3245d8	0.69637823
11	0x3f35f8e8	0.71082926

network_body.processors.1.normalizer.running_variance f4 [12]
0	0x44955727	1194.7235
1	0x4495c62c	1198.1929
2	0x44f5450c	1962.1577
3	0x44e0682c	1795.2554
4	0x4497c2a2	1214.0823
5	0x44952ab1	1193.3341
6	0x44f6473a	1970.2258
7	0x44e0c85a	1798.261
8	0x4492e638	1175.1943
9	0x44955727	1194.7235
10	0x44f3db7e	1950.8591
11	0x44e01aa3	1792.8324

network_body.processors.2.normalizer.running_mean f4 [3]
0	0x3f2559e8	0.6459031
1	0x3d01c261	0.031679515
2	0xbe9834ae	-0.2972769

network_body.processors.2.normalizer.running_variance f4 [3]
0	0x45ce77c9	6606.973
1	0x3f9f64ab	1.2452596
2	0x45a14341	5160.4067

network_body._body_endoder.seq_layers.0.weight f4 [256, 35]
0	0x3e0c84b7	0.13722502
1	0x3e32e2a6	0.17469272
2	0xbd87ebe2	-0.06636788
3	0x3d21aa8b	0.039469283
4	0x3d947545	0.0724893
5	0xbca3fe20	-0.020018637
6	0xbd485c72	-0.048916288
7	0x3d110672	0.035406537
8	0x3dc25048	0.09487969
9	0xbd7f75f0	-0.062368333
10	0xbdcf0cd4	-0.10109869
11	0xbd69aeba	-0.057051398
12	0xbe32bf70	-0.1745584
13	0x3c8490b7	0.016182287
14	0xbeb4307a	-0.35193235
15	0x3dd4c4bb	0.10389086
16	0xbcbfc438	-0.023408994
17	0x3e38af50	0.18035626
18	0xbdb032d1	-0.086034425
19	0xbd05ace9	-0.032635603
20	0x3e335e01	0.17516328
21	0x3e3459f1	0.17612435
22	0x3de3012b	0.11084207
23	0x3e24c1a8	0.16089499
24	0xbcc6889d	-0.024235064
25	0xbdd1ae70	-0.102383494
26	0x3d94b505	0.07261089
27	0xbe3047fd	-0.17214961
28	0xbc1cdf6c	-0.009574752
29	0xbdf79ea0	-0.12090802
30	0x3e1b6046	0.15173444
31	0xbc1cbc26	-0.009566342
32	0x3e314053	0.17309694
33	0x3cf2ef91	0.02965525
34	0xbe98b65b	-0.29826626
35	0xbe28534a	-0.16438022
36	0xbe5886b2	-0.21145132
37	0x3eae89c7	0.3408949
38	0xbe053f7d	-0.130125
39	0xbdcdd4cc	-0.100503534
40	0xbcd8130e	-0.026376273
41	0xbe20c806	-0.15701303
42	0x3d0d4220	0.03448689
43	0xbe01820e	-0.12647268
44	0x3de852d7	0.113439254
45	0x3e89ca7f	0.26912305
46	0xbeedb66c	-0.4642824
47	0x3dbf3ff3	0.09338369
48	0x3e688b44	0.22709376
49	0x3e3d4718	0.18484151
50	0x3ea6cde3	0.32578954
51	0x3d49826e	0.049196653
52	0x3e3296d4	0.17440349
53	0x3e2e3050	0.17010617
54	0xbd860648	-0.06544167
55	0xbd6db9e4	-0.058038607
56	0x3d6bbce6	0.057553194
57	0xbe8da29c	-0.27663124
58	0x3d7bb4a8	0.061451584
59	0x3e1d4177	0.15357004
60	0xbe041c7b	-0.1290149
61	0x3d1bcc92	0.03803689
62	0xbc9696db	-0.01838248
63	0xbed2867b	-0.41118225
64	0xbe667e2a	-0.22509065
65	0x3e4733c3	0.1945334
66	0x3e31931d	0.17341276
67	0x3e2a4188	0.1662656
68	0xbe5e4609	-0.21706404
69	0x3ebb72cc	0.3661102
70	0xbddfd040	-0.109283924
71	0xbe2a8576	-0.16652474
72	0x3e072c6c	0.1320054
73	0x3e1c5c0d	0.1526949
74	0xbe303e45	-0.17211254
75	0xbcaf4a18	-0.021397635
76	0xbda4c7de	-0.08045934
77	0xbe9a4f54	-0.30138648
78	0x3e3b1e9d	0.18273397
79	0xbe2376b9	-0.15963258
80	0xbeaab601	-0.33341983
81	0x3d3db3a6	0.046313904
82	0xbd99798c	-0.07493886
83	0xbecfbd30	-0.40574026
84	0xbe98ee3e	-0.29869264
85	0x3d31e4e3	0.043431174
86	0xbdd8f181	-0.10592938
87	0x3d182463	0.037144076
88	0xbd979866	-0.074021146
89	0xbe5200c2	-0.20508102
90	0xbdaa8346	-0.0832582
91	0x3e913c59	0.28366354
92	0x3e466584	0.19374663
93	0xbd8d60fb	-0.06903263
94	0x3dd7b5d4	0.10532728
95	0x3dcfa510	0.10138905
96	0x3e3b0702	0.18264392
97	0xbd4c14d9	-0.04982457
98	0x3e0e665c	0.13906235
99	0x3c1cd824	0.009573016
100	0x3c17671f	0.009240895
101	0xbde251bf	-0.11050748
102	0xbe3415f0	-0.17586493
103	0x3d59ad7b	0.05314396
104	0x3d3829af	0.044961628
105	0x3ea2b147	0.31775877
106	0x3d999591	0.07499231
107	0x3d3d2cd8	0.046185344
108	0x3d58e3a9	0.05295149
109	0x3e1305cb	0.14357679
110	0xbd0842f3	-0.033266973
111	0xbdae7769	-0.085188694
112	0x3e0f15c7	0.13973151
113	0xbce609a2	-0.028080765
114	0x3ea7aaa0	0.32747364
115	0x3c76c9d2	0.015062766
116	0x3e287a32	0.16452864
117	0xbdbbc33c	-0.091680974
118	0x3e8055e2	0.25065523
119	0x3d883f82	0.06652738
120	0xbe10c26c	-0.14136666
121	0xbe3f90b4	-0.18707544
122	0xbe7924cb	-0.24330442
123	0x3e8dd6b0	0.27702856
124	0xbe4ccdd2	-0.20000389
125	0x3d5f2610	0.05447966
126	0x3d72dca0	0.059292436
127	0x3da4f291	0.08054078
128	0xbe870112	-0.26368004
129	0xbd624e2d	-0.055250335
130	0x3d0263f7	0.031833615
131	0xbe7c1014	-0.24615508
132	0xbd94a2da	-0.07257624
133	0xbe4a8062	-0.19775537
134	0xbc76a664	-0.015054319
135	0x3df3c338	0.119024694
136	0xbd07d595	-0.033162672
137	0x3da6d05d	0.08145211
138	0xbde2484b	-0.11048945
139	0xbe66aef9	-0.22527684
140	0x3e0ebddd	0.13939615
141	0xbd8f133f	-0.06986093
142	0x3e1ad019	0.15118445
143	0x3db5e147	0.08880859
144	0x3b548ef7	0.0032433846
145	0x3d0efb40	0.03490758
146	0xbea00efe	-0.31261438
147	0xbe0f0367	-0.13966142
148	0xbc565e88	-0.013084061
149	0xbd4f12b8	-0.05055496
150	0xbe8c0ae9	-0.27352074
151	0xbd8f9c09	-0.07012183
152	0x3df9298e	0.12166129
153	0xbc0f237d	-0.008736488
154	0x3d1ef81b	0.03881083
155	0x3c4fc924	0.012682233
156	0xbc4ee8c7	-0.012628741
157	0xbe090fca	-0.1338493
158	0xbd0db99a	-0.03460083
159	0x3da54686	0.08070092
160	0xbe6996f1	-0.22811486
161	0x3db8c14b	0.09021243
162	0x3d5d3e73	0.054014634
163	0xbd4afcbc	-0.049557433
164	0xbb144667	-0.002262497
165	0x3d70a830	0.058754146
166	0x3eb7219a	0.35767823
167	0xbe2debf3	-0.16984539
168	0x3e2570eb	0.16156356
169	0xbe14e4b1	-0.14540364
170	0x3df23baa	0.11827786
171	0x3e111bb5	0.14170726
172	0x3cd1f1a8	0.025627926
173	0x3e2f7997	0.17136227
174	0x3e975f31	0.29564813
175	0x3cca6efb	0.024711123
176	0xbd6f2e89	-0.05839399
177	0x3ed46a1c	0.41487205
178	0xbd79162c	-0.06081216
179	0xbdd0fbd9	-0.10204286
180	0x3ddababb	0.10680147
181	0x3e03c46b	0.12867896
182	0x3e117207	0.14203654
183	0x3e91ffc6	0.28515452
184	0xbe9b90c3	-0.30383882
185	0x3cca543a	0.024698365
186	0xbde0f5b4	-0.10984364
187	0x3dfc3fb2	0.123168364
188	0xbdf2cb6d	-0.11855207
189	0x3d84af56	0.06478755
190	0x3d0db93b	0.034600478
191	0xbc560d8e	-0.013064755
192	0x3e2c089d	0.1680016
193	0x3e52feda	0.2060503
194	0xbde848f2	-0.11342038
195	0x3d7444c0	0.059635878
196	0x3d3b6a59	0.045755718
197	0xbdb25e43	-0.08709385
198	0xbe4ac0d2	-0.19800118
199	0xbe349d2a	-0.17638078
200	0xbdff2706	-0.12458615
201	0xbe5d312f	-0.21600793
202	0xbdcc591d	-0.099779345
203	0x3e1c0783	0.1523724
204	0xbe76f1d9	-0.24115695
205	0x3d11933d	0.035540808
206	0x3de54b64	0.1119602
207	0x3e613aeb	0.21995132
208	0x3e2125a6	0.15737018
209	0x3e02fef9	0.12792577
210	0xbe1891f6	-0.1489943
211	0x3de60926	0.11232214
212	0xbbd58d44	-0.0065170843
213	0x3e334d03	0.17509846
214	0xbe21109a	-0.15728989
215	0x3e3eb02c	0.18621892
216	0xbd45596e	-0.04818099
217	0x3def02b0	0.116704345
218	0x3bbf7f57	0.0058440375
219	0x3dc36f6a	0.09542735
220	0x3d72933c	0.059222445
221	0xbdac0269	-0.08398897
222	0xbdaa1bd2	-0.083060876
223	0xbd2e8409	-0.042606387
224	0x3db0b87e	0.08628939
225	0x3d0183a3	0.03161968
226	0x3e3fc77c	0.18728441
227	0x3e681b1f	0.22666596
228	0x3e215aac	0.15757245
229	0x3e8d8d00	0.27646637
230	0xbdc44e99	-0.09585304
231	0x3d826be0	0.06368232
232	0x3d838992	0.06422724
233	0xbd95b5b8	-0.07310051
234	0xbe2d398a	-0.1691648
235	0xbe80235f	-0.25026986
236	0x3e539318	0.2066158
237	0xbce7a25c	-0.028275661
238	0xbe386d90	-0.18010545
239	0x3c8b4130	0.016998857
240	0x3dc6f7a1	0.097152
241	0x3dd00532	0.10157241
242	0xbd8faa59	-0.07014913
243	0xbd41cf7e	-0.04731702
244	0xbed24386	-0.4106714
245	0x3da6f361	0.081518896
246	0x3e237a66	0.1596466
247	0x3d936be6	0.07198314
248	0xbd4d941c	-0.050190076
249	0x3c8ea3b8	0.017412052
250	0xbe36871c	-0.17824978
251	0xbe6cf63e	-0.23140809
252	0x3e273125	0.16327341
253	0xbe97028a	-0.29494125
254	0x3cd76cdb	0.026297024
255	0x3ec7ce13	0.3902441

network_body._body_endoder.seq_layers.0.bias f4 [256]
0	0x00000000	0.0
1	0x00000000	0.0
2	0x00000000	0.0
3	0x00000000	0.0
4	0x00000000	0.0
5	0x00000000	0.0
6	0x00000000	0.0
7	0x00000000	0.0
8	0x00000000	0.0
9	0x00000000	0.0
10	0x00000000	0.0
11	0x00000000	0.0
12	0x00000000	0.0
13	0x00000000	0.0
14	0x00000000	0.0
15	0x00000000	0.0
16	0x00000000	0.0
17	0x00000000	0.0
18	0x00000000	0.0
19	0x00000000	0.0
20	0x00000000	0.0
21	0x00000000	0.0
22	0x00000000	0.0
23	0x00000000	0.0
24	0x00000000	0.0
25	0x00000000	0.0
26	0x00000000	0.0
27	0x00000000	0.0
28	0x00000000	0.0
29	0x00000000	0.0
30	0x00000000	0.0
31	0x00000000	0.0
32	0x00000000	0.0
33	0x00000000	0.0
34	0x00000000	0.0
35	0x00000000	0.0
36	0x00000000	0.0
37	0x00000000	0.0
38	0x00000000	0.0
39	0x00000000	0.0
40	0x00000000	0.0
41	0x00000000	0.0
42	0x00000000	0.0
43	0x00000000	0.0
44	0x00000000	0.0
45	0x00000000	0.0
46	0x00000000	0.0
47	0x00000000	0.0
48	0x00000000	0.0
49	0x00000000	0.0
50	0x00000000	0.0
51	0x00000000	0.0
52	0x00000000	0.0
53	0x00000000	0.0
54	0x00000000	0.0
55	0x00000000	0.0
56	0x00000000	0.0
57	0x00000000	0.0
58	0x00000000	0.0
59	0x00000000	0.0
60	0x00000000	0.0
61	0x00000000	0.0
62	0x00000000	0.0
63	0x00000000	0.0
64	0x00000000	0.0
65	0x00000000	0.0
66	0x00000000	0.0
67	0x00000000	0.0
68	0x00000000	0.0
69	0x00000000	0.0
70	0x00000000	0.0
71	0x00000000	0.0
72	0x00000000	0.0
73	0x00000000	0.0
74	0x00000000	0.0
75	0x00000000	0.0
76	0x00000000	0.0
77	0x00000000	0.0
78	0x00000000	0.0
79	0x00000000	0.0
80	0x00000000	0.0
81	0x00000000	0.0
82	0x00000000	0.0
83	0x00000000	0.0
84	0x00000000	0.0
85	0x00000000	0.0
86	0x00000000	0.0
87	0x00000000	0.0
88	0x00000000	0.0
89	0x00000000	0.0
90	0x00000000	0.0
91	0x00000000	0.0
92	0x00000000	0.0
93	0x00000000	0.0
94	0x00000000	0.0
95	0x00000000	0.0
96	0x00000000	0.0
97	0x00000000	0.0
98	0x00000000	0.0
99	0x00000000	0.0
100	0x00000000	0.0
101	0x00000000	0.0
102	0x00000000	0.0
103	0x00000000	0.0
104	0x00000000	0.0
105	0x00000000	0.0
106	0x00000000	0.0
107	0x00000000	0.0
108	0x00000000	0.0
109	0x00000000	0.0
110	0x00000000	0.0
111	0x00000000	0.0
112	0x00000000	0.0
113	0x00000000	0.0
114	0x00000000	0.0
115	0x00000000	0.0
116	0x00000000	0.0
117	0x00000000	0.0
118	0x00000000	0.0
119	0x00000000	0.0
120	0x00000000	0.0
121	0x00000000	0.0
122	0x00000000	0.0
123	0x00000000	0.0
124	0x00000000	0.0
125	0x00000000	0.0
126	0x00000000	0.0
127	0x00000000	0.0
128	0x00000000	0.0
129	0x00000000	0.0
130	0x00000000	0.0
131	0x00000000	0.0
132	0x00000000	0.0
133	0x00000000	0.0
134	0x00000000	0.0
135	0x00000000	0.0
136	0x00000000	0.0
137	0x00000000	0.0
138	0x00000000	0.0
139	0x00000000	0.0
140	0x00000000	0.0
141	0x00000000	0.0
142	0x00000000	0.0
143	0x00000000	0.0
144	0x00000000	0.0
145	0x00000000	0.0
146	0x00000000	0.0
147	0x00000000	0.0
148	0x00000000	0.0
149	0x00000000	0.0
150	0x00000000	0.0
151	0x00000000	0.0
152	0x00000000	0.0
153	0x00000000	0.0
154	0x00000000	0.0
155	0x00000000	0.0
156	0x00000000	0.0
157	0x00000000	0.0
158	0x00000000	0.0
159	0x00000000	0.0
160	0x00000000	0.0
161	0x00000000	0.0
162	0x00000000	0.0
163	0x00000000	0.0
164	0x00000000	0.0
165	0x00000000	0.0
166	0x00000000	0.0
167	0x00000000	0.0
168	0x00000000	0.0
169	0x00000000	0.0
170	0x00000000	0.0
171	0x00000000	0.0
172	0x00000000	0.0
173	0x00000000	0.0
174	0x00000000	0.0
175	0x00000000	0.0
176	0x00000000	0.0
177	0x00000000	0.0
178	0x00000000	0.0
179	0x00000000	0.0
180	0x00000000	0.0
181	0x00000000	0.0
182	0x00000000	0.0
183	0x00000000	0.0
184	0x00000000	0.0
185	0x00000000	0.0
186	0x00000000	0.0
187	0x00000000	0.0
188	0x00000000	0.0
189	0x00000000	0.0
190	0x00000000	0.0
191	0x00000000	0.0
192	0x00000000	0.0
193	0x00000000	0.0
194	0x00000000	0.0
195	0x00000000	0.0
196	0x00000000	0.0
197	0x00000000	0.0
198	0x00000000	0.0
199	0x00000000	0.0
200	0x00000000	0.0
201	0x00000000	0.0
202	0x00000000	0.0
203	0x00000000	0.0
204	0x00000000	0.0
205	0x00000000	0.0
206	0x00000000	0.0
207	0x00000000	0.0
208	0x00000000	0.0
209	0x00000000	0.0
210	0x00000000	0.0
211	0x00000000	0.0
212	0x00000000	0.0
213	0x00000000	0.0
214	0x00000000	0.0
215	0x00000000	0.0
216	0x00000000	0.0
217	0x00000000	0.0
218	0x00000000	0.0
219	0x00000000	0.0
220	0x00000000	0.0
221	0x00000000	0.0
222	0x00000000	0.0
223	0x00000000	0.0
224	0x00000000	0.0
225	0x00000000	0.0
226	0x00000000	0.0
227	0x00000000	0.0
228	0x00000000	0.0
229	0x00000000	0.0
230	0x00000000	0.0
231	0x00000000	0.0
232	0x00000000	0.0
233	0x00000000	0.0
234	0x00000000	0.0
235	0x00000000	0.0
236	0x00000000	0.0
237	0x00000000	0.0
238	0x00000000	0.0
239	0x00000000	0.0
240	0x00000000	0.0
241	0x00000000	0.0
242	0x00000000	0.0
243	0x00000000	0.0
244	0x00000000	0.0
245	0x00000000	0.0
246	0x00000000	0.0
247	0x00000000	0.0
248	0x00000000	0.0
249	0x00000000	0.0
250	0x00000000	0.0
251	0x00000000	0.0
252	0x00000000	0.0
253	0x00000000	0.0
254	0x00000000	0.0
255	0x00000000	0.0

network_body._body_endoder.seq_layers.2.weight f4 [256, 256]
0	0x3d50b22f	0.05095118
1	0xbd068006	-0.032836936
2	0xbb8af1ec	-0.004240265
3	0xb9ade54b	-0.00033167968
4	0x3baf96d9	0.0053585586
5	0xbc5e8a39	-0.01358276
6	0xbcfa8410	-0.03058055
7	0xbc101861	-0.008794875
8	0x3caad4dc	0.020853452
9	0x3bae66eb	0.0053223274
10	0x3cbe2345	0.023210177
11	0x3df0e0cf	0.11761629
12	0x3d08c2e7	0.033389
13	0xbda08f04	-0.07839778
14	0xbdd06e2e	-0.10177265
15	0x3d004fbe	0.031326048
16	0xbddca328	-0.10773307
17	0x3dc5a587	0.096507125
18	0x3d5a3b80	0.0532794
19	0xbccf3ca7	-0.025297476
20	0xbd63965e	-0.055563323
21	0xb821ed1e	-3.8606224e-05
22	0xbc449b98	-0.011999987
23	0x3d6e9eaa	0.058256783
24	0x3d80af78	0.06283468
25	0xbc519c10	-0.012793556
26	0x3cd8fd33	0.026487922
27	0xbd66357e	-0.056203358
28	0x3cc91712	0.024547134
29	0xb8608515	-5.3529704e-05
30	0x3d753d24	0.05987276
31	0xbd599f0f	-0.053130206
32	0x3d769deb	0.060209196
33	0xbbe70569	-0.0070502055
34	0x3968097f	0.00022128782
35	0xbc83eb06	-0.016103279
36	0x3d294408	0.041324645
37	0x3db8a5d1	0.09016002
38	0xbe01dbd5	-0.12681516
39	0x3dd7f3fb	0.105445825
40	0x3df0666d	0.11738286
41	0x3d472b5a	0.048625328
42	0xbdd89d1d	-0.10576842
43	0xbd977ca2	-0.07396819
44	0xbd14992c	-0.03627889
45	0xbd6320a0	-0.055451035
46	0xbd5cf97b	-0.05394886
47	0x3dd6f41c	0.10495779
48	0x3d95ddc8	0.07317692
49	0x3d7dc74a	0.061957635
50	0x3cf99b39	0.030469524
51	0x3c8097e6	0.01569743
52	0xbd45d630	-0.04829997
53	0x3da83bf0	0.08214557
54	0x3e361089	0.17779745
55	0x3d288389	0.041141067
56	0xbbbc079f	-0.005738213
57	0x3ce06996	0.027394097
58	0xbd8b5578	-0.06803411
59	0xbc408ccf	-0.011752321
60	0x3c9cda65	0.019147107
61	0x3c048699	0.008088731
62	0xbc9d5319	-0.019204663
63	0x3cf546a5	0.029940913
64	0x3d41df4e	0.0473321
65	0xbd532e7e	-0.05155801
66	0x3cf6ab61	0.030111017
67	0xbd301ca4	-0.042996064
68	0xbd07d913	-0.033166002
69	0xbc903e95	-0.017607966
70	0x3de31ece	0.1108986
71	0x3d8650d1	0.06558383
72	0x3af5f09c	0.0018763724
73	0xbc059ae9	-0.008154609
74	0x3d35a881	0.04435015
75	0x3d9b38f0	0.07579219
76	0xbc28b843	-0.010297838
77	0x3d6e1936	0.05812951
78	0x3debff3d	0.11523292
79	0x3b46bab2	0.0030323681
80	0xbb065e47	-0.002050297
81	0xbc91af0e	-0.017783668
82	0xbe3a3177	-0.18182932
83	0x3d1b00db	0.037842613
84	0x3c8f4861	0.017490568
85	0xbd9495f6	-0.07255165
86	0x3dc4c31d	0.096075274
87	0x3b057156	0.0020361743
88	0xbbc12ab6	-0.005894984
89	0xbdd1a325	-0.102361955
90	0xbd355d25	-0.044278283
91	0xbb4370be	-0.0029821838
92	0xbd5f58c1	-0.054528
93	0xbcbc2dff	-0.022971151
94	0xbd8dc2d0	-0.06921923
95	0x3d9ffc22	0.078117624
96	0xbc248d87	-0.010043508
97	0xbd258dd4	-0.04041846
98	0x3d987868	0.07444841
99	0xbc9de3da	-0.019273687
100	0x3cccfbff	0.025022505
101	0x3d143053	0.036178898
102	0xbdc338d2	-0.09532322
103	0x3da4dbb0	0.080497146
104	0x3c0e7526	0.008694923
105	0x3c048799	0.00808897
106	0xbd1dd446	-0.038532518
107	0xbdb07e41	-0.08617831
108	0x3aa5af07	0.0012640663
109	0x3aad4592	0.0013219586
110	0x3b83d6ce	0.0040234094
111	0x3c237027	0.00997547
112	0xbba0617d	-0.004894434
113	0x3cc88dfb	0.024481764
114	0x3d9dc853	0.077042244
115	0xbd2a5452	-0.04158432
116	0x3c20a5f0	0.009805188
117	0xbce160ea	-0.027512033
118	0x3b3f1604	0.002915741
119	0x3cb53cf8	0.022123799
120	0xbd56a2a4	-0.0524012
121	0xbd4cd1fa	-0.050004937
122	0x3c5dacab	0.013529937
123	0xbd2a5359	-0.041583393
124	0xbdac3812	-0.08409132
125	0x3c9343ab	0.017976603
126	0x3d026bc7	0.031841066
127	0xbdcf05b7	-0.10108512
128	0x3ccb1b9d	0.02479344
129	0xbd975513	-0.073892735
130	0xbd1022db	-0.03518949
131	0xbd8aba1f	-0.06773781
132	0xbdad4f42	-0.08462383
133	0x3d26f62f	0.040762123
134	0x3d1d0262	0.03833235
135	0xbd0c3a44	-0.034235254
136	0xbd0449d0	-0.032296956
137	0x3c1bc6f2	0.0095078815
138	0x3d015ec2	0.03158451
139	0x3caacb09	0.020848768
140	0xbc40ecd6	-0.011775216
141	0xbd0c184d	-0.034202863
142	0x3dcf547b	0.10123535
143	0xbb853f5a	-0.00406639
144	0x3cbfdaee	0.023419823
145	0xbc3a831e	-0.0113838
146	0xbd82a5b9	-0.06379265
147	0x3d8d2830	0.06892431
148	0xbc6a6977	-0.014307371
149	0xbd06795a	-0.032830574
150	0x3ddd0899	0.107926555
151	0x3bef653e	0.00730577
152	0x3dd20dfb	0.10256573
153	0xbbff2f21	-0.0077876006
154	0x3e13d83a	0.14437953
155	0xbda2a1ee	-0.07941042
156	0xbd168022	-0.03674329
157	0x3dbb19d9	0.091357894
158	0xbd07629c	-0.033053026
159	0x3d1f3a77	0.038874116
160	0xbd366d2c	-0.04453771
161	0x3dbb1ed2	0.09136738
162	0xbd9afb89	-0.07567508
163	0x3ccd9cb8	0.025099143
164	0xbb15558b	-0.0022786583
165	0x3c99d304	0.018777378
166	0xbd6f8261	-0.05847395
167	0x3dfd1924	0.12358311
168	0xbc60765a	-0.013700092
169	0xbd08b8ea	-0.033379473
170	0x3da85711	0.082197316
171	0x3d962575	0.07331363
172	0x3d052762	0.03250826
173	0x3d42c214	0.04754837
174	0x3c187a94	0.009306569
175	0xbc9f90da	-0.01947825
176	0x3c6ad173	0.014332163
177	0xbe31b54f	-0.1735432
178	0xbc1037b3	-0.008802342
179	0xbd003832	-0.031303592
180	0xbdab04b7	-0.08350509
181	0x3c0c55e8	0.0085654035
182	0x3d4f4496	0.050602518
183	0x3b21374c	0.002459961
184	0x3d191e49	0.037382398
185	0xbd657ffb	-0.056030255
186	0x3d81c89b	0.063370906
187	0xbca870cd	-0.0205616
188	0xbd789560	-0.06068933
189	0xbd1b831a	-0.037966825
190	0xbdb10639	-0.08643765
191	0x3d57e9ca	0.052713193
192	0xbdae4931	-0.08510054
193	0x3d2b16cc	0.041769788
194	0xbd8a0767	-0.06739693
195	0x3b957ed0	0.0045622364
196	0x3cb99f56	0.022658985
197	0xbca4b354	-0.020105042
198	0x3d94c52e	0.072641715
199	0x3bd4ef0e	0.006498224
200	0xbd8a18f7	-0.06743043
201	0x3d61cd95	0.0551277
202	0xbc9b7664	-0.018977351
203	0xbd818b54	-0.06325403
204	0xbd0c4d79	-0.03425357
205	0x3cdf0d52	0.027228031
206	0xbdea2ac4	-0.11433938
207	0x3e41ead6	0.18937239
208	0x3ca859ad	0.020550573
209	0x3d5378e1	0.05162895
210	0x3c7d13fd	0.01544666
211	0x3db13787	0.08653169
212	0x3d957065	0.07296828
213	0x3d54416c	0.051820204
214	0xbd610ecb	-0.05494575
215	0x3db2e83b	0.08735701
216	0x3d345c46	0.04403331
217	0x3d27ca57	0.04096445
218	0xbdb7f555	-0.0898234
219	0xbc29e16c	-0.010368686
220	0x3da891a9	0.082309075
221	0x3c94ee7c	0.018180124
222	0x3ce78027	0.02825935
223	0x3c9f37fb	0.019435873
224	0xbd6e5179	-0.058183167
225	0x3d6890fc	0.056778893
226	0xbd35cd6e	-0.044385366
227	0x3d8ff6e9	0.07029516
228	0xbd11b3f0	-0.035571992
229	0x3db9b535	0.090677656
230	0xbcaffc39	-0.021482574
231	0x3d5080bf	0.05090403
232	0x3d73c538	0.059514254
233	0xbd066f4d	-0.03282099
234	0x3c97df66	0.018539142
235	0xbdc62704	-0.096754104
236	0x3e39ab65	0.18131788
237	0x3ba2e26a	0.0049708383
238	0x3d4ea554	0.050450638
239	0x3d6c9b81	0.057765488
240	0x3cd598e2	0.026073877
241	0xbda9daf4	-0.08293715
242	0x3da431f3	0.080173396
243	0x3ddf6287	0.109074645
244	0x3cb31036	0.021858316
245	0x3b560549	0.0032656959
246	0x3d9ab296	0.07553594
247	0x3cfc3df9	0.03079127
248	0xbdf6d0df	-0.12051558
249	0x3baae3a0	0.0052151233
250	0x3c1fa480	0.00974381
251	0x3d1c13a1	0.038104657
252	0x3d63f89a	0.055657007
253	0x3d076473	0.03305478
254	0xbd2a0583	-0.041509163
255	0x3d09f39e	0.033679597

network_body._body_endoder.seq_layers.2.bias f4 [256]
0	0x00000000	0.0
1	0x00000000	0.0
2	0x00000000	0.0
3	0x00000000	0.0
4	0x00000000	0.0
5	0x00000000	0.0
6	0x00000000	0.0
7	0x00000000	0.0
8	0x00000000	0.0
9	0x00000000	0.0
10	0x00000000	0.0
11	0x00000000	0.0
12	0x00000000	0.0
13	0x00000000	0.0
14	0x00000000	0.0
15	0x00000000	0.0
16	0x00000000	0.0
17	0x00000000	0.0
18	0x00000000	0.0
19	0x00000000	0.0
20	0x00000000	0.0
21	0x00000000	0.0
22	0x00000000	0.0
23	0x00000000	0.0
24	0x00000000	0.0
25	0x00000000	0.0
26	0x00000000	0.0
27	0x00000000	0.0
28	0x00000000	0.0
29	0x00000000	0.0
30	0x00000000	0.0
31	0x00000000	0.0
32	0x00000000	0.0
33	0x00000000	0.0
34	0x00000000	0.0
35	0x00000000	0.0
36	0x00000000	0.0
37	0x00000000	0.0
38	0x00000000	0.0
39	0x00000000	0.0
40	0x00000000	0.0
41	0x00000000	0.0
42	0x00000000	0.0
43	0x00000000	0.0
44	0x00000000	0.0
45	0x00000000	0.0
46	0x00000000	0.0
47	0x00000000	0.0
48	0x00000000	0.0
49	0x00000000	0.0
50	0x00000000	0.0
51	0x00000000	0.0
52	0x00000000	0.0
53	0x00000000	0.0
54	0x00000000	0.0
55	0x00000000	0.0
56	0x00000000	0.0
57	0x00000000	0.0
58	0x00000000	0.0
59	0x00000000	0.0
60	0x00000000	0.0
61	0x00000000	0.0
62	0x00000000	0.0
63	0x00000000	0.0
64	0x00000000	0.0
65	0x00000000	0.0
66	0x00000000	0.0
67	0x00000000	0.0
68	0x00000000	0.0
69	0x00000000	0.0
70	0x00000000	0.0
71	0x00000000	0.0
72	0x00000000	0.0
73	0x00000000	0.0
74	0x00000000	0.0
75	0x00000000	0.0
76	0x00000000	0.0
77	0x00000000	0.0
78	0x00000000	0.0
79	0x00000000	0.0
80	0x00000000	0.0
81	0x00000000	0.0
82	0x00000000	0.0
83	0x00000000	0.0
84	0x00000000	0.0
85	0x00000000	0.0
86	0x00000000	0.0
87	0x00000000	0.0
88	0x00000000	0.0
89	0x00000000	0.0
90	0x00000000	0.0
91	0x00000000	0.0
92	0x00000000	0.0
93	0x00000000	0.0
94	0x00000000	0.0
95	0x00000000	0.0
96	0x00000000	0.0
97	0x00000000	0.0
98	0x00000000	0.0
99	0x00000000	0.0
100	0x00000000	0.0
101	0x00000000	0.0
102	0x00000000	0.0
103	0x00000000	0.0
104	0x00000000	0.0
105	0x00000000	0.0
106	0x00000000	0.0
107	0x00000000	0.0
108	0x00000000	0.0
109	0x00000000	0.0
110	0x00000000	0.0
111	0x00000000	0.0
112	0x00000000	0.0
113	0x00000000	0.0
114	0x00000000	0.0
115	0x00000000	0.0
116	0x00000000	0.0
117	0x00000000	0.0
118	0x00000000	0.0
119	0x00000000	0.0
120	0x00000000	0.0
121	0x00000000	0.0
122	0x00000000	0.0
123	0x00000000	0.0
124	0x00000000	0.0
125	0x00000000	0.0
126	0x00000000	0.0
127	0x00000000	0.0
128	0x00000000	0.0
129	0x00000000	0.0
130	0x00000000	0.0
131	0x00000000	0.0
132	0x00000000	0.0
133	0x00000000	0.0
134	0x00000000	0.0
135	0x00000000	0.0
136	0x00000000	0.0
137	0x00000000	0.0
138	0x00000000	0.0
139	0x00000000	0.0
140	0x00000000	0.0
141	0x00000000	0.0
142	0x00000000	0.0
143	0x00000000	0.0
144	0x00000000	0.0
145	0x00000000	0.0
146	0x00000000	0.0
147	0x00000000	0.0
148	0x00000000	0.0
149	0x00000000	0.0
150	0x00000000	0.0
151	0x00000000	0.0
152	0x00000000	0.0
153	0x00000000	0.0
154	0x00000000	0.0
155	0x00000000	0.0
156	0x00000000	0.0
157	0x00000000	0.0
158	0x00000000	0.0
159	0x00000000	0.0
160	0x00000000	0.0
161	0x00000000	0.0
162	0x00000000	0.0
163	0x00000000	0.0
164	0x00000000	0.0
165	0x00000000	0.0
166	0x00000000	0.0
167	0x00000000	0.0
168	0x00000000	0.0
169	0x00000000	0.0
170	0x00000000	0.0
171	0x00000000	0.0
172	0x00000000	0.0
173	0x00000000	0.0
174	0x00000000	0.0
175	0x00000000	0.0
176	0x00000000	0.0
177	0x00000000	0.0
178	0x00000000	0.0
179	0x00000000	0.0
180	0x00000000	0.0
181	0x00000000	0.0
182	0x00000000	0.0
183	0x00000000	0.0
184	0x00000000	0.0
185	0x00000000	0.0
186	0x00000000	0.0
187	0x00000000	0.0
188	0x00000000	0.0
189	0x00000000	0.0
190	0x00000000	0.0
191	0x00000000	0.0
192	0x00000000	0.0
193	0x00000000	0.0
194	0x00000000	0.0
195	0x00000000	0.0
196	0x00000000	0.0
197	0x00000000	0.0
198	0x00000000	0.0
199	0x00000000	0.0
200	0x00000000	0.0
201	0x00000000	0.0
202	0x00000000	0.0
203	0x00000000	0.0
204	0x00000000	0.0
205	0x00000000	0.0
206	0x00000000	0.0
207	0x00000000	0.0
208	0x00000000	0.0
209	0x00000000	0.0
210	0x00000000	0.0
211	0x00000000	0.0
212	0x00000000	0.0
213	0x00000000	0.0
214	0x00000000	0.0
215	0x00000000	0.0
216	0x00000000	0.0
217	0x00000000	0.0
218	0x00000000	0.0
219	0x00000000	0.0
220	0x00000000	0.0
221	0x00000000	0.0
222	0x00000000	0.0
223	0x00000000	0.0
224	0x00000000	0.0
225	0x00000000	0.0
226	0x00000000	0.0
227	0x00000000	0.0
228	0x00000000	0.0
229	0x00000000	0.0
230	0x00000000	0.0
231	0x00000000	0.0
232	0x00000000	0.0
233	0x00000000	0.0
234	0x00000000	0.0
235	0x00000000	0.0
236	0x00000000	0.0
237	0x00000000	0.0
238	0x00000000	0.0
239	0x00000000	0.0
240	0x00000000	0.0
241	0x00000000	0.0
242	0x00000000	0.0
243	0x00000000	0.0
244	0x00000000	0.0
245	0x00000000	0.0
246	0x00000000	0.0
247	0x00000000	0.0
248	0x00000000	0.0
249	0x00000000	0.0
250	0x00000000	0.0
251	0x00000000	0.0
252	0x00000000	0.0
253	0x00000000	0.0
254	0x00000000	0.0
255	0x00000000	0.0

action_model._continuous_distribution.log_sigma f4 [1, 2]
0	0x00000000	0.0
1	0x00000000	0.0

action_model._continuous_distribution.mu.weight f4 [2, 256]
0	0xbc8fd407	-0.017557157
1	0xbc8ccf58	-0.017188713
2	0xbb746853	-0.0037293627
3	0xbb190814	-0.0023350762
4	0x3bec5617	0.007212411
5	0xbbbc72f8	-0.00575101
6	0xbc961c5c	-0.01832407
7	0xbc003334	-0.007824708
8	0xbc8a8ea2	-0.016913716
9	0x3c856f19	0.016288327
10	0xbcd13313	-0.02553705
11	0xbba3b760	-0.0049962252
12	0x3d0a1742	0.033713587
13	0xbc3d2c80	-0.011546254
14	0x3c44db6f	0.012015208
15	0xbb3e53b1	-0.0029041583
16	0x3ad2098b	0.0016024573
17	0x3c06c074	0.008224595
18	0x3c0224bf	0.007943331
19	0x3c482da5	0.012217914
20	0x3c37cdda	0.011218512
21	0xbb8ec532	-0.0043570036
22	0xbca9ed97	-0.020743174
23	0x3b109671	0.0022062326
24	0xbcb070f3	-0.021538233
25	0x3b5585c5	0.0032580954
26	0xbbfb53f7	-0.0076699215
27	0x3c19ee36	0.009395173
28	0xba2c6524	-0.00065763504
29	0x3c1f2cb1	0.009715245
30	0x3bbcf7d6	0.005766849
31	0x3c26bef3	0.010177362
32	0x3c527ad0	0.012846664
33	0xbcab8b0f	-0.020940332
34	0x3b7cce50	0.003857512
35	0x3c212e7a	0.009837741
36	0xbcd9565a	-0.026530433
37	0x3c77a238	0.01511436
38	0x3abb10ed	0.0014272012
39	0xbb953c7b	-0.004554329
40	0x3c03db6e	0.008047922
41	0xbc03f84f	-0.008054807
42	0xbbd0da1b	-0.0063736564
43	0x3b06b4ab	0.0020554464
44	0xbbfdd65b	-0.0077465004
45	0x3ba68914	0.005082259
46	0xbc7d76ca	-0.015470216
47	0x3aed5ebb	0.0018109897
48	0xbbed6c88	-0.007245604
49	0x3ca16aee	0.019704308
50	0x3bf0966f	0.007342152
51	0x3c632668	0.013864137
52	0x3c417782	0.011808278
53	0xbc707f45	-0.014678781
54	0x3b5f6f52	0.0034093452
55	0x3ab4ae7f	0.0013784914
56	0x3c8cd86b	0.01719304
57	0xbc2b60a2	-0.010460051
58	0xbc334593	-0.010941881
59	0x3c45d90e	0.012075676
60	0x3c84b12d	0.016197765
61	0xbc5c6c63	-0.013453576
62	0xbb938e88	-0.004503075
63	0xbc2fb5fe	-0.010724543
64	0x3ca0a2b4	0.019608833
65	0xbcaeb297	-0.021325393
66	0x3c167183	0.009182337
67	0xbc573227	-0.013134516
68	0xbcc01f09	-0.023452299
69	0xbc00b277	-0.007855049
70	0xbc298e05	-0.0103488015
71	0xbc0223c6	-0.007943099
72	0xbabfc2af	-0.0014630164
73	0x3c0e1245	0.008671348
74	0x3cdf01e3	0.02722258
75	0xbbe58d90	-0.007005401
76	0x3be6fa30	0.0070488676
77	0x3c5c9ef7	0.013465635
78	0x3c91ea78	0.017811999
79	0x3c9fea90	0.019521028
80	0x3cfd4a88	0.030919328
81	0x3cac5eef	0.021041362
82	0x3b6ec875	0.00364354
83	0xbc0e85d5	-0.0086989
84	0xbc5d5cfd	-0.01351094
85	0xbc504e2f	-0.012713953
86	0x3c817eb2	0.015807483
87	0xbc700eba	-0.014651949
88	0x3ca25834	0.01981745
89	0x3b14ccf5	0.0022705172
90	0x3ca83eff	0.020537851
91	0x3bfd0cbd	0.007722466
92	0x3aba8bc7	0.0014232331
93	0xba18a08b	-0.00058222626
94	0x3b87334b	0.0041259876
95	0xbc55c120	-0.013046533
96	0xbc340937	-0.010988525
97	0xbb65e1aa	-0.0035077133
98	0xba9a0d13	-0.0011753164
99	0xbc99b408	-0.018762603
100	0xbc21fb65	-0.009886597
101	0xbc987163	-0.018608755
102	0x384c3f7a	4.8696507e-05
103	0x3c76ddaf	0.015067502
104	0xbc89ddb0	-0.016829342
105	0xbbc733ea	-0.0060791867
106	0xbb7b40d7	-0.0038338208
107	0x3c1507ae	0.009096069
108	0xbcb80318	-0.022462413
109	0x3b8ddfb5	0.0043296465
110	0x3a1e335c	0.0006034875
111	0xbbb01a0f	-0.0053742
112	0xbc6b118f	-0.014347448
113	0x3c9cd714	0.019145526
114	0x3c559cb8	0.013037853
115	0xbcef66eb	-0.02922388
116	0xbba0faaa	-0.004912694
117	0xbc244568	-0.010026313
118	0x3b65dff5	0.0035076116
119	0x3b388e86	0.0028161122
120	0xbbc509a4	-0.006013112
121	0x3c1fa57a	0.0097440425
122	0x3c90b7fa	0.017665852
123	0xbc0941b4	-0.008377481
124	0x3c98dbdf	0.01865953
125	0xbc8ee4ef	-0.017443148
126	0x3a8511ac	0.0010152361
127	0x3c612a6b	0.013743023
128	0xbb3edd45	-0.0029123586
129	0xbb9b9bd8	-0.0047488026
130	0xbbab090f	-0.0052195857
131	0xbc92cfbb	-0.01792132
132	0x3c484bd6	0.012225112
133	0xbc366f87	-0.011134989
134	0x3c36ccbe	0.011157213
135	0x3b45babf	0.0030171124
136	0xba5f93aa	-0.00085287786
137	0xbc6c1365	-0.014408921
138	0xba9c0380	-0.0011902899
139	0xbc5689d8	-0.013094388
140	0xbbff4e85	-0.0077913427
141	0xbc8cab33	-0.017171478
142	0x3ad64b58	0.0016349358
143	0xbbdd5740	-0.006754786
144	0x3b57057b	0.0032809663
145	0xb94d57ed	-0.00019583078
146	0xbcc9e2d4	-0.024644293
147	0x399662fe	0.00028683984
148	0x3b302747	0.002687888
149	0x3c37d8b2	0.011221098
150	0x3bfcee53	0.00771884
151	0x3b2288a3	0.002480068
152	0xbcb3e659	-0.021960424
153	0x3ad1cbea	0.0016006206
154	0x3a8e0ac4	0.0010836949
155	0x3bc29bf6	0.005939002
156	0x3c1842bb	0.0092932535
157	0xbb472616	-0.0030387691
158	0x3bf9186f	0.0076017897
159	0xbc585935	-0.013204862
160	0xbcd14d83	-0.025549656
161	0x3c3fb746	0.011701411
162	0xbb867d10	-0.004104264
163	0x3ade6c65	0.001696956
164	0x3c86c5c3	0.016451722
165	0xbb8b0cf4	-0.0042434875
166	0x3cab66bb	0.02092301
167	0xbd05a545	-0.032628316
168	0xbc12cb0c	-0.008959543
169	0x3c8a953a	0.01691686
170	0x3be6d162	0.0070440033
171	0xbc074c9d	-0.008258012
172	0x3c75916f	0.014988287
173	0x3c183c99	0.009291791
174	0xbbae3c1b	-0.0053172237
175	0x3b654795	0.0034985293
176	0xbc3b858b	-0.011445413
177	0xbc81abc0	-0.015828967
178	0x3b225e12	0.0024775309
179	0xbb089ff4	-0.0020847293
180	0x3bd473dd	0.0064835385
181	0xbace4fe8	-0.0015740367
182	0xbc569a58	-0.013098322
183	0x3cd148cf	0.025547413
184	0x3cb999a1	0.022656264
185	0xbc32a037	-0.010902456
186	0xbc317007	-0.010829932
187	0xbb43094f	-0.0029760187
188	0x3c1d8dd3	0.009616333
189	0x3bf4441d	0.007454409
190	0x3cefa0f0	0.029251546
191	0xbb37582f	-0.0027976146
192	0x3ca61d93	0.020277774
193	0xbbf353c2	-0.007425756
194	0x3ca308c6	0.019901644
195	0x3ca8f4c1	0.02062452
196	0x3b0cd4a7	0.0021489055
197	0xbc80ecf1	-0.015737982
198	0x3c18953e	0.009312926
199	0xbc90b822	-0.017665926
200	0xbc702a5b	-0.014658536
201	0x3b140537	0.0022586116
202	0xbcda92a7	-0.026681257
203	0xbc18faae	-0.00933711
204	0xbbcc941c	-0.006243242
205	0xbc428d2f	-0.011874481
206	0xbbf074e3	-0.0073381527
207	0xbaac2c48	-0.0013135755
208	0xbceba173	-0.028763508
209	0x3c49897b	0.012300844
210	0xbbce83b0	-0.0063023195
211	0xbcc6aac8	-0.024251357
212	0xbbef7a83	-0.0073083057
213	0x3c8cebe9	0.017202334
214	0x3ba62895	0.0050707557
215	0x3bede535	0.0072599896
216	0xbcadba43	-0.02120698
217	0x3a6b5d22	0.00089784164
218	0x3ac9eee3	0.0015406277
219	0xbbfacb33	-0.0076536178
220	0xbcb8a527	-0.022539688
221	0x3b8e79d5	0.0043480196
222	0xbcc700d0	-0.02429238
223	0x3a5d1bd2	0.00084346265
224	0xbbe20ca7	-0.006898481
225	0xbb4daa27	-0.0031381936
226	0xbc0698c1	-0.00821513
227	0xbcb8115f	-0.02246922
228	0xbc1ac8e0	-0.009447306
229	0x3c008a55	0.007845481
230	0x3c202502	0.009774448
231	0x39c1a45f	0.00036934295
232	0xbc8a6d85	-0.016897926
233	0xbbe5aacb	-0.0070088855
234	0xbaf83552	-0.0018936789
235	0xbc437667	-0.011930085
236	0xbb2f7d21	-0.0026777463
237	0x3bd3f48b	0.006468361
238	0xbab6907a	-0.0013928555
239	0xbbaf3b83	-0.0053476705
240	0xbc675c9f	-0.014121204
241	0x3aaae49f	0.0013038105
242	0x3a7bb435	0.0009601743
243	0xbb07231b	-0.002062029
244	0x3bd1f788	0.006407682
245	0x3b6daddd	0.003626696
246	0x3c14e803	0.009088519
247	0xbc02dd4a	-0.00798733
248	0xbb6c8d65	-0.003609502
249	0xb96d13a8	-0.00022609404
250	0x3ba00041	0.004882843
251	0xbc8deaa1	-0.017323794
252	0x3cba8733	0.022769546
253	0x3bd2a5e7	0.0064284685
254	0x3b159241	0.002282277
255	0x3ac56d65	0.0015062509

action_model._continuous_distribution.mu.bias f4 [2]
0	0x00000000	0.0
1	0x00000000	0.0

network_body.observation_encoder.processors.0.normalizer.running_mean f4 [20]
0	0x3f5b69a7	0.8570809
1	0x3e10af00	0.14129257
2	0x3ac6fb48	0.0015181089
3	0x3d9d37fc	0.07676694
4	0x3f3dee91	0.7419215
5	0x3e8414a7	0.25797006
6	0x00000000	0.0
7	0x3e065f82	0.13122371
8	0x3f40fc47	0.75384945
9	0x3e7b2b79	0.24528302
10	0x3a46fb47	0.0007590544
11	0x3e08a97c	0.13345903
12	0x3ee67609	0.4501193
13	0x3f0cbde0	0.54977226
14	0x00000000	0.0
15	0x3e91d3b4	0.2848183
16	0x3ed686e9	0.41899803
17	0x3f142033	0.5786163
18	0x3b153c75	0.002277163
19	0x3e89b07b	0.26892456

network_body.observation_encoder.processors.0.normalizer.running_variance f4 [20]
0	0x448d543e	1130.6326
1	0x448bfcab	1119.8959
2	0x416fa8f2	14.978746
3	0x429ad359	77.41279
4	0x44dcd8bd	1766.7731
5	0x44dcc941	1766.2892
6	0x3f800000	1.0
7	0x4323350a	163.20718
8	0x44d607a0	1712.2383
9	0x44d58570	1708.1699
10	0x40ffd479	7.9946866
11	0x431a43f6	154.26547
12	0x450eb8e0	2283.5547
13	0x450eba7a	2283.6548
14	0x3f800000	1.0
15	0x43919d83	291.23056
16	0x450c5fdd	2245.9915
17	0x450c980c	2249.503
18	0x41af9e10	21.952179
19	0x4379ed4d	249.92696

network_body.observation_encoder.processors.1.normalizer.running_mean f4 [12]
0	0x3e1c7427	0.15278684
1	0x3e1d0247	0.153329
2	0x3f3177c1	0.69323355
3	0x3f356817	0.70861953
4	0x3e1f9013	0.15582304
5	0x3e1c3b4b	0.15256993
6	0x3f30e285	0.6909564
7	0x3f34f5c5	0.70687515
8	0x3e195838	0.14975059
9	0x3e1c7426	0.15278682
10	0x3f3245d8	0.69637823
11	0x3f35f8e8	0.71082926

network_body.observation_encoder.processors.1.normalizer.running_variance f4 [12]
0	0x44955727	1194.7235
1	0x4495c62c	1198.1929
2	0x44f5450c	1962.1577
3	0x44e0682c	1795.2554
4	0x4497c2a2	1214.0823
5	0x44952ab1	1193.3341
6	0x44f6473a	1970.2258
7	0x44e0c85a	1798.261
8	0x4492e638	1175.1943
9	0x44955727	1194.7235
10	0x44f3db7e	1950.8591
11	0x44e01aa3	1792.8324

network_body.observation_encoder.processors.2.normalizer.running_mean f4 [3]
0	0x3f2559e8	0.6459031
1	0x3d01c261	0.031679515
2	0xbe9834ae	-0.2972769

network_body.observation_encoder.processors.2.normalizer.running_variance f4 [3]
0	0x45ce77c9	6606.973
1	0x3f9f64ab	1.2452596
2	0x45a14341	5160.4067

network_body.processors.0.normalizer.running_mean f4 [20]
0	0x3f5b69a7	0.8570809
1	0x3e10af00	0.14129257
2	0x3ac6fb48	0.0015181089
3	0x3d9d37fc	0.07676694
4	0x3f3dee91	0.7419215
5	0x3e8414a7	0.25797006
6	0x00000000	0.0
7	0x3e065f82	0.13122371
8	0x3f40fc47	0.75384945
9	0x3e7b2b79	0.24528302
10	0x3a46fb47	0.0007590544
11	0x3e08a97c	0.13345903
12	0x3ee67609	0.4501193
13	0x3f0cbde0	0.54977226
14	0x00000000	0.0
15	0x3e91d3b4	0.2848183
16	0x3ed686e9	0.41899803
17	0x3f142033	0.5786163
18	0x3b153c75	0.002277163
19	0x3e89b07b	0.26892456

network_body.processors.0.normalizer.running_variance f4 [20]
0	0x448d543e	1130.6326
1	0x448bfcab	1119.8959
2	0x416fa8f2	14.978746
3	0x429ad359	77.41279
4	0x44dcd8bd	1766.7731
5	0x44dcc941	1766.2892
6	0x3f800000	1.0
7	0x4323350a	163.20718
8	0x44d607a0	1712.2383
9	0x44d58570	1708.1699
10	0x40ffd479	7.9946866
11	0x431a43f6	154.26547
12	0x450eb8e0	2283.5547
13	0x450eba7a	2283.6548
14	0x3f800000	1.0
15	0x43919d83	291.23056
16	0x450c5fdd	2245.9915
17	0x450c980c	2249.503
18	0x41af9e10	21.952179
19	0x4379ed4d	249.92696

network_body.processors.1.normalizer.running_mean f4 [12]
0	0x3e1c7427	0.15278684
1	0x3e1d0247	0.153329
2	0x3f3177c1	0.69323355
3	0x3f356817	0.70861953
4	0x3e1f9013	0.15582304
5	0x3e1c3b4b	0.15256993
6	0x3f30e285	0.6909564
7	0x3f34f5c5	0.70687515
8	0x3e195838	0.14975059
9	0x3e1c7426	0.15278682
10	0x3f3245d8	0.69637823
11	0x3f35f8e8	0.71082926

network_body.processors.1.normalizer.running_variance f4 [12]
0	0x44955727	1194.7235
1	0x4495c62c	1198.1929
2	0x44f5450c	1962.1577
3	0x44e0682c	1795.2554
4	0x4497c2a2	1214.0823
5	0x44952ab1	1193.3341
6	0x44f6473a	1970.2258
7	0x44e0c85a	1798.261
8	0x4492e638	1175.1943
9	0x44955727	1194.7235
10	0x44f3db7e	1950.8591
11	0x44e01aa3	1792.8324

network_body.processors.2.normalizer.running_mean f4 [3]
0	0x3f2559e8	0.6459031
1	0x3d01c261	0.031679515
2	0xbe9834ae	-0.2972769

network_body.processors.2.normalizer.running_variance f4 [3]
0	0x45ce77c9	6606.973
1	0x3f9f64ab	1.2452596
2	0x45a14341	5160.4067

network_body._body_endoder.seq_layers.0.weight f4 [256, 35]
0	0x3d99920e	0.07498561
1	0xbedf342a	-0.43594486
2	0xbdb8e4de	-0.09028028
3	0xbd40522f	-0.046953376
4	0xbe73479c	-0.23757786
5	0x3db35a16	0.08757417
6	0xbe81b626	-0.2533428
7	0xbe38f0d6	-0.18060622
8	0x3e72cb97	0.23710476
9	0xbdcdfa3f	-0.10057496
10	0xbd27fd98	-0.04101333
11	0xbe11b708	-0.14229977
12	0xbdc02ea5	-0.09383897
13	0xbd572f47	-0.05253532
14	0x3d8e7d5e	0.06957506
15	0xbbe74087	-0.007057253
16	0xbc08b532	-0.008343982
17	0xbda3514f	-0.07974493
18	0x3daed540	0.08536768
19	0xbccd342f	-0.025049297
20	0xbd4c08c3	-0.049813043
21	0xbec9499a	-0.39313966
22	0x3db55779	0.08854575
23	0xbe27c9db	-0.16385596
24	0xbd1f0ec9	-0.03883246
25	0x3e1fd2d7	0.15607773
26	0xbdf1608e	-0.117859945
27	0x3e26005d	0.16211076
28	0x3dd6ecfe	0.104944214
29	0x3d8432e0	0.06455016
30	0xbcaa7cd5	-0.020811478
31	0xbd1e8352	-0.038699456
32	0xbe059968	-0.13046801
33	0x3da7986f	0.08183371
34	0xbda89a76	-0.08232586
35	0x3e81be39	0.2534044
36	0xbe1d5252	-0.15363434
37	0xbe3db7d8	-0.18527162
38	0xbcff2a94	-0.031148233
39	0x3e979130	0.29602957
40	0x3d90de8d	0.07073698
41	0xbe11f85a	-0.14254895
42	0xbd7a2a84	-0.061075702
43	0x3da8cd6b	0.08242305
44	0x3de851df	0.11343741
45	0xbd5183f6	-0.05115124
46	0xbdaa4d60	-0.08315539
47	0x3e03ed2c	0.12883443
48	0xbd25a414	-0.04043968
49	0xbc8db5ee	-0.017298665
50	0x3e80d3e7	0.2516167
51	0xbd48a32c	-0.048983738
52	0x3cec7ec7	0.028869046
53	0x3d0c44c2	0.03424526
54	0x3c2754ea	0.010213116
55	0x3ea4b8c7	0.32172224
56	0xbbf1bae8	-0.0073770173
57	0x3de4bd71	0.111689456
58	0x3d8dca68	0.069233716
59	0xbd6beb53	-0.05759747
60	0x3dd3d25e	0.10342859
61	0xbc2e80ce	-0.010650827
62	0x3df48603	0.11939623
63	0x3df66d64	0.12032583
64	0x3df793c1	0.12088729
65	0x3dfcb886	0.123398826
66	0x3ed371f9	0.41297892
67	0x3da0eea5	0.07858018
68	0xbe68a700	-0.22719955
69	0x3e6bc974	0.23026067
70	0x3e58f4f3	0.2118719
71	0xbe5e5c91	-0.21714999
72	0xbdc30cc5	-0.0952392
73	0xbe0ed52b	-0.13948505
74	0xbda0ea1d	-0.078571536
75	0x3cc6b44c	0.024255894
76	0x3dd2509e	0.10269283
77	0xbbcd0d45	-0.0062576854
78	0x3e61adbd	0.22038932
79	0x3e1e7074	0.15472585
80	0x3d650b64	0.055919066
81	0xbde4ac66	-0.11165695
82	0xbe16e925	-0.14737375
83	0xbd267b4b	-0.040644925
84	0x3dd92cca	0.10604246
85	0xbe73c1f8	-0.23804462
86	0xbdec41f0	-0.11536014
87	0xbe938e18	-0.28819346
88	0x3d7d2cd9	0.06181035
89	0x3e74cb9b	0.23905794
90	0xbca082ea	-0.019593675
91	0xbc56430c	-0.013077509
92	0x3e683ddd	0.22679849
93	0xbdff4b20	-0.12465501
94	0x3e274373	0.16334324
95	0xbb6aa124	-0.0035801614
96	0x3d3acc87	0.04560521
97	0xbd7b0927	-0.061288025
98	0x3e007fd1	0.12548758
99	0xbcd0addc	-0.025473528
100	0x3d834440	0.06409502
101	0x3e178b08	0.1479913
102	0xbdab7727	-0.08372336
103	0x3db12452	0.08649506
104	0x3ddfe3b7	0.10932105
105	0xbe8214c4	-0.25406468
106	0x3d632741	0.055457357
107	0x3dfab39e	0.122412905
108	0x3e6e2855	0.23257573
109	0xbe30ce6d	-0.17266245
110	0xbde5e0ba	-0.11224504
111	0x3dae3f2b	0.08508142
112	0xbc1ebce3	-0.009688589
113	0x3da38376	0.079840586
114	0xbe13fe9b	-0.14452593
115	0x3c6721b2	0.014107155
116	0xbc5b7149	-0.0133937085
117	0x3e2a27d3	0.16616754
118	0x3e38ab5e	0.18034121
119	0xbe6ac104	-0.22925192
120	0xbe08169c	-0.13289875
121	0xbe06d209	-0.1316606
122	0x3bbfcd17	0.005853306
123	0x3d4a57b0	0.04940003
124	0xbddbd78d	-0.107344724
125	0x3cdbe126	0.026840758
126	0xbb180ff4	-0.0023202868
127	0x3e6b750b	0.22993867
128	0x3dc9d147	0.098543696
129	0x3e155c8f	0.1458609
130	0x3e38759d	0.18013616
131	0x3e604ce5	0.21904333
132	0xbe2d2ef2	-0.1691244
133	0xbcb05881	-0.021526577
134	0xbea4ef17	-0.3221366
135	0xbe8325a5	-0.25614658
136	0x3e85b464	0.2611419
137	0x3da6b323	0.08139636
138	0xbea30c0f	-0.31845137
139	0x3eb08ca0	0.34482288
140	0x3e1df405	0.15425117
141	0xbe2c21a6	-0.16809711
142	0x3e9df825	0.30853382
143	0xbe286510	-0.16444802
144	0x3daf0c20	0.085472345
145	0xbdd1ae26	-0.10238294
146	0x3ccbc22d	0.024872864
147	0xbdb93b45	-0.09044508
148	0xbd6d1058	-0.057876915
149	0x3e74c7ab	0.23904292
150	0xbd7605c6	-0.0600641
151	0x3b68b026	0.0035505383
152	0x3c928d7e	0.017889734
153	0xbd9d6029	-0.07684357
154	0xbdb0c0cf	-0.08630525
155	0xbbf74ecd	-0.0075472356
156	0xbecc2320	-0.39870548
157	0xbd317369	-0.043322954
158	0xbd8bebdf	-0.06832098
159	0xbe318414	-0.1733554
160	0xbdc41392	-0.09574045
161	0xbe275785	-0.1634198
162	0xbdad94ba	-0.08475633
163	0xbe2d94c4	-0.16951281
164	0xbc60774e	-0.013700319
165	0x3cac1646	0.021006715
166	0x3dfaeacc	0.12251815
167	0x3e4906a0	0.19631433
168	0xbd988020	-0.07446313
169	0xbc8f9a7f	-0.017529724
170	0xbea19142	-0.31556135
171	0x3e4d4d66	0.20049056
172	0xbe349b63	-0.176374
173	0xbd8a4ca9	-0.06752903
174	0x3e969e64	0.29417717
175	0x3db7ce77	0.08974927
176	0xbe2e69f5	-0.17032607
177	0xbdfdcebc	-0.12392947
178	0x3c914b38	0.017736062
179	0xbe859a28	-0.26094174
180	0x3eb9bbfc	0.36276233
181	0x3e6944ae	0.22780105
182	0x3dc29f66	0.09503059
183	0x3dfb20d6	0.12262122
184	0xbe6fd4c2	-0.23421004
185	0xbe1ca462	-0.15297082
186	0x3e2791bc	0.16364187
187	0x3e3a2b6f	0.18180631
188	0xbe030725	-0.12795694
189	0xbe1212f1	-0.14265038
190	0xbdc187e0	-0.09449744
191	0x3e1b217a	0.15149489
192	0x3cbca54e	0.023028042
193	0x3db4276d	0.08796582
194	0x3e1ebd3f	0.15501879
195	0x3d19cb41	0.037547354
196	0x3dbdb3cf	0.092628114
197	0x3e6b5843	0.22982888
198	0x3e0b3844	0.13595682
199	0xbe96933d	-0.2940921
200	0x3d9df6a3	0.07713058
201	0x3e67df01	0.22643663
202	0xbdde8e99	-0.10867042
203	0x3db1b000	0.086761475
204	0x3e1abe6a	0.151117
205	0xbdc3be2c	-0.09557757
206	0xbdc20c1b	-0.09474965
207	0xbeabdad0	-0.33565378
208	0xbe52fe28	-0.20604765
209	0xbe2e45e4	-0.17018849
210	0x3c90b6dd	0.017665321
211	0x3e73a906	0.23794946
212	0x3e3b1e70	0.1827333
213	0x3e2f0dc1	0.1709509
214	0x3e12125e	0.14264819
215	0xbea6ced0	-0.3257966
216	0x3dcf38be	0.101182446
217	0xbe62570a	-0.22103515
218	0x3e7ec9cb	0.24881665
219	0x3db660f5	0.08905212
220	0x3d77b13a	0.06047175
221	0xbeb8156f	-0.35953853
222	0x3e151524	0.14558846
223	0xbd681f49	-0.05667046
224	0xbd9432d7	-0.072362594
225	0x3de74df1	0.11294163
226	0xbe31e38d	-0.1737196
227	0xbe10a71f	-0.14126252
228	0x3c181204	0.009281639
229	0x3e790fef	0.24322484
230	0x3d38b965	0.04509868
231	0xbd5fa6e3	-0.054602515
232	0x3ea633f5	0.32461515
233	0xbc8b058c	-0.016970418
234	0x3e2fcb7b	0.17167465
235	0x3d831aa4	0.06401566
236	0x3e16d009	0.14727797
237	0x3d35b68c	0.044363543
238	0x3d835d5e	0.06414293
239	0x3e03e7eb	0.12881438
240	0x3d52a8b0	0.051430404
241	0x3d096d12	0.033551283
242	0xbcbc52f4	-0.022988774
243	0x3dcee052	0.101013795
244	0x3d719a18	0.058984846
245	0xbd2c5a78	-0.042078465
246	0x3c8e48c5	0.017368684
247	0xbd40f7c3	-0.047111284
248	0xbdae5a87	-0.085133605
249	0x3d271c3c	0.04079841
250	0xbdf93120	-0.12167573
251	0x3c906e2b	0.017630657
252	0x3e1aeef5	0.15130217
253	0xbe0235cd	-0.12715836
254	0x3dde90c4	0.108674556
255	0xbd8d30b5	-0.06894056

network_body._body_endoder.seq_layers.0.bias f4 [256]
0	0x00000000	0.0
1	0x00000000	0.0
2	0x00000000	0.0
3	0x00000000	0.0
4	0x00000000	0.0
5	0x00000000	0.0
6	0x00000000	0.0
7	0x00000000	0.0
8	0x00000000	0.0
9	0x00000000	0.0
10	0x00000000	0.0
11	0x00000000	0.0
12	0x00000000	0.0
13	0x00000000	0.0
14	0x00000000	0.0
15	0x00000000	0.0
16	0x00000000	0.0
17	0x00000000	0.0
18	0x00000000	0.0
19	0x00000000	0.0
20	0x00000000	0.0
21	0x00000000	0.0
22	0x00000000	0.0
23	0x00000000	0.0
24	0x00000000	0.0
25	0x00000000	0.0
26	0x00000000	0.0
27	0x00000000	0.0
28	0x00000000	0.0
29	0x00000000	0.0
30	0x00000000	0.0
31	0x00000000	0.0
32	0x00000000	0.0
33	0x00000000	0.0
34	0x00000000	0.0
35	0x00000000	0.0
36	0x00000000	0.0
37	0x00000000	0.0
38	0x00000000	0.0
39	0x00000000	0.0
40	0x00000000	0.0
41	0x00000000	0.0
42	0x00000000	0.0
43	0x00000000	0.0
44	0x00000000	0.0
45	0x00000000	0.0
46	0x00000000	0.0
47	0x00000000	0.0
48	0x00000000	0.0
49	0x00000000	0.0
50	0x00000000	0.0
51	0x00000000	0.0
52	0x00000000	0.0
53	0x00000000	0.0
54	0x00000000	0.0
55	0x00000000	0.0
56	0x00000000	0.0
57	0x00000000	0.0
58	0x00000000	0.0
59	0x00000000	0.0
60	0x00000000	0.0
61	0x00000000	0.0
62	0x00000000	0.0
63	0x00000000	0.0
64	0x00000000	0.0
65	0x00000000	0.0
66	0x00000000	0.0
67	0x00000000	0.0
68	0x00000000	0.0
69	0x00000000	0.0
70	0x00000000	0.0
71	0x00000000	0.0
72	0x00000000	0.0
73	0x00000000	0.0
74	0x00000000	0.0
75	0x00000000	0.0
76	0x00000000	0.0
77	0x00000000	0.0
78	0x00000000	0.0
79	0x00000000	0.0
80	0x00000000	0.0
81	0x00000000	0.0
82	0x00000000	0.0
83	0x00000000	0.0
84	0x00000000	0.0
85	0x00000000	0.0
86	0x00000000	0.0
87	0x00000000	0.0
88	0x00000000	0.0
89	0x00000000	0.0
90	0x00000000	0.0
91	0x00000000	0.0
92	0x00000000	0.0
93	0x00000000	0.0
94	0x00000000	0.0
95	0x00000000	0.0
96	0x00000000	0.0
97	0x00000000	0.0
98	0x00000000	0.0
99	0x00000000	0.0
100	0x00000000	0.0
101	0x00000000	0.0
102	0x00000000	0.0
103	0x00000000	0.0
104	0x00000000	0.0
105	0x00000000	0.0
106	0x00000000	0.0
107	0x00000000	0.0
108	0x00000000	0.0
109	0x00000000	0.0
110	0x00000000	0.0
111	0x00000000	0.0
112	0x00000000	0.0
113	0x00000000	0.0
114	0x00000000	0.0
115	0x00000000	0.0
116	0x00000000	0.0
117	0x00000000	0.0
118	0x00000000	0.0
119	0x00000000	0.0
120	0x00000000	0.0
121	0x00000000	0.0
122	0x00000000	0.0
123	0x00000000	0.0
124	0x00000000	0.0
125	0x00000000	0.0
126	0x00000000	0.0
127	0x00000000	0.0
128	0x00000000	0.0
129	0x00000000	0.0
130	0x00000000	0.0
131	0x00000000	0.0
132	0x00000000	0.0
133	0x00000000	0.0
134	0x00000000	0.0
135	0x00000000	0.0
136	0x00000000	0.0
137	0x00000000	0.0
138	0x00000000	0.0
139	0x00000000	0.0
140	0x00000000	0.0
141	0x00000000	0.0
142	0x00000000	0.0
143	0x00000000	0.0
144	0x00000000	0.0
145	0x00000000	0.0
146	0x00000000	0.0
147	0x00000000	0.0
148	0x00000000	0.0
149	0x00000000	0.0
150	0x00000000	0.0
151	0x00000000	0.0
152	0x00000000	0.0
153	0x00000000	0.0
154	0x00000000	0.0
155	0x00000000	0.0
156	0x00000000	0.0
157	0x00000000	0.0
158	0x00000000	0.0
159	0x00000000	0.0
160	0x00000000	0.0
161	0x00000000	0.0
162	0x00000000	0.0
163	0x00000000	0.0
164	0x00000000	0.0
165	0x00000000	0.0
166	0x00000000	0.0
167	0x00000000	0.0
168	0x00000000	0.0
169	0x00000000	0.0
170	0x00000000	0.0
171	0x00000000	0.0
172	0x00000000	0.0
173	0x00000000	0.0
174	0x00000000	0.0
175	0x00000000	0.0
176	0x00000000	0.0
177	0x00000000	0.0
178	0x00000000	0.0
179	0x00000000	0.0
180	0x00000000	0.0
181	0x00000000	0.0
182	0x00000000	0.0
183	0x00000000	0.0
184	0x00000000	0.0
185	0x00000000	0.0
186	0x00000000	0.0
187	0x00000000	0.0
188	0x00000000	0.0
189	0x00000000	0.0
190	0x00000000	0.0
191	0x00000000	0.0
192	0x00000000	0.0
193	0x00000000	0.0
194	0x00000000	0.0
195	0x00000000	0.0
196	0x00000000	0.0
197	0x00000000	0.0
198	0x00000000	0.0
199	0x00000000	0.0
200	0x00000000	0.0
201	0x00000000	0.0
202	0x00000000	0.0
203	0x00000000	0.0
204	0x00000000	0.0
205	0x00000000	0.0
206	0x00000000	0.0
207	0x00000000	0.0
208	0x00000000	0.0
209	0x00000000	0.0
210	0x00000000	0.0
211	0x00000000	0.0
212	0x00000000	0.0
213	0x00000000	0.0
214	0x00000000	0.0
215	0x00000000	0.0
216	0x00000000	0.0
217	0x00000000	0.0
218	0x00000000	0.0
219	0x00000000	0.0
220	0x00000000	0.0
221	0x00000000	0.0
222	0x00000000	0.0
223	0x00000000	0.0
224	0x00000000	0.0
225	0x00000000	0.0
226	0x00000000	0.0
227	0x00000000	0.0
228	0x00000000	0.0
229	0x00000000	0.0
230	0x00000000	0.0
231	0x00000000	0.0
232	0x00000000	0.0
233	0x00000000	0.0
234	0x00000000	0.0
235	0x00000000	0.0
236	0x00000000	0.0
237	0x00000000	0.0
238	0x00000000	0.0
239	0x00000000	0.0
240	0x00000000	0.0
241	0x00000000	0.0
242	0x00000000	0.0
243	0x00000000	0.0
244	0x00000000	0.0
245	0x00000000	0.0
246	0x00000000	0.0
247	0x00000000	0.0
248	0x00000000	0.0
249	0x00000000	0.0
250	0x00000000	0.0
251	0x00000000	0.0
252	0x00000000	0.0
253	0x00000000	0.0
254	0x00000000	0.0
255	0x00000000	0.0
