Experimentos/results/ppo2/KartAgent/KartAgent-829876.onnx (onnx, 309439 bytes, 13 tensors)

network_body.observation_encoder.processors.0.normalizer.running_mean f4 [20]
0.6560324 0.2290883 0.0031896275 0.13949445 0.54923254 0.19936232 0.003499311 0.16169786
0.7928321 0.12739834 0.0020834408 0.14200012 0.48308712 0.27031618 0.002014757 0.2175117
0.55352503 0.21511278 0.0030221352 0.23078932
00000000: bdf1 273f 2096 6a3e 1209 513b a2d7 0e3e
00000010: 819a 0c3f a325 4c3e b254 653b 2094 253e
00000020: 0bf7 4a3f b674 023e 568a 083b 7b68 113e
00000030: 3257 f73e e266 8a3e 030a 043b 63bb 5e3e
00000040: d1b3 0d3f 8646 5c3e 040f 463b 0954 6c3e

network_body.observation_encoder.processors.1.normalizer.running_mean f4 [12]
0.3936352 0.26104707 0.12535599 0.19637214 0.39055184 0.26162684 0.118473016 0.1889996
0.39916384 0.25864068 0.13316916 0.20495528
00000000: 8e8a c93e f6a7 853e 525d 003e c715 493e
00000010: 69f6 c73e f4f3 853e fba1 f23d 1c89 413e
00000020: 345f cc3e 8d6c 843e 7f5d 083e ccdf 513e

network_body.observation_encoder.processors.2.normalizer.running_mean f4 [3]
-0.018435346 0.06979164 -0.109151736
00000000: b905 97bc ebee 8e3d f28a dfbd

network_body._body_endoder.seq_layers.0.weight f4 [256, 35]
0.14535843 0.22427379 0.1684522 0.0034457075 -0.37900537 0.6547886 0.16681854 0.066000596
0.026749764 -0.017577598 0.3266279 -0.022377213 -0.17464018 -0.27216616 -0.067089655 0.000981228
0.3323802 -0.07846014 0.14910994 0.2545829 -0.08351206 0.035040352 -0.1466437 0.19872358
-0.029604381 -0.2705603 -0.028516425 -0.047296066 -0.13618785 0.12044646 0.08057938 0.018224716
0.012242477 0.13260965 0.06346149 -0.3541757 -0.1532557 0.2659662 0.0414725 -0.16189934
0.15350601 0.15257247 -0.13093984 -0.020923905 -0.38200167 -0.15248178 -0.11629896 -0.35506824
-0.09169174 0.041472413 -0.10756613 -0.07387563 -0.02339814 0.18637925 0.2493689 0.13600649
0.19593225 0.16330124 0.09232527 -0.02740228 0.14544769 -0.02714806 0.070127174 0.078346185
0.20865217 0.10210622 0.10782575 -0.13573922 0.1851698 0.11341525 -0.07347308 0.07813639
0.02795521 0.021301702 -0.0584027 -0.15948328 0.33277905 -0.010542579 0.06624016 0.06660278
-0.09954764 0.24310571 0.08769817 -0.21713576 0.2016979 -0.2509798 0.03672342 -0.18478751
0.09125896 0.15181305 -0.062195025 -0.098939 -0.12882845 0.038633946 0.27940932 -0.19057184
-0.012315688 0.23517452 0.2463167 -0.201888 -0.09135471 0.061013527 0.027909823 0.12758505
0.054617733 -0.13564235 0.13972262 0.10630179 0.09926087 -0.11904803 0.07140242 0.35248107
-0.039212942 0.038918007 0.23532334 -0.5159284 -0.08244071 0.258793 -0.057933696 -0.062290587
-0.06720446 -0.27674085 0.032158237 -0.08285242 0.0937015 0.085885316 -0.10105054 0.116431594
0.17543177 0.067616 -0.08540837 -0.23944655 -0.03479901 -0.10905738 0.007901509 0.19167937
-0.0042632013 -0.18764989 0.19071352 0.19380537 0.30501688 -0.14400227 -0.009467282 -0.10873843
0.122682974 0.41602594 0.14808577 -0.2500263 -0.19888389 0.20398372 -0.1507481 0.0068269675
-0.08684958 -0.10957922 0.09432912 0.058136992 -0.07059076 -0.07558121 -0.014330569 -0.21114075
0.34944463 0.066598594 0.12281653 -0.006225425 -0.16566944 -0.025143722 0.17595315 -0.014445908
-0.1389182 0.21227863 -0.15177855 -0.046569634 0.30582935 0.24153262 0.24451153 0.21796432
-0.14455457 -0.2387796 0.014010375 0.07821705 0.051984742 0.0056790677 -0.054780696 -0.15212649
-0.40814576 0.18970908 -0.08339019 0.07762359 0.010330045 -0.11432749 0.42686912 0.014432352
-0.16113333 0.10449488 -0.052587822 -0.01641085 -0.12246628 -0.15356459 -0.30806932 -0.3497388
0.12200458 -0.12795426 -0.21452141 -0.17494094 -0.11635204 -0.042871833 -0.3531181 -0.04244789
-0.25007373 -0.18079613 0.04525865 -0.15763853 -0.19214763 0.26636192 -0.13211405 -0.010782772
-0.07670781 0.12037857 0.27389967 -0.1678686 -0.0541194 0.050107762 -0.020957183 0.059817966
0.2509304 0.024390094 -0.1542867 0.10898332 -0.09382262 -0.3393047 -0.043594044 0.23424551
-0.039419 0.025267849 -0.0167357 0.027427027 0.12913635 0.07263151 -0.030948145 0.13229585
0.13245076 -0.094066426 0.01661657 -0.13953662 0.29349738 -0.10600865 -0.11241075 -0.032943927
0.28453937 0.2845076 -0.07738996 0.07411923 0.13617408 0.032462776 0.064347036 -0.06788593
00000000: d7d8 143e 07a8 653e bc7e 2c3e 61d1 613b
00000010: fe0c c2be 3aa0 273f 7bd2 2a3e 522b 873d
00000020: 5222 db3c e5fe 8fbc c63b a73e 6b50 b7bc
00000030: e0d4 32be 5d59 8bbe 4d66 89bd 8c9c 803a
00000040: bd2d aa3e b6af a0bd 47b0 183e b158 823e
00000050: 5f08 abbd 7986 0f3d c429 16be 327e 4b3e
00000060: e384 f2bc e186 8abe 479b e9bc 85b9 41bd
00000070: d474 0bbe a2ac f63d cd06 a53d 004c 953c
00000080: ac94 483c d3ca 073e 19f8 813d 8456 b5be
00000090: 10ef 1cbe b92c 883e 11df 293d f1c8 25be
000000a0: ae30 1d3e f53b 1c3e 1815 06be 9c68 abbc
000000b0: b995 c3be 2f24 1cbe 262e eebd 81cb b5be
000000c0: e1c8 bbbd fade 293d a24b dcbd 1b4c 97bd
000000d0: 75ad bfbc 34da 3e3e 905a 7f3e 4945 0b3e
000000e0: 77a2 483e 7138 273e 0815 bd3d bf7a e0bc
000000f0: 3df0 143e 9c65 debc d69e 8f3d f773 a03d
00000100: eaa8 553e 111d d13d bfd3 dc3d 39ff 0abe
00000110: 279d 3d3e 4146 e83d 0e79 96bd f905 a03d
00000120: 5302 e53c e880 ae3c ab37 6fbd 964f 23be
00000130: 0462 aa3e c8ba 2cbc eca8 873d 0a67 883d
00000140: a2df cbbd b4f0 783e 199b b33d d658 5ebe
00000150: e589 4e3e 6d80 80be 4c6b 163d f038 3dbe
00000160: fae5 ba3d e174 1b3e 36c0 7ebd 88a0 cabd
00000170: 9beb 03be a13e 1e3d bd0e 8f3e 4425 43be
00000180: bdc7 49bc 97d1 703e 723a 7c3e babb 4ebe
00000190: 2e18 bbbd 52e9 793d 24a3 e43c a8a5 023e
000001a0: d8b6 5f3d d4e5 0abe 7213 0f3e c1b4 d93d
000001b0: 4849 cb3d 74cf f3bd 6f3b 923d 6678 b43e
000001c0: c09d 20bd 7d68 1f3d 9af8 703e e213 04bf
000001d0: add6 a8bd 8480 843e e24b 6dbd 6a24 7fbd
000001e0: 7ea2 89bd fab0 8dbe 5bb8 033d 88ae a9bd
000001f0: 92e6 bf3d a4e4 af3d 96f3 cebd b073 ee3d
00000200: 63a4 333e 427a 8a3d 95ea aebd 7a31 75be
00000210: 6889 0ebd 7a59 dfbd 5575 013c 9947 443e
00000220: 53b2 8bbb 4b27 40be 684a 433e ea74 463e
00000230: 2c2b 9c3e 5575 13be a91c 1bbc 41b2 debd
00000240: 3641 fb3d 5a01 d53e cca3 173e 7203 80be
00000250: 38a8 4bbe 1ce1 503e b65d 1abe c1b4 df3b
00000260: 31de b1bd 126b e0bd a02f c13d 0e21 6e3d
00000270: e391 90bd 52ca 9abd c3ca 6abc 4835 58be
00000280: 68ea b23e d864 883d 3c87 fb3d a6fe cbbb
00000290: 40a5 29be 35fa cdbc 102d 343e 88ae 6cbc
000002a0: 9340 0ebe 925f 593e d66b 1bbe cdbf 3ebd
000002b0: aa95 9c3e 5454 773e 3b61 7a3e 0a32 5f3e
000002c0: 1d06 14be a482 74be c68b 653c 4330 a03d
000002d0: f4ed 543d 7917 ba3b b961 60bd 0cc7 1bbe
000002e0: 7bf8 d0be 1943 423e 7ac8 aabd 1ef9 9e3d
000002f0: 593f 293c 8824 eabd 978e da3e ac75 6c3c
00000300: 2300 25be 6901 d63d 5466 57bd 0c70 86bc
00000310: 9acf fabd 0940 1dbe 43bb 9dbe f710 b3be
00000320: 8add f93d 7106 03be 80ab 5bbe b823 33be
00000330: fa49 eebd 609a 2fbd e5cb b4be d7dd 2dbd
00000340: aa09 80be 9f22 39be 2261 393d ff6b 21be
00000350: 59c2 44be 9760 883e e848 07be 39aa 30bc
00000360: fc18 9dbd 0a89 f63d 943c 8c3e bfe5 2bbe
00000370: 4eac 5dbd cc3d 4d3d 66ae abbc af03 753d
00000380: f379 803e bccd c73c 55fd 1dbe a632 df3d
00000390: 1326 c0bd 58b9 adbe ab8f 32bd 0ede 6f3e
000003a0: d175 21bd 85fe ce3c 4f19 89bc a5ae e03c
000003b0: 523c 043e d4bf 943d f786 fdbc 9078 073e
000003c0: 2ca1 073e e6a5 c0bd 791f 883c b0e2 0ebe
000003d0: 4a45 963e 101b d9bd 9b37 e6bd 36f0 06bd
000003e0: 25af 913e fbaa 913e a17e 9ebd d3cb 973d
000003f0: 3871 0b3e b0f7 043d 61c8 833d c707 8bbd

network_body._body_endoder.seq_layers.0.bias f4 [256]
-0.041930772 -0.007711346 -0.013979828 0.004739021 -0.02110749 -0.026379159 -0.026435552 -0.00616985
-0.023720084 0.0017368699 -0.0075420425 -0.024674876 0.013014228 -0.04327148 -0.026473166 -0.03114778
-0.00793192 0.040764265 -0.025156993 -0.004691042 -0.013307097 -0.021329625 -0.003080369 -0.0107199205
-0.013727813 0.006368149 0.008664485 -0.015942633 0.025624992 -0.021372225 -0.015784916 -0.062884
-0.017052896 -0.017427655 -0.018533558 0.018255994 -0.05137291 0.018283248 -0.0007698863 -0.012399001
0.0030303888 -0.0013189664 -0.05045078 -0.010496916 0.0035764347 -0.007987303 0.0044189203 -0.0053148773
-0.0181707 -0.05724967 -0.011039833 -0.021651214 0.011385465 -0.010617007 -0.027810581 0.0081371395
0.0040681264 -0.035981048 0.0137438895 -0.014273448 -0.013788917 -0.01802771 0.059040543 -0.020878863
-0.00058763067 -0.033584945 -0.026590293 -0.021314535 0.048520476 -0.010519863 0.0031260431 0.019629337
-0.053881958 -0.005163699 0.0056606582 -0.0060191946 -0.019173106 0.0034630261 -0.012584246 -0.008181738
-0.053845383 -0.035867054 0.00052044354 -0.049845017 0.022942372 0.010339505 0.030141214 0.004519129
-0.0047063855 -0.028838327 0.04112357 -0.013108117 -0.034708694 -0.003586157 -0.010006251 -0.04017823
-0.021112865 -0.049040042 -0.046401005 -0.038547378 -0.020497167 0.021961287 -0.034600068 -0.017563587
0.0041042175 -0.005028144 -0.014707234 -0.042230926 -0.00426854 0.0060334355 -0.009668092 0.0063741673
-0.00581118 0.05448097 -0.01283939 -0.007245295 0.0066540935 -0.0020318264 -0.040032733 -0.020346748
-0.021030288 -0.014036647 -0.054918375 0.0056902026 0.014666181 -0.023048766 0.007590125 0.026739916
-0.034780707 -0.013685282 -0.021723134 -0.043361124 -0.0014423326 -0.04976229 -0.0043568444 -0.030483326
0.0063989777 0.03209012 0.006553027 0.0035079066 -0.03257588 -0.029034192 -0.006313467 -0.037093192
-0.040042818 -0.036479127 0.0098418435 0.02911059 -0.011760227 -0.045975313 0.010974252 -0.001815382
-0.000867279 0.006886201 0.0049031745 -0.0017687774 0.018089976 1.26736195e-05 -0.02331709 -0.027458383
-0.058392115 -0.056373663 0.015637973 -0.03547515 -0.044484172 -0.053522546 0.0064412663 -0.031028945
-0.03865429 -0.019282838 -0.031626467 -0.034154825 -0.0067994306 -0.0043344824 0.027187534 -0.010713966
-0.02493441 -0.027957184 -0.0092763575 0.008124761 -0.010854934 0.04660346 0.009220959 -0.03326002
-0.023367373 -0.06688765 -0.018879568 0.004855205 -0.026064297 0.000879883 -0.02850663 -0.00064128777
0.0050040777 0.00829456 -0.0020078649 -0.0034720374 -0.03792887 -0.047047734 0.012750864 0.0059748124
-0.018271519 -0.020705508 -0.013275063 -0.06697301 -0.003243547 -0.030466791 0.018163592 0.01615774
-0.024864804 0.03479973 -0.0066807163 0.0068387454 -0.021471487 -0.02091645 -0.012263159 0.03525567
-0.020074524 -0.025732074 -0.01364277 -0.011975316 -0.037697285 -0.007055807 -0.012485066 -0.00021197743
-0.019989146 -0.017427495 0.004028281 -0.006115466 0.017620344 -0.055570584 -0.006699495 -0.019075295
-0.03320052 -0.030188112 -0.011833896 -0.046819918 -0.0287267 -0.011630471 -0.038210817 0.012336149
0.028227147 -0.04307149 -0.0039615007 -0.018782191 -0.041748557 -0.037546214 -0.0073148175 -0.010968873
-0.013562963 0.02574535 -0.035994276 0.0023906315 -0.0024510073 -0.019203141 -0.024428673 -0.04704088
00000000: 9abf 2bbd 75af fcbb a60b 65bc ca49 9b3b
00000010: 9de9 acbc 1b19 d8bc 5f8f d8bc 742c cabb
00000020: 9f50 c2bc afa7 e33a 3d23 f7bb f722 cabc
00000030: a139 553c 6f3d 31bd 41de d8bc a129 ffbc
00000040: e2f4 01bc 6ef8 263d 0a16 cebc 50b7 99bb
00000050: 0306 5abc 77bb aebc 04e0 49bb 9ba2 2fbc
00000060: 9fea 60bc e8ab d03b 7cf5 0d3c 209a 82bc
00000070: 81eb d13c ce14 afbc 5e4f 81bc 54c9 80bd
00000080: 84b2 8bbc 71c4 8ebc b0d3 97bc 988d 953c
00000090: 676c 52bd c0c6 953c 32d2 49ba 2e25 4bbc
000000a0: 7d99 463b 2be1 acba 7aa5 4ebd 42fb 2bbc
000000b0: 9e62 6a3b 2ddd 02bc 97cc 903b 6c28 aebb
000000c0: b8da 94bc a17e 6abd 6ae0 34bc e35d b1bc
000000d0: 1a8a 3a3c f4f2 2dbc 04d3 e3bc a351 053c
000000e0: eb4d 853b dd60 13bd 0d2e 613c 2edb 69bc
000000f0: e9ea 61bc d9ae 93bc 7fd4 713d 260a abbc
00000100: 3a0b 1aba 5e90 09bd e3d3 d9bc d29b aebc
00000110: 68bd 463d 815b 2cbc 4dde 4c3b b4cd a03c
00000120: 54b3 5cbd 3f34 a9bb 0b7d b93b aa3c c5bb
00000130: eb10 9dbc f0f3 623b 272e 4ebc b20c 06bc
00000140: fa8c 5cbd 55e9 12bd 606e 083a 4a2a 4cbd
00000150: a4f1 bb3c 0767 293c b5ea f63c 3415 943b
00000160: 0638 9abb 5b3e ecbc 3071 283d 6dc3 56bc
00000170: b42a 0ebd bb05 6bbb 42f1 23bc ed91 24bd
00000180: e3f4 acbc 36de 48bd fb0e 3ebd dbe3 1dbd
00000190: ade9 a7bc 28e8 b33c cdb8 0dbd 83e1 8fbc
000001a0: ac7c 863b 21c3 a4bb 9cf6 70bc 56fa 2cbd
000001b0: 1cdf 8bbb 20b4 c53b eb66 1ebc 64de d03b
000001c0: b66b bebb 7027 5f3d 4e5c 52bc f169 edbb
000001d0: 950a da3b 6428 05bb 5df9 23bd 39ae a6bc
000001e0: b647 acbc f7f9 65bc 17f2 60bd e174 ba3b
000001f0: 6c4a 703c c4d0 bcbc 95b6 f83b ab0d db3c
00000200: 3776 0ebd 3c38 60bc b7f4 b1bc 6f9b 31bd
00000210: a70c bdba 8bd3 4bbd dcc3 8ebb 2bb8 f9bc
00000220: 84ae d13b ee70 033d c6ba d63b e8e4 653b
00000230: 496e 05bd 1dd9 edbc 33e1 cebb 08ef 17bd
00000240: f003 24bd 236b 15bd af3f 213c 5579 ee3c
00000250: f8ad 40bc 9c50 3cbd 59cd 333c 1df2 edba
00000260: 1c5a 63ba a4a5 e13b cfaa a03b 52d6 e7ba
00000270: 6e31 943c c8a0 5437 7b03 bfbc 67f0 e0bc
00000280: 922c 6fbd 12e8 66bd 351b 803c 644e 11bd
00000290: 0935 36bd 753a 5bbd 4211 d33b 6a30 febc
000002a0: f653 1ebd 0bf7 9dbc c18a 01bd eee5 0bbd
000002b0: c2cd debb 4608 8ebb 64b8 de3c a189 2fbc
000002c0: 3f43 ccbc 7706 e5bc ddfb 17bc b81d 053c
000002d0: e5d8 31bc 45e3 3e3d 8113 173c a93b 08bd
000002e0: ef6c bfbc 64fc 88bd 53a9 9abc 6918 9f3b
000002f0: cb84 d5bc f3a7 663a bc86 e9bc 181c 28ba
00000300: 3ff9 a33b e8e5 073c 6296 03bb 1f8b 63bb
00000310: 4e5b 1bbd 20b5 40bd 00e9 503c 5cc8 c33b
00000320: 27ae 95bc 999e a9bc a67f 59bc 2529 89bd
00000330: b091 54bb 7e95 f9bc d0cb 943c 3d5d 843c
00000340: 46b1 cbbc 298a 0e3d e9e9 dabb 8e17 e03b
00000350: f9e4 afbc fa58 abbc 6beb 48bc 4068 103d
00000360: 5473 a4bc 12cc d2bc ed85 5fbc 1e34 44bc
00000370: 7868 1abd 6634 e7bb 2a8e 4cbc 4246 5eb9
00000380: 47c0 a3bc 1bc4 8ebc acff 833b 3f64 c8bb
00000390: 8a58 903c fb9d 63bd 7087 dbbb cb43 9cbc
000003a0: 45fd 07bd 0f4d f7bc f5e2 41bc 3ec6 3fbd
000003b0: 4254 ebbc bb8d 3ebc f282 1cbd 8f1d 4a3c
000003c0: 9e3c e73c bb6b 30bd 7acf 81bb 1cdd 99bc
000003d0: 8900 2bbd 0fca 19bd 23b1 efbb cab6 33bc
000003e0: 3137 5ebc eae7 d23c bc6e 13bd 24ac 1c3b
000003f0: 14a1 20bb e84f 9dbc a41e c8bc f0ad 40bd

network_body._body_endoder.seq_layers.2.weight f4 [256, 256]
-0.0913394 -0.01616822 -0.08335224 0.022405528 -0.022806492 -0.05594794 -0.02583699 0.09447336
-0.029479267 -0.0350842 0.07218516 0.068043806 -0.009797585 -0.115078785 -0.025785841 0.051747724
0.07909491 -0.035188492 -0.07918775 0.02125686 -0.027960096 0.03493739 -0.07894953 0.11869693
0.071774244 -0.020526161 -0.010716928 0.0011619255 -0.013148674 -0.034280844 -0.09146212 -0.043319836
-0.09672755 0.05180549 -0.037577342 0.052535046 -0.005730246 -0.014783081 0.10756496 -0.007667837
0.10803582 -0.15948977 -0.04646552 0.09555021 0.0006231571 -0.08735042 0.0602282 0.0217929
0.122137465 -0.014557458 0.0021594956 -0.015213647 0.029548205 0.06427183 0.01164144 -0.036886487
0.013756872 -0.11523504 -0.06876764 0.07128214 -0.0806154 -0.15063673 0.02709332 -0.036919788
-0.012065422 -0.046388898 0.0012375002 0.008439417 0.055900652 -0.02853983 0.08446154 -0.054876667
-0.0069684125 0.02258323 -0.1131828 0.09648889 -0.118826285 -0.034316167 0.037233826 0.046012416
0.03863006 0.055783983 -0.093573794 0.040709075 0.013196651 0.004264732 -0.14879721 0.04220351
-0.0047089537 -0.036792465 0.04089887 0.018067209 0.05985144 0.086564 0.008488552 -0.024351833
-0.057281923 -0.014297325 0.103143156 -0.027833179 -0.043495823 0.12877369 -0.06104858 0.04481318
-0.053571023 -0.046786577 0.07203902 -0.010568631 0.09408664 -0.020278143 -0.046822134 -0.0787421
0.06481063 0.11006816 0.024201605 -0.04086486 -0.034669746 -0.00331366 -0.051077135 -0.008449237
0.010583239 -0.02363712 0.015966104 0.07390592 -0.090210386 -0.10178264 -0.0112381065 -0.075533606
-0.039553873 0.05709355 0.035085425 0.0691617 -0.06390074 0.026918024 -0.008255018 -0.16269167
-0.16779274 -0.017746786 -0.006783504 -0.0640166 0.0150174545 0.021888418 0.038191162 -0.016798781
0.019697767 0.0253241 -0.03959221 -0.025466314 -0.063104235 0.0036821722 0.022735996 0.07751693
-0.047835782 -0.11054296 -0.037054285 -0.009090223 -0.1243821 -0.043277983 -0.042946246 -0.019337025
0.014959871 -0.0482006 0.018276175 -0.016653474 -0.009838186 0.003704979 -0.029929465 -0.004510526
0.060160264 -0.081049085 -0.044617813 -0.0026817604 -0.1219441 -0.009361153 0.0012869481 -0.05806834
-0.007463152 0.143622 -0.07849908 0.08062319 0.027260605 0.09009077 -0.0034818654 -0.04586786
-0.00789167 0.046390574 0.028550811 0.014659487 0.1199731 -0.040591523 -0.07082535 0.03117311
0.041504383 -0.012753492 -0.1468326 0.07218881 -0.019090045 0.05200364 0.027774543 0.066476576
0.032104228 0.011161667 0.083396174 -0.020513164 -0.0024419378 0.018582165 0.06994186 0.033010304
0.061818574 -0.073757954 -0.06043139 -0.0036206816 0.0020763653 0.16529053 -0.17430131 -0.035387877
-0.0031967014 -0.04803046 0.070787475 0.034407213 -0.06727331 -0.011964872 0.05876822 -0.20974459
-0.01929893 0.055220257 0.041314945 -0.070867725 -0.028156923 -0.04752526 0.01850544 -0.0025425935
0.10465311 0.09988699 0.059393432 0.06398055 -0.001135267 0.0634457 0.13935542 0.0069205593
0.053995766 0.093890846 0.027694006 0.1312239 0.08928597 -0.045188393 -0.037506938 -0.07110929
0.060601052 0.0145478 0.05626958 -0.00219637 -0.0038251798 -0.0705279 0.06219515 0.024254428
00000000: 2710 bbbd 3773 84bc 94b4 aabd cc8b b73c
00000010: aed4 babc ab29 65bd 18a8 d3bc 407b c13d
00000020: 817e f1bc 73b4 0fbd d0d5 933d 8d5a 8b3d
00000030: 0d86 20bc 6dae ebbd d43c d3bc 6cf5 533d
00000040: 83fc a13d cf21 10bd 302d a2bd de22 ae3c
00000050: 920c e5bc 821a 0f3d 4bb0 a1bd 6017 f33d
00000060: 60fe 923d 7b26 a8bc 0e96 2fbc c04b 983a
00000070: 896d 57bc 126a 0cbd 7e50 bbbd 2470 31bd
00000080: 1819 c6bd fe31 543d b3ea 19bd fd2e 573d
00000090: cac4 bbbb bc34 72bc 054b dc3d 7b42 fbbb
000000a0: e241 dd3d 4951 23be a152 3ebd d4af c33d
000000b0: 5d5b 233a c7e4 b2bd d8b1 763d 0687 b23c
000000c0: 3523 fa3d 6882 6ebc 5386 0d3b a942 79bc
000000d0: 140f f23c f3a0 833d bdbb 3e3c 4916 17bd
000000e0: 8164 613c 5900 ecbd 0cd6 8cbd 5ffc 913d
000000f0: b019 a5bd 8440 1abe cff2 dd3c 3439 17bd
00000100: 0cae 45bc 4902 3ebd 9e33 a23a 7b45 0a3c
00000110: 15f8 643d 5dcc e9bc 2cfa ac3d 5bc6 60bd
00000120: 4857 e4bb 7700 b93c 62cc e7bd f89b c53d
00000130: 325b f3bd 1c8f 0cbd 7f82 183d 8477 3c3d
00000140: 8e3a 1e3d bf7d 643d 9ea3 bfbd 8fbe 263d
00000150: c436 583c 2abf 8b3b 4c5e 18be 96dd 2c3d
00000160: 914d 9abb b2b3 16bd 9385 273d af01 943c
00000170: c926 753d 7748 b13d 9113 0b3c 7f7d c7bc
00000180: 73a0 6abd 543f 6abc b83c d33d 6802 e4bc
00000190: ad28 32bd 40dd 033e 130e 7abd 068e 373d
000001a0: 4a6d 5bbd 48a3 3fbd 3289 933d 0d28 2dbc
000001b0: 7fb0 c03d 591e a6bc 91c8 3fbd 8a43 a1bd
000001c0: 70bb 843d 6a6b e13d 7242 c63c e961 27bd
000001d0: dd01 0ebd fd29 59bb 4236 51bd ab6e 0abc
000001e0: 5265 2d3c a2a2 c1bc 59cb 823c fd5b 973d
000001f0: 39c0 b8bd 6b73 d0bd 0920 38bc 5db1 9abd
00000200: 3e03 22bd edda 693d bcb5 0f3d a6a4 8d3d
00000210: 64de 82bd 3083 dc3c 0e40 07bc a598 26be
00000220: dcd1 2bbe b561 91bc 2848 debb 231b 83bd
00000230: c50b 763c 574f b33c 566e 1c3d 999d 89bc
00000240: 365d a13c 7d74 cf3c 712b 22bd bb9e d0bc
00000250: cb3c 81bd 9950 713b d740 ba3c 32c1 9e3d
00000260: 74ef 43bd 5964 e2bd 3cc6 17bd 29ef 14bc
00000270: 0bbc febd 4144 31bd 67e8 2fbd ae68 9ebc
00000280: 3f1a 753c fe6d 45bd ebb7 953c de6c 88bc
00000290: 5830 21bc 3ccf 723b a32e f5bc 09cd 93bb
000002a0: 9c6a 763d 10fd a5bd 2bc1 36bd 79c0 2fbb
000002b0: d4bd f9bd 855f 19bc d0ae a83a 11d9 6dbd
000002c0: 758d f4bb a511 133e 20c4 a0bd c51d a53d
000002d0: a251 df3c 8281 b83d 0230 64bb f0df 3bbd
000002e0: 104c 01bc 0b04 3e3d 64e3 e93c 582e 703c
000002f0: 75b4 f53d 4c43 26bd e20c 91bd c05e ff3c
00000300: 8000 2a3d 06f4 50bc 495b 16be bad7 933d
00000310: ba62 9cbc c501 553d 7087 e33c df24 883d
00000320: b97f 033d 6ddf 363c 9dcb aa3d 390b a8bc
00000330: eb08 20bb a039 983c ae3d 8f3d d035 073d
00000340: 7935 7d3d 690e 97bd e886 77bd f548 6dbb
00000350: a113 083b ec41 293e 0b7c 32be e1f2 10bd
00000360: c07f 51bb 96bb 44bd 06f9 903d 94ee 0c3d
00000370: 97c6 89bd 4f08 44bc f2b6 703d 49c7 56be
00000380: ca18 9ebc a32e 623d dc39 293d 1923 91bd
00000390: 59a9 e6bc d9a9 42bd b898 973c a4a1 26bb
000003a0: 5f54 d63d 8d91 cc3d 8746 733d 3c08 833d
000003b0: 3dcd 94ba d2ef 813d 30b3 0e3e dcc5 e23b
000003c0: aa2a 5d3d d849 c03d 8ade e23c 8f5f 063e
000003d0: 90db b63d 7717 39bd e0a0 19bd bfa1 91bd
000003e0: cf38 783d e559 6e3c ee7a 663d f9f0 0fbb
000003f0: deaf 7abb ee70 90bd 57c0 7e3d 39b1 c63c

network_body._body_endoder.seq_layers.2.bias f4 [256]
-0.0033210563 -0.028592564 -0.012085381 -0.0203556 -0.00558459 0.002341399 -0.0125478525 -0.049670976
0.0068193735 -0.010293545 -0.009580975 -0.049317025 -0.0096774865 -0.002597985 -0.009350269 -0.011248195
-0.03935142 -0.012265459 -0.04443858 -0.024345707 -0.027463518 -0.021830048 -0.022702023 -0.03092037
-0.011005211 -0.024271525 -0.030648237 0.0027526144 -0.036384672 -0.013885606 -0.008044152 -0.011768351
-0.012343951 -0.026346292 -0.0036097225 -0.027500877 -0.021673156 -0.013475328 -0.03905326 -0.021592487
0.004771756 -0.022515187 0.0026566326 -0.018682824 -0.0035567102 0.0033767081 -0.0134629905 -0.022071695
-0.027447253 -0.0173928 -0.014779687 -0.0068302606 -0.022077985 -0.023708364 0.00538822 -0.041050047
-0.015375787 -0.036657967 -0.007121792 -0.04490614 0.023811575 -0.018932018 -0.015179534 -0.029993447
-0.011650395 -0.04465364 -0.02581875 -0.040932987 -0.032637186 -0.005801019 -0.035657376 -0.012381649
-0.019070337 -0.009939642 -0.007055029 -0.0262707 -0.031553715 -0.005734147 -0.031981543 -0.0016560565
-0.001696534 -0.0021543393 -0.0004789538 -0.018683393 -0.0013131949 0.009578371 -0.022293437 -0.035038613
-0.03480793 -0.045120943 -0.0072522936 -0.018437536 0.0016518733 -0.014122956 -0.031742543 -0.018631732
-0.017401798 -0.023981366 0.0025491572 -0.0180389 -0.022683667 -0.012128225 0.015708907 -0.031929985
-0.01988111 -0.009747573 -0.019153086 -0.025699187 -0.019641757 -0.021932833 -0.037616696 -0.01828423
0.022229569 -0.023255233 -0.04557801 -0.035130598 -0.033574473 -0.02840184 -0.027668923 -0.0422688
-0.0015744268 -0.019664796 -0.021041857 -0.026667167 -0.0072235027 -0.022638448 -0.0027764514 -0.01555389
-0.024798734 -0.019682476 -0.028623955 -0.020737085 -0.015948504 -0.035139382 -0.020768419 -0.004885659
-0.011394503 -0.01405833 -0.032684784 -0.02632839 -0.028903875 -0.028976422 -0.022478046 -0.020976719
-0.018890528 -0.05090684 -0.014692098 -0.014437614 -0.03283893 -0.009838541 -0.019022387 0.006323198
-0.016039534 -0.04512485 -0.020879298 -0.014849729 -0.025867948 -0.022235544 -0.027438045 0.0013639665
-0.021918086 -0.029748945 -0.011147149 -0.023961311 -0.038191643 0.007648851 0.017404243 -0.054739583
-0.0138314 0.0009967259 -0.04163362 -0.045744978 -0.033744544 -0.0037614324 -0.027874818 0.010043954
-0.024567934 -0.025091717 -0.045292683 -0.023149747 -0.0077506835 -0.040862225 -0.0069564646 -0.027158547
-0.010419377 0.005877478 -0.0043014437 -0.007461455 -0.021334581 -0.0010267938 -0.0060165687 -0.04322551
-0.016009241 -0.01317312 -0.016329238 -0.0043143467 -0.028926399 -0.039010093 -0.05408607 -0.00548016
-0.025649311 -0.020765003 -0.037252013 -0.031444877 -0.017801436 -0.013216766 -0.004349227 -0.025590563
-0.018490218 -0.015080868 -0.0039285505 -0.0077190585 -0.034200486 -0.0016060438 -0.02655015 -0.005782975
0.012952426 -0.012198812 -0.031800482 -0.023029583 -0.017835878 -0.004931917 -0.01766344 -0.019311223
0.0011310802 -0.05639359 -0.016821062 -0.0076402524 -0.01617709 -0.020142995 -0.041235823 -0.029954562
-0.0449549 -0.032230325 -0.0086978795 -0.025451742 -0.019729612 -0.019268353 0.009838792 -0.021029519
-0.015786245 0.0007627133 0.014245511 -0.020952696 -0.00534851 -0.008244567 -0.03213983 -0.011575086
-0.035209756 -0.0077737514 0.0023840915 -0.006686116 0.0029820139 0.0072043645 -0.03472688 0.005590796
00000000: 14a6 59bb f43a eabc c301 46bc cac0 a6bc
00000010: f0fe b6bb 2872 193b 8295 4dbc cb73 4bbd
00000020: 0d75 df3b 42a6 28bc 86f9 1cbc a600 4abd
00000030: 528e 1ebc f542 2abb df31 19bc 594a 38bc
00000040: f42e 21bd 10f5 48bc 3a05 36bd a670 c7bc
00000050: 2cfb e0bc eed4 b2bc 98f9 b9bc b74c fdbc
00000060: 334f 34bc 14d5 c6bc 0312 fbbc 3565 343b
00000070: 1808 15bd 7480 63bc 9ecb 03bc 0bd0 40bc
00000080: 483e 4abc 2ed4 d7bc 1891 6cbb 8549 e1bc
00000090: e78b b1bc 9fc7 5cbc 50f6 1fbd bae2 b0bc
000000a0: 645c 9c3b c571 b8bc e61a 2e3b b90c 99bc
000000b0: b217 69bb c34b 5d3b e093 5cbc b3cf b4bc
000000c0: 10d9 e0bc 587b 8ebc 8026 72bc 61d0 dfbb
000000d0: e4dc b4bc 0b38 c2bc aa8f b03b 1824 28bd
000000e0: baea 7bbc aa26 16bd ec5d e9bb 80ef 37bd
000000f0: 7e10 c33c 5217 9bbc 95b3 78bc d1b4 f5bc
00000100: 4ce1 3ebc bce6 36bd d881 d3bc 59a9 27bd
00000110: 92ae 05bd 7916 bebb 780d 12bd 66dc 4abc
00000120: 6539 9cbc e1d9 22bc df2d e7bb a735 d7bc
00000130: 783e 01bd 83e5 bbbb 14ff 02bd 0910 d9ba
00000140: 3c5e deba d12f 0dbb 171c fbb9 ea0d 99bc
00000150: 821f acba 9aee 1c3c baa0 b6bc a684 0fbd
00000160: c392 0ebd bdd0 38bd a6a4 edbb 510a 97bc
00000170: ac83 d83a f963 67bc 7804 02bd 93a1 98bc
00000180: 378e 8ebc 9274 c4bc c30f 273b 51c6 93bc
00000190: 19d3 b9bc 76b5 46bc f7af 803c 04c9 02bd
000001a0: b6dd a2bc 49b4 1fbc efe6 9cbc 1a87 d2bc
000001b0: c0e7 a0bc 7cac b3bc f713 1abd cfc8 95bc
000001c0: c91a b63c c281 bebc 02b0 3abd 1ae5 0fbd
000001d0: 6385 09bd faaa e8bc f0a9 e2bc 0d22 2dbd
000001e0: ff5c ceba 1118 a1bc f95f acbc 1a75 dabc
000001f0: 22b3 ecbb 4474 b9bc 20f5 35bb bed5 7ebc
00000200: b726 cbbc 253d a1bc c97c eabc d2e0 a9bc
00000210: 70a6 82bc 50ee 0fbd 8822 aabc e117 a0bb
00000220: 02b0 3abc e954 66bc 7be0 05bd a3ae d7bc
00000230: d2c7 ecbc f65f edbc e123 b8bc 5ed7 abbc
00000240: 4fc0 9abc b183 50bd 20b7 70bc be8b 6cbc
00000250: 1d82 06bd d531 21bc d6d4 9bbc d432 cf3b
00000260: 5765 83bc d6d4 38bd 100b abbc 474c 73bc
00000270: 05e9 d3bc 5127 b6bc c0c5 e0bc 1fc7 b23a
00000280: 8f8d b3bc 0fb4 f3bc 88a2 36bc 834a c4bc
00000290: d76e 1cbd 36a3 fa3b 5893 8e3c 9d36 60bd
000002a0: 199d 62bc 92a4 823a 0488 2abd 165f 3bbd
000002b0: b837 0abd 5d82 76bb bb59 e4bc 658f 243c
000002c0: b142 c9bc 258d cdbc d284 39bd 8aa4 bdbc
000002d0: 72f9 fdbb 265f 27bd 0ef3 e3bb 9a7b debc
000002e0: 09b6 2abc dc97 c03b 20f3 8cbb 397f f4bb
000002f0: dcc5 aebc 7c95 86ba a326 c5bb 3b0d 31bd
00000300: d025 83bc 12d4 57bc e5c4 85bc 5d5f 8dbb
00000310: 0ef7 ecbc 0cc9 1fbd 5b89 5dbd ea92 b3bb
00000320: 811e d2bc 5e1b aabc 9195 18bd 58cc 00bd
00000330: 51d4 91bc 228b 58bc f683 8ebb 4da3 d1bc
00000340: cc78 97bc bf15 77bc 12bb 80bb 28f0 fcbb
00000350: cf15 0cbd e381 d2ba b37f d9bc 1c7f bdbb
00000360: 6a36 543c 87dd 47bc 3941 02bd 89a8 bcbc
00000370: 8c1c 92bc eb9b a1bb ebb2 90bc 9232 9ebc
00000380: c140 943a f7fc 66bd 53cc 89bc 155b fabb
00000390: d185 84bc ec02 a5bc e5e6 28bd 4563 f5bc
000003a0: a122 38bd f203 04bd 8d81 0ebc 2c80 d0bc
000003b0: ff9f a1bc aad8 9dbc e232 213c 1946 acbc
000003c0: 2852 81bc d3f0 473a 0166 693c fda4 abbc
000003d0: 8e42 afbb 3814 07bc 0ea5 03bd 6ea5 3dbc
000003e0: 1b38 10bd f4ba febb 6b3e 1c3b 3517 dbbb
000003f0: e46d 433b 9712 ec3b c63d 0ebd ff32 b73b

action_model._continuous_distribution.log_sigma f4 [1, 2]
-0.11486619 0.03582876
00000000: f73e ebbd 2ec1 123d

action_model._continuous_distribution.mu.weight f4 [2, 256]
-0.016275948 0.010636038 0.0013322341 -0.0037985644 0.00040240958 0.010891303 0.011116033 -0.02862172
0.030534009 0.009185674 -0.0017319703 -0.003121147 -0.0024187258 -0.006338096 0.0015651333 0.00056048424
-0.013642722 0.029773183 -0.035465807 -0.0031535728 -0.031632707 -0.035899263 -0.0055426876 -0.007119168
0.018868549 0.004568187 -0.058852594 -0.0058983346 -0.0070225527 -0.009653359 0.0015834265 -0.0046483167
-0.01426915 -0.0022203315 0.016928213 -0.007983435 -0.0055578263 0.026696935 -0.008875797 0.0059683262
0.016786033 0.00024519605 0.0037266428 -0.047561824 0.0010728814 0.0014904744 -0.00063994346 -0.0005760975
0.017972523 0.021172626 0.0041363947 -0.0055681043 -0.0063652396 0.001681718 0.059125513 -0.050319027
-0.010516199 -0.0093563115 -0.0030973307 -0.0024130107 0.04025702 -0.033946555 -0.0027453352 0.0013795075
0.03128111 -0.009172899 -0.0002465846 -0.0035567582 -0.06797249 0.03763016 -0.002140394 -0.029787086
-0.002006763 3.699467e-05 -0.016106954 -0.024550408 -0.009730035 -0.00073243957 -0.013456203 0.0030342927
-0.0026011488 0.008359412 0.0037047789 0.0074110394 0.022800267 0.025572782 -0.013611555 -0.01057697
-0.004406157 -0.053225633 -0.06919592 0.0016956001 0.022921318 -0.0064079617 -0.0005249964 -0.0318556
0.0009977515 -0.026708044 0.0022922244 -0.01809296 -0.0028616511 -0.0012715535 0.016348327 0.010819846
-0.008490459 -0.0004477103 -0.009631898 -0.0014030108 -0.040224653 0.0010876659 -0.004928889 -0.0032534373
0.023810342 -0.014324455 -0.020019805 -0.060740985 -0.0032277035 -0.010874929 -0.000477675 -0.017650664
0.017656622 -0.009569375 -0.008229812 -0.0031663075 -0.006046103 0.0071897376 0.00044647232 -0.0010263303
-0.075569674 0.016467825 -0.019024432 0.009036216 0.003102457 -0.010892015 0.0007867417 0.0045610797
0.031042133 -0.0011753301 -0.00024991576 -0.038586102 -0.038311385 0.0026914992 0.004116648 0.008017344
-0.039799698 -0.015828012 -0.014573558 -0.04277003 -0.022939023 0.0076245433 -0.056266014 0.016836708
-0.03265422 -0.008963812 0.0028595028 0.0023771105 -0.011883247 0.01971978 -0.0130463345 0.009029994
-0.018714098 0.0011100033 -0.0021436152 -0.008125105 -0.033766534 0.037083726 0.044631172 -0.014202269
-0.01690306 -0.085100524 -0.016231153 -0.015428894 -0.011413876 0.015831104 0.0003489216 0.0007737768
-0.0022036822 -0.04571433 -0.0025166003 -0.017243097 0.031135643 0.0008040493 0.00082231656 -0.012593784
-0.015434156 0.019652447 -0.01180091 0.007726894 -0.006954423 0.00946127 0.009910381 -0.027683519
-0.042310223 0.0012412667 -0.013150236 0.013505174 -0.04641326 -0.012944192 -0.023469713 -0.0002072659
0.008930614 0.0020597714 -0.006233352 -0.023325453 0.025550814 -0.0007277696 0.015936462 -0.015287627
0.025464151 0.009136479 -0.023935245 0.013433445 -0.051365666 0.009844054 -0.0032179118 0.028112395
0.0013439069 0.003202589 -0.005815408 -0.005688983 -0.06310182 0.032674562 0.0029697844 0.00083742716
0.011984785 -0.0017933256 -0.0036699774 0.005160521 -0.004220183 0.01909894 -0.018074835 -0.060278434
-0.009620118 -0.013548088 -0.001411335 -0.028604489 -0.0052991807 0.00825153 -0.02013906 -0.031240271
-0.024452811 0.019559644 -0.0021633701 -0.0015218391 0.014065237 0.013862737 -0.010928516 -0.004249679
-0.020800482 -0.0063517285 0.03143578 0.026290026 0.0076480084 -0.018536 -0.044890624 -0.0056800894
00000000: 2355 85bc c742 2e3c 5c9e ae3a 56f1 78bb
00000010: 80fa d239 7071 323c 0620 363c 1978 eabc
00000020: 7522 fa3c 827f 163c 4803 e3ba 288c 4cbb
00000030: 7c83 1ebb ceaf cfbb 2925 cd3a 76ed 123a
00000040: b985 5fbc e4e6 f33c 9844 11bd 2cac 4ebb
00000050: 4c91 01bd 1b0b 13bd 6f9f b5bb e947 e9bb
00000060: 3792 9a3c bbb0 953b 6b0f 71bd d146 c1bb
00000070: 711d e6bb 1f29 1ebc fa8a cf3a e850 98bb
00000080: 27c9 69bc fb82 11bb 09ad 8a3c f4cc 02bc
00000090: 6d1e b6bb 88b3 da3c ca6b 11bc f391 c33b
000000a0: dd82 893c a88d 8039 b13a 743b 30d0 42bd
000000b0: ed9f 8c3a 065c c33a e1c1 27ba 4005 17ba
000000c0: 1d3b 933c 3772 ad3c 988a 873b a574 b6bb
000000d0: 8093 d0bb 186d dc3a 982d 723d 531b 4ebd
000000e0: 234c 2cbc 374b 19bc 96fc 4abb 9a23 1ebb
000000f0: 8ce4 243d 8b0b 0bbd 15eb 33bb 97d0 b43a
00000100: 9f20 003d ed49 16bc 0648 81b9 8018 69bb
00000110: 2935 8bbd 1522 1a3d da45 0cbb 0c04 f4bc
00000120: e583 03bb b92a 1b38 bbf2 83bc f01d c9bc
00000130: ba6a 1fbc 3001 40ba 6877 5cbc fcda 463b
00000140: 0978 2abb eaf5 083c e0cb 723b 4ed8 f23b
00000150: a0c7 ba3c 037e d13c 0003 5fbc 074b 2dbc
00000160: 8661 90bb 1f03 5abd 97b6 8dbd e63e de3a
00000170: 7dc5 bb3c e1f9 d1bb e99f 09ba 057b 02bd
00000180: fcc6 823a d4ca dabc 2539 163b b037 94bc
00000190: 8a8a 3bbb 41aa a6ba edec 853c b945 313c
000001a0: 911b 0bbc a9ba eab9 1ccf 1dbc 3be5 b7ba
000001b0: 9bc2 24bd 0390 8e3a 8582 a1bb 9f37 55bb
000001c0: e80d c33c 1eb1 6abc 9300 a4bc 8acb 78bd
000001d0: e187 53bb c22c 32bc 7470 fab9 2098 90bc
000001e0: 9fa4 903c dec8 1cbc 55d6 06bc d381 4fbb
000001f0: 631e c6bb e497 eb3b 8014 ea39 ee85 86ba
00000200: 46c4 9abd 88e7 863c 20d9 9bbc a30c 143c
00000210: 9752 4b3b 6c74 32bc 573d 4e3a 1c75 953b
00000220: 124c fe3c 890d 9aba 2007 83b9 760c 1ebd
00000230: 66ec 1cbd dd63 303b f2e4 863b 2e5b 033c
00000240: 0205 23bd bfa9 81bc efc5 6ebc a12f 2fbd
00000250: 9eea bbbc 4ed7 f93b 3177 66bd 23ed 893c
00000260: 6ec0 05bd f4dc 12bc 7f66 3b3b 4cc9 1b3b
00000270: f3b1 42bc 608b a13c 4bc0 55bc 8af2 133c
00000280: 4f4e 99bc 887d 913a e57b 0cbb 291f 05bc
00000290: c74e 0abd 1be5 173d 2dcf 363d a2b0 68bc
000002a0: 4978 8abc 2f49 aebd 32f7 84bc 79c9 7cbc
000002b0: 4401 3bbc 3bb0 813c 77ef b639 48d7 4a3a
000002c0: a76b 10bb f33e 3bbd 8ced 24bb 6541 8dbc
000002d0: 2d10 ff3c d6c6 523a bb90 573a 2956 4ebc
000002e0: 8bdf 7cbc 2bfe a03c 9b58 41bc e331 fd3b
000002f0: eee1 e3bb 7103 1b3c 275f 223c 8cc8 e2bc
00000300: 7c4d 2dbd 00b2 a23a 1674 57bc ce44 5d3c
00000310: d51b 3ebd e013 54bc 8e43 c0bc 8455 59b9
00000320: b651 123c 3bfd 063b 2541 ccbb 0515 bfbc
00000330: f14f d13c cbc7 3eba 2f8d 823c f478 7abc
00000340: 329a d03c 2cb1 153c d913 c4bc f417 5c3c
00000350: ce64 52bd f448 213c 9ae3 52bb f74b e63c
00000360: 0826 b03a 87e2 513b 2e8f bebb a66a babb
00000370: 873b 81bd c3d5 053d b7a0 423b c986 5b3a
00000380: d55b 443c 060e ebba 0184 70bb 9619 a93b
00000390: 7649 8abb 6175 9c3c ad11 94bc 85e6 76bd
000003a0: b39d 1dbc cdf8 5dbc 8bfc b8ba f653 eabc
000003b0: c0a4 adbb 6d31 073c acfa a4bc 99eb ffbc
000003c0: 4351 c8bc 8c3b a03c 54c7 0dbb 7278 c7ba
000003d0: e171 663c 8920 633c 850d 33bc e440 8bbb
000003e0: c665 aabc 2922 d0bb cec2 003d 2e5e d73c
000003f0: 259c fa3b cfd8 97bc 3bdf 37bd 0b20 babb

action_model._continuous_distribution.mu.bias f4 [2]
0.030187551 -0.0033077027
00000000: e24b f73c 0bc6 58bb

onnx::Div_71 f4 [20]
0.47503152 0.4202475 0.05639736 0.15440181 0.4975714 0.39952236 0.059061624 0.1589795
0.40527874 0.33342046 0.04561038 0.13344616 0.49971497 0.4441245 0.044854254 0.1551404
0.4971279 0.41090205 0.054901786 0.14580153
00000000: 5537 f33e ae2a d73e eb00 673d 821b 1e3e
00000010: aec1 fe3e 328e cc3e 9aea 713d 86cb 223e
00000020: b280 cf3e 16b6 aa3e f3d1 3a3d 1ca6 083e
00000030: a4da ff3e 4964 e33e 18b9 373d 20dd 1e3e
00000040: 8c87 fe3e c161 d23e b2e0 603d ff4c 153e

onnx::Div_74 f4 [12]
0.48855662 0.4392068 0.3311239 0.31799984 0.48787543 0.43952176 0.32316917 0.31159317
0.48972768 0.43788916 0.3397591 0.32490924
00000000: 1824 fa3e b7df e03e 1289 a93e e0d0 a23e
00000010: cfca f93e ff08 e13e 6e76 a53e 2489 9f3e
00000020: 96bd fa3e 0233 e03e e8f4 ad3e 815a a63e

onnx::Div_77 f4 [3]
0.39235112 0.053909592 0.65113056
00000000: 3fe2 c83e 4ed0 5c3d 7eb0 263f
