Experimentos/results/sac4.1/KartAgent/KartAgent-4849955.onnx (onnx, 93578 bytes, 14 tensors)

network_body.observation_encoder.processors.0.normalizer.running_mean f4 [20]
000000 6d 67 9f 3c 77 aa c5 3c 7f 2d b6 3a 04 3c 4d 3d
       0.019458497 0.024129136 0.0013899057 0.050106063
000010 54 5a ad 3c 8b 17 13 3e 73 3f 21 3b 7e 02 cd 3d
       0.021161236 0.1436445 0.002460447 0.10010241
000020 36 54 5a 3c ba 17 41 3e 98 b4 5a 3b b9 3c db 3d
       0.0133257415 0.18856707 0.0033371802 0.10704941
000030 8c 25 a7 3b d2 58 49 3f 27 4c 48 3c c3 c5 96 3e
       0.0051009115 0.78651154 0.012225187 0.29447755
000040 4e e0 a9 3b b6 61 40 3f 9e ba 8a 3c 57 03 88 3e
       0.00518421 0.75149095 0.01693469 0.26565048

network_body.observation_encoder.processors.1.normalizer.running_mean f4 [12]
000000 16 f5 ec 39 d3 16 68 3c 16 58 0f 39 9f fb 9e 3b
       0.0004519603 0.014165598 0.00013670357 0.004851773
000010 37 18 e0 39 04 47 68 3c 8d 19 14 39 55 4a 9f 3b
       0.0004274265 0.014177088 0.00014123898 0.004861156
000020 b1 09 f6 39 c9 3e 6c 3c a9 41 ee 38 8a bf 9e 3b
       0.00046927997 0.014419266 0.000113609545 0.0048446106

network_body.observation_encoder.processors.2.normalizer.running_mean f4 [3]
000000 e3 3b 51 bd 7a 35 18 3d bc 87 cf 3e
       -0.051082503 0.037160374 0.40533245

network_body._body_endoder.seq_layers.0.weight f4 [128, 35]
000000 27 5d 54 3e 5b cc 85 3e 50 a8 21 be 54 4e 88 3e
       0.2073866 0.26132473 -0.15786862 0.2662226
000010 50 26 83 3e 45 5a 4a 3c 5c 8f a5 3e 36 cd c6 3e
       0.25615168 0.0123506235 0.32335937 0.3882844
000020 88 7e 58 be 74 92 6b bc ba de 45 be 98 50 35 3e
       -0.21142018 -0.014378179 -0.19323245 0.17706525
000030 d1 f8 a9 bd d1 b1 99 3e 0a 67 0a be a8 7b 3c 3d
       -0.08299411 0.30018476 -0.13515869 0.046016365
000040 3f a8 7c be 3f a0 93 bd d5 ff 92 bd 2d df 6f bd
       -0.24673556 -0.07208299 -0.07177702 -0.058562446
000050 49 83 c2 3d fa ce 4c bd 9d ab d1 3d 25 b7 c7 3b
       0.09497697 -0.050002076 0.10237811 0.0060948306
000060 8e d4 1a 3e 97 34 56 bc 48 7c 73 3e 74 70 86 3d
       0.15120146 -0.013074062 0.23777878 0.065644175
000070 68 98 40 3e ae 32 55 3d b9 5a 60 be 3a e0 83 3d
       0.18808138 0.052050285 -0.21909608 0.06439252
000080 fe ee ed be 5e a8 86 3f a0 39 7e bd 5c cf 15 3d
       -0.464714 1.0520132 -0.062066674 0.036574706
000090 93 c3 a0 3e 52 e7 1a 3e 23 3a 32 3e 6d fb c2 3c
       0.3139921 0.15127304 0.1740499 0.02380153
0000a0 d9 1d 49 bd ba 69 20 3f 57 4f 4a be 08 98 0f 3d
       -0.04910073 0.62661326 -0.19756828 0.035057098
0000b0 4d d0 83 3e 21 ac 18 3c 26 21 b8 3e 64 ff 77 3d
       0.25744858 0.0093183825 0.3596279 0.060546294
0000c0 5f 14 91 3c ea 4a 7a bd 69 20 5c 3d e6 ee 23 3e
       0.017709909 -0.0611066 0.053741846 0.16009101
0000d0 21 8c 96 3c 87 20 db 3d db dc f5 3e a6 07 e5 bd
       0.018377366 0.106995635 0.48020062 -0.111830994
0000e0 68 85 3c be 9d 7a 5e be 93 9b 02 3d c9 cd cf be
       -0.18410265 -0.21726461 0.03188665 -0.4058669
0000f0 76 c5 99 bd d8 28 63 be 03 fa 82 ba b3 d8 08 bf
       -0.07508366 -0.2218355 -0.0009992722 -0.53455657
000100 30 1c 67 be 68 08 42 3d 4f 14 bc bd c7 da 8e 3e
       -0.22569346 0.047371298 -0.09183561 0.2790129
000110 ec 65 60 be dd 28 c4 bf fe fe 4b be d9 09 5b be
       -0.2191388 -1.532497 -0.1992149 -0.21390475
000120 b2 92 d3 3e d0 f2 c4 bd 1e d3 5a be 9a 03 c4 3d
       0.41322857 -0.09616625 -0.21369597 0.095709994
000130 5d 50 e6 bd c8 56 27 bd 93 da 7d 3d c6 9b d7 3d
       -0.11245797 -0.040854245 0.061976027 0.10527758
000140 9c 25 5a be 65 cb 0a 3f c3 82 ac 3d 25 24 3b 3e
       -0.2130341 0.54216605 0.08423378 0.18275507
000150 99 29 9b 3e fa cf 24 be aa 64 ad 3d 6a 52 45 3e
       0.30305174 -0.16094962 0.08466466 0.1926972
000160 15 ec 08 3d 6f e4 13 3e 4a ad b9 bd af f1 b9 3d
       0.03342827 0.14442609 -0.090662554 0.090793006
000170 e2 0b 2a 3d ae a8 c9 bd 1d cd 89 be 77 c4 c6 3e
       0.04151524 -0.09846626 -0.26914302 0.38821766
000180 1d 61 17 bf 89 71 19 3e a8 c9 15 be 8f 8e ce 3d
       -0.5913256 0.14984716 -0.14627707 0.10085785
000190 1b 0f 95 bd 8c 3c bb 3e 16 09 a6 3e 0c 51 ec 3d
       -0.07278272 0.3656963 0.32428807 0.11538896
0001a0 35 c2 a4 bf 1c 05 01 3e 13 50 ab be d9 31 69 3d
       -1.2871767 0.12599605 -0.3345953 0.056932304
0001b0 d9 de 8f be ce 98 a8 bd 37 92 9b be 92 59 0a be
       -0.28099707 -0.0823227 -0.3038499 -0.13510731
0001c0 a4 a9 b0 be 1a 3b 44 3e 54 30 e2 bc 66 7e d2 bd
       -0.34504426 0.1916317 -0.027610935 -0.10278015
0001d0 65 3a d1 3e ca 3d 4c 3d 1b 4f 10 3e 13 e5 37 3e
       0.40864864 0.049863614 0.14092676 0.17958479
0001e0 26 b0 a1 3e 3d 25 b9 3d 50 93 1e 3e c6 f5 38 3e
       0.31579703 0.09040306 0.15485883 0.18062505
0001f0 06 10 3b be 89 03 fe 3c 8f 87 d6 bd c4 a4 87 3e
       -0.18267831 0.031007545 -0.104750745 0.26492894
000200 15 cb a8 bc d5 0b c6 bd 72 d5 0e be c1 ac ab 3d
       -0.02060465 -0.096702255 -0.1394861 0.083825596
000210 25 99 72 bd 4b 41 c3 3d d4 b8 f6 bd a8 75 9e 3e
       -0.05922808 0.09533938 -0.12046972 0.3094914
000220 d2 fb 83 3e 20 bb cf 3e a5 5e 10 3e 3d a0 38 3f
       0.2577806 0.40572453 0.14098604 0.72119504
000230 75 43 7a 3d 32 18 87 be 00 ed 33 3e 65 2d 49 3d
       0.06109949 -0.26385647 0.17570877 0.049115557
000240 6c e9 48 bd c7 be aa 3e 4b 11 bd 3e b4 b9 31 3d
       -0.049050733 0.33348677 0.36927256 0.04338999
000250 26 a7 9c be 1b 0f bb be 2d fb a3 3d a8 2e bc be
       -0.30596274 -0.36534962 0.08006892 -0.36754346
000260 14 87 fe 3d 03 36 68 3d 7c 4f eb bd 15 63 78 bd
       0.12428108 0.056692135 -0.1148977 -0.060641367
000270 37 5d 50 3e 3e 2a ca be 20 46 37 be ff 5b 85 3d
       0.20348059 -0.39485353 -0.17897844 0.065116875
000280 37 b2 15 3e df c0 15 be 9f 19 ac 3d f9 cc ee 3a
       0.14618765 -0.14624356 0.08403324 0.0018219046
000290 14 e0 9b 3e 8c 52 09 bf 58 5c 82 3e 27 44 3c 3d
       0.30444396 -0.5364158 0.25461078 0.045963433
0002a0 74 f7 5a bd 9b 4c ab 3c 16 98 9e 3e f8 27 fc 3d
       -0.053458646 0.020910552 0.30975407 0.12312311
0002b0 c7 19 b2 be 25 82 c2 be 9b b0 d0 be 73 79 10 be
       -0.34785292 -0.37989917 -0.4075974 -0.14108829
0002c0 a5 0a 0b be ab 4a 57 3e f9 c2 ab bd 12 eb fe bd
       -0.1357828 0.21024577 -0.083867975 -0.1244718
0002d0 04 14 af 3d 12 22 c4 3a 35 d3 b9 3e f7 80 c5 3e
       0.085487396 0.0014963767 0.3629395 0.38574955
0002e0 95 5c a6 bd 5f b9 ba 3c 45 15 2a bf c9 67 ed 3b
       -0.08123127 0.02279347 -0.66438705 0.007245038
0002f0 a9 1c 12 3e 04 2d 9c be 82 87 9a be 12 56 3a 3e
       0.14268745 -0.30503094 -0.3018151 0.18196896
000300 5c 6b b2 bd 7e 38 01 3e a3 57 b5 bd ce c3 ae bc
       -0.087118834 0.12619206 -0.08854606 -0.021333601
000310 71 18 6a bd 8b 08 1e 3e 33 90 2e bc 05 c1 6b bb
       -0.057152215 0.15432946 -0.010654497 -0.0035973203
000320 da ff 38 bd b2 0e ac bd de f3 bf be 75 cb 0f 3f
       -0.045165874 -0.084012404 -0.37490743 0.56169826
000330 77 92 19 be 65 ef 22 bb 3b a1 fc 3c 12 ee 02 bf
       -0.14997278 -0.0024861929 0.0308386 -0.51144516
000340 8c f2 45 be 5c 7f 38 be 3c ed 53 3e 08 fc 11 be
       -0.19330806 -0.18017334 0.20695966 -0.14256299
000350 bb 8d e2 bd fb bb 24 3d 56 74 20 be e9 c5 ce bd
       -0.11062189 0.040218335 -0.15669379 -0.10096342
000360 54 2c 57 3e 35 ff eb 3c 7d 6c ad 3e 8f 22 15 bf
       0.21013004 0.028808216 0.33871832 -0.5825586
000370 f5 db 9e bb 39 59 e9 3e 95 44 77 bd 9c 6a cd 3d
       -0.0048479983 0.45575884 -0.06036814 0.100301
000380 0b 14 d4 3e 16 a3 eb 3e 80 62 93 be 42 c6 ef bd
       0.41421542 0.46022862 -0.28786087 -0.117077366
000390 d2 4d b5 bd 34 eb 7b 3d eb de 6e 3e 1c 98 92 3d
       -0.08852734 0.061503604 0.23327224 0.07157919
0003a0 70 23 eb 3c c8 28 ce 3c 1c a6 43 bd 86 f6 66 3e
       0.028703421 0.02516593 -0.047765836 0.22554979
0003b0 cd f3 1d bd 22 77 72 bd 57 c1 ea 3d fe 9b f8 bd
       -0.038562585 -0.059195645 0.11462658 -0.12139128
0003c0 2d 7f ed 3d 07 82 26 3e aa 22 03 be d3 0e c9 3e
       0.115965225 0.16260539 -0.12806192 0.39269122
0003d0 6a e2 e1 3e 85 63 6e bd 75 ec e4 be b6 86 e9 3c
       0.44118053 -0.058200378 -0.44711652 0.028506618
0003e0 6e 79 37 be 50 34 3c be 64 6b ac 3d ca 84 d9 bd
       -0.17917415 -0.1837933 0.08418921 -0.10621031
0003f0 d9 de 9a bd 85 89 f8 bc 7c aa 73 be 7f d8 7f bd
       -0.07562036 -0.030339012 -0.23795503 -0.062462326

network_body._body_endoder.seq_layers.0.bias f4 [128]
000000 46 c9 3c 3d b5 47 0c 3d e4 52 60 bd 18 d6 30 bd
       0.046090387 0.034248073 -0.05476655 -0.043172926
000010 b8 49 ec bd f5 e3 02 bd 7b 71 20 3c ac 9e e6 3d
       -0.11537498 -0.031955678 0.009792681 0.11260733
000020 ad 94 af 3b 74 30 e0 bd 46 38 42 bd 55 8b af 3e
       0.0053582997 -0.10946742 -0.047416948 0.3428599
000030 fa 82 f6 bd a3 74 19 bc 91 d6 fa bc 4b 58 70 3d
       -0.120367005 -0.009366187 -0.030619891 0.058677953
000040 55 bf cc 3d a0 0c a5 bc a2 a0 61 3e f9 e7 ce 3e
       0.09997431 -0.020147622 0.22033933 0.40411356
000050 0c 1a 6b bd 15 02 6b 3e f0 9c 8a 3e 91 9c 34 3d
       -0.057397887 0.22950013 0.2707286 0.044094626
000060 59 c2 31 3d 47 76 db 3d dc 14 3e bd e7 7b 97 3d
       0.043398235 0.10715919 -0.04640661 0.07396679
000070 13 11 77 3e 20 8a ae bc 0b 94 9e 3d 59 ce 08 3d
       0.24127607 -0.021306098 0.07743081 0.033399913
000080 3f 1f 10 bc da c8 f1 3c b9 09 d6 bc 42 b7 32 3e
       -0.008796512 0.029514719 -0.026127683 0.1745272
000090 f7 9a 4d be 97 c9 18 3e 60 f7 00 3e 90 ad 79 bd
       -0.20078646 0.1492065 0.12594366 -0.060956538
0000a0 ad 60 3d 3e 6e f3 3d bd 96 08 8d be 39 0d b6 3c
       0.1849391 -0.04637473 -0.27545613 0.022223102
0000b0 ae 36 15 3e d3 b9 0e 3e e0 eb 25 3e 4e 17 a0 3d
       0.1457164 0.13938074 0.1620326 0.07816945
0000c0 cc 22 36 3e e5 b6 61 3e 0a 4a cd bd 44 6a 32 3e
       0.17786711 0.22042425 -0.100238875 0.1742335
0000d0 a3 c0 13 3e ad 22 33 3e d2 7f 08 3e 3f 30 77 3e
       0.14428954 0.17493697 0.1333001 0.24139498
0000e0 7e 1d 4e 3e 2c f9 5b 3e 85 ec c9 3d 63 8b 96 3d
       0.20128438 0.2148177 0.09859566 0.07350805
0000f0 08 7e 95 3d 92 5d 4c be 07 fc 27 3e 87 58 c5 3d
       0.07299429 -0.19957569 0.16404735 0.09636026
000100 36 02 36 3e 01 f3 3a 3e 5e 4f 10 be e5 67 1b 3e
       0.17774281 0.18256761 -0.14092776 0.15176351
000110 03 6f e6 bd 4a 15 4e 3e 19 ec 6c 3d ac 7d 64 3e
       -0.112516426 0.20125309 0.057842348 0.22313565
000120 8a aa 18 3e 72 63 13 be b4 23 32 3d 63 cb 85 bc
       0.14908805 -0.14393404 0.04349108 -0.016332334
000130 16 46 af bd 82 72 da bc 69 5b a8 3d 8f e3 67 bd
       -0.0855829 -0.02666593 0.0822056 -0.0566135
000140 fa ec 08 be 2e 6d e9 3d 1f 15 ef bd 7f 73 e1 3d
       -0.1337165 0.113977775 -0.116739504 0.11008357
000150 00 06 4c bd 72 44 0e 3e 5a 3f 74 3d 32 11 1f 3d
       -0.04981041 0.13893297 0.05963073 0.038834758
000160 b3 a4 a7 3d 56 a7 93 3e fb e6 8b 3d 32 32 95 3d
       0.08185711 0.28838605 0.068311654 0.072849646
000170 87 54 11 3e 15 82 3c 3e a4 47 27 bd 86 59 4c 3e
       0.14192401 0.18408997 -0.040839806 0.19956025
000180 8f de 1b 3e 8c d4 7d 3e ce 45 f2 3d 94 58 b3 3d
       0.15221618 0.24788111 0.118297204 0.08757129
000190 85 ec fa bd df 5a 1a 3d df 98 b3 bd cc f5 34 3d
       -0.12252144 0.037684318 -0.08769392 0.044179723
0001a0 b0 85 8e 3e fc 20 66 3d f1 fa b3 3c cd a9 51 3e
       0.2783637 0.0561838 0.021970244 0.2047493
0001b0 ff f0 61 3e 4c d7 26 3e 57 47 2c 3e fe 9f 9c 3d
       0.22064589 0.16293067 0.16824089 0.076477036
0001c0 f3 59 29 bd 41 f1 00 be 6f e0 b6 bd 81 5d fb bd
       -0.041345548 -0.12592031 -0.08929526 -0.12273694
0001d0 f7 6a 56 3e 2b 02 32 3e be 0a 47 3d 32 a5 b9 3d
       0.20939241 0.1738364 0.04859423 0.09064712
0001e0 08 9d 80 3e d3 5a a9 3d f1 42 75 3e 73 8f 76 3c
       0.25119805 0.082692765 0.23951317 0.015048849
0001f0 32 da 6e 3d 2d 86 62 3e 6b 73 07 3c df 3e 49 3c
       0.058313556 0.22121496 0.008267264 0.012283056

network_body._body_endoder.seq_layers.2.weight f4 [128, 128]
000000 84 6a 3c be 30 3d 8d 3e 9d 77 bc 3e bd 62 ac ba
       -0.18400007 0.27585745 0.36810008 -0.0013151985
000010 0e 77 77 3e e2 d9 2e be 17 89 a6 3e 77 e1 12 be
       0.2416651 -0.17075303 0.32526466 -0.1434382
000020 cd 7d 5d be a0 9b 11 be 59 14 95 bd 9d 8f d3 3b
       -0.2163002 -0.14219522 -0.07279272 0.006456329
000030 76 6c 10 be e8 7d 82 be 5e d7 12 be d9 9d ea be
       -0.14103875 -0.25486684 -0.14339969 -0.45823553
000040 a9 58 b6 be c8 94 fb be 37 21 80 3e af 7b a1 be
       -0.35614517 -0.4913695 0.2502534 -0.31539676
000050 80 de 11 be ba 44 b8 be 4c 06 5b be 61 a9 7f be
       -0.14245033 -0.35989934 -0.21389121 -0.24966957
000060 d9 9b 7b bd 83 3e fd be fb 6d f0 3d 36 d4 ce be
       -0.061427925 -0.49461755 0.11739727 -0.4039628
000070 c4 86 80 3e 35 a5 a2 bd 71 61 c7 3d 61 c3 b6 bd
       0.25102818 -0.07941667 0.09735382 -0.08923984
000080 ac 9b cb bd fc e0 9f bd a6 70 ea be 12 4f 11 3c
       -0.099418014 -0.07806584 -0.4578907 0.0088689495
000090 b7 79 44 bc ca 64 e0 3c 7e bd f2 be 9e 94 7a 3e
       -0.01199191 0.02739181 -0.47410196 0.24470755
0000a0 c4 a5 9d 3d f1 0c 3b bc e7 5f 90 bd 7a 42 ab be
       0.07697633 -0.01141666 -0.07049542 -0.33449155
0000b0 fa ba a8 be 27 12 89 3e 96 98 67 3d c6 a2 0a 3c
       -0.32955152 0.26771662 0.056542 0.00846166
0000c0 7b c9 0e 3e 10 62 d8 3d b1 90 99 3d 53 e4 0d 3e
       0.13944046 0.10565579 0.07498301 0.1385663
0000d0 34 da 26 3c c5 51 ed bd 5a 6d 41 be 86 31 a3 bd
       0.01018386 -0.11587862 -0.1888937 -0.0796843
0000e0 c0 d3 8b bc 3a 7b a0 3e 93 48 05 3e 61 90 f1 3d
       -0.017068744 0.31344014 0.13015966 0.11795116
0000f0 70 5e a0 be 38 dd 6a be 0f b6 ca be 1b 83 95 bd
       -0.3132205 -0.22935951 -0.39592025 -0.07300397
000100 fa 57 2b 3a bf 0f 0e bb 1a 75 87 3e 86 b6 1d be
       0.0006536242 -0.0021676866 0.2645653 -0.15401658
000110 41 d3 50 be 13 75 33 3d ee aa 85 3d 75 f2 35 be
       -0.20393087 0.043812823 0.06526743 -0.17768271
000120 e4 b2 5a bd 53 61 a7 be 4b 55 3e 3d 1a 05 d6 bd
       -0.05339326 -0.3269144 0.04646806 -0.10450192
000130 a7 18 a7 be 70 3b b2 3d aa c5 20 3e d6 38 c5 bd
       -0.32635996 0.08702743 0.15700403 -0.09629981
000140 65 5d 59 bc 93 09 43 3c 47 9c b4 bd c3 4e e7 3c
       -0.013266896 0.011904138 -0.0881887 0.028235799
000150 31 4e d7 bd 88 b5 d6 3e 16 75 d6 3d 71 c3 00 3e
       -0.10512961 0.41935372 0.10471551 0.12574555
000160 e3 a3 0d 3d e9 8d 28 be c5 07 8b bd 3a dd 0e 3e
       0.034580123 -0.16460384 -0.06788591 0.13951579
000170 af 94 43 be 25 6c 73 be 81 e5 9d 3c 42 fb 90 bd
       -0.19099687 -0.23771723 0.019274475 -0.070791736
000180 0f b3 27 be d7 36 c5 bd de b8 a6 be cf 48 53 bb
       -0.16376899 -0.096296005 -0.32562917 -0.0032239442
000190 1d 69 f8 3c 72 c2 8c 3d e4 8e 91 be db 95 d5 bd
       0.03032356 0.06873025 -0.2842933 -0.10428973
0001a0 f9 73 d8 be 66 53 09 3e fe f1 16 be df f0 4a be
       -0.4227598 0.1341072 -0.1474075 -0.19818448
0001b0 e9 70 f3 bd 0d 04 b1 be 1f db 19 be a0 1c 1b be
       -0.1188677 -0.34573403 -0.15024994 -0.15147638
0001c0 4d 48 f8 be 22 87 c0 3b ae 67 9b 3b 73 38 f9 3c
       -0.4849266 0.005875484 0.004742584 0.030422425
0001d0 27 1f 2f 3e b0 c9 99 3c 31 c6 bd 3e 5b 61 ae be
       0.17101727 0.01877293 0.3706527 -0.3405865
0001e0 fc 24 33 be cb 4d 48 3e 68 bb 0d be a4 98 0a 3e
       -0.17494577 0.19560926 -0.13841021 0.1353479
0001f0 8e af e7 bb 74 4b c4 3d 46 25 35 bd 60 f8 49 be
       -0.0070704883 0.09584704 -0.044225 -0.19723654
000200 db d1 8b 3b e0 94 3b be 84 90 06 3e 72 3f 7b bd
       0.00426696 -0.1831851 0.13141066 -0.061339803
000210 78 15 8f 3c 97 9a 10 be 6e 0c ab bd 5c 8e 70 3d
       0.017466292 -0.14121471 -0.0835198 0.058729514
000220 49 5f b8 bc 30 a5 ad 3d 67 3f ce 3d b9 54 91 3e
       -0.022506373 0.08478773 0.10070687 0.2838495
000230 86 4f e8 3d 5b 24 2c 3e 7e fd e9 3d 85 e8 5f be
       0.11343293 0.16810744 0.11425303 -0.21866043
000240 a0 18 b2 ba 75 c5 d6 3c b3 fc a3 be cd 54 d4 3d
       -0.0013587661 0.026217202 -0.32028732 0.10367737
000250 17 02 c6 3c 5c 97 77 3b 9b fd 94 3d e1 01 87 3d
       0.024170918 0.0037779426 0.07274934 0.06592155
000260 fa 01 a0 3d b1 49 90 bd af e4 32 3e bc 83 c1 bc
       0.07812877 -0.070453055 0.17470048 -0.023622386
000270 03 be d2 3d 2d 65 48 bc df 05 c1 3e f8 3f 92 be
       0.10290148 -0.012231153 0.37699792 -0.2856443
000280 d3 03 a0 be 3c 66 dd 3e ee 77 1b be de ad 93 3c
       -0.31252918 0.4324206 -0.15182468 0.018027242
000290 dc c3 33 3e 16 3c 96 bd 63 f0 3a bd 44 68 4b 3d
       0.17555183 -0.07335679 -0.045639407 0.049659982
0002a0 6d 32 1f 3e 0d 3a b2 3e 07 81 f3 bd 91 c9 01 3e
       0.1554658 0.34809914 -0.118898444 0.12674548
0002b0 12 33 8c 3a f5 4b 86 bc 08 3d 66 3d 2a 3f a9 bd
       0.0010696372 -0.016393641 0.056210548 -0.08264001
0002c0 75 78 0c be e1 24 78 be e0 6a aa 3e e0 13 b0 bd
       -0.13717826 -0.24232818 0.33284664 -0.08597541
0002d0 7d 11 81 3d 2d 97 8a 3c f7 51 5a 3e 99 54 75 bc
       0.06302164 0.01691779 0.2132033 -0.014973783
0002e0 5c 5b 1a be 48 d9 a6 bd 1b cf 63 3e ef db 16 bb
       -0.15073913 -0.08146912 0.22246973 -0.0023019274
0002f0 e1 d5 e2 bc 7c 42 57 be b1 55 d0 be 04 c0 08 3e
       -0.027689876 -0.21021456 -0.40690377 0.13354498
000300 bf 77 58 3c e6 26 e9 3e e5 88 3f 3e 51 b3 88 3d
       0.013212143 0.4553749 0.18704565 0.06674827
000310 23 2d 2c be cb d0 6a 3d c5 ef 9b bb 4e 7d c0 be
       -0.16814093 0.057328027 -0.0047588074 -0.375956
000320 d7 d0 25 3e 95 e9 ed bd 3e 28 86 bd 0a aa 8b 3e
       0.16192947 -0.11616818 -0.06550644 0.27278167
000330 90 d1 b4 3d 21 08 3c 3d c5 bc 35 3e 9b 45 16 be
       0.088290334 0.04590619 0.17747791 -0.1467499
000340 9a 77 1d bd fe d0 31 be 20 87 97 3d 32 b6 7d 3e
       -0.03844414 -0.1736488 0.0739882 0.24776533
000350 54 2b fc bd 37 d5 46 bc e4 da a5 be 26 91 3e 3e
       -0.12312952 -0.012135795 -0.32393563 0.18610057
000360 c8 25 88 3d a4 a7 d4 3d 64 87 c2 3d e0 d5 04 3c
       0.06647831 0.103835374 0.0949848 0.008107632
000370 b5 40 2b 3e 7a 7a 14 be af 2b 7f 3e ec 40 1a 3d
       0.16723903 -0.14499846 0.24919008 0.03765957
000380 8e a9 1c be 7e 36 c5 bc 9e bf 5d 3e a2 3e 1c be
       -0.15299055 -0.024073835 0.21655127 -0.15258268
000390 ab 51 09 3e ba 27 52 3c 24 26 69 be de 20 15 3e
       0.1341006 0.012826854 -0.22768456 0.14563319
0003a0 69 b3 4a 3e df 0d 0b bd 17 29 8e 3d 35 33 12 bd
       0.19795002 -0.033948775 0.06941431 -0.035693366
0003b0 9f ce 04 3d 79 8c 76 be 89 cb 2d 3d 8d 88 1d be
       0.03242361 -0.24077024 0.042430434 -0.15384121
0003c0 ca e6 31 3e 90 3c 01 3e 33 64 42 bd 02 22 2a be
       0.17373195 0.12620759 -0.04745884 -0.16614535
0003d0 bd 96 57 be ba bc 10 3e 74 28 9a 3e 6f 25 03 bc
       -0.21053596 0.14134493 0.30108988 -0.00800453
0003e0 78 34 c5 3d f9 0e 03 bd 47 11 29 3e 81 05 a8 3e
       0.09629148 -0.0319967 0.16510497 0.328167
0003f0 b9 fb 41 bd fb 99 86 3d 83 68 12 be 23 de c4 3c
       -0.047359202 0.06572338 -0.1429768 0.024031704

network_body._body_endoder.seq_layers.2.bias f4 [128]
000000 14 74 20 be 19 cd 08 3e 8b 38 94 bd 38 36 ca 3d
       -0.1566928 0.13359489 -0.07237347 0.09873623
000010 b1 c2 59 3e f2 47 a8 bc c9 94 48 3b 2d 9f 47 bd
       0.21265675 -0.020542119 0.003060626 -0.048735786
000020 8b b1 6e 3e d7 db 70 be 43 c7 3c bc 43 df 49 be
       0.23309915 -0.23521362 -0.011522117 -0.19714074
000030 a2 f5 59 bd 9f 86 d4 bc 6c fa 6e be 78 c6 63 be
       -0.05321277 -0.025943099 -0.23337716 -0.22243679
000040 37 2f d3 bc 7e 1d 9c be c8 19 31 be 4a 58 c1 bd
       -0.02577935 -0.3049125 -0.17294991 -0.09440668
000050 cb f6 86 3e 81 92 28 3e 98 c6 54 3e 4a ad 8b be
       0.26360163 0.16462137 0.20778883 -0.27280647
000060 57 4e 22 be 38 cc 22 3d d3 14 c9 bd 73 58 50 be
       -0.15850197 0.03974554 -0.09818425 -0.2034624
000070 b4 be 85 3d f3 7e 9d be 8a ee df bd d5 40 1d 3d
       0.06530514 -0.30760917 -0.109341696 0.038391907
000080 90 fe d3 bd 59 07 0e 3e 7c 1c 76 3c f3 7a 4e bd
       -0.10351288 0.1386999 0.01502144 -0.050410222
000090 64 d1 90 be 6c a7 5d 3e 30 b8 d9 bd bf c3 0a 3e
       -0.28284752 0.21645898 -0.10630834 0.13551234
0000a0 ec dc a5 bd 60 8a 58 be e9 c2 ac bd 9f c2 81 be
       -0.08098778 -0.21146536 -0.08435614 -0.25343797
0000b0 85 9c 20 be d0 16 29 be 87 32 98 3d c7 23 81 bd
       -0.15684707 -0.16512609 0.07431512 -0.06305652
0000c0 d2 5a 45 be 70 0e 08 bd 52 bf 99 bd d2 35 8d 3d
       -0.19272926 -0.033216894 -0.075071946 0.06895031
0000d0 78 d4 ba bd 4d 15 11 3e f1 f0 7c bc 49 ac ea bd
       -0.091225564 0.14168282 -0.015438304 -0.11458642
0000e0 1c e8 dd bd e6 f9 06 be bd e1 4a be 34 41 7e 3c
       -0.10835287 -0.13181266 -0.19812675 0.015518475
0000f0 70 d2 72 3c 81 3a fe bd 2a 52 d7 bd 4c c4 d8 3c
       0.01482068 -0.124135025 -0.105137184 0.02646079
000100 5a 75 42 bd 74 c0 3b 3e c1 a7 af be 9e ae c8 bc
       -0.047475196 0.18335134 -0.34307674 -0.024497326
000110 f8 cb e4 bd 6b 97 ac 3d 3d 85 f1 bd fd 16 b6 bc
       -0.111717165 0.08427318 -0.11792991 -0.022227759
000120 a9 bd d8 3d 87 9e 43 3d 92 f8 63 be 9b ec a4 bd
       0.1058305 0.047758605 -0.22262791 -0.080529414
000130 e5 25 d4 be 94 b1 7d 3b 21 ed 27 bd 63 ab 21 3e
       -0.4143516 0.003871058 -0.040997628 0.15788035
000140 aa 43 6c be dc 03 1b be b5 0c bd 3d 57 c6 aa bc
       -0.23072687 -0.15138191 0.09230939 -0.020846529
000150 12 3a af bd a8 19 98 bd 05 97 4a 3d ba 98 d4 3d
       -0.08555998 -0.074267685 0.04946043 0.10380693
000160 52 cf 89 be 41 ae 80 be 2a cd 61 3d 52 1e be bd
       -0.26915985 -0.25132945 0.0551273 -0.09283127
000170 86 24 d2 3d 84 23 80 3d 1c c1 54 bd ad 0c ff bd
       0.102608725 0.06256774 -0.051941976 -0.124535896
000180 ed 9e 54 be e3 72 88 bc d8 42 4b bb 9e 02 e5 bd
       -0.2076375 -0.016656345 -0.0031015184 -0.1118214
000190 1f e8 cf 3c 20 61 bb bd 2b 9c 13 bd 8a 82 ce bd
       0.025379239 -0.091493845 -0.036037605 -0.10083492
0001a0 09 e0 c7 bd 19 10 54 bc 38 f9 74 3d 73 80 dd bd
       -0.09759528 -0.012943291 0.059807986 -0.10815515
0001b0 64 21 98 3d 00 02 00 be 57 91 5e be 18 bd b6 bd
       0.07428244 -0.12500763 -0.2173513 -0.089227855
0001c0 68 70 e0 3d 93 03 ce bd 8d 75 14 3e 69 9e d7 3d
       0.1095894 -0.100592755 0.14497967 0.10528261
0001d0 b9 7a 9c be ff aa 95 be bc be ae bd fb eb 0d 3e
       -0.3056238 -0.29232022 -0.085324734 0.1385955
0001e0 ec a7 e3 3c e9 77 88 bd 22 d0 d1 3d 0a 6b 7b be
       0.027790032 -0.06663496 0.10244776 -0.24552551
0001f0 3e 7a 6b be f7 97 98 bd 6e 61 d4 3d 87 20 a0 bc
       -0.2299585 -0.0745086 0.10370146 -0.01954676

action_model._continuous_distribution.mu.weight f4 [2, 128]
000000 4c 30 1b 3e 2e 8d 01 be e6 1b b5 bd ad 86 58 be
       0.15155143 -0.12651512 -0.08843212 -0.21145125
000010 3e 2d 1d bc bd 3e 87 3e 26 ad 95 3e 9b c8 9a 3e
       -0.009593306 0.26415053 0.29233664 0.30231175
000020 aa 48 16 be 32 cb 48 be 07 0d 82 bd 03 d7 b0 3d
       -0.14676157 -0.19608763 -0.06350141 0.0863476
000030 60 e3 07 bb e3 69 d5 bb 38 e2 14 be 84 de ec bc
       -0.0020734891 -0.006512867 -0.1453942 -0.028914697
000040 0f 2e 7e 3b 97 5f 57 3e 2c b9 0d 3e a4 49 2d 3e
       0.0038784777 0.21032558 0.13840169 0.16922623
000050 2a 8b ea 3c 88 8a a0 3c 35 df 9b bc 77 b8 82 be
       0.028630812 0.019597307 -0.019027332 -0.2553136
000060 1a fb a0 3e 9d cf 8b be 2c 23 40 3e c9 17 0c 3c
       0.31441575 -0.27306834 0.18763417 0.008550593
000070 08 19 cb 3d ae de 85 be 1b 8e 10 be 48 93 bf 3d
       0.09916884 -0.26146454 -0.14116709 0.093542635
000080 3c 54 8b be 30 2b 93 3c f9 8e 08 be 3f 54 f5 bd
       -0.27212703 0.01796493 -0.1333579 -0.11978959
000090 a9 95 87 bd ce 02 3e bd fb ab 6e 3d be eb 61 3d
       -0.06620342 -0.046389394 0.058269482 0.055156462
0000a0 1a 1b 90 3e f3 5f dc be a3 b8 01 bd 95 a8 3b bd
       0.28145677 -0.43041953 -0.031670224 -0.04581507
0000b0 ae 21 45 be bd 44 1a 3e 65 e4 67 be 14 45 bd bd
       -0.19251129 0.15065284 -0.2264572 -0.09241691
0000c0 c0 bb 89 be 8c 9f cc 3d 38 d2 7e 3e f7 67 95 3c
       -0.26901054 0.09991369 0.2488488 0.01823805
0000d0 7a 30 bb bc 1a 27 9f 3d 8b 8b 09 bd d9 d5 8a be
       -0.022850264 0.0777113 -0.033580344 -0.27116278
0000e0 c1 e5 d7 bd d8 4b c3 3e ed 64 1d 3d 7c 6c c7 39
       -0.10541869 0.38143802 0.03842633 0.00038037065
0000f0 e7 16 2e 3e 2b 90 08 3e 51 d5 70 3d be b5 5f bd
       0.17000924 0.13336246 0.058797184 -0.054616682
000100 1c 14 2f 3e d3 15 db bc e5 c8 7b 3e fa 41 84 be
       0.17097515 -0.026743805 0.24588354 -0.25831586
000110 da 3e d2 3c ba 78 bd bd 96 15 06 3d e8 5c 87 be
       0.025664736 -0.092515424 0.03273543 -0.2643807
000120 fe 18 74 be a0 ff 85 bc 2c d1 00 3e 36 7b 6d 3e
       -0.23837659 -0.016357243 0.12579793 0.23191532
000130 c2 43 38 be af 00 c6 bd 75 fe 8d 3d 3d 28 b9 bc
       -0.17994598 -0.09668099 0.069332995 -0.022602195
000140 6b e8 e8 3d a0 59 2a 3e af af a8 be f7 bb d2 3d
       0.11372455 0.16635752 -0.32946536 0.10289758
000150 10 91 18 3e 35 f0 c0 be 03 ee 1f be 9a fb 51 3e
       0.14899087 -0.37683263 -0.15618138 0.20506135
000160 ef 4c 52 be bd 1c cc 3d bb d4 45 be d6 37 18 be
       -0.2053716 0.09966419 -0.19319431 -0.1486505
000170 53 f4 0a be 61 95 a4 3d bd 10 7f be 10 1f e3 be
       -0.13569765 0.08036304 -0.24908729 -0.44359636
000180 ed 42 a7 be a2 44 30 be cd f0 1b 3d 06 c7 61 bc
       -0.32668248 -0.17213681 0.038071442 -0.013780361
000190 3e 83 16 be 15 43 28 be 59 54 82 be b5 a2 fe 3d
       -0.14698502 -0.1643184 -0.25454977 0.12433378
0001a0 ed f7 1b be e4 7b 24 3d 87 62 d6 3a 23 76 1d 3e
       -0.15231295 0.040157214 0.0016356268 0.15377097
0001b0 78 4d 83 3e f7 ca cf ba 91 42 98 bd af aa 83 3d
       0.2564504 -0.0015853335 -0.074345715 0.0642904
0001c0 d0 98 d3 3d a1 31 07 be 2f 7f f3 bd 65 f5 ea bc
       0.10331881 -0.13202526 -0.11889493 -0.028681466
0001d0 d1 16 a7 3d 85 37 02 be f8 84 c8 bc f4 c4 8c 3e
       0.08158649 -0.12716492 -0.024477467 0.27494013
0001e0 74 e1 7f 3d de f7 65 3e 44 e4 82 be 10 e8 b9 3d
       0.06247087 0.22457835 -0.25564778 0.090774655
0001f0 c3 cd 34 3e 5a 9f 69 be e7 f3 57 be 97 a4 b6 3d
       0.17656617 -0.22814694 -0.21089135 0.08918112
000200 34 37 d4 bd d5 02 0e be 05 d3 74 be f2 68 c1 bc
       -0.10362092 -0.13868268 -0.23908623 -0.023609612
000210 b2 37 68 3d c3 1c 03 3d 9d e9 eb 3c 60 1e b0 bd
       0.05669374 0.03200985 0.028797919 -0.085995436
000220 43 39 db be 5c 94 5c bd fc c1 de 3a 43 89 07 3e
       -0.42817125 -0.053852424 0.0016995068 0.13235955
000230 c0 6f f2 bd 10 be 05 3f fc cc 99 3d fd 10 35 3e
       -0.11837721 0.5224314 0.07509801 0.17682262
000240 7b 23 cf 3d 5b 0b 4d 3e da a5 c7 3e c3 83 50 3e
       0.10114189 0.20023863 0.38993722 0.20362763
000250 41 30 54 bd 31 20 96 bd cb 1b 39 be 80 51 70 be
       -0.05180383 -0.07330359 -0.18077008 -0.2346859
000260 c5 86 2a 3e c7 53 0f 3e d9 05 17 3e a1 cc 95 be
       0.16652973 0.13996802 0.14748324 -0.29257682
000270 de 72 01 3d 6d 9a 60 3e e5 31 c5 3d 63 27 f6 bd
       0.031603687 0.21933909 0.09628657 -0.12019231
000280 90 03 cc 3c 65 d2 92 be 0e 24 b3 be e5 e9 89 3e
       0.024904042 -0.28676143 -0.34988445 0.2693626
000290 be fe 9d 3e da 91 3b be 58 7f e5 3c 81 26 21 3e
       0.30858415 -0.18317357 0.028014824 0.15737344
0002a0 68 8b 8f bd 98 de b1 3c 38 03 89 3d 9e 5a c8 3e
       -0.070090115 0.021712586 0.06690067 0.39131635
0002b0 99 73 c6 bd 1e 13 07 3d 12 9e b6 3d 0d 36 ff 3d
       -0.09690017 0.032977216 0.08916868 0.12461481
0002c0 e0 a3 07 3e f8 07 cb 3d 40 d3 34 bc ab b1 6c be
       0.13246107 0.09913629 -0.011036694 -0.2311465
0002d0 f1 c0 e2 3d be 3a 68 bd 00 e0 7f 3d fe 7c 97 3d
       0.11071957 -0.056696646 0.062469482 0.07396887
0002e0 48 82 20 be d7 ee 6a bd 3c 57 90 3e 8c aa 17 3e
       -0.15674698 -0.05735668 0.28191555 0.14811152
0002f0 44 39 42 bd 3b 88 8c 3d 64 60 b1 3e 15 a0 d2 3c
       -0.047417894 0.068619214 0.34643853 0.025711099
000300 02 fd 39 be 3c 46 3a 3e ad 72 30 3e ec 16 47 bb
       -0.18162921 0.18190855 0.17231245 -0.0030378653
000310 b9 39 9b be 7d f7 89 3d 4b f1 82 3e 67 7a f0 be
       -0.30317476 0.06736658 0.25574717 -0.46968386
000320 c6 f8 83 3d 5a 24 0e bb 71 ab db 3e 35 2d e1 bc
       0.06443934 -0.0021689148 0.42904237 -0.027487377
000330 3c c8 9a be 86 c0 d4 bd ee 54 31 3e 0c 70 41 3e
       -0.30230892 -0.103882834 0.17317554 0.18890399
000340 0c 91 6e 3d 57 e5 fd 3c 47 eb fa 3d 8e 59 9c 3e
       0.058243796 0.030993147 0.12251907 0.30537075
000350 35 6a 64 be 10 94 1d bd f1 10 8a 3d e6 92 1b 3e
       -0.2230614 -0.03847128 0.067415126 0.15192756
000360 16 5f fa 3c 70 90 e2 bd 0c ea ed 3e 49 b3 6a be
       0.030562919 -0.110627055 0.46467626 -0.22919954
000370 9a 7f e9 bd 30 e0 a5 bd 53 06 48 3e ec 9f 51 bd
       -0.11401291 -0.08099401 0.19533662 -0.051177904
000380 13 2c d8 3c 05 51 35 3c c7 c7 6f bc ae 9b bb bd
       0.026388204 0.01106668 -0.014635033 -0.09160553
000390 e0 df 25 3e 2b a9 82 bd 86 d7 8d bd ab ae 86 bd
       0.16198683 -0.063799225 -0.069258735 -0.06576284
0003a0 74 5e cb 3d 7e 9a 4e 3e e9 f7 e0 bd 8c 87 2a be
       0.09930125 0.20176122 -0.10984785 -0.1665327
0003b0 ef 03 0a 3d 76 43 e3 be 57 76 b9 3e 28 bc 80 be
       0.033695158 -0.44387406 0.362231 -0.25143552
0003c0 84 77 f6 bd 54 0e c5 3d d8 ec aa be 09 1e 3b be
       -0.120345145 0.096218735 -0.33383822 -0.18273176
0003d0 57 9b a1 be 99 12 d6 be 06 a1 6c 3d a0 4b 21 3e
       -0.31563827 -0.41811064 0.05777075 0.15751505
0003e0 36 5f a8 3c d0 7a 2d be 64 ee c8 be 41 b3 c6 3e
       0.020553213 -0.1694138 -0.39244378 0.38808635
0003f0 7d 91 2d 3e 67 0e 08 bd c4 56 27 be eb ba 78 3d
       0.1695003 -0.03321686 -0.16341692 0.060725134

action_model._continuous_distribution.mu.bias f4 [2]
000000 9d 5b 17 3c a1 fb fe bc
       0.009238151 -0.031125845

action_model._continuous_distribution.log_sigma.weight f4 [2, 128]
000000 2a 3d b2 bc 78 6b 61 3d c8 99 27 3e 9a d5 be bc
       -0.02175768 0.05503413 0.16367257 -0.023295213
000010 31 98 08 be 8f 00 38 3d 3d e1 33 3d b4 d4 1f 3d
       -0.13339306 0.044922408 0.043915976 0.03902121
000020 56 f9 ad bc 20 d7 b6 3b 2e ab a6 bd f9 c9 a8 3c
       -0.021237057 0.005579844 -0.08138119 0.02060412
000030 7b e0 48 bc 27 c0 e0 3c 2b dd d7 bd 54 1e fc 3c
       -0.012260552 0.027435375 -0.10540231 0.03077618
000040 24 5d 8d 3e 0b b4 e1 3e 6c d0 f0 3d f8 62 40 ba
       0.27610123 0.44082674 0.11758503 -0.0007338966
000050 53 ac 91 bd f6 91 03 be ed 35 dc be b6 e1 9c bd
       -0.07112946 -0.12848648 -0.43009892 -0.076602384
000060 b8 b1 2f 3e 8e 55 aa bd 98 ec 30 bd 0f e5 e4 bb
       0.17157638 -0.083170995 -0.043194383 -0.0069853137
000070 e0 f3 2c bc 69 92 38 3e 64 8d 38 3d 4a f5 2a 3c
       -0.010556191 0.18024601 0.045056716 0.010434458
000080 66 ed 9c 3d b1 6c d0 3c 8a 2c 55 bc 1f 36 eb 3c
       0.07662468 0.025442453 -0.013011107 0.02871233
000090 56 c5 2a 3d 74 1a f7 3b 35 35 45 3e b1 10 f8 bd
       0.0416921 0.0075409953 0.19258578 -0.12112559
0000a0 bc c6 81 3d aa e2 85 3e cb 26 b2 bc 8f 4a 27 bc
       0.06336734 0.26149493 -0.021747014 -0.010210647
0000b0 6a 91 8c bc 7b 8d 17 3e 49 54 5e 3d 86 85 10 3e
       -0.017159183 0.14800064 0.0542796 0.14113435
0000c0 1f b7 dd 3d fa 20 e4 3d 1a bd 38 3e 20 93 80 3d
       0.10825943 0.11139102 0.18040887 0.06278062
0000d0 72 9f d5 3d 09 38 c0 bd 38 14 b9 bd d6 ec 16 3e
       0.104308024 -0.09385688 -0.090370595 0.14738783
0000e0 43 e1 16 3d 90 ae 13 3e f0 20 15 3c 60 35 aa bd
       0.03683592 0.14422059 0.009102091 -0.08310962
0000f0 a3 bd 84 bc 4a f8 12 bd 0d c7 13 bc 7d 95 3e bd
       -0.016203707 -0.03588132 -0.009019625 -0.046529282
000100 bf c9 a4 bc fe 4e 12 be 28 cd f8 3e 76 0f 2f bd
       -0.020115731 -0.14287946 0.48594022 -0.042739354
000110 91 a0 83 3b cd ae 9d bd 43 d8 a7 3c 70 0f 5f 3c
       0.0040169437 -0.07699356 0.020488864 0.01361452
000120 de 90 5a 3c 38 d8 80 bd 85 e1 50 3d 99 e9 e2 3d
       0.013340203 -0.062912405 0.050996322 0.110797115
000130 74 cb d5 3e de 0d 61 bd 2c d1 32 3c 66 b3 ab bc
       0.41756785 -0.054944865 0.010914128 -0.020959567
000140 31 68 8c 3c 36 6b 0e 3e 06 2a 0a bb 19 66 b6 bc
       0.017139526 0.13908085 -0.0021082177 -0.02226548
000150 40 af 9b bc 92 28 bf 3d b4 e8 cc bc a1 04 08 3d
       -0.019004464 0.0933391 -0.025013305 0.03320754
000160 c2 21 11 3b b6 ca 3b 3d 09 5c 57 3d c2 e8 90 3d
       0.0022145365 0.045847617 0.052578006 0.07075645
000170 10 57 05 3a 8d 33 f0 bc 85 9a 0d 3e 93 e4 30 3e
       0.00050865207 -0.029321456 0.13828476 0.17274694
000180 46 f9 5a bd ae 57 01 bc 56 b8 19 be 15 a9 c7 3d
       -0.053460382 -0.00789444 -0.15011725 0.09749047
000190 18 89 88 3d 7c 53 c8 bc a2 dd 81 3c 3b 5b 3d bc
       0.066667736 -0.024453871 0.015852753 -0.011557396
0001a0 a8 53 90 bc 78 22 0f 3c 90 31 c4 3c 61 1f ad 3c
       -0.017618015 0.008736245 0.023949414 0.021133127
0001b0 3c 3f 62 3d 81 a1 ea 3c e7 f9 84 3e f3 d0 09 bb
       0.055236086 0.028641464 0.2597191 -0.0021029084
0001c0 a0 2f 58 3c 96 10 df 3e 2e b1 e2 3b 5a 47 a0 3e
       0.013194948 0.43567342 0.006918094 0.31304437
0001d0 23 46 d6 3d c3 b6 3f 3d 57 b5 80 3c bd b9 a9 3d
       0.10462596 0.046805155 0.01571147 0.0828738
0001e0 47 c1 8b 3d ef 30 87 3d a1 54 30 3e 38 6f 77 3e
       0.06823974 0.0660113 0.17219783 0.2416352
0001f0 df 86 db bb a2 a4 f4 3d 6e 20 28 3e 93 0f 68 bd
       -0.0066994275 0.11945464 0.16418621 -0.056655478
000200 74 d3 3b bc e6 df c7 bc f1 2a 5a 3d 55 4e 02 bd
       -0.011463989 -0.024398755 0.05326361 -0.031812984
000210 19 00 e9 bd 71 33 b8 3c 44 f9 ee 3b c6 fb ba bc
       -0.11376972 0.022485467 0.0072928984 -0.022825133
000220 86 44 d8 bd 2f b2 e5 3b 74 6f 00 bd 15 ad a3 3d
       -0.10559945 0.0070097665 -0.03135629 0.07991997
000230 df 8f e6 ba 1a 18 d9 3c 98 85 9b 3b 19 57 af 3d
       -0.0017590484 0.02650075 0.00474615 0.085615344
000240 e6 0d a1 3d 94 0d bb 3e c3 90 1b 3d d3 70 bd 3d
       0.07863979 0.36533797 0.037979852 0.09250035
000250 40 7a 03 be e5 f2 0d be 32 92 6e 3e cf 47 50 bd
       -0.12839603 -0.13862188 0.23297957 -0.050849732
000260 df 55 83 bc 2e db 46 3c 75 d6 b1 bc d7 f8 57 3d
       -0.016032157 0.012137217 -0.021708706 0.052727547
000270 eb 8a bb bc 52 a8 03 3e c1 c4 58 3d ab 7f 21 3b
       -0.02289339 0.12857178 0.052922014 0.0024642746
000280 56 0f e1 bd ee d8 25 3e 7e 76 ed 3b 46 e1 7c 3d
       -0.10989253 0.16196033 0.0072467914 0.061738275
000290 6f 63 11 3e 3d 33 c0 bd 46 15 63 3e dc 8a 0a bd
       0.14198087 -0.09384773 0.22176084 -0.033823833
0002a0 16 7e b1 3c 8b e4 17 3e 6e c4 6c bd f0 15 32 3e
       0.021666568 0.14833276 -0.057804517 0.17391181
0002b0 85 51 41 b9 6c 7e 8d 3d 3e 6f 6d 3c a9 f9 81 3d
       -0.00018436283 0.06908879 0.014491854 0.06346447
0002c0 c3 1d 11 3e d2 d2 01 bd e9 a5 62 bc dc ea 06 3d
       0.1417151 -0.031695195 -0.013833501 0.032938823
0002d0 9b da 12 bc 7e 2a b8 bd 0f 0e 34 bd d4 8c e1 3d
       -0.008963252 -0.0899248 -0.04395872 0.11013189
0002e0 59 20 ce 3d 21 e7 ab bd 4f df b1 3d 39 ba da bc
       0.100647636 -0.08393694 0.08685171 -0.026700126
0002f0 30 47 71 bb a9 2d 81 bc 62 3b 5e bd 6d 5c f8 3d
       -0.0036816113 -0.015768843 -0.05425585 0.12127004
000300 fb d8 a1 3c 9f e8 b7 bd 96 7d 53 3e 7c 9f 8c 3b
       0.019756785 -0.08979916 0.20653376 0.004291473
000310 44 99 12 bd 75 d0 79 3d 03 1b bb 3d cf f2 9a bd
       -0.035790697 0.060989816 0.091360115 -0.07565843
000320 ec ca 0d bd 79 e6 cc bc 01 84 25 3e 1e b5 a5 bd
       -0.03461735 -0.025012242 0.16163637 -0.08091186
000330 ea c2 2f 3e cb 39 86 bd 02 3a d5 3c 7d 8f 0c 3e
       0.17164198 -0.06553992 0.026028637 0.13726611
000340 cf 2b b8 3c 0d 3f 03 3d fa a2 ce 3d d3 6d 19 3d
       0.022481827 0.03204255 0.10089679 0.037458252
000350 29 2e 6f 3d f3 3c ec 3c 05 f7 c5 bc 3a 2b 28 3c
       0.05839363 0.028837657 -0.02416564 0.010264212
000360 6c de 8c 3b d4 e9 42 3d 19 1b 23 3e e4 d6 7e 3c
       0.0042989757 0.047586277 0.15928306 0.015554164
000370 e7 74 3d bc 3f ab 21 bd 51 b7 c4 3c dd e9 c6 3d
       -0.011563516 -0.039469954 0.024013193 0.09712575
000380 67 84 4a 3d 11 94 60 3c 16 6f ed be 2d ba db bd
       0.049442675 0.013707177 -0.46373814 -0.107288696
000390 da ae 8a 3c de 00 a0 bd 79 95 13 bd e7 bd 89 bd
       0.016929079 -0.078126654 -0.03603122 -0.06725674
0003a0 c6 99 0e 3d 81 b6 96 3d d3 f5 f0 3c 2a ea 4d bd
       0.03481462 0.073590286 0.029414093 -0.050272144
0003b0 5a e6 47 bc fc b2 3d 3b dc 76 e1 3c 93 d1 8d bb
       -0.012200916 0.0028945794 0.027522497 -0.0043279617
0003c0 76 1b 7e 3c ce 5a a4 bc dc fe 46 bd 78 5b 95 3e
       0.015509477 -0.02006283 -0.048582897 0.29171348
0003d0 1a 85 8d 3d 8e b4 35 3d 8b da 27 3c 0e 5f 56 ba
       0.06910153 0.044361643 0.010244976 -0.00081776164
0003e0 2d 39 7e bd 47 8d 5c 3c a5 f7 c1 bc b6 1d 15 3e
       -0.062066246 0.0134614175 -0.023677656 0.14562115
0003f0 51 7e 24 3d 67 82 ce 3c c2 9f db 3a 6a 69 4f bd
       0.040159527 0.025208665 0.0016755986 -0.05063764

action_model._continuous_distribution.log_sigma.bias f4 [2]
000000 b4 82 44 bf bd e0 26 bf
       -0.7676194 -0.65186673

onnx::Div_66 f4 [20]
000000 1d 6f 0d 3e 42 22 1d 3e 42 96 18 3d 13 d3 80 3d
       0.13811918 0.153451 0.037252672 0.06290259
000010 89 5f 13 3e c8 92 b3 3e 37 e9 4a 3d b1 00 d5 3d
       0.14391913 0.35072923 0.049538817 0.104005225
000020 83 d4 ea 3d 13 48 c8 3e ab 40 6c 3d fa 73 e3 3d
       0.11466315 0.39117488 0.05767886 0.11106105
000030 9f e8 91 3d e1 cd d1 3e f8 09 e1 3d c0 14 2f 3e
       0.07124447 0.40977386 0.109882295 0.17097759
000040 85 14 93 3d b4 42 dd 3e bf 1c 04 3e b8 06 44 3e
       0.07181648 0.43214953 0.12901591 0.19143188

onnx::Div_69 f4 [12]
000000 83 1a ae 3c dc 08 f2 3d df a8 3f 3c ad 9e 91 3c
       0.021252876 0.11818096 0.011697977 0.017775858
000010 f6 4f a9 3c fe 21 f2 3d f8 ce 42 3c 4b e2 92 3c
       0.020668011 0.1182289 0.0118901655 0.01793017
000020 f3 64 b1 3c 67 27 f4 3d 0e c2 2e 3c 9c 56 8c 3c
       0.021654582 0.11921578 0.010666383 0.017131142

onnx::Div_72 f4 [3]
000000 36 4e 15 3f d8 77 48 3c b3 e8 33 3f
       0.58322465 0.012235604 0.70276946
