Experimentos/results/sac4.1/KartAgent/KartAgent-5000579.onnx (onnx, 93578 bytes, 14 tensors)

network_body.observation_encoder.processors.0.normalizer.running_mean f4 [20]
0.018911578 0.023636283 0.0013488411 0.049808636 0.020536445 0.14027128 0.0026620883 0.09988018
0.012941569 0.18508346 0.0032386635 0.10643029 0.0052068722 0.77491885 0.012494119 0.29933852
0.005052264 0.75592035 0.016557187 0.26761103
00000000: 74ec 9a3c e1a0 c13c 99cb b03a 2404 4c3d
00000010: 0c3c a83c 46a3 0f3e 6e76 2e3b fb8d cc3d
00000020: e008 543c 8586 3d3e c23f 543b 20f8 d93d
00000030: 699e aa3b 1561 463f 22b4 4c3c e642 993e
00000040: 768d a53b ff83 413f f0a2 873c 5004 893e

network_body.observation_encoder.processors.1.normalizer.running_mean f4 [12]
0.00043834632 0.013821162 0.0001325858 0.004794274 0.00041455118 0.013828849 0.00013698357 0.004803472
0.0004551452 0.014067093 0.000110187335 0.0047875317
00000000: d9d1 e539 2872 623c bb06 0b39 4919 9d3b
00000010: 1e58 d939 6692 623c 3fa3 0f39 7266 9d3b
00000020: 8ea0 ee39 aa79 663c 6014 e738 bae0 9c3b

network_body.observation_encoder.processors.2.normalizer.running_mean f4 [3]
-0.052081656 0.037343103 0.40514344
00000000: 9353 55bd 15f5 183d f66e cf3e

network_body._body_endoder.seq_layers.0.weight f4 [128, 35]
0.21160042 0.25807974 -0.16474752 0.25354803 0.27331176 -0.0032383613 0.32872427 0.3587005
-0.2062326 -0.009228911 -0.19611919 0.1697571 -0.09596687 0.322982 -0.11491645 0.042658053
-0.25087932 -0.06341983 -0.07748385 -0.04715042 0.092070214 -0.045464907 0.099479556 -0.0054588527
0.14829434 0.00024326952 0.23487979 0.055338677 0.1851739 0.0485405 -0.22199138 0.052971315
-0.48308644 1.0423998 -0.085233115 0.015980348 0.312375 0.13630503 0.15859058 0.0067033316
-0.023852834 0.59150726 -0.24696192 0.0061318385 0.21026057 -0.0077604037 0.35740978 0.06336761
-0.00028503698 -0.056683507 0.085389 0.14235505 0.03696944 0.13240689 0.50408065 -0.12669732
-0.1972052 -0.23201746 0.015709553 -0.4207314 -0.08716387 -0.2365924 -0.01619346 -0.54942906
-0.23977011 0.03264248 -0.10794313 0.27857453 -0.1955982 -1.5308908 -0.1986421 -0.20200004
0.4249574 -0.07275202 -0.21249706 0.1189524 -0.108930334 -0.02661871 0.06315102 0.100069016
-0.205417 0.56044215 0.06774607 0.16676897 0.27609962 -0.19487235 0.09299246 0.17441717
0.030988457 0.1708621 -0.08774685 0.0981564 0.044424087 -0.07538782 -0.2662265 0.41601068
-0.5884176 0.17301537 -0.14336085 0.10431188 -0.06987565 0.38922688 0.3364056 0.112908974
-1.265655 0.1493759 -0.34812072 0.044016253 -0.30578727 -0.07744346 -0.33049086 -0.1439693
-0.35322455 0.19736421 -0.008468857 -0.11708551 0.41618606 0.037862644 0.11516958 0.19354515
0.34611788 0.068449385 0.15639368 0.16757092 -0.17320758 0.016456947 -0.12291498 0.25048342
-0.04508697 -0.1112494 -0.15079683 0.06937608 -0.084617265 0.080786355 -0.1393952 0.29506716
0.23395649 0.38630846 0.15855274 0.74960893 0.06042764 -0.28556862 0.16708322 0.038489208
-0.06813483 0.34764907 0.38259476 0.046091456 -0.30071086 -0.39767087 0.062242802 -0.410149
0.12884189 0.03640848 -0.09663417 -0.077256516 0.20440589 -0.37846953 -0.19142278 0.07009862
0.13007498 -0.15779395 0.06807491 -0.013262553 0.28833696 -0.54801244 0.23864767 0.031364128
-0.06957474 0.01666143 0.2938298 0.107416615 -0.337275 -0.3646739 -0.40775132 -0.13324264
-0.13885878 0.20077854 -0.09276942 -0.1289613 0.08136737 -0.005945286 0.3368457 0.3767173
-0.08687862 0.015894016 -0.68231815 0.057012785 0.12093088 -0.30955946 -0.2999399 0.15318215
-0.08912916 0.12136591 -0.09491132 -0.027965965 -0.07293969 0.14773773 -0.018753503 -0.01022834
-0.03906317 -0.09060552 -0.38320404 0.5550626 -0.15295011 -0.0090689715 0.023140768 -0.4880035
-0.17982472 -0.19047871 0.22430293 -0.11868561 -0.09981843 0.07824043 -0.10710507 -0.074215636
0.24619946 0.07865484 0.37054813 -0.5487589 0.021295449 0.46270993 -0.06897404 0.13025676
0.4298836 0.4474165 -0.28304347 -0.11097896 -0.077238664 0.036444 0.25232324 0.07838676
0.047589347 0.06023771 -0.02871939 0.23329943 -0.019670784 -0.021861268 0.13368152 -0.16235182
0.13481583 0.19703285 -0.10502598 0.36241984 0.47347152 -0.074688636 -0.4491015 0.025538603
-0.17864154 -0.18134934 0.07702604 -0.10959442 -0.069771305 -0.030299367 -0.2223041 -0.065355524
00000000: c8ad 583e 0723 843e 93b3 28be 0cd1 813e
00000010: 85ef 8b3e b03a 54bb 8c4e a83e 98a7 b73e
00000020: a42e 53be dc34 17bc 78d3 48be ced4 2d3e
00000030: 478a c4bd e65d a53e 5159 ebbd 36ba 2e3d
00000040: 4173 80be 41e2 81bd daaf 9ebd cc20 41bd
00000050: 4f8f bc3d 6939 3abd f0bb cb3d 2de0 b2bb
00000060: 79da 173e 2a16 7f39 5484 703e cfaa 623d
00000070: 3a9e 3d3e 67d2 463d b551 63be 73f8 583d
00000080: 1b57 f7be 5b6d 853f b38e aebd 38e9 823c
00000090: 9eef 9f3e 8c93 0b3e 9265 223e 9fa7 db3b
000000a0: 0567 c3bc 056d 173f 96e3 7cbe 97ed c83b
000000b0: 8c4e 573e fc4a febb 6afe b63e e1c6 813d
000000c0: 0471 95b9 f72c 68bd 6ee0 ae3d 86c5 113e
000000d0: 446d 173d ac95 073e 6e0b 013f f1bc 01be
000000e0: 29f0 49be fc95 6dbe 52b1 803c 1b6a d7be
000000f0: f982 b2bd 4745 72be 26a8 84bc 62a7 0cbf
00000100: 4c86 75be 1fb4 053d 4a11 ddbd 52a1 8e3e
00000110: e54a 48be 3bf4 c3bf d668 4bbe 19d9 4ebe
00000120: 0494 d93e 03ff 94bd d498 59be 519d f33d
00000130: de16 dfbd 7b0f dabc 5255 813d fcf0 cc3d
00000140: d658 52be 2379 0f3f 74be 8a3d 7cc5 2a3e
00000150: ee5c 8d3e 9e8c 47be d572 be3d 6a9a 323e
00000160: 81db fd3c 79f6 2e3e 9fb4 b3bd 3906 c93d
00000170: 08f6 353d ee64 9abd d74e 88be 5aff d43e
00000180: 89a2 16bf f12a 313e 30cd 12be 78a1 d53d
00000190: f71a 8fbd bf48 c73e 5b3d ac3e d23c e73d
000001a0: fc00 a2bf fff5 183e e13c b2be 634a 343d
000001b0: 2690 9cbe ad9a 9ebd 1936 a9be b06c 13be
000001c0: d9d9 b4be d819 4a3e f6c0 0abc 87ca efbd
000001d0: 5716 d53e dc15 1b3d 07de eb3d b330 463e
000001e0: 5d36 b13e 312f 8c3d aa25 203e b697 2b3e
000001f0: 545d 31be b8d0 863c d9ba fbbd 5d3f 803e
00000200: 1dad 38bd bad6 e3bd 7c6a 1abe 0c15 8e3d
00000210: d14b adbd 5173 a53d 9ebd 0ebe 0b13 973e
00000220: 4a92 6f3e 39ca c53e a65b 223e 5fe6 3f3f
00000230: f982 773d 0d36 92be dd17 2b3e dca6 1d3d
00000240: 468a 8bbd 0fff b13e 76e3 c33e 65ca 3c3d
00000250: c6f6 99be 849b cbbe 4ff2 7e3d 0dff d1be
00000260: 21ef 033e 0f21 153d 23e8 c5bd aa38 9ebd
00000270: c74f 513e c2c6 c1be 5504 44be de8f 8f3d
00000280: 6032 053e bd94 21be dc6a 8b3d 2e4b 59bc
00000290: e7a0 933e 8b4a 0cbf 0e60 743e ac77 003d
000002a0: 347d 8ebd 8d7d 883c dc70 963e 3efd db3d
000002b0: 4faf acbe 8ab6 babe c8c4 d0be c270 08be
000002c0: ff30 0ebe e498 4d3e e5fd bdbd 6e0e 04be
000002d0: f0a3 a63d acd0 c2bb 0a77 ac3e 17e1 c03e
000002e0: 6bed b1bd 2b34 823c 67ac 2ebf 3d86 693d
000002f0: 9caa f73d 947e 9ebe b991 99be c8db 1c3e
00000300: 5989 b6bd b18e f83d de60 c2bd e118 e5bc
00000310: 6761 95bd 8f48 173e f2a0 99bc c494 27bc
00000320: b400 20bd 638f b9bd 5233 c4be 9518 0e3f
00000330: f49e 1cbe 0696 14bc b591 bd3c 98db f9be
00000340: f923 38be da0c 43be abaf 653e 7111 f3bd
00000350: 9b6d ccbd 853c a03d e759 dbbd 5efe 97bd
00000360: b61b 7c3e ca15 a13d 7cb8 bd3e 777b 0cbf
00000370: cb73 ae3c 51e8 ec3e 4342 8dbd 0762 053e
00000380: b419 dc3e c713 e53e 13eb 90be f048 e3bd
00000390: 4e2f 9ebd 4e46 153d 8330 813e 3d89 a03d
000003a0: 0ced 423d d1bb 763d ed44 ebbc 0ce6 6e3e
000003b0: a024 a1bc 6716 b3bc cfe3 083e 8e3f 26be
000003c0: 290d 0a3e fbc2 493e dc17 d7bd 188f b93e
000003d0: dc6a f23e 5bf6 98bd a2f0 e5be 5536 d13c
000003e0: cfed 36be a4b3 39be d4bf 9d3d 0a73 e0bd
000003f0: 42e4 8ebd 6136 f8bc b0a3 63be 1ed9 85bd

network_body._body_endoder.seq_layers.0.bias f4 [128]
0.049010202 0.049268022 -0.05769395 -0.028480943 -0.09905866 -0.025267519 -0.009480295 0.11575496
0.018083261 -0.12666969 -0.05375711 0.34407377 -0.12835886 -0.015554997 -0.03813089 0.06311377
0.101648785 -0.014425056 0.22720022 0.39206833 -0.032058716 0.20773724 0.2794883 0.046227396
0.051711995 0.10769089 -0.04138904 0.08540944 0.23198673 -0.016170645 0.07251247 0.036266465
0.014299316 0.039997898 -0.00069830497 0.16141704 -0.19467095 0.14658849 0.12060992 -0.057637263
0.17608286 -0.055029288 -0.28043622 0.030937187 0.12747252 0.1428421 0.16727863 0.09386154
0.21240681 0.21883003 -0.09029607 0.1582087 0.16168591 0.16116452 0.14095843 0.2639275
0.21332778 0.20546919 0.09058981 0.06775553 0.07503713 -0.19155487 0.1644095 0.104017116
0.1608466 0.18649156 -0.11463623 0.14325584 -0.092218615 0.15276326 0.008126005 0.22268035
0.14492695 -0.14246221 0.051690705 -0.05882461 -0.106205 0.0042566643 0.08294589 -0.059470758
-0.117099814 0.09927958 -0.10705722 0.10451436 -0.0443488 0.1423527 0.050785646 0.027811266
0.07546387 0.2877344 0.059247088 0.07821773 0.16232564 0.18375883 -0.02766244 0.1984646
0.1467046 0.19321129 0.12347837 0.10261516 -0.114459634 0.04599068 -0.0896446 0.061342545
0.2803017 0.043715473 0.023936644 0.21317512 0.2002138 0.16608424 0.14707336 0.08054838
-0.0493845 -0.13529348 -0.09861285 -0.12726097 0.2246838 0.17615953 0.0405924 0.117405914
0.26767692 0.07502226 0.24298899 0.011269241 0.03213612 0.21653539 0.027167056 -0.026353879
00000000: ecbe 483d 44cd 493d 7e50 6cbd de50 e9bc
00000010: 44df cabd d4fd cebc 3d53 1bbc f010 ed3d
00000020: 5923 943c b3b5 01be 6a30 5cbd 702a b03e
00000030: 8170 03be 63da 7ebc 232f 1cbd cb41 813d
00000040: 3d2d d03d 1257 6cbc 2da7 683e 2ebd c83e
00000050: 0050 03bd 12b9 543e 1719 8f3e f058 3d3d
00000060: f5cf 533d 0b8d dc3d 8e87 29bd 25eb ae3d
00000070: ee8d 6d3e 4d78 84bc 6b81 943d 258c 143d
00000080: ae47 6a3c d6d4 233d 740e 37ba 824a 253e
00000090: d257 47be 4b1b 163e 5502 f73d 0d15 6cbd
000000a0: 114f 343e 6466 61bd 5695 8fbe fc6f fd3c
000000b0: 2888 023e 3345 123e 174b 2b3e 7b3a c03d
000000c0: 2c81 593e fb14 603e 25ed b8bd 7601 223e
000000d0: fe90 253e 5008 253e 6857 103e 8121 873e
000000e0: 9972 5a3e 8466 523e 2687 b93d 69c3 8a3d
000000f0: 11ad 993d f626 44be f75a 283e ed06 d53d
00000100: f9b4 243e a5f7 3e3e 66c6 eabd a9b1 123e
00000110: 1ddd bcbd f96d 1c3e ef22 053c 5106 643e
00000120: bb67 143e 9de1 11be a2b9 533d 13f2 70bd
00000130: 0282 d9bd 7d7b 8b3b 89df a93d 9c97 73bd
00000140: 07d2 efbd 1853 cb3d d140 dbbd a00b d63d
00000150: 16a7 35bd e8c4 113e 9c04 503d 74d4 e33c
00000160: cd8c 9a3d ec51 933e 13ad 723d 9e30 a03d
00000170: b138 263e 462b 3c3e 579c e2bc 4e3a 4b3e
00000180: bb39 163e 2ed9 453e 3ae2 fc3d e627 d23d
00000190: d069 eabd b960 3c3d 9797 b7bd 5242 7b3d
000001a0: b483 8f3e ff0e 333d c816 c43c 944a 5a3e
000001b0: d904 4d3e fd11 2a3e 669a 163e 8df6 a43d
000001c0: 6747 4abd 608a 0abe 89f5 c9bd b350 02be
000001d0: 8313 663e 2a63 343e 3744 263d 8372 f03d
000001e0: f30c 893e 45a5 993d 1bd2 783e 9fa2 383c
000001f0: 2aa1 033d 74bb 5d3e 728d de3c 17e4 d7bc

network_body._body_endoder.seq_layers.2.weight f4 [128, 128]
-0.15759392 0.32356605 0.4018564 0.021691384 0.2680415 -0.111244276 0.33788115 -0.11456505
-0.17433167 -0.1142681 -0.08138579 -0.015137369 -0.104626015 -0.25387618 -0.14309146 -0.47794232
-0.29954293 -0.45502836 0.285285 -0.2925609 -0.1527794 -0.3746964 -0.19466409 -0.21933971
-0.07576078 -0.4788873 0.13850166 -0.32973486 0.29937232 -0.045086954 0.15032594 -0.06850456
-0.07349177 -0.066687934 -0.40957743 0.0111018075 0.06870101 0.03324356 -0.4527583 0.28830913
0.08132725 0.016751194 0.017470649 -0.36128062 -0.29727802 0.2922667 0.041171927 0.037380703
0.16599809 0.10756706 0.05297338 0.13983883 -0.027217114 -0.11466619 -0.15393572 -0.044593655
-0.018262003 0.3368625 0.07259278 0.11646257 -0.30143818 -0.21762487 -0.34835353 -0.0981181
0.0074857865 -0.003853172 0.23971698 -0.17200899 -0.16362834 0.05390341 0.09254782 -0.1947782
-0.070411004 -0.26790965 0.111109406 -0.11821481 -0.28499508 0.08653048 0.14166029 -0.02063821
-0.0583367 0.035815477 -0.084170476 0.07577913 -0.080749735 0.4286412 0.10634587 0.18280971
0.0637819 -0.17480265 -0.09260592 0.21993735 -0.19013064 -0.25552168 -8.862448e-05 -0.029670572
-0.1580998 -0.097365364 -0.3465906 -0.012610216 0.08231121 0.074190736 -0.23105538 -0.11264707
-0.43160918 0.1890204 -0.12265693 -0.10861497 -0.06459323 -0.31928074 -0.05173743 -0.098746344
-0.47667715 0.0888457 -0.024244666 0.031706754 0.21156242 0.01910272 0.34571144 -0.37396562
-0.16028798 0.25547683 -0.116663665 0.14825022 0.034415796 0.10782373 0.04265553 -0.20335044
0.0060108565 -0.19571777 0.16058926 -0.06787174 0.027432693 -0.15251347 -0.08935572 0.038332812
-0.046517592 0.08278336 0.121243365 0.27079606 0.13328348 0.17308053 0.12233923 -0.23042768
-0.035048317 0.028860126 -0.33105928 0.0883342 0.012834728 0.004911723 0.047678333 0.052742526
0.09513771 -0.078919925 0.16235569 -0.046269894 0.09308906 -0.051504437 0.40567425 -0.3106023
-0.2888213 0.41434732 -0.16762792 0.030779459 0.15888637 -0.052346315 -0.05082525 0.09044397
0.17260467 0.3387109 -0.16113059 0.12246305 -0.02226228 -0.038576 0.068095155 -0.09897615
-0.14214543 -0.2400947 0.33743715 -0.06709695 0.055415887 -0.01107642 0.19434166 -0.02830294
-0.15180989 -0.0696254 0.20623647 0.0221385 -0.022719048 -0.19083726 -0.41921452 0.12864567
0.010140017 0.48975772 0.20830166 0.042233985 -0.17582455 0.054549664 -0.012147002 -0.36224917
0.1804133 -0.11851422 -0.08726547 0.24728985 0.07442649 0.061800335 0.1687874 -0.14643654
-0.04512758 -0.17888029 0.0755907 0.23502454 -0.11345403 -0.0041587953 -0.3358847 0.19740292
0.05476383 0.10582507 0.11033078 0.016381547 0.18758227 -0.14614508 0.23297171 0.0012044593
-0.16099711 -0.026070045 0.22508517 -0.14466476 0.1177155 0.008757132 -0.207303 0.13300657
0.18268746 -0.048197825 0.063129105 -0.03959319 0.034082215 -0.24479876 0.03603944 -0.16669422
0.15311827 0.10641012 -0.043848865 -0.13820879 -0.22936486 0.108762816 0.2896862 -0.023275
0.112498574 -0.048297368 0.15041733 0.3445862 -0.04170392 0.05827269 -0.1473005 0.03096113
00000000: 4d60 21be 73aa a53e 1fc0 cd3e 21b2 b13c
00000010: bc3c 893e 0ad4 e3bd c2fe ac3e 15a1 eabd
00000020: 0084 32be 6505 eabd 98ad a6bd ba02 78bc
00000030: 2a46 d6bd 0ffc 81be 9186 12be dbb4 f4be
00000040: b15d 99be 7af9 e8be e010 923e 8bca 95be
00000050: 3472 1cbe 35d8 bfbe 0656 47be 979a 60be
00000060: 7828 9bbd b730 f5be 61d3 0d3e 02d3 a8be
00000070: 5447 993e 19ad 38bd 0bef 193e 1e4c 8cbd
00000080: da82 96bd af93 88bd 22b4 d1be 5be4 353c
00000090: 1db3 8c3d 662a 083d f0cf e7be 419d 933e
000000a0: e78e a63d cd39 893c 9b1e 8f3c c6f9 b8be
000000b0: d334 98be fba3 953e e5a3 283d 821c 193d
000000c0: 67fb 293e 1e4c dc3d 9dfa 583d e931 0f3e
000000d0: 6df6 debc 1cd6 eabd 53a1 1dbe d6a7 36bd
000000e0: 329a 95bc 3e79 ac3e 86ab 943d ee83 ee3d
000000f0: 1b56 9abe 0ed9 5ebe 655b b2be 24f2 c8bd
00000100: 544b f53b 8085 7cbb 5e78 753e 2023 30be
00000110: 308e 27be d2c9 5c3d b689 bd3d f073 47be
00000120: a533 90bd 742b 89be 548d e33d 9b1a f2bd
00000130: e0ea 91be e436 b13d 650f 113e 7711 a9bc
00000140: 77f2 6ebd 40b3 123d 9261 acbd 1732 9b3d
00000150: 1e60 a5bd dc76 db3e ddcb d93d 7832 3b3e
00000160: 16a0 823d 77ff 32be 2ca8 bdbd 4237 613e
00000170: 9bb1 42be bdd3 82be e8db b9b8 b30f f3bc
00000180: eae4 21be 7e67 c7bd 5374 b1be 149b 4ebc
00000190: c892 a83d 50f1 973d c899 6cbe 82b3 e6bd
000001a0: e1fb dcbe 908e 413e 8e33 fbbd 8771 debd
000001b0: 7549 84bd c478 a3be a1ea 53bd 863b cabd
000001c0: 070f f4be bcf4 b53d c09c c6bc f1de 013d
000001d0: d2a3 583e 4f7d 9c3c 1701 b13e 6c78 bfbe
000001e0: 8822 24be dccd 823e 5ced eebd e8ce 173e
000001f0: 94f7 0c3d b0d2 dc3d 91b7 2e3d 193b 50be
00000200: b8f6 c43b 3d6a 48be 8371 243e 5700 8bbd
00000210: 87ba e03c 7e2c 1cbe 2200 b7bd de02 1d3d
00000220: 3b89 3ebd 528a a93d 714e f83d c8a5 8a3e
00000230: 777b 083e 063c 313e fd8c fa3d 3cf5 6bbe
00000240: d38e 0fbd 126c ec3c 9a80 a9be 90e8 b43d
00000250: c048 523c 85f2 a03b 5b4a 433d 8c08 583d
00000260: 8fd7 c23d c5a0 a1bd 9240 263e 8085 3dbd
00000270: 7aa5 be3d 51f6 52bd 89b4 cf3e 4407 9fbe
00000280: 63e0 93be 5525 d43e a7a6 2bbe 3425 fc3c
00000290: 1cb3 223e 1769 56bd 232e 50bd b03a b93d
000002a0: 47bf 303e 846b ad3e 6bff 24be e8cd fa3d
000002b0: 635f b6bc de01 1ebd 7975 8b3d 02b4 cabd
000002c0: 928e 11be 63db 75be 90c4 ac3e 206a 89bd
000002d0: c5fb 623d df79 35bc 8001 473e 91db e7bc
000002e0: 0d74 1bbe c397 8ebd a72f 533e cd5b b53c
000002f0: 4c1d babc d86a 43be 49a3 d6be b1bb 033e
00000300: 5022 263c 86c1 fa3e 084d 553e 8bfd 2c3d
00000310: 5a0b 34be 786f 5f3d 3804 47bc b978 b9be
00000320: 44be 383e 95b7 f2bd 3db8 b2bd 8d39 7d3e
00000330: ea6c 983d 5922 7d3d 9bd6 2c3e 76f3 15be
00000340: b3d7 38bd 652c 37be 4ccf 9a3d 46aa 703e
00000350: 965a e8bd 8146 88bb 14f9 abbe fe23 4a3e
00000360: 0a50 603d d0ba d83d 1bf5 e13d 9832 863c
00000370: 9115 403e 0ea7 15be 2390 6e3e f3de 9d3a
00000380: 6ddc 24be d990 d5bc ba7c 663e 0023 14be
00000390: d314 f13d 137a 0f3c 3d47 54be e032 083e
000003a0: 6c12 3b3e 156b 45bd d549 813d 782c 22bd
000003b0: cb99 0b3d 87ac 7abe 189e 133d e4b1 2abe
000003c0: 09cb 1c3e 8ded d93d de9a 33bd 9b86 0dbe
000003d0: 9fde 6abe 0abf de3d c051 943e 36ab bebc
000003e0: a765 e63d 76d3 45bd 0007 1a3e 9a6d b03e
000003f0: bbd1 2abd 58af 6e3d f1d5 16be 32a2 fd3c

network_body._body_endoder.seq_layers.2.bias f4 [128]
-0.13340317 0.119578846 -0.100164615 0.10391123 0.2076749 -0.02208118 -0.002038731 -0.049744908
0.23871331 -0.22668238 -0.02378333 -0.1874781 -0.0689372 -0.007563147 -0.25150618 -0.20003295
-0.06479487 -0.3251186 -0.16937542 -0.11053584 0.23111445 0.14664091 0.18466866 -0.26862133
-0.1640431 0.025801763 -0.116658285 -0.16551185 0.052921787 -0.32126543 -0.11501819 0.02615704
-0.09954024 0.13306314 -0.004007973 -0.06228657 -0.2834075 0.17653215 -0.10487577 0.12873018
-0.09170047 -0.19750431 -0.096654795 -0.2749811 -0.15765786 -0.17604807 0.07189585 -0.073052555
-0.20139736 -0.024509806 -0.07152284 0.072456636 -0.12163597 0.15188809 -0.010424393 -0.12530516
-0.13274008 -0.13521916 -0.20221852 0.014210319 -0.00015862581 -0.14341056 -0.10537417 0.030234238
-0.04682111 0.1895654 -0.35643548 -0.03478555 -0.1102966 0.0830053 -0.12113831 -0.03896305
0.112230696 0.021573685 -0.23867649 -0.07756353 -0.41517425 -0.009615636 -0.039366264 0.16156921
-0.23627344 -0.16878691 0.10428331 -0.01698521 -0.101299524 -0.06396738 0.053307164 0.09940481
-0.2605412 -0.26217094 0.048690777 -0.101412885 0.10755143 0.012301476 -0.06503984 -0.12223676
-0.22200747 -0.039990727 0.043882526 -0.11720551 0.024424816 -0.09872721 -0.054461185 -0.114593275
-0.10195929 -0.024824593 0.045466997 -0.090169914 0.056898095 -0.12701273 -0.23515405 -0.0857334
0.09582094 -0.099462494 0.15151775 0.09034877 -0.29283193 -0.26621395 -0.08189303 0.13412362
0.017460244 -0.0717173 0.08639834 -0.26212993 -0.23969297 -0.065383576 0.060411617 -0.03288361
00000000: d79a 08be c1e5 f43d 1b23 cdbd 69cf d43d
00000010: bba8 543e 97e3 b4bc 3b9c 05bb 51c1 4bbd
00000020: 4371 743e 6d1f 68be 42d5 c2bc 42fa 3fbe
00000030: f22e 8dbd 47d4 f7bb 6bc5 80be 70d5 4cbe
00000040: 2cb3 84bd f275 a6be c070 2dbe 9d60 e2bd
00000050: 44a9 6c3e 0929 163e c819 3d3e bc88 89be
00000060: eafa 27be 385e d33c 8aea eebd f07b 29be
00000070: 84c4 583d e77c a4be a88e ebbd 4a47 d63c
00000080: c1db cbbd b441 083e 5055 83bb 3420 7fbd
00000090: ca1a 91be d8c4 343e 1cc9 d6bd d8d1 033e
000000a0: 75cd bbbd 923e 4abe f3f2 c5bd 53ca 8cbe
000000b0: 1071 21be f245 34be 223e 933d 949c 95bd
000000c0: 1c3b 4ebe cac8 c8bc 917a 92bd 2564 943d
000000d0: 481c f9bd 8d88 1b3e 13cb 2abc ff4f 00be
000000e0: 04ed 07be e476 0abe 5f12 4fbe 66d2 683c
000000f0: cb54 26b9 38da 12be 6ace d7bd cbad f73c
00000100: 7ec7 3fbd 6f1d 423e b67e b6be 4b7b 0ebd
00000110: 2fe3 e1bd affe a93d 5d17 f8bd b897 1fbd
00000120: 35d9 e53d 4cbb b03c 9c67 74be a1d9 9ebd
00000130: b891 d4be e78a 1dbc 853e 21bd 6672 253e
00000140: aaf1 71be 7ad6 2cbe 7d92 d53d 9124 8bbc
00000150: 2076 cfbd 5401 83bd 9d58 5a3d c094 cb3d
00000160: a865 85be 453b 86be fb6f 473d 8fb1 cfbd
00000170: ed43 dc3d 218c 493c 9c33 85bd 4457 fabd
00000180: ed55 63be 51cd 23bd 2abe 333d 7109 f0bd
00000190: 8d16 c83c 7e31 cabd b112 5fbd e1af eabd
000001a0: 08d0 d0bd f25c cbbc 9a3b 3a3d 01ab b8bd
000001b0: fa0d 693d a00f 02be 39cc 70be fe94 afbd
000001c0: c53d c43d feb2 cbbd 7827 1b3e c708 b93d
000001d0: 11ee 95be 324d 88be 88b7 a7bd b457 093e
000001e0: c908 8f3c 85e0 92bd 9df1 b03d e535 86be
000001f0: 1372 75be d3e7 85bd 2c72 773d f7b0 06bd

action_model._continuous_distribution.mu.weight f4 [2, 128]
0.17683114 -0.121272236 -0.0814746 -0.22574185 -0.015187987 0.25640187 0.2945995 0.31366098
-0.15823299 -0.2030629 -0.06348958 0.08383928 0.005854491 -0.001634598 -0.12061706 -0.06387312
-2.004109e-05 0.20981531 0.12611842 0.16142672 0.04109179 0.027160918 -0.00034598674 -0.24372593
0.29323792 -0.24533314 0.20047557 0.026120773 0.06892731 -0.25588763 -0.15305524 0.087434664
-0.25264782 0.030238183 -0.097690485 -0.110047705 -0.06786509 -0.079742976 0.068117835 0.066831596
0.2788338 -0.4388187 -0.013430568 -0.0421157 -0.1902052 0.16069183 -0.21162565 -0.096281305
-0.2502112 0.11629458 0.25055033 0.047223207 -0.018615726 0.09710017 -0.014596544 -0.27294782
-0.10157854 0.3768959 0.0311695 -0.013471193 0.16228534 0.14590935 0.0583235 -0.036937024
0.15928617 -0.04234451 0.24469855 -0.23582095 0.014433006 -0.06349035 0.035463206 -0.22810903
-0.22437207 -0.01076099 0.12738976 0.24469295 -0.15952474 -0.1022328 0.053626325 -0.046358995
0.11295615 0.13590579 -0.31998128 0.09703584 0.13391604 -0.36421332 -0.13796456 0.1945619
-0.20864046 0.09778966 -0.1846984 -0.16716489 -0.13579984 0.086501956 -0.24701723 -0.4524477
-0.31832328 -0.1455551 0.032931414 0.0049946853 -0.12662528 -0.16262856 -0.21465805 0.108876415
-0.13772036 0.04089996 0.009382215 0.1726527 0.26361102 -0.030028692 -0.07675919 0.058448248
0.09992043 -0.12556979 -0.10990773 -0.014376664 0.08398319 -0.14397517 -0.018232716 0.27722475
0.055519134 0.23874411 -0.21492286 0.08629308 0.16752115 -0.2276909 -0.19602916 0.07869272
-0.08592545 -0.12231231 -0.2318617 -0.019172046 0.05320679 0.015719337 -0.015915023 -0.069807544
-0.40132412 -0.076723695 0.005775471 0.11635204 -0.13349655 0.4984073 0.08058947 0.19895011
0.0814569 0.19113505 0.39651987 0.19481672 -0.035249002 -0.08087624 -0.16056915 -0.20260043
0.1580851 0.13467717 0.12956887 -0.30995405 0.03407441 0.20843093 0.07472296 -0.12794061
0.023520263 -0.28463703 -0.33639267 0.2461738 0.26292485 -0.15927051 0.02072163 0.14594829
-0.0757667 0.0012403891 0.06218143 0.37380767 -0.10630696 0.016932247 0.087888986 0.11438752
0.12208341 0.07632786 -0.025413271 -0.24827895 0.10567601 -0.043148823 0.074264176 0.0599194
-0.15991467 -0.07295155 0.2741491 0.1293372 -0.029360978 0.06434114 0.3328543 0.013094918
-0.2291862 0.17684941 0.15675819 -0.0065411185 -0.2883795 0.065588735 0.23290072 -0.46361887
0.058149926 -0.0072213896 0.41736117 -0.03303043 -0.3179721 -0.12300825 0.16018496 0.1769156
0.04499177 0.019205496 0.101734936 0.30044895 -0.21619251 -0.051768422 0.060816176 0.15038888
0.035466116 -0.12013732 0.40061215 -0.21983029 -0.111037284 -0.08472608 0.17986338 -0.06764995
0.017601961 0.012421439 -0.0439984 -0.076982 0.13396792 -0.071220994 -0.07700493 -0.07970795
0.08733291 0.17873627 -0.092051886 -0.15057537 0.039927647 -0.44701606 0.33443704 -0.27115035
-0.1099627 0.07743847 -0.3399387 -0.19474755 -0.3448084 -0.45662245 0.061660353 0.13507514
0.024474759 -0.1477511 -0.3884558 0.37657663 0.1484486 -0.028035598 -0.13623556 0.054739922
00000000: 3913 353e 945d f8bd 28dc a6bd df28 67be
00000010: 09d7 78bc 1b47 833e bfd5 963e 2c98 a03e
00000020: d407 22be b9ef 4fbe d306 82bd eeb3 ab3d
00000030: 08d7 bf3b 0240 d6ba 1406 f7bd e9cf 82bd
00000040: ea1d a8b7 d3d9 563e 3025 013e 0c4d 253e
00000050: dd4f 283d 9380 de3c 8e65 b5b9 4a93 79be
00000060: 4823 963e 9c38 7bbe 7849 4d3e 3bfb d53c
00000070: c329 8d3d b403 83be 83ba 1cbe f210 b33d
00000080: 0e5b 81be 11b6 f73c f311 c8bd b160 e1bd
00000090: dafc 8abd 4950 a3bd 5d81 8b3d 01df 883d
000000a0: 4ec3 8e3e d8ac e0be e30b 5cbc 8381 2cbd
000000b0: 27c5 42be 668c 243e 65b4 58be 222f c5bd
000000c0: af1b 80be da2b ee3d 2248 803e 1f6d 413d
000000d0: 0280 98bc 74dc c63d 5826 6fbc d1bf 8bbe
000000e0: 6908 d0bd 80f8 c03e 2e57 ff3c 47b6 5cbc
000000f0: 212e 263e 4369 153e 9fe4 6e3d 474b 17bd
00000100: ea1b 233e 7071 2dbd 4292 7a3e 0c7b 71be
00000110: 6a78 6c3c 3b07 82bd de41 113d 6a95 69be
00000120: cbc1 65be dd4e 30bc 7672 023e ca90 7a3e
00000130: 745a 23be 6e5f d1bd 47a7 5b3d eee2 3dbd
00000140: 8e55 e73d e32a 0b3e 96d4 a3be baba c63d
00000150: 4921 093e 2b7a babe 9546 0dbe 3c3b 473e
00000160: d8a5 55be f245 c83d 9421 3dbe 462d 2bbe
00000170: 1d0f 0bbe f027 b13d 16f2 7cbe 3aa7 e7be
00000180: 45fb a2be 650c 15be 17e3 063d 75aa a33b
00000190: 0faa 01be 1a88 26be 52cf 5bbe 99fa de3d
000001a0: 9106 0dbe b786 273d ddb7 193c dfcb 303e
000001b0: 06f8 863e bbfe f5bc ec33 9dbd 6e67 6f3d
000001c0: 15a3 cc3d 5e95 00be 4e17 e1bd 198c 6bbc
000001d0: 61ff ab3d 3a6e 13be c75c 95bc 67f0 8d3e
000001e0: 0868 633d 5679 743e bd14 5cbe 6dba b03d
000001f0: aa8a 2b3e ce27 69be debb 48be a629 a13d
00000200: aff9 afbd e07e fabd 276d 6dbe b20e 9dbc
00000210: 5def 593d d7c5 803c 3960 82bc 42f7 8ebd
00000220: 5b7a cdbe 5021 9dbd 2a40 bd3b fa49 ee3d
00000230: 52b3 08be 3e2f ff3e 180c a53d 94b9 4b3e
00000240: e0d2 a63d e8b8 433e a704 cb3e 097e 473e
00000250: 4261 10bd 71a2 a5bd 3d6c 24be 7d76 4fbe
00000260: 0fe1 213e d0e8 093e b4ad 043e 4cb2 9ebe
00000270: 9c91 0b3d eb6e 553e 5a08 993d dd02 03be
00000280: 91ad c03c f2bb 91be a93b acbe fc14 7c3e
00000290: 169e 863e cf17 23be 68c0 a93c 7873 153e
000002a0: 922b 9bbd 8d94 a23a f5b1 7e3d b863 bf3e
000002b0: 77b7 d9bd 7fb5 8a3c 24ff b33d 0144 ea3d
000002c0: de06 fa3d c851 9c3d 7e2f d0bc d63c 7ebe
000002d0: aa6c d83d d2bc 30bd d117 983d 0b6e 753d
000002e0: acc0 23be 9f67 95bd 455d 8c3e f970 043e
000002f0: 6f86 f0bc 4ac5 833d e16b aa3e 118c 563c
00000300: caaf 6abe 0318 353e 3885 203e e156 d6bb
00000310: 7aa6 93be 6353 863d 877d 6e3e 745f edbe
00000320: 9e2e 6e3d 68a1 ecbb 5db0 d53e eb4a 07bd
00000330: 3dcd a2be c0eb fbbd 8707 243e 5d29 353e
00000340: 4a49 383d d854 9d3c 685a d03d 72d4 993e
00000350: 9261 5dbe 200b 54bd 621a 793d 8bff 193e
00000360: eb44 113d 8e0a f6bd 091d cd3e 311b 61be
00000370: 8467 e3bd de84 adbd 1b2e 383e 0f8c 8abd
00000380: fd31 903c 4b83 4b3c ab37 34bd bda8 9dbd
00000390: e32e 093e 50dc 91bd c3b4 9dbd ec3d a3bd
000003a0: 99db b23d a406 373e b385 bcbd 6e30 1abe
000003b0: 2c8b 233d 4adf e4be 553b ab3e 38d4 8abe
000003c0: 2034 e1bd 1098 9e3d 720c aebe e76b 47be
000003d0: ba8a b0be 6bca e9be 918f 7c3d 2351 0a3e
000003e0: 4a7f c83c 104c 17be aee3 c6be a7ce c03e
000003f0: e902 183e e9aa e5bc 5681 0bbe f836 603d

action_model._continuous_distribution.mu.bias f4 [2]
0.0046176882 -0.020760689
00000000: fa4f 973b 5212 aabc

action_model._continuous_distribution.log_sigma.weight f4 [2, 128]
-0.050354466 0.042963084 0.15126598 -0.032567117 -0.12446339 0.06434812 0.040577 0.018088829
-0.029478462 0.0009098994 -0.08289056 0.020969152 -0.034218792 0.070955485 -0.14149204 0.011420649
0.2550199 0.39592668 0.07844418 0.014566859 -0.061088786 -0.11606909 -0.44658732 -0.09853517
0.15668765 -0.1602753 -0.016563717 -0.014913196 -0.01160207 0.13587117 0.032508288 0.0018109716
0.10999214 0.012126091 -0.012393291 0.036399186 0.060790136 0.047372565 0.13125233 -0.09720581
0.043948527 0.27789792 -0.035220973 -0.052122246 0.023208994 0.09491042 0.037967402 0.12706357
0.06051283 0.13175552 0.1654007 0.03920703 0.05992446 -0.13699354 -0.090240635 0.123563714
0.018714858 0.1156193 0.0027173555 -0.086057305 -0.0010282055 -0.0129524665 -0.040365707 -0.0632913
-0.010636369 -0.14887835 0.43441477 -0.04193699 0.086656146 -0.079130255 0.01994862 0.005251073
0.05184933 -0.08918148 0.009150361 0.07334672 0.3994559 -0.026490422 0.019866327 0.01635412
-0.014829775 0.12046659 0.0037318477 0.0023398264 -4.056379e-05 0.115685 -0.011265782 0.04799103
0.011617296 0.022607336 0.053339317 0.041935842 -0.002996626 -0.0065470054 0.12558992 0.16282912
-0.09832334 -0.00045159608 -0.195988 0.105631806 0.06132437 -0.020887129 0.013442991 -0.017293634
0.0104064 -0.00782796 0.009214297 -0.006569304 0.047906127 -0.0011361932 0.22652502 0.0135224275
0.031913772 0.4227934 -0.023187367 0.30945733 0.10132764 0.029265381 0.034599453 0.058634523
0.07066954 0.11259154 0.052287444 0.2043793 0.006855637 0.11679964 0.13052921 -0.0534537
-0.0139572 -0.008670196 0.03964409 -0.051003426 -0.11040824 0.04685994 0.0073450617 -0.03622835
-0.15819977 0.017740373 -0.02814909 0.07857454 -0.03094639 -0.0063628294 0.009739589 0.07435082
0.030265529 0.35415304 0.08179004 0.080689885 -0.11983461 -0.14411858 0.20901951 -0.043565653
-0.0067673014 0.011890996 -0.019708453 0.05431388 -0.01962144 0.12145582 0.0630999 0.011473194
-0.061131097 0.14987992 -0.00043310825 0.041605733 0.12286671 -0.062035788 0.19874021 -0.018875882
-0.0025018023 0.13208297 -0.065063275 0.14426686 0.017852668 0.05016691 0.042536043 0.017461749
0.12737632 -0.041255686 -0.01273712 0.031393945 -0.0038256166 -0.07972427 -0.0049087857 0.09350139
0.07840131 -0.089698136 0.10412837 -0.030658256 -0.010990682 -0.028044056 -0.044611737 0.119834185
0.028839424 -0.06875776 0.19998942 -0.015739577 -0.0347724 0.10042933 0.09603789 -0.095442005
-0.028977513 -0.039790343 0.13812657 -0.04734725 0.15253317 -0.012564696 0.0413738 0.106563635
0.021954143 0.005901575 0.069845416 0.05094975 0.047387145 0.030271292 -0.023778016 0.040915612
-0.004483456 0.02893089 0.1565225 -0.020973962 -0.00082457194 -0.04721003 0.0022388573 0.07180101
0.038686037 -0.0065511484 -0.50106305 -0.079762034 0.033796873 -0.08205636 -0.045745693 -0.05365203
0.040153492 0.062399607 0.03908618 -0.08098309 -0.0010354562 0.020027058 0.05554632 -0.030500032
0.02334204 -0.03422242 -0.06371407 0.25892854 0.03728928 0.08924848 0.06324876 0.012038343
-0.060720544 -0.003020538 -0.05173006 0.13286322 0.047775157 0.030104078 0.040983297 -0.035180792
00000000: 7c40 4ebd 0ffa 2f3d 78e5 1a3e 1965 05bd
00000010: a9e6 febd f2c8 833d 1134 263d 062f 943c
00000020: d17c f1bc 5186 6e3a 87c2 a9bd 80c7 ab3c
00000030: 0129 0cbd 1c51 913d 4ae3 10be ac1d 3b3c
00000040: f891 823e e7b6 ca3e 58a7 a03d d6a9 6e3c
00000050: 3c38 7abd a2b5 edbd 18a7 e4be cfcc c9bd
00000060: ba72 203e 351f 24be a2b0 87bc 7a56 74bc
00000070: 9c16 3ebc d021 0b3e 6927 053d 205e ed3a
00000080: 8f43 e13d 83ac 463c 3b0d 4bbc 5017 153d
00000090: 14ff 783d bc09 423d 0367 063e d713 c7bd
000000a0: 5f03 343d a348 8e3e de43 10bd 237e 55bd
000000b0: ca20 be3c 6560 c23d b583 1b3d f41c 023e
000000c0: 4ddc 773d ebea 063e cd5e 293e 8d97 203d
000000d0: 5a73 753d 0948 0cbe 15d0 b8bd f90e fd3d
000000e0: e74f 993c d0c9 ec3d a915 323b d03e b0bd
000000f0: dac4 86ba 9536 54bc 8356 25bd de9e 81bd
00000100: 2a44 2ebc 9173 18be 9d6b de3e 1fc6 2bbd
00000110: c778 b13d 0b0f a2bd 4a6b a33c 3111 ac3b
00000120: f75f 543d c8a4 b6bd 65eb 153c ce36 963d
00000130: 7c85 cc3e 7102 d9bc b5be a23c 13f9 853c
00000140: 96f8 72bc 30b7 f63d 0492 743b c657 193b
00000150: 0a23 2ab8 42ec ec3d 1d94 38bc 3e92 443d
00000160: 7956 3e3c 0533 b93c 547a 5a3d ebc4 2b3d
00000170: 0b63 44bb 4388 d6bb a59a 003e adbc 263e
00000180: bf5d c9bd 33c4 ecb9 14b1 48be 7d55 d83d
00000190: 432f 7b3d 7c1b abbc fe3f 5c3c 61ab 8dbc
000001a0: 9b7f 2a3c d840 00bc 90f7 163c 5143 d7bb
000001b0: 3739 443d 51ec 94ba 2df6 673e 2c8d 5d3c
000001c0: 04b8 023d 6078 d83e 6ff3 bdbc 3171 9e3e
000001d0: de84 cf3d f4bd ef3c 28b8 0d3d c12a 703d
000001e0: 31bb 903d 6596 e63d 5c2b 563d cf48 513e
000001f0: 40a5 e03b a634 ef3d 73a9 053e 44f2 5abd
00000200: bdac 64bc 700d 0ebc d761 223d f8e8 50bd
00000210: b71d e2bd 35f0 3f3d d8ae f03b 2e64 14bd
00000220: 1fff 21be 4254 913c ec98 e6bc b0eb a03d
00000230: 4983 fdbc 487f d0bb cc92 1f3c 3e45 983d
00000240: 6aef f73c 8c53 b53e 8981 a73d bd40 a53d
00000250: d96b f5bd d293 13be 3609 563e e671 32bd
00000260: 3dc0 ddbb 74d2 423c 9f73 a1bc 3b78 5e3d
00000270: 24bd a0bc d4bd f83d 853a 813d 10fa 3b3c
00000280: 9a64 7abd 1f7a 193e ce12 e3b9 c66a 2a3d
00000290: 8ba1 fb3d 3d19 7ebd 8e82 4b3e 98a1 9abc
000002a0: 47f5 23bb c240 073e e53f 85bd b1ba 133e
000002b0: c23f 923c d17b 4d3d 463a 2e3d f10b 8f3c
000002c0: f06e 023e b9fb 28bd 5aaf 50bc f096 003d
000002d0: 32b7 7abb 7a46 a3bd e1d9 a0bb a87d bf3d
000002e0: de90 a03d a8b3 b7bd 4141 d53d 0627 fbbc
000002f0: 4312 34bc a6bc e5bc ccba 36bd a06b f53d
00000300: a840 ec3c ded0 8cbd 07ca 4c3e 49f0 80bc
00000310: 816d 0ebd e4ad cd3d 83af c43d 1977 c3bd
00000320: 4062 edbc 33fb 22bd 0d71 0d3e 31ef 41bd
00000330: a831 1c3e 28dc 4dbc 9377 293d 093e da3d
00000340: 2dd9 b33c 0062 c13b 1d0b 8f3d afb0 503d
00000350: 0619 423d 80fb f73c 1dca c2bc 2197 273d
00000360: f4e9 92bb 7900 ed3c 6f47 203e 96d1 abbc
00000370: 1628 58ba 4e5f 41bd cbb9 123b 680c 933d
00000380: 4075 1e3d 04ab d6bb ab45 00bf 475a a3bd
00000390: 976e 0a3d 2a0d a8bd d65f 3bbd 3bc2 5bbd
000003a0: fd77 243d bb96 7f3d d518 203d 76da a5bd
000003b0: 25b8 87ba c90f a43c 8a84 633d 34db f9bc
000003c0: ce37 bf3c cf2c 0cbd 867c 82bd 4892 843e
000003d0: a5bc 183d e8c7 b63d 9188 813d 783c 453c
000003e0: 1bb6 78bd 38f4 45bb e6e2 53bd 4c0d 083e
000003f0: e2af 433d d49c f63c 1ade 273d bc19 10bd

action_model._continuous_distribution.log_sigma.bias f4 [2]
-0.7414352 -0.64166015
00000000: b3ce 3dbf d743 24bf

onnx::Div_66 f4 [20]
0.13620178 0.15191653 0.036698204 0.06202285 0.14182623 0.34727037 0.051522486 0.104077436
0.11302134 0.3883745 0.056824964 0.10984568 0.07197703 0.41763803 0.111066744 0.17443207
0.07090212 0.42954028 0.12759012 0.19053504
00000000: 7b78 0b3e 0290 1b3e db50 163d ac0b 7e3d
00000010: e53a 113e 6ccd b13e 3e09 533d 8d26 d53d
00000020: bb77 e73d 06d9 c63e 4bc1 683d c6f6 e03d
00000030: b168 933d a7d4 d53e f676 e33d 529e 323e
00000040: 2135 913d b4ec db3e fca6 023e 9e1b 433e

onnx::Div_69 f4 [12]
0.020930346 0.11676045 0.01152045 0.017515678 0.020354357 0.116793364 0.011709723 0.017667674
0.021325955 0.117776334 0.010504512 0.016880961
00000000: 1e76 ab3c 1a20 ef3d 45c0 3c3c 0a7d 8f3c
00000010: 2ebe a63c 5c31 ef3d 23da 3f3c ccbb 903c
00000020: c5b3 ae3c b834 f13d 1e1b 2c3c f149 8a3c

onnx::Div_72 f4 [3]
0.5747148 0.01209669 0.69359106
00000000: 8220 133f 3231 463c 2f8f 313f
