Experimentos/results/ppo7/ppo7.onnx (onnx, 309439 bytes, 13 tensors)

network_body.observation_encoder.processors.0.normalizer.running_mean f4 [20]
0.47509983 0.4808956 0.031723525 0.25729156 0.70082456 0.23556195 0.0022030608 0.20340924
0.76798314 0.18335705 0.0029172804 0.17742778 0.6463656 0.28018025 0.0054582325 0.21047163
0.6811702 0.25641477 0.0021506543 0.20526513
00000000: 4940 f33e f337 f63e 87f0 013d b8bb 833e
00000010: 3d69 333f 2737 713e 3a61 103b 834a 503e
00000020: 8b9a 443f f3c1 3b3e d82f 3f3b a1af 353e
00000030: 3778 253f c973 8f3e f9da b23b e085 573e
00000040: 2c61 2e3f cc48 833e fef1 0c3b 0631 523e

network_body.observation_encoder.processors.1.normalizer.running_mean f4 [12]
0.27184027 0.52939 0.16776915 0.2434794 0.26554757 0.5434262 0.15732017 0.23530255
0.2798863 0.51103306 0.1791944 0.25265583
00000000: a62e 8b3e 1a86 073f adcb 2b3e aa52 793e
00000010: daf5 873e fb1d 0b3f 8a18 213e 27f3 703e
00000020: 424d 8f3e 10d3 023f bd7e 373e 1b5c 813e

network_body.observation_encoder.processors.2.normalizer.running_mean f4 [3]
-0.064768955 0.03529174 0.07764114
00000000: 96a5 84bd 128e 103d 5102 9f3d

network_body._body_endoder.seq_layers.0.weight f4 [256, 35]
-0.14608254 -0.23508993 -0.2588765 0.061334502 0.33707675 0.048483748 0.03005677 -0.28515315
-0.088343635 -0.12811287 -0.16775854 0.20431285 0.24973899 0.11907789 -0.08616962 0.024738155
0.0881545 0.21233648 0.03956638 0.2934372 0.05532977 0.021861633 -0.15366428 0.05960596
-0.034728657 0.053491138 0.0030215217 0.1331546 -0.14979564 0.1973028 0.036415063 -0.16792326
0.1381742 -0.03630024 0.13647752 0.35041633 -0.023927033 0.17269762 0.27530798 0.2134028
0.07659572 0.33947387 0.20241658 -0.037736792 -0.25722647 0.19859068 0.023084637 0.09217128
-0.12303389 -0.35624617 -0.2794373 -0.101882435 -0.19435059 -0.2199818 -0.020698708 0.09380115
0.015273454 0.06368563 0.032861106 0.0980607 0.2590332 -0.22337769 -0.06796103 -0.023721281
-0.018924076 -0.030898973 0.28401875 -0.021705974 0.43761346 0.1464518 -0.34998608 -0.03249137
-0.0395767 0.017186811 -0.19971944 0.00842778 -0.07905044 -0.08975712 0.14170466 -0.013325288
-0.099924974 0.17781098 0.13140535 0.20678103 0.3929469 0.13287847 0.20808208 0.17717952
-0.0063570715 0.22081392 -0.12094635 -0.14360444 -0.025459662 -0.09804627 -0.116098545 -0.014230748
0.13040656 -0.091469206 0.4583421 0.117387936 0.09122906 -0.023460506 -0.12858146 0.1969733
-0.04311872 -0.15403615 -0.07668086 -0.3053989 -0.39346015 0.27779952 -0.043844335 0.02719011
0.149699 0.26010337 0.22765382 0.028877005 -0.09381554 0.2712984 -0.1666598 0.08408472
0.3323423 -0.33453694 -0.21655957 0.26560465 -0.0494044 -0.021610612 0.34763458 -0.23201527
0.02148337 0.084623106 -0.13978614 0.12928331 0.06747939 -0.104299515 0.005433187 -0.072421126
0.29752967 0.11909923 -0.1977798 -0.095816806 -0.10287212 -0.08324577 -0.2583193 0.0023842168
0.021537405 -0.2279113 0.34895143 0.17118932 0.055323962 -0.24004394 0.26745483 0.104733035
0.22547811 0.1011063 -0.0686027 -0.0778849 -0.15934697 -0.1694731 -0.06366946 -0.21543543
0.07643387 0.009266132 -0.13934721 -0.08084682 0.2083154 -0.30551603 0.03256297 0.044633713
0.31269738 0.067619264 -0.062579446 -0.04633133 0.05332356 0.1586658 0.39562148 0.10153068
-0.14830849 -0.25696608 -0.1434909 0.023311866 -0.048339788 -0.018772166 -0.15949121 0.23757805
0.013082493 0.1352025 -0.11124301 -0.029689552 0.31971297 0.054189693 0.016965095 0.16647735
0.42319795 0.06355651 0.15351044 0.013931486 0.071681604 -0.14097255 -0.033618305 -0.2890225
0.40164307 -0.06851756 0.020111743 -0.12759222 0.23087 0.19281317 -0.036478717 0.43997037
0.01735501 -0.27072728 0.23795782 0.120622985 0.22264153 -0.15328439 -0.03548883 0.087962866
-0.031973347 -0.1806765 -0.06532432 0.030900024 0.15118435 0.21332802 0.15530519 0.22797675
-0.086638965 0.18910559 0.06401533 0.2366305 0.08292782 -0.15029301 -0.26394838 0.0776952
-0.16270055 -0.36478508 -0.01021149 -0.1446762 0.19562535 -0.062470693 0.045519236 -0.11473549
0.044129238 0.007368372 -0.31155443 0.26412055 0.10616703 0.044562418 -0.036760997 -0.21831001
-0.050798655 -0.06466331 -0.10134732 0.30477715 -0.035323292 -0.017725224 0.059419226 0.22813268
00000000: a996 15be 6abb 70be 768b 84be e339 7b3d
00000010: 5395 ac3e e596 463d 9e39 f63c 98ff 91be
00000020: 82ed b4bd 0530 03be e5c8 2bbe 6337 513e
00000030: 94bb 7f3e 1cdf f33d b379 b0bd aca7 ca3c
00000040: 598a b43d bc6e 593e 5b10 223d 673d 963e
00000050: 78a1 623d 2b17 b33c 2b5a 1dbe 6125 743d
00000060: a33f 0ebd 8619 5b3d b904 463b ae59 083e
00000070: 0764 19be bf09 4a3e f627 153d 13f4 2bbe
00000080: 8a7d 0d3e 8faf 14bd c3c0 0b3e c569 b33e
00000090: a002 c4bc a5d7 303e 2bf5 8c3e 4386 5a3e
000000a0: 38de 9c3d 85cf ad3e 4b46 4f3e e591 1abd
000000b0: 30b3 83be 5b5b 4b3e fe1b bd3c 4cc4 bc3d
000000c0: 31f9 fbbd e665 b6be 6812 8fbe bda7 d0bd
000000d0: d703 47be e942 61be 5690 a9bc d11a c03d
000000e0: 823d 7a3c 9d6d 823d 5e99 063d 0cd4 c83d
000000f0: 00a0 843e 1fbd 64be 272f 8bbd 2253 c2bc
00000100: aa06 9bbc d81f fdbc e86a 913e bad0 b1bc
00000110: df0e e03e 76f7 153e 6031 b3be ac15 05bd
00000120: 2e1b 22bd 5bcb 8c3c 4183 4cbe ac14 0a3c
00000130: 32e5 a1bd 95d2 b7bd 071b 113e 4f52 5abc
00000140: 77a5 ccbd 1514 363e 208f 063e 68be 533e
00000150: 5630 c93e 4b11 083e 7813 553e 8c6e 353e
00000160: fb4e d0bb 0b1d 623e b8b2 f7bd 0b0d 13be
00000170: c890 d0bc 7ccc c8bd 13c5 edbd 1528 69bc
00000180: 4c89 053e 3554 bbbd d1ab ea3e 1669 f03d
00000190: 4dd6 ba3d 3f30 c0bc dcaa 03be 5eb3 493e
000001a0: 419d 30bd a7bb 1dbe db0a 9dbd 3f5d 9cbe
000001b0: 9c73 c9be bd3b 8e3e 1e96 33bd cbbd de3c
000001c0: b24a 193e 452c 853e 151e 693e 788f ec3c
000001d0: 5d22 c0bd a0e7 8a3e dea8 2abe 9c34 ac3d
000001e0: c528 aa3e 6d48 abbe cbc1 5dbe 55fd 873e
000001f0: 455c 4abd bd08 b1bc 29fd b13e 6995 6dbe
00000200: e4fd af3c e14e ad3d 1924 0fbe d862 043e
00000210: a232 8a3d fc9a d5bd e008 b23b 8751 94bd
00000220: cf55 983e 4cea f33d ca86 4abe 9a3b c4bd
00000230: 9eae d2bd c27c aabd 6d42 84be 8540 1c3b
00000240: 366f b03c 9461 69be c3a9 b23e 414c 2f3e
00000250: 619b 623d 14ce 75be d7ef 883e 467e d63d
00000260: bce3 663e d210 cf3d 937f 8cbd 1e82 9fbd
00000270: da2b 23be 5b8a 2dbe 2265 82bd 1b9b 5cbe
00000280: 5c89 9c3d f9d0 173c 09b1 0ebe 0493 a5bd
00000290: a250 553e 996c 9cbe c060 053d d7d1 363d
000002a0: df19 a03e f87b 8a3d a729 80bd ecc5 3dbd
000002b0: ce69 5a3d 4a79 223e e68e ca3e 51ef cf3d
000002c0: 2ede 17be 0f91 83be 47ef 12be 87f8 be3c
000002d0: f1ff 45bd 16c8 99bc aa51 23be a947 733e
000002e0: f457 563c 8672 0a3e 60d3 e3bd 8137 f3bc
000002f0: 6bb1 a33e 03f6 5d3d 62fa 8a3c 0a79 2a3e
00000300: 67ad d83e ea29 823d d731 1d3e e340 643c
00000310: cecd 923d 1c5b 10be 59b3 09bd c2fa 93be
00000320: 29a4 cd3e ef52 8cbd 62c1 a43c 89a7 02be
00000330: 2f69 6c3e d170 453e b56a 15bd cc43 e13e
00000340: 182c 8e3c c49c 8abe 37ab 733e 2f09 f73d
00000350: 24fc 633e 95f6 1cbe bc5c 11bd e025 b43d
00000360: 7cf6 02bd 4303 39be c2c8 85bd 0c22 fd3c
00000370: 12d0 1a3e a972 5a3e 5308 1f3e bd72 693e
00000380: c56f b1bd e5a4 413e 781a 833d 444f 723e
00000390: 10d6 a93d 69e6 19be 3e24 87be a91e 9f3d
000003a0: f99a 26be 1cc5 babe 184e 27bc ff25 14be
000003b0: 0352 483e 45e1 7fbd 6172 3a3d 71fa eabd
000003c0: dcc0 343d 6272 f13b 1084 9fbe cf3a 873e
000003d0: 1a6e d93d 1587 363d b392 16bd a98c 5fbe
000003e0: 4012 50bd 336e 84bd 2f8f cfbd c00b 9c3e
000003f0: 28af 10bd 7d34 91bc 9361 733d 9d9b 693e

network_body._body_endoder.seq_layers.0.bias f4 [256]
-0.023615414 -0.012892334 -0.12128993 0.029623443 -0.08829212 -0.025647258 -0.033657778 -0.047803443
-0.046374224 -0.01494232 -0.08961179 0.016885974 -0.015550458 0.019410633 -0.023495607 0.046942897
-0.031231677 -0.028771764 -0.067942694 -0.022478972 -0.0190253 0.021405457 -0.008818716 -0.086368166
-0.06789667 -0.015260344 -0.026058761 -0.046648163 -0.04154562 -0.06405208 -0.06449322 0.07329392
-0.009574204 0.017613338 -0.011853903 0.035851404 0.04003389 -0.023858301 -0.016535938 -0.06946691
0.009774879 0.042775705 -0.019588063 -0.03551632 -0.16122584 -0.006597895 0.016010847 -0.021043405
0.024703419 0.09984625 -0.022513162 0.019716136 -0.012291831 -0.025800852 -0.06658469 -0.024626244
-0.04170764 -0.02710508 -0.061446235 -0.07447459 0.0072233467 0.043713927 0.0048084953 0.02806695
-0.022617204 -0.09498421 0.013211442 0.07881015 0.017440716 0.025329378 -0.11941113 0.020903736
-0.010240781 -0.01279271 -0.089597374 -0.06356569 -0.016141847 -0.010674663 0.0023654746 0.046945035
0.039728113 -0.031516008 -0.14073665 -0.046777315 0.031394888 -0.061809685 0.005240373 0.0554321
-0.046393964 -0.044879682 -0.06756545 -0.0058505503 0.07217411 -0.06826402 -0.024104293 -0.053370632
-0.039034616 0.017828807 -0.081135705 -0.033132255 -0.030307056 -0.04469543 -0.056746818 -0.042432945
-0.08008699 -0.07883432 -0.006216367 -0.06904057 -0.008570468 0.037214004 -0.008944476 -0.045692123
-0.053419866 -0.018627577 -0.076191105 0.013804122 -0.019996753 -0.016960066 -0.020189643 -0.065717965
0.0448691 -0.18364221 -0.08210793 0.006994171 -0.061254445 0.027386358 -0.0030242724 -0.045579895
-0.03199357 -0.094922125 0.029021518 -0.036455546 0.0036722731 0.060468722 -0.016124612 0.030084943
-0.027691543 -0.017065061 -0.047074802 -0.019414965 -0.06736661 -0.05337377 -0.016079992 0.06287432
-0.021743972 -0.04215157 -0.096574 -0.055607226 0.013239237 0.028554318 -0.060359236 -0.038310964
-0.026798667 -0.00013108236 0.006586788 -0.0214523 -0.04350587 -0.06164481 -0.007455972 0.009214626
-0.040148977 -0.04869685 -0.006858208 -0.0234218 -0.057914462 0.01761188 0.0077051185 -0.057132483
-0.10715953 -0.02668541 -0.055616066 -0.06289428 -0.099037975 -0.03797547 -0.094273224 -0.028021166
-0.0360744 -0.04151782 0.006928061 -0.10944559 0.03507871 0.007889335 0.028072987 -0.08778731
-0.029017229 -0.05655368 -0.074203275 -0.038705744 -0.019766668 -0.008651334 0.010342828 0.022405779
-0.07962785 -0.03674213 0.040612902 -0.03766681 0.02921585 -0.05391756 0.029426584 -0.038881842
-0.025085734 -0.08316809 -0.022375612 -0.09493198 0.09428765 -0.07541606 -0.0014839038 0.012622535
0.011872068 -0.04704619 -0.024999637 -0.05215002 -0.037651047 -0.015786625 0.025953468 -0.07240881
-0.10422982 -0.061126363 -0.039732162 -0.032658145 -0.067768134 -0.03208294 0.0014491194 0.015583362
-0.0748732 -0.039814766 -0.09736782 -0.0031781644 -0.04366054 -0.032177467 -0.062240403 0.046910908
-0.042833515 -0.016660903 -0.07953935 -0.053797312 -0.04591638 -0.009789481 -0.032728318 0.021748435
-0.023130566 0.014876185 -0.06022249 0.022407472 -0.019235732 -0.0073676095 -0.046043076 0.0010825876
-0.083876215 -0.009951239 -0.04830154 -0.10690969 -0.05212514 -0.06642287 -0.017511139 0.017342584
00000000: 1d75 c1bc 5e3a 53bc db66 f8bd ddac f23c
00000010: 80d2 b4bd 331a d2bc bddc 09bd 8bcd 43bd
00000020: e6f2 3dbd a2d0 74bc 6386 b7bd 7454 8a3c
00000030: 59c7 7ebc 0c03 9f3c dc79 c0bc 3247 403d
00000040: 93d9 ffbc c3b2 ebbc 8a25 8bbd d225 b8bc
00000050: f2da 9bbc 7f5a af3c 607c 10bc cbe1 b0bd
00000060: 690d 8bbd 8606 7abc 2f79 d5bc 2512 3fbd
00000070: bd2b 2abd bd2d 83bd 0515 84bd 1f1b 963d
00000080: 1fdd 1cbc d949 903c df36 42bc ecd8 123d
00000090: 94fa 233d 7c72 c3bc 6076 87bc ab44 8ebd
000000a0: d026 203c 9435 2f3d 2577 a0bc 9079 11bd
000000b0: 6318 25be 2833 d8bb 2e29 833c 3863 acbc
000000c0: d35e ca3c 317c cc3d 866d b8bc bc83 a13c
000000d0: ad63 49bc 4f5c d3bc 8e5d 88bd fabc c9bc
000000e0: a1d5 2abd 790b debc 0caf 7bbd 2286 98bd
000000f0: d3b1 ec3b 600d 333d 9590 9d3b a9ec e53c
00000100: b747 b9bc 1587 c2bd ce74 583c 3767 a13d
00000110: d5df 8e3c 8e7f cf3c d38d f4bd 503e ab3c
00000120: f3c8 27bc 8498 51bc d47e b7bd ba2e 82bd
00000130: e83b 84bc c8e4 2ebc 1406 1b3b 7049 403d
00000140: f2b9 223d ee16 01bd 451d 10be 9299 3fbd
00000150: ed97 003d 272c 7dbd 6fb7 ab3b c50c 633d
00000160: 9907 3ebd c2d3 37bd c15f 8abd f9b5 bfbb
00000170: 05d0 933d 02ce 8bbd 5e76 c5bc 2a9b 5abd
00000180: c3e2 1fbd b80d 923c 7a2a a6bd b0b5 07bd
00000190: 8146 f8bc 8e12 37bd 5a6f 68bd 2bce 2dbd
000001a0: a604 a4bd e373 a1bd aab2 cbbb 2465 8dbd
000001b0: 266b 0cbc b66d 183d da8b 12bc aa27 3bbd
000001c0: cace 5abd dc98 98bc 150a 9cbd af2a 623c
000001d0: 3bd0 a3bc d6ef 8abc c064 a5bc 2497 86bd
000001e0: a9c8 373d b40c 3cbe 3428 a8bd 5c2f e53b
000001f0: f1e5 7abd 5b59 e03c df32 46bb fcb1 3abd
00000200: b10b 03bd 8866 c2bd 89be ed3c 6952 15bd
00000210: 85aa 703b 0dae 773d c317 84bc b374 f63c
00000220: 60d9 e2bc 07cc 8bbc 82d1 40bd 220c 9fbc
00000230: 81f7 89bd 749e 5abd 30ba 83bc 40c4 803d
00000240: 6a20 b2bc 20a7 2cbd 97c8 c5bd 67c4 63bd
00000250: 62e9 583c bfea e93c 3f3b 77bd f5eb 1cbd
00000260: e188 dbbc 2773 09b9 fcd5 d73b bcbc afbc
00000270: 3633 32bd 457f 7cbd 3a51 f4bb f1f8 163c
00000280: 4173 24bd 5976 47bd d2ba e0bb 13df bfbc
00000290: b737 6dbd ca46 903c 387b fc3b c003 6abd
000002a0: 7576 dbbd 5c9b dabc accd 63bd b7ce 80bd
000002b0: 6cd4 cabd 2b8c 1bbd 5212 c1bd a58c e5bc
000002c0: c0c2 13bd 970e 2abd ca04 e33b 0225 e0bd
000002d0: b2ae 0f3d 4542 013c 52f9 e53c d5c9 b3bd
000002e0: 8ab5 edbc d5a4 67bd e3f7 97bd ea89 1ebd
000002f0: b5ed a1bc 53be 0dbc f774 293c 538c b73c
00000300: ed13 a3bd ea7e 16bd b759 263d 8348 1abd
00000310: 1456 ef3c a9d8 5cbd 0510 f13c 9142 1fbd
00000320: 9980 cdbc 0854 aabd 0f4d b7bc b36b c2bd
00000330: e219 c13d bc73 9abd 8d7f c2ba c0ce 4e3c
00000340: 1083 423c 81b3 40bd 0acc ccbc 429b 55bd
00000350: fc37 1abd f452 81bc 5e9c d43c 124b 94bd
00000360: 7276 d5bd a35f 7abd 31be 22bd 8cc4 05bd
00000370: 05ca 8abd 6769 03bd 61f0 bd3a 5c51 7f3c
00000380: 1f57 99bd cf14 23bd c868 c7bd c048 50bb
00000390: 65d5 32bd 85cc 03bd cbef 7ebd a725 403d
000003a0: 3272 2fbd 727c 88bc 87e5 a2bd 925a 5cbd
000003b0: d012 3cbd 0f64 20bc 210e 06bd c629 b23c
000003c0: 507c bdbc 3ebb 733c dcab 76bd e08f b73c
000003d0: 4194 9dbc fd6b f1bb aa97 3cbd 9de5 8d3a
000003e0: 4bc7 abbd 860a 23bc d6d7 45bd 78f3 dabd
000003f0: 2c81 55bd b708 88bd 8573 8fbc 0912 8e3c

network_body._body_endoder.seq_layers.2.weight f4 [256, 256]
0.04211325 0.05821763 -0.007875856 -0.03479663 0.008848357 -0.06214509 -0.0087001715 0.0522293
-0.009514324 -0.075121544 -0.015779857 -0.101369075 0.0056642187 0.05484426 -0.10436119 -0.18155015
0.014684647 0.06968206 -0.03393558 -0.029685916 -0.1619184 -0.03740622 0.02257579 0.004835878
-0.06780642 -0.17034353 -0.0485743 -0.04073699 0.009156949 -0.047308743 0.031051965 -0.022952927
0.040245123 -0.13890924 0.065102026 0.0081073735 -0.017641973 -0.30986315 -0.05978916 0.04943156
0.046759102 -0.085300684 -0.02279004 0.027740197 0.05123246 -0.054902934 0.036507547 -0.024606766
-0.044610273 -0.14848238 -0.0848368 0.032612607 0.023759816 0.032013588 -0.099733226 -0.034922276
-0.05882041 0.15673608 -0.006508567 -0.0938586 -0.028469695 0.074224345 -0.011232064 -0.014396038
-0.00054275664 -0.111586295 -0.033492155 0.018988762 0.009515246 -0.017275194 -0.068655856 -0.03261826
-0.02249576 0.04837902 0.060564734 -0.067612916 0.065880455 -0.08192794 -0.059166506 -0.08571675
-0.057789426 0.040296152 0.10607203 0.018589355 0.09553266 -0.015665796 0.05778802 0.056802463
-0.11479825 -0.105981894 0.0036119039 -0.033321805 -0.088809155 -0.020056615 0.03562323 -0.12831117
-0.111011095 0.03952495 -0.11670098 -0.08807301 0.04364997 -0.10506077 0.018685075 -0.054548457
0.06950003 -0.0041338787 0.021042902 -0.047553804 -0.00090820686 -0.3047598 -0.1527293 0.008079462
-0.01681605 -0.007093177 -0.134477 -0.039883755 -0.030598206 -0.03350889 0.010424201 -0.004694921
-0.23021151 -0.04455711 -0.12441221 0.0436769 -0.006227094 -0.04156158 -0.17115791 0.022981884
-0.1253281 0.0874434 -0.026657695 -0.063359916 -0.012295026 -0.12961741 0.031387515 0.03198532
-0.1300184 -0.06427094 -0.0854302 0.08394149 -0.021459766 -0.044874594 0.011333887 -0.08219232
0.10001648 -0.082719155 -0.040804837 0.027644463 -0.05037975 -0.04760416 0.1642184 -0.06655869
0.044457477 -0.091657944 -0.05762999 -0.0918826 -0.019212823 0.07393085 -0.052421544 -0.005338174
0.014666065 0.020694274 -0.0034825907 0.04087374 0.05974657 -0.045102596 -0.08885609 0.10862138
-0.026911356 -0.018123267 0.0026713675 -0.0017324018 -0.0029624456 -0.060507525 0.031177495 -0.085275166
-0.20735374 -0.13964823 0.056171753 0.02132798 -0.15341642 -0.16002634 0.08260055 -0.019910647
-0.059973374 -0.018954404 0.001962677 -0.11359093 0.029848665 0.0885669 -0.08285759 -0.14087172
-0.067093454 -0.07429573 -0.07869044 -0.08270599 0.064263016 0.09367983 -0.09690005 -0.054894216
0.064526565 0.005171637 0.06454053 -0.020585783 -0.086802155 0.078587085 0.008422253 -0.09317604
-0.07735873 0.06565878 -0.10982936 0.063413896 0.028821781 -0.06638409 -0.172469 0.03928426
-0.08703763 0.0097017065 -0.11418278 -0.041209567 0.13402484 0.17308854 -0.034782246 -0.060383175
0.09089951 -0.034479357 -0.050792538 -0.09502393 -0.020904446 -0.03966224 -0.07083072 -0.22147939
0.06106133 -0.12306444 -0.055120215 -0.08965762 -0.10711564 -0.06910002 0.07821216 -0.12074231
0.011198515 0.038293336 0.13967977 -0.06679653 -0.09578296 0.0474708 0.040224835 -0.09473948
0.00093966286 0.0882393 0.17127885 -0.025706096 0.03209254 0.021984546 -0.17749777 0.013875246
00000000: f17e 2c3d 9c75 6e3d bc09 01bc e986 0ebd
00000010: b3f8 103c da8b 7ebd 2a8b 0ebc 64ee 553d
00000020: f8e1 1bbc 53d9 99bd c244 81bc 979a cfbd
00000030: e99a b93b 60a4 603d 52bb d5bd 48e8 39be
00000040: e097 703c 78b5 8e3d 0900 0bbd e12f f3bc
00000050: f0cd 25be 4437 19bd ddf0 b83c 4976 9e3b
00000060: 18de 8abd 896e 2ebe d8f5 46bd d4db 26bd
00000070: 0707 163c d0c6 41bd b160 fe3c c707 bcbc
00000080: 12d8 243d 393e 0ebe 3654 853d cad4 043c
00000090: e685 90bc 62a6 9ebe 7ae5 74bd bf78 4a3d
000000a0: 7986 3f3d 20b2 aebd 2eb2 babc 693f e33c
000000b0: 21d9 513d e6e1 60bd f088 153d 2194 c9bc
000000c0: 43b9 36bd c40b 18be ebbe adbd cc94 053d
000000d0: f2a3 c23c ae20 033d ef40 ccbd a90a 0fbd
000000e0: aced 70bd 6c7f 203e d145 d5bb f038 c0bd
000000f0: 4739 e9bc ef02 983d b106 38bc 5cdd 6bbc
00000100: c847 0eba 5b87 e4bd 122f 09bd 528e 9b3c
00000110: d6e5 1b3c b584 8dbc 719b 8cbd b99a 05bd
00000120: 0749 b8bc 1429 463d ba12 783d a478 8abd
00000130: 55ec 863d d6c9 a7bd 9458 72bd 438c afbd
00000140: 9bb4 6cbd 940d 253d 4b3c d93d b448 983c
00000150: a1a6 c33d 8e55 80bc 22b3 6c3d b3a9 683d
00000160: 581b ebbd 090d d9bd b1b5 6c3b 727c 08bd
00000170: 93e1 b5bd c54d a4bc aae9 113d 0164 03be
00000180: c959 e3bd eae4 213d ec00 efbd 9f5f b4bd
00000190: 50ca 323d 1a2a d7bd 7111 993c 346e 5fbd
000001a0: 0856 8e3d 7d75 87bb 2a62 ac3c c7c7 42bd
000001b0: bb14 6eba 7a09 9cbe 1265 1cbe b85f 043c
000001c0: d0c1 89bc e26d e8bb 57b4 09be 265d 23bd
000001d0: 17a9 fabc 9e40 09bd 45ca 2a3c dad7 99bb
000001e0: 91bc 6bbe 8481 36bd d4cb febd 8de6 323d
000001f0: a70c ccbb 7a3c 2abd 0544 2fbe 8144 bc3c
00000200: 0256 00be 8615 b33d 3d61 dabc d8c2 81bd
00000210: 1471 49bc 6dba 04be 3290 003d 0a03 033d
00000220: 8b23 05be 7ca0 83bd 07f6 aebd 84e9 ab3d
00000230: 64cc afbc 6cce 37bd c5b1 393c 7254 a8bd
00000240: 71d5 cc3d a968 a9bd f922 27bd a476 e23c
00000250: ff5a 4ebd 94fc 42bd de28 283e ec4f 88bd
00000260: 0b19 363d 29b7 bbbd 6d0d 6cbd f22c bcbd
00000270: 3664 9dbc 0f69 973d f9b7 56bd d9eb aebb
00000280: ef49 703c 0a87 a93c 2d3c 64bb 396b 273d
00000290: d2b8 743d 80bd 38bd 2ffa b5bd e374 de3d
000002a0: 3475 dcbc 3f77 94bc 1c12 2f3b c211 e3ba
000002b0: 9725 42bb bdd6 77bd f267 ff3c bfa4 aebd
000002c0: 8a54 54be f2ff 0ebe 5a14 663d 04b8 ae3c
000002d0: 3219 1dbe f2dd 23be 7a2a a93d a71b a3bc
000002e0: a4a6 75bd 4446 9bbc 42a0 003b 5da2 e8bd
000002f0: 3085 f43c 9062 b53d 3db1 a9bd ad40 10be
00000300: 4b68 89bd 5c28 98bd 7428 a1bd c261 a9bd
00000310: 549c 833d 36db bf3d 8973 c6bd c2d8 60bd
00000320: 8126 843d d676 a93b d32d 843d 84a3 a8bc
00000330: 54c5 b1bd 44f2 a03d 7dfd 093c 14d3 bebd
00000340: 416e 9ebd 1c78 863d 37ee e0bd 25df 813d
00000350: a81b ec3c 62f4 87bd b79b 30be 88e8 203d
00000360: c940 b2bd e8f3 1e3c a9d8 e9bd 5dcb 28bd
00000370: cf3d 093e 1f3e 313e d477 0ebd 5954 77bd
00000380: 8629 ba3d 3a3a 0dbd d60b 50bd e89b c2bd
00000390: cd3f abbc df74 22bd b20f 91bd 7ecb 62be
000003a0: 721b 7a3d 3609 fcbd bcc5 61bd 6a9e b7bd
000003b0: 725f dbbd 5084 8dbd b22d a03d bf47 f7bd
000003c0: fa79 373c 79d9 1c3d 3708 0f3e 9ecc 88bd
000003d0: db29 c4bd be70 423d ccc2 243d c606 c2bd
000003e0: b553 763a ceb6 b43d b963 2f3e 9795 d2bc
000003f0: 7873 033d ef18 b43c fac1 35be 0055 633c

network_body._body_endoder.seq_layers.2.bias f4 [256]
-0.09206645 -0.019448414 0.019450009 0.06501176 -0.037622068 -0.08807168 -0.02933602 -0.050313976
-0.0030930906 -0.09896116 0.07375706 -0.058841683 0.023129746 -0.030451937 -0.08523507 -0.062217213
0.028721632 -0.06716681 -0.054466665 -0.04227653 -0.088047534 -0.04561361 -0.005692005 -0.08069277
-0.057979196 -0.022501785 -0.04252502 -0.03473366 -0.023445413 -0.10038138 0.011534958 -0.06508539
-0.063101836 -0.019486533 -0.064432584 -0.068563126 -0.027961731 -0.05023088 -0.052498195 -0.033066925
-0.056406423 -0.10454482 -0.036301594 -0.055952616 0.0011076926 -0.10418688 -0.065809295 -0.095710106
-0.07675021 -0.001683467 0.03893238 -0.013708013 0.009820576 0.005719717 -0.030008456 -0.043451786
-0.062415697 -0.038144305 -0.045629457 -0.050759148 -0.013423836 -0.030921394 0.023537062 0.035021584
-0.03754183 -0.018517485 0.04808323 -0.010790561 -0.051656477 -0.012957174 -0.011423024 -0.027453389
-0.039442334 -0.06793003 -0.030459166 -0.11132619 0.005021946 -0.02104543 -0.10390257 -0.04483642
-0.053792603 -0.071130134 -0.032618716 -0.008694279 -0.070298254 -0.035333656 0.02115487 -0.0660335
-0.016801508 -0.06073354 0.07779869 -0.037991278 -0.032043092 -0.039095454 0.00035403506 -0.013869787
-0.015752178 -0.0047834557 -0.041663628 -0.030163039 -0.02126498 -0.02185184 0.0075229784 -0.042411465
-0.018575935 -0.09334319 -0.06672947 0.0058010444 0.018978314 -0.008485474 -0.03172853 -0.03404354
-0.0091484785 0.03653184 -0.03823911 0.056505315 -0.055672184 -0.016972896 -0.048383318 -0.023406532
-0.05906592 -0.042302392 -0.08683202 -0.023985153 -0.0075210016 -0.058446832 0.025336133 -0.045535255
-0.0015720442 0.03883024 -0.009292742 -0.050123006 -0.02007427 -0.03202398 0.04296901 -0.03715685
0.02299146 -0.022676466 -0.04886864 -0.052247964 -0.044115625 -0.036961056 -0.048226077 -0.042420223
-0.026969966 -0.08868457 0.021413771 -0.03416761 -0.008360729 -0.013889936 -0.043453038 -0.08115856
-0.05571556 -0.13910218 -0.07910957 -0.0022636284 -0.10166774 0.0040181577 -0.049286604 -0.033279274
-0.031511184 -0.076217026 -0.062444005 -0.056701176 -0.05157944 -0.020110616 -0.03139966 -0.07529881
-0.082060196 0.00042562693 -0.0632127 -0.014887965 0.010548309 -0.05148009 -0.004900236 -0.049469743
-0.04461167 -0.022250306 -0.040030032 -0.07578142 -0.032515094 -0.03283411 -0.07580775 -0.10195208
-0.028149687 0.053962745 -0.07133688 -0.01831033 -0.04725514 -0.013640963 -0.05276591 -0.08615781
-0.06316921 -0.02485409 -0.0009538468 -0.103111744 -0.044235654 -0.016687855 0.00782843 -0.037522223
0.005107205 0.01800481 -0.0057678325 -0.05315002 -0.096645415 -0.043024447 -0.030837907 -0.05933837
-0.040597335 -0.051913638 -0.074859366 -0.080792375 -0.05333023 -0.01640664 -0.06966335 -0.032890953
-0.03093405 -0.06995124 0.010698027 -0.0048279306 -0.008306665 -0.09178761 -0.031153848 -0.023937296
-0.021327965 -0.06493649 -0.022922061 0.022261841 0.01928065 -0.017184399 -0.076127134 0.05301069
-0.09740353 -0.024405323 -0.07418303 -0.052940894 -0.008440917 -0.04913666 -0.026708018 -0.059365295
-0.04988106 -0.029745651 -0.08698208 -0.064377874 -0.008646259 -0.03372645 0.0017844442 -0.078879245
-0.011298675 -0.010004136 -0.039522205 -0.06646644 -0.05585857 -0.08130166 -0.09391696 -0.03975733
00000000: 568d bcbd 4852 9fbc a055 9f3c e324 853d
00000010: 9919 1abd ed5e b4bd 1852 f0bc 0716 4ebd
00000020: 73b5 4abb 26ac cabd f10d 973d fa03 71bd
00000030: 987a bd3c 5776 f9bc b98f aebd 7ad7 7ebd
00000040: a149 eb3c c18e 89bd 7018 5fbd 282a 2dbd
00000050: 4452 b4bd 56d5 3abd 0084 babb 4042 a5bd
00000060: 987b 6dbd aa55 b8bc b72e 2ebd e244 0ebd
00000070: 9810 c0bc c194 cdbd 1ffd 3c3c 7d4b 85bd
00000080: 893b 81bd 39a2 9fbc 3bf5 83bd d36a 8cbd
00000090: 0010 e5bc e5be 4dbd 5908 57bd 2f71 07bd
000000a0: 6c0a 67bd 981b d6bd fbb0 14bd 922e 65bd
000000b0: ff2f 913a ee5f d5bd 06c7 86bd a903 c4bd
000000c0: 372f 9dbd c7a7 dcba 8f77 1f3d 9397 60bc
000000d0: 7be6 203c 776c bb3b 4bd4 f5bc 80fa 31bd
000000e0: 9aa7 7fbd 343d 1cbd f4e5 3abd d3e8 4fbd
000000f0: a6ef 5bbc dd4e fdbc ccd0 c03c cb72 0f3d
00000100: 76c5 19bd fbb1 97bc ecf2 443d e5ca 30bc
00000110: be95 53bd 544a 54bc a327 3bbc eee5 e0bc
00000120: 498e 21bd e61e 8bbd 8085 f9bc fcfe e3bd
00000130: 238f a43b 7767 acbc dfca d4bd 65a6 37bd
00000140: a255 5cbd adac 91bd 349b 05bd 7372 0ebc
00000150: 88f8 8fbd 06ba 10bd fa4c ad3c 923c 87bd
00000160: 51a3 89bc bcc3 78bd eb54 9f3d be9c 1bbd
00000170: 9e3f 03bd 8e22 20bd c89d b939 1a3e 63bc
00000180: b60a 81bc 89be 9cbb 7ba7 2abd 7a18 f7bc
00000190: e533 aebc a102 b3bc 5183 f63b a5b7 2dbd
000001a0: 8f2c 98bc b72a bfbd 76a9 88bd b016 be3b
000001b0: 6978 9b3c a806 0bbc c6f5 01bd 3d71 0bbd
000001c0: 80e3 15bc 69a2 153d 9da0 1cbd 1e72 673d
000001d0: 8408 64bd be0a 8bbc 962d 46bd 0ebf bfbc
000001e0: 1bef 71bd 4645 2dbd fcd4 b1bd 837c c4bc
000001f0: bc72 f6bb f265 6fbd b98d cf3c 2d83 3abd
00000200: 0d0d ceba 750c 1f3d 9640 18bc c84d 4dbd
00000210: cc72 a4bc 942b 03bd 4600 303d c831 18bd
00000220: 9658 bc3c ffc3 b9bc 7c2a 48bd f601 56bd
00000230: 96b2 34bd 7a64 17bd b588 45bd d4c0 2dbd
00000240: 1ef0 dcbc 41a0 b5bd ef6b af3c 56f3 0bbd
00000250: 70fb 08bc 9d92 63bc d0fb 31bd 7636 a6bd
00000260: 0036 64bd cd70 0ebe 3304 a2bd 6259 14bb
00000270: 2d37 d0bd c0aa 833b c0e0 49bd d94f 08bd
00000280: df11 01bd ac17 9cbd 49c5 7fbd 7e3f 68bd
00000290: f644 53bd 05bf a4bc ee9c 00bd 4336 9abd
000002a0: 2d0f a8bd ae26 df39 a975 81bd a7ec 73bc
000002b0: d1d2 2c3c c9dc 52bd 2992 a0bb c9a0 4abd
000002c0: baba 36bd 4646 b6bc 88f6 23bd 4a33 9bbd
000002d0: 8c2e 05bd 0f7d 06bd 1841 9bbd 41cc d0bd
000002e0: 2c9a e6bc 0a08 5d3d 1219 92bd 8cff 95bc
000002f0: 9b8e 41bd 587e 5fbc 1121 58bd 8273 b0bd
00000300: dc5e 81bd ce9a cbbc 930b 7aba 402c d3bd
00000310: 7230 35bd f8b4 88bc d142 003c e7b0 19bd
00000320: 575a a73b d37e 933c 1600 bdbb d6b3 59bd
00000330: 08ee c5bd 673a 30bd c79f fcbc ca0c 73bd
00000340: 6449 26bd 65a3 54bd de4f 99bd 7976 a5bd
00000350: cd70 5abd 3867 86bc a9ab 8ebd aab8 06bd
00000360: 6869 fdbc 9942 8fbd c746 2f3c 9e33 9ebb
00000370: ae18 08bc 24fb bbbd 5b36 ffbc 2618 c4bc
00000380: fcb7 aebc 6cfd 84bd 0cc7 bbbc 775e b63c
00000390: 74f2 9d3c 4cc6 8cbc 8be8 9bbd bd21 593d
000003a0: 807b c7bd aced c7bc 46ed 97bd 8dd8 58bd
000003b0: c64b 0abc 8643 49bd c6ca dabc 0629 73bd
000003c0: 1550 4cbd 27ad f3bc a923 b2bd 8cd8 83bd
000003d0: 0aa9 0dbc bf24 0abd 03e4 e93a 718b a1bd
000003e0: 141e 39bc 63e8 23bc 09e2 21bd 8f1f 88bd
000003f0: f5cb 64bd 7c81 a6bd 8957 c0bd 95d8 22bd

action_model._continuous_distribution.log_sigma f4 [1, 2]
-0.7747728 -0.3552704
00000000: 8357 46bf 00e6 b5be

action_model._continuous_distribution.mu.weight f4 [2, 256]
-0.024619693 0.053858113 0.03743516 -0.0283987 0.0038357684 -0.016368533 -0.0056177983 -0.056580838
-0.03595211 0.008991902 0.020802002 -0.011686555 0.043444604 -0.097578116 0.0015209947 0.0074821287
0.036257185 0.044102766 -0.06890638 0.01434686 0.011631661 -0.02073033 -0.0022366873 -0.086539716
-0.05261766 0.045956522 -0.009787514 0.07650328 0.004205151 0.014267445 -0.000809762 -0.0099255275
-0.006314158 0.0010605209 -0.019819204 -0.0014472452 0.08081615 -0.040964812 -0.0545934 -0.0002748177
0.0019923933 -0.0107776765 0.009123202 -0.03775622 0.070263654 0.0071624285 0.057410862 -0.059030976
0.004099312 -0.024783956 -0.069760405 -0.16781017 0.016592827 -0.048603013 0.026811343 -0.039889533
-0.016423363 0.025463657 -0.004988165 0.07609827 -0.06734524 -0.0012261217 0.009230181 -0.029675962
0.060426608 -0.00060530915 0.04773856 0.023674507 0.006733429 0.0071733133 0.048474107 -0.090695426
0.0022328307 -0.012470799 -0.0013455953 -0.01215273 0.06690486 -0.02272858 -0.045017667 0.07971366
-0.053804725 -0.06239797 0.052358054 -0.12937763 0.07308873 0.02967955 -0.035765268 -0.021236343
0.011195371 0.020570632 -0.016811939 0.0008481978 -0.076751694 -0.10702258 0.024728812 -0.01541197
0.005797256 0.0032550662 -0.07852953 -0.02851984 -0.0022273904 0.050788593 -0.023831582 -0.051195413
0.00025242567 -0.018699296 0.007975623 0.0064537656 -0.041251995 -0.00024446842 -0.030283483 -0.09925191
0.10832042 -0.04296297 -0.022118902 -0.010291654 -0.012009529 0.0009331664 -0.021274922 0.010290784
-0.027381545 -0.039284974 -0.016770786 -0.009828052 0.0039478703 -0.052712508 -0.08735555 0.025063718
-0.0052342354 0.01759161 0.0019299315 0.009494395 -0.00429859 0.014181144 -0.019520385 -0.05867099
-0.111156836 0.03592552 -0.02652703 -0.059941836 0.07933498 -0.1031312 0.040061302 -0.023808332
0.020645646 -0.0382918 -0.00020572457 -0.076706365 0.00223224 -0.002739237 0.009155834 0.022374105
0.055492043 -0.018970922 -0.02597699 0.002925762 0.0052661086 -0.0005689287 0.045661837 0.039449412
0.004096732 0.06256145 0.05809217 0.06840798 -0.035047673 0.072143845 -0.04315907 -0.041687325
-0.008724376 0.118828066 -0.02341082 0.0005448457 -0.12833029 -0.0024453932 -0.088086426 -0.066343136
-0.027567126 -0.002157894 0.022429504 0.011493242 0.00091420783 0.031284064 0.033903204 -0.017647851
-0.0027078711 -0.051744953 -0.053937595 -0.019923635 -0.017623845 0.0041047754 -0.10494426 0.0182836
-0.054442268 -0.026270432 0.017728146 0.001068972 -0.08126 -0.050612662 0.055452973 0.083549626
-0.00021287448 -0.0014652908 0.00011166325 0.035205904 -0.064048395 0.044337586 0.006490458 0.037146263
-0.029324954 -0.016951445 -0.03045611 -0.005525563 -0.012547283 -0.08787374 -0.057529923 0.0009666905
-0.045685817 0.000436631 0.022948675 -0.034578197 -0.0025282868 -0.02715672 0.026882533 0.0112696355
-0.05199762 -0.03857489 0.0026495985 0.10472123 0.0017815196 -0.052580137 -0.0045336597 0.03832863
-0.032754138 -0.010162523 -0.052079566 0.031836286 -0.0015084262 -0.0021835947 0.10592379 -0.06660726
-0.039282568 0.030468244 -0.011260935 0.106583625 0.0011870806 -0.06650257 0.00234135 0.0046229176
0.09547043 -0.046394512 0.059607726 -0.012449716 0.014823169 -0.002266079 0.032331087 -0.006264457
00000000: 3daf c9bc 539a 5c3d 9c55 193d 64a4 e8bc
00000010: 8461 7b3b 4d17 86bc 8215 b8bb 4fc1 67bd
00000020: 8542 13bd c552 133c f668 aa3c f778 3fbc
00000030: f8f2 313d 09d7 c7bd 1d5c c73a a52c f53b
00000040: 6a82 143d 1aa5 343d ca1e 8dbd 180f 6b3c
00000050: b992 3e3c a7d2 a9bc 6395 12bb bc3b b1bd
00000060: 9e85 57bd e83c 3c3d cf5b 20bc c0ad 9c3d
00000070: 5dcb 893b 00c2 693c 3546 54ba ae9e 22bc
00000080: ffe6 cebb 2d01 8b3a e25b a2bc 7eb1 bdba
00000090: f082 a53d b8ca 27bd 549d 5fbd 6815 90b9
000000a0: d092 023b da94 30bc 7c79 153c 44a6 1abd
000000b0: 64e6 8f3d ceb2 ea3b a727 6b3d 77ca 71bd
000000c0: 8553 863b b907 cbbc 8bde 8ebd 6ed6 2bbe
000000d0: aeed 873c f413 47bd 76a3 db3c 3563 23bd
000000e0: 4a8a 86bc 2999 d03c c373 a3bb 69d9 9b3d
000000f0: 4dec 89bd d1b5 a0ba 2f3a 173c 011b f3bc
00000100: e481 773d 9cad 1eba 8289 433d 0af1 c13c
00000110: 19a4 dc3b 1d0e eb3b c98c 463d 86be b9bd
00000120: af54 123b 5252 4cbc b05e b0ba 3e1c 47bc
00000130: 6a05 893d 4931 babc 7264 38bd ea40 a33d
00000140: 5862 5cbd 0495 7fbd 6675 563d 927b 04be
00000150: 8baf 953d 8722 f33c 9a7e 12bd d7f7 adbc
00000160: ca6c 373c be83 a83c 31b9 89bc 9759 5e3a
00000170: fe2f 9dbd a82e dbbd 1494 ca3c 7d82 7cbc
00000180: e8f6 bd3b f352 553b 17d4 a0bd 71a2 e9bc
00000190: 69f9 11bb b307 503d 733a c3bc 48b2 51bd
000001a0: 0058 8439 442f 99bc 30ac 023c 1c7a d33b
000001b0: daf7 28bd ff2b 80b9 1115 f8bc 9644 cbbd
000001c0: 19d7 dd3d f0f9 2fbd b332 b5bc 539e 28bc
000001d0: 9ec3 44bc bd9f 743a bf48 aebc ad9a 283c
000001e0: 434f e0bc 48e9 20bd e362 89bc d605 21bc
000001f0: 235d 813b 12e9 57bd 77e7 b2bd 6d52 cd3c
00000200: f383 abbb 481c 903c c1f5 fc3a 618e 1b3c
00000210: 30db 8cbb 0758 683c 37e9 9fbc fe50 70bd
00000220: 32a6 e3bd a326 133d 374f d9bc 9285 75bd
00000230: 617a a23d 7336 d3bd 5217 243d b109 c3bc
00000240: 0f21 a93c ddd7 1cbd c5b7 57b9 3a18 9dbd
00000250: c64a 123b c584 33bb 5a02 163c e649 b73c
00000260: a04b 633d e868 9bbc b2cd d4bc 24be 3f3b
00000270: 528f ac3b 2924 15ba e807 3b3d b595 213d
00000280: e13d 863b 3820 803d 0ef2 6d3d 7c19 8c3d
00000290: 268e 0fbd 27c0 933d 91c7 30bd 54c0 2abd
000002a0: aff0 0ebc 215c f33d 0cc8 bfbc fad3 0e3a
000002b0: 0469 03be e442 20bb a866 b4bd e9de 87bd
000002c0: 74d4 e1bc 746b 0dbb 14be b73c 274e 3c3c
000002d0: 73a7 6f3a b823 003d 16de 0a3d 3a92 90bc
000002e0: 8a76 31bb 84f2 53bd abed 5cbd e436 a3bc
000002f0: e25f 90bc 5a81 863b 04ed d6bd 7dc7 953c
00000300: dbfe 5ebd 1735 d7bc 9e3a 913c c01c 8c3a
00000310: a56b a6bd 394f 4fbd a822 633d 111c ab3d
00000320: 0f37 5fb9 000f c0ba c02c ea38 1134 103d
00000330: ce2b 83bd 549b 353d e8ad d43b ae26 183d
00000340: e33a f0bc c2dd 8abc 187f f9bc c80f b5bb
00000350: 1f93 4dbc 26f7 b3bd 7fa4 6bbd 8069 7d3a
00000360: 0d21 3bbd 9feb e439 dcfe bb3c dea1 0dbd
00000370: 9db1 25bb c577 debc c238 dc3c 47a4 383c
00000380: 75fb 54bd b400 1ebd e3a4 2d3b 1678 d63d
00000390: e181 e93a 455e 57bd 188f 94bb 7bfe 1c3d
000003a0: 3429 06bd b680 26bc 6251 55bd c466 023d
000003b0: 62b6 c5ba a41a 0fbb 92ee d83d 6369 88bd
000003c0: c2e6 20bd 8a98 f93c c97f 38bc 8448 da3d
000003d0: d197 9b3a 8032 88bd 5671 193b d87b 973b
000003e0: 0086 c33d 2c08 3ebd 3b27 743d e5f9 4bbc
000003f0: e1dc 723c 7f82 14bb 9a6d 043d 1346 cdbb

action_model._continuous_distribution.mu.bias f4 [2]
-0.0014013025 -0.09119511
00000000: e9ab b7ba 80c4 babd

onnx::Div_71 f4 [20]
0.49938053 0.49963558 0.17526451 0.22966832 0.45789757 0.42435065 0.046890873 0.15539128
0.42211974 0.38696417 0.05394702 0.15147461 0.47809252 0.4490987 0.073671885 0.15518272
0.4660265 0.4366439 0.046336573 0.1697125
00000000: ceae ff3e 3cd0 ff3e 8a78 333e 2c2e 6b3e
00000010: 8d71 ea3e 7d44 d93e a510 403d e41e 1f3e
00000020: 1420 d83e 2b20 c63e 8df7 5c3d 291c 1b3e
00000030: 8bc8 f43e 44f0 e53e 49e1 963d 38e8 1e3e
00000040: 079b ee3e ca8f df3e 6bcb 3d3d 1dc9 2d3e

onnx::Div_74 f4 [12]
0.4449104 0.49913856 0.3736676 0.35170448 0.4416256 0.49811006 0.364105 0.343224
0.44894674 0.4998803 0.3835185 0.36054906
00000000: 4ccb e33e 178f ff3e 5c51 bf3e 9c12 b43e
00000010: c01c e23e 4808 ff3e f86b ba3e 0ebb af3e
00000020: 59dc e53e 50f0 ff3e 895c c43e e399 b83e

onnx::Div_77 f4 [3]
0.62307256 0.04049106 0.76505196
00000000: af81 1f3f f4d9 253d 72da 433f
