Experimentos/results/sac7/KartAgent/KartAgent-1099979.onnx (onnx, 93578 bytes, 14 tensors)

network_body.observation_encoder.processors.0.normalizer.running_mean f4 [20]
0	0x3ced9a1f	0.029004155
1	0x3da9263c	0.08259246
2	0x3b4bd225	0.0031100598
3	0x3d9b061f	0.07569527
4	0x3cac033d	0.020997638
5	0x3e4e51e6	0.2014843
6	0x3bb83811	0.005621918
7	0x3e0b0ac3	0.13578324
8	0x3ca19627	0.019724919
9	0x3e9852c2	0.2975064
10	0x3bd6eea6	0.006559211
11	0x3dffe333	0.12494507
12	0x3c8143c8	0.01577939
13	0x3f1a43c7	0.6025967
14	0x3c686eec	0.014186602
15	0x3ea01362	0.31264788
16	0x3c5c5a9e	0.013449339
17	0x3f10e44b	0.5659835
18	0x3c9651b4	0.018349506
19	0x3e86b421	0.26309302

network_body.observation_encoder.processors.1.normalizer.running_mean f4 [12]
0	0x3b4801c2	0.0030518626
1	0x3d698562	0.05701197
2	0x39351f01	0.00017273055
3	0x3c1a5ac9	0.009421059
4	0x3b2a65af	0.002600055
5	0x3d68c5e6	0.056829356
6	0x3937fb16	0.00017545777
7	0x3c1b5ab0	0.009482071
8	0x3b64e744	0.0034927884
9	0x3d6caeb2	0.05778379
10	0x393706f2	0.00017454827
11	0x3c1a002a	0.009399453

network_body.observation_encoder.processors.2.normalizer.running_mean f4 [3]
0	0xbd125e75	-0.035734612
1	0x3d17b563	0.03703822
2	0x3ef6ebf0	0.4822688

network_body._body_endoder.seq_layers.0.weight f4 [128, 35]
0	0xbccab978	-0.024746642
1	0xbdee949f	-0.11649441
2	0xbf065a7b	-0.5248181
3	0xbc47c6e1	-0.0121934125
4	0x3d33efbf	0.04392981
5	0x3e45926e	0.1929414
6	0xbe8b0016	-0.27148503
7	0x3e9ea4a0	0.30984974
8	0xbe4b3bf9	-0.19847097
9	0xbc114ee2	-0.008868905
10	0x3e88a904	0.2669145
11	0xbea5be04	-0.32371533
12	0x3e3436f7	0.17599092
13	0x3d8f6322	0.0700133
14	0x3d9304ec	0.07178673
15	0x3e8f76af	0.28020236
16	0xbe81bc4d	-0.25338975
17	0xbe00d793	-0.12582235
18	0x3dd008b2	0.101579085
19	0xbd6d6d92	-0.057965823
20	0xbd2c7fd8	-0.04211411
21	0x3dee6339	0.11640019
22	0x3e48ac3c	0.19596952
23	0x3e65d846	0.22445783
24	0xbdf15bb3	-0.11785068
25	0x3dfc1598	0.12308806
26	0xbe8e6213	-0.278092
27	0xbe87b5b8	-0.26505828
28	0x3c25e4dc	0.010125365
29	0x3dbc5ad4	0.091970116
30	0xbe829a8c	-0.25508535
31	0xbe8d03e2	-0.27542025
32	0x3f874355	1.0567423
33	0xbefd519b	-0.49476323
34	0x3d44f2d8	0.048083156
35	0x3becc532	0.007225656
36	0xbe5f8ecd	-0.21831818
37	0x3e9efd6b	0.31052718
38	0xbc9c58fc	-0.0190854
39	0xbcb86a57	-0.022511644
40	0x3dd87d6e	0.10570799
41	0xbe977a3c	-0.29585445
42	0xbe8f16a5	-0.27946964
43	0x3dd4dd6f	0.103937976
44	0xbd8a5530	-0.067545295
45	0x3e8cd324	0.27504838
46	0x3e100d47	0.14067565
47	0xbcf9a1a3	-0.030472582
48	0x3e0a67e5	0.13516195
49	0x3e428268	0.18995059
50	0x3ec51564	0.38492882
51	0xbc69e541	-0.01427585
52	0xbe91c9b4	-0.284742
53	0xbdfe7d42	-0.12426235
54	0xbda88362	-0.08228184
55	0xbe93561f	-0.28776643
56	0xbe877c70	-0.26462126
57	0xbd834875	-0.064103045
58	0xbd8b80ba	-0.06811662
59	0xbc084169	-0.008316376
60	0x3d867866	0.06565933
61	0xbe92a034	-0.2863785
62	0x3d5df49b	0.054188352
63	0x3e1182bb	0.14210026
64	0x3e1fca90	0.15604615
65	0xbe87b67d	-0.26506415
66	0x3e5d504c	0.21612662
67	0x3de9b09c	0.11410639
68	0x3f475b90	0.7787409
69	0xbf5bf604	-0.85922265
70	0xbd06089b	-0.03272305
71	0x3d8e64e5	0.06952838
72	0x3e5af8a2	0.21383908
73	0xbe1153c5	-0.14192112
74	0x3e3dce6f	0.1853578
75	0xbeef8f02	-0.46788794
76	0x3e1ed276	0.15509972
77	0xbe8f7cfa	-0.28025037
78	0x3d85f9e1	0.06541801
79	0x3d539b49	0.051661763
80	0x3e29bd01	0.16576006
81	0xbeacc180	-0.3374138
82	0xbc198343	-0.009369674
83	0xbc557dd4	-0.013030488
84	0x3aca6db0	0.0015444066
85	0x3db46c7f	0.088097565
86	0x3dff509c	0.12466547
87	0x3dac339f	0.084082834
88	0xbee3745e	-0.4442472
89	0xbe8dcb26	-0.27694052
90	0x3d626f0f	0.055281695
91	0xbc22fa9d	-0.009947446
92	0x3de6013a	0.11230703
93	0xbeb3603d	-0.3503436
94	0x3cb76141	0.022385241
95	0xbc0d61e8	-0.0086293
96	0xbe1aaa5b	-0.15104048
97	0x3da2d33f	0.07950448
98	0x3d44c09c	0.04803525
99	0x3cb3f928	0.021969393
100	0x3ef557f8	0.47918677
101	0xbdaa21d1	-0.08307231
102	0x3f2e05ae	0.67977417
103	0xbea8f2fa	-0.32997876
104	0xbe05d190	-0.13068223
105	0xbd244e3b	-0.04011367
106	0xbdcc4de4	-0.09975794
107	0xbee0949c	-0.4386338
108	0xbd91637b	-0.070990525
109	0xbe533cbe	-0.2062864
110	0xbef56afc	-0.47933185
111	0x3db401ce	0.08789407
112	0x3e30cc6c	0.17265481
113	0x3e29bbfb	0.16575615
114	0xbc9f9a82	-0.019482855
115	0xbcf04d55	-0.02933375
116	0xbe8ff6fb	-0.2811812
117	0x3d004733	0.0313179
118	0x3df9ace5	0.1219118
119	0xbd03d4d3	-0.032185387
120	0x3e2c5b44	0.1683169
121	0xbcb2907c	-0.021797411
122	0xbe684407	-0.226822
123	0x3bb9a293	0.0056651323
124	0x3e79f448	0.24409592
125	0x3eefeb10	0.46859026
126	0x3d4d7f68	0.050170332
127	0xbe19ed71	-0.15031983
128	0xbf06be7b	-0.526344
129	0xbeb6379d	-0.35589305
130	0xbbe57cba	-0.007003394
131	0xbe7d4cf2	-0.24736384
132	0x3df08cc1	0.11745597
133	0x3e83c66b	0.25737318
134	0xbdd9db3f	-0.10637521
135	0xbe61634f	-0.2201054
136	0xbead45c1	-0.3384228
137	0x3e37a99b	0.17935793
138	0x3e0d185f	0.13778828
139	0xbeb05307	-0.34438345
140	0x3de91355	0.113806404
141	0xbe5d2396	-0.21595606
142	0xbe9e0a73	-0.30867347
143	0xbe8f7556	-0.28019208
144	0x3e1422f2	0.14466456
145	0x3cce1d22	0.025160376
146	0x3dc1365c	0.09434196
147	0x3e8c870e	0.2744679
148	0x3e275fea	0.16345182
149	0xbd0a9d1b	-0.033841234
150	0xbce8b871	-0.028408261
151	0x3ddacdb9	0.1068377
152	0x3db00c43	0.08596089
153	0xbe8a5aad	-0.27022305
154	0xbe1c45f2	-0.15261057
155	0x3e50181e	0.203217
156	0x3e9f5dc4	0.31126225
157	0x3e336d00	0.17522049
158	0x3ebe79b6	0.37202233
159	0x3e2a4457	0.16627632
160	0xbe812ea8	-0.25230908
161	0x3e00fe07	0.12596904
162	0xbd429ae9	-0.047511015
163	0xbe19c187	-0.15015231
164	0xbe122561	-0.14272071
165	0x3dd8dd4f	0.10589086
166	0x3e3ca236	0.18421254
167	0x3e3ac2ba	0.18238345
168	0xbe8b7651	-0.27238706
169	0x3dc8d30d	0.0980588
170	0xbd8c1cd1	-0.06841434
171	0xbe4b584b	-0.198579
172	0x3e88229c	0.26588905
173	0xbf56d583	-0.83919543
174	0x3f4a8659	0.7911125
175	0x3dad4bf6	0.08461754
176	0x3e6184a8	0.2202326
177	0xbea66fde	-0.32507223
178	0xbd72a4fd	-0.059239376
179	0xbda8defa	-0.082456544
180	0xbe2b4061	-0.16723777
181	0x3e393b50	0.18089032
182	0x3e269ac8	0.16269982
183	0x3e0a37c2	0.13497832
184	0x3dcda1f7	0.10040658
185	0x3e8ebcce	0.27878422
186	0x3d257123	0.0403911
187	0xbe9fcd9f	-0.31211564
188	0x3d2df426	0.042469166
189	0xbe444f17	-0.19170795
190	0x3da36715	0.07978646
191	0xbcea633e	-0.028611775
192	0x3cfc30b5	0.030784944
193	0xbebac139	-0.36475542
194	0x3e4d72ed	0.20063372
195	0xbe37b195	-0.17938836
196	0x3d6c210a	0.057648696
197	0xbe72a9b0	-0.23697543
198	0xbe569007	-0.2095338
199	0xbe95a6e1	-0.2922888
200	0xbcdaddc0	-0.026717067
201	0xbbcfbab6	-0.0063393964
202	0x3e762b77	0.24040018
203	0xbea917ee	-0.3302607
204	0x3d288123	0.04113878
205	0xbe7927e7	-0.24331628
206	0x3dd421c8	0.10358006
207	0x3f50e1f5	0.81594783
208	0x3f138bc4	0.5763514
209	0xbf3efa9b	-0.74601144
210	0x3bbe5acd	0.005809164
211	0x3bb37971	0.0054771234
212	0x3d19953b	0.037495833
213	0xbc338610	-0.010957256
214	0x3e21b2fb	0.15790932
215	0x3e6e600c	0.23278826
216	0xbdcd601e	-0.100280985
217	0x3e28e2e2	0.16492799
218	0xbc9c6ba9	-0.019094305
219	0xbdee88b5	-0.116471685
220	0x3e63b327	0.2223631
221	0xbed3a415	-0.41336122
222	0x3d94242d	0.072334625
223	0xbd7aa92e	-0.0611965
224	0x3e2fae23	0.17156272
225	0x3e1124c1	0.14174177
226	0xbe2ce2df	-0.1688342
227	0x3dba05a3	0.09083106
228	0x3eb32201	0.3498688
229	0xbea4d0c7	-0.32190534
230	0xbb822685	-0.003971877
231	0x3e71ef5f	0.23626469
232	0x3dab0510	0.08350575
233	0xbc8dd313	-0.017312562
234	0x3e80b897	0.2514083
235	0xbe04b8f4	-0.12961179
236	0xbdcb04b3	-0.09913006
237	0xbdb2a3b8	-0.08722633
238	0xbe32b788	-0.17452824
239	0xbc67b40f	-0.01414205
240	0xbe757fb2	-0.23974493
241	0x3e98c43a	0.2983721
242	0xbe44b981	-0.19211389
243	0xbf0596f9	-0.5218349
244	0x3e5fb114	0.21844894
245	0x3d97b707	0.074079566
246	0xbf464cc5	-0.7746089
247	0xbe40cc85	-0.18828018
248	0x3e8bc038	0.2729509
249	0x3cac83c1	0.021058919
250	0x3dfd2fd9	0.12362642
251	0x3cce2121	0.025162281
252	0x3f039a2d	0.5140713
253	0x3d93ff34	0.072264105
254	0xbc4164cc	-0.011803817
255	0x3d83608d	0.064149

network_body._body_endoder.seq_layers.0.bias f4 [128]
0	0x3e885cd8	0.26633334
1	0xbcf1a785	-0.029498825
2	0xbddc8e29	-0.107693024
3	0xbd2acbc5	-0.041698236
4	0x3e1e0e50	0.15435147
5	0x3e7e9f59	0.24865474
6	0x3d9a97ab	0.075484596
7	0x3dd3fafc	0.10350606
8	0xbcc4a4d7	-0.024004383
9	0xbe1f96b5	-0.15584834
10	0xbc179c8c	-0.009253632
11	0x3e58a675	0.21157248
12	0x3d2cfcde	0.04223334
13	0xbe3df083	-0.18548779
14	0x3d30c3c0	0.04315543
15	0xbb849dbc	-0.0040471237
16	0x3e093a94	0.13401252
17	0x3dcaaa6d	0.098957874
18	0x3e8aa38b	0.27077898
19	0x3dca5df1	0.09881199
20	0xbe1ea2a0	-0.15491724
21	0x3e7e6830	0.24844432
22	0x3d293e9a	0.041319467
23	0x3c62a949	0.013834306
24	0xbda27316	-0.07932107
25	0xbd85a722	-0.06526019
26	0xbd395570	-0.045247495
27	0xbddec89d	-0.10878108
28	0x3dff92d3	0.12479176
29	0x3d0ef89f	0.034905072
30	0xbd4321f5	-0.047639806
31	0x3db78e69	0.089627095
32	0x3e7c83e4	0.24659687
33	0xbe345a91	-0.17612673
34	0xbe828a9c	-0.25496376
35	0x3e6ebda5	0.23314531
36	0x3eacc4b9	0.33743837
37	0xbc6825e0	-0.014169186
38	0x3e98b904	0.29828656
39	0xbd8e8c6e	-0.069603786
40	0xbd675ec1	-0.05648685
41	0xbe2cf25e	-0.1688933
42	0x3e98a4b9	0.29813173
43	0xbd819c3b	-0.06328627
44	0xbdd3c281	-0.10339833
45	0x3dd0c718	0.10194224
46	0x3de0897a	0.109637216
47	0x3df08e2a	0.11745866
48	0x3e86347f	0.26211926
49	0x3e0cfa04	0.13767248
50	0xbc0e73f9	-0.008694642
51	0x3e8b1e28	0.27171445
52	0x38a83339	8.020405e-05
53	0x3df68eb3	0.120389365
54	0xbcf68354	-0.030091919
55	0x3e18f916	0.14938769
56	0xbe18e63f	-0.14931582
57	0x3e3222bc	0.17396063
58	0x3d4994e9	0.049214277
59	0xbc151bc6	-0.00910086
60	0xbd313506	-0.043263458
61	0xbe76a091	-0.24084689
62	0x3e396ca6	0.18107852
63	0x3d97ca89	0.074116774
64	0xbe6d7423	-0.23188834
65	0x3e3a9840	0.18222141
66	0x3e630017	0.22168003
67	0x3ec9ec10	0.39437914
68	0x3ddcb118	0.107759655
69	0x3ebd68d0	0.36994028
70	0x3e2db505	0.16963585
71	0xbe30e053	-0.17273073
72	0xbdf5e2df	-0.12006163
73	0x3d8f7bda	0.07006045
74	0x3ed07c04	0.40719616
75	0x3e0ab668	0.13546145
76	0x3e5068ef	0.20352529
77	0xbe1cb460	-0.15303183
78	0xbe17405c	-0.14770645
79	0x3e65d9ed	0.22446413
80	0x3e52576d	0.20541163
81	0x3e62af09	0.22137083
82	0x3deb2974	0.11482516
83	0x3d8c1b5c	0.06841156
84	0x3e685b1b	0.22691004
85	0xbd18f881	-0.037346367
86	0xbd337b66	-0.043818854
87	0x3e3de98c	0.18546122
88	0x3d790ea5	0.06080498
89	0x3d042d5d	0.032269824
90	0xbe2193d2	-0.15779045
91	0x3dce569a	0.10075112
92	0x3d70559e	0.0586754
93	0x3dad5c46	0.084648654
94	0x3e8d2734	0.27568972
95	0x3d1f0043	0.03881861
96	0x3e09aa9a	0.13443986
97	0x3e8ec34c	0.27883375
98	0xbbd9dbb2	-0.006648504
99	0xbdff1220	-0.12454629
100	0x3d3d9bb0	0.046291053
101	0x3dfcbe50	0.12340987
102	0x3de0e57a	0.10981269
103	0x3ce69d56	0.028151195
104	0x3e3c14d3	0.18367319
105	0x3ebe9570	0.37223387
106	0xbc6ef3aa	-0.014584461
107	0xbe475db8	-0.19469345
108	0x3dd9aae8	0.10628301
109	0x3c88cca1	0.016699137
110	0x3b6b5d6a	0.0035913833
111	0x3c1ab54a	0.009442637
112	0x3d599b03	0.053126346
113	0xbbbb2b39	-0.0057119397
114	0x3e10ed1a	0.14152947
115	0x3d910fee	0.070831165
116	0x3ea40bd8	0.32040286
117	0xbdcdbb82	-0.1004553
118	0x3e9ec5ef	0.31010386
119	0x3e83417b	0.25635895
120	0x3e336a28	0.17520964
121	0x3e8f97b9	0.28045443
122	0x3dce78f2	0.10081662
123	0xbd6b5a00	-0.057458878
124	0xbca83c97	-0.020536704
125	0x3eada025	0.33911243
126	0x3eae58cd	0.34052125
127	0x3e293c6b	0.16526954

network_body._body_endoder.seq_layers.2.weight f4 [128, 128]
0	0x3d533f54	0.051574066
1	0x3d9c15b3	0.07621326
2	0xbcd561e1	-0.026047649
3	0x3dc86613	0.09785094
4	0x3e3bca62	0.18338922
5	0x3d23bb7e	0.03997373
6	0x3de42b64	0.111410886
7	0x3ea51a0e	0.3224644
8	0x3dd4d6e3	0.10392549
9	0x3def48df	0.11683821
10	0xbe0e0ad9	-0.13871326
11	0xbe0b338f	-0.13593887
12	0xbd9981f5	-0.074954905
13	0x3e2399fa	0.15976706
14	0x3d944740	0.07240152
15	0xbe7b0923	-0.24515204
16	0xbe56c6da	-0.20974293
17	0x3d52db30	0.051478565
18	0x3cffc6a3	0.031222647
19	0x3dbbb8ab	0.09166082
20	0x3e5c6a8c	0.2152502
21	0x3de24a3c	0.11049315
22	0x3c6ffab7	0.014647177
23	0x3e09b96e	0.13449642
24	0xbdf93242	-0.12167789
25	0x3df9c552	0.12195839
26	0x3daa0f49	0.08303697
27	0xbe1b2550	-0.15150952
28	0x3dd6685f	0.10469126
29	0x3e5c2e47	0.21502028
30	0x3e8e37eb	0.27777037
31	0x3ca29743	0.019847518
32	0xbd0e9460	-0.03480947
33	0x3dcb67d0	0.0993191
34	0x3a27a31e	0.0006394851
35	0x3cc9ef0e	0.024650123
36	0x3d363492	0.04448373
37	0xbcc3b900	-0.023891926
38	0xbdd3e453	-0.10346284
39	0x3e0aaccd	0.13542481
40	0x3d7358c7	0.059410837
41	0xbc2e1709	-0.010625609
42	0x3e377886	0.1791707
43	0x3e695796	0.22787318
44	0xbca7a413	-0.020463979
45	0xbdd6ebd2	-0.10494198
46	0xbd5c3334	-0.05375977
47	0xbe4660ae	-0.19372818
48	0xbc0f8529	-0.008759775
49	0xbdbd9bfe	-0.09258269
50	0xbc1db152	-0.009624796
51	0xbe208e14	-0.15679199
52	0x3e6a56a1	0.22884609
53	0xbe86bc3a	-0.2631548
54	0x3de05921	0.109545
55	0xbdcc3efb	-0.0997295
56	0x3e251e57	0.16124855
57	0xbd0a4fc8	-0.03376749
58	0xbd772313	-0.060336184
59	0xbe8a8d40	-0.2706089
60	0x3e3ba0f4	0.18323117
61	0x3d207275	0.039171655
62	0x3e5332d1	0.20624854
63	0xbd9704fa	-0.07373996
64	0x3e49e328	0.1971556
65	0x3e223f12	0.15844372
66	0xbcddc79f	-0.027072726
67	0x3d580187	0.05273583
68	0x3d1c77a2	0.03820003
69	0xbe121531	-0.14265896
70	0x3e5e57ca	0.21713176
71	0x3d1a1e4b	0.037626546
72	0xbd95e6ac	-0.07319388
73	0x3da4a7ad	0.08039794
74	0xbe0f4d27	-0.13994275
75	0xbea6588d	-0.32489434
76	0xbdf40baa	-0.11916287
77	0xbd70ff1d	-0.058837045
78	0xbd99d040	-0.07510424
79	0xbe454130	-0.19263148
80	0xbe0d9fae	-0.13830444
81	0xbd895cd8	-0.06707162
82	0x3e277eb6	0.1635693
83	0x3db19c91	0.08672441
84	0xbd39d104	-0.04536535
85	0x3d997d78	0.074946344
86	0xbafc1610	-0.0019232649
87	0xbd0034bd	-0.031300295
88	0xbafbc96d	-0.001920981
89	0xbe0a8e63	-0.13530879
90	0x3da82fbe	0.08212231
91	0xbe672198	-0.22571409
92	0xbe9d1cbe	-0.3068599
93	0x3e6eb539	0.23311318
94	0x3e2eed92	0.17082813
95	0xbe22cb57	-0.1589788
96	0xbdcc6bd0	-0.09981501
97	0x3daab28c	0.08334836
98	0xbec43486	-0.38321322
99	0x3d9b2cf1	0.07576931
100	0xbe0ef1d2	-0.13959435
101	0xbdf596bc	-0.11991641
102	0xbeaa4a93	-0.3326002
103	0x3d886a42	0.06660892
104	0xbdf14199	-0.1178009
105	0x3de1d120	0.110262156
106	0x3d580b2b	0.052745026
107	0xbe0bfac4	-0.13669878
108	0xbb273525	-0.0025513854
109	0xbd9e5d80	-0.077326775
110	0x3e18f21b	0.14936106
111	0x3d33c277	0.043886628
112	0x3d114b6c	0.03547232
113	0x3d35ff80	0.044433117
114	0x3dc0b00a	0.09408577
115	0x3e68795a	0.22702542
116	0xbd340943	-0.043954145
117	0xbd8283f8	-0.06372827
118	0x3e52ef71	0.20599152
119	0xbe7e50df	-0.24835537
120	0x3d27e3db	0.040988784
121	0x3d34fa8f	0.044184264
122	0xbe77e66d	-0.24208994
123	0xbdf3f40d	-0.11911783
124	0x3e1786d4	0.14797527
125	0x3dc97cf7	0.09838288
126	0x3df015ab	0.11722883
127	0xbdb0b014	-0.08627334
128	0xbd10dc46	-0.03536632
129	0x3e524772	0.20535067
130	0x3deab0d8	0.114595115
131	0xbc78c84a	-0.015184471
132	0xbe8ca191	-0.27467015
133	0x3db7393c	0.089464635
134	0xbdf19a26	-0.117969796
135	0xbe9ac233	-0.30226287
136	0x3c897821	0.016780915
137	0x3ca63c8e	0.020292547
138	0x3da7e1db	0.081973754
139	0x3da74b83	0.081686996
140	0xbb557060	-0.0032568201
141	0xbd4bedb3	-0.049787235
142	0xbde271c9	-0.11056859
143	0x3ed318a3	0.41229734
144	0x3e1833bc	0.14863485
145	0xbe20d1a8	-0.15704978
146	0x3e39c3ea	0.18141142
147	0xbd09f67a	-0.033682324
148	0xbe01dbda	-0.12681523
149	0x3e967b87	0.2939112
150	0xbbaedf03	-0.0053366437
151	0x3d3e4e92	0.04646165
152	0x3d8475cd	0.06467781
153	0x3e64faa0	0.22361231
154	0xbd7a079f	-0.061042424
155	0x3dd6cabb	0.104878865
156	0xbc9b6557	-0.018969221
157	0xbe087ca1	-0.13328792
158	0x3d3295ae	0.043599777
159	0x3e169b50	0.14707685
160	0xbd545f22	-0.05184854
161	0x3dd4eabf	0.10396337
162	0xbe744db9	-0.23857774
163	0xbe10a75d	-0.14126344
164	0x3e540f1e	0.20708892
165	0x3e5fc05d	0.21850725
166	0x3d706723	0.05869211
167	0x3deebf7b	0.11657616
168	0x3c3f9837	0.011694006
169	0x3dd24290	0.10266602
170	0x3d61c286	0.055117153
171	0xbd1f9cf9	-0.03896806
172	0x3e46400b	0.19360368
173	0x3ccb78ec	0.024837933
174	0x3e073d03	0.13206868
175	0x3da94e8b	0.08266934
176	0xbc20fa27	-0.009825266
177	0xbe53c61f	-0.20681046
178	0x3e06be0d	0.13158436
179	0x3d293715	0.041312296
180	0x3d11a6c7	0.035559442
181	0xbeac6554	-0.33671057
182	0x3e0925c9	0.1339332
183	0xbd9cdb06	-0.07658963
184	0xbe11aef4	-0.14226896
185	0xbeb97cd4	-0.3622805
186	0x3ca73cee	0.020414796
187	0x3e93f301	0.28896335
188	0xbea9b2ce	-0.3314423
189	0x3e14aa07	0.14517985
190	0x3e0a46cd	0.13503571
191	0x3b99aa01	0.0046894555
192	0xbe20df86	-0.15710267
193	0x3bd29634	0.006426597
194	0xbcfca0f0	-0.03083846
195	0xbddba8b0	-0.10725534
196	0x3dbaf4d4	0.091287285
197	0xbeadbb74	-0.33932078
198	0xbdd3194c	-0.10307559
199	0xbea83a52	-0.32856995
200	0x3d0d0ad8	0.03443417
201	0xbd0eaaa2	-0.034830697
202	0xbeaea91f	-0.34113404
203	0x3e6095eb	0.21932189
204	0xbe0bb970	-0.13644958
205	0xbd81e8df	-0.06343245
206	0xbd878916	-0.06617944
207	0x3e58e203	0.21179967
208	0xbe7c6844	-0.24649149
209	0x3e05683b	0.13028042
210	0xbde6b410	-0.11264813
211	0xbe726fc9	-0.23675455
212	0xbc8a70e9	-0.016899543
213	0x3de17b39	0.11009831
214	0x3dad761c	0.08469793
215	0xbe214b0f	-0.15751289
216	0xbe93dcdb	-0.28879437
217	0xbddab28c	-0.10678586
218	0x3ccae5d9	0.024767803
219	0xbd3d758f	-0.04625469
220	0xbe1cad78	-0.15300548
221	0x3dea8b36	0.11452334
222	0x3d6cb3fb	0.05778883
223	0xb9232eb8	-0.00015562295
224	0x3d5f505e	0.054520003
225	0x3e03ce33	0.12871628
226	0xbd923e48	-0.071407855
227	0xbe5158f6	-0.20444092
228	0xbe93f3b3	-0.28896865
229	0x3d89ca08	0.067279875
230	0xbe1497c6	-0.14511022
231	0x3bd32ad2	0.0064443136
232	0xbddb41ff	-0.10705947
233	0xbd7171ed	-0.05894654
234	0x3e412e66	0.18865356
235	0xbea509e6	-0.32234114
236	0xbdc92626	-0.09821729
237	0xbe801778	-0.25017905
238	0xbd7269a4	-0.059182778
239	0xbefb58f7	-0.49091312
240	0x3e3a524e	0.18195459
241	0xbd1430ba	-0.03617928
242	0xbe9759c1	-0.29560664
243	0xbe3cb605	-0.1842881
244	0xbe9113b2	-0.2833534
245	0x3db7fc77	0.08983701
246	0xbdd8ed09	-0.10592086
247	0x3d931760	0.07182193
248	0xbd6ca545	-0.0577748
249	0xbc4dacb2	-0.012553381
250	0xbd33314f	-0.043748196
251	0x3bbcf995	0.005767057
252	0x3dc1ff80	0.09472561
253	0xbe1d14db	-0.15339987
254	0x3e5fcba8	0.21855032
255	0xbdb1f379	-0.08689017

network_body._body_endoder.seq_layers.2.bias f4 [128]
0	0xbd1393b4	-0.036029533
1	0xbd145184	-0.03621055
2	0x3d1fbbe1	0.038997535
3	0x3d297ac1	0.041376833
4	0xbd4a123e	-0.049333803
5	0xbc09380f	-0.008375182
6	0xbd5cbae8	-0.053889185
7	0x3d0ba85d	0.03409611
8	0xbe87b6aa	-0.2650655
9	0xbe9e2cbb	-0.30893502
10	0xbbdc06b0	-0.0067146644
11	0xbe63bdec	-0.22240418
12	0xbdf0b1a0	-0.11752629
13	0xbdf45638	-0.119305074
14	0xba85e6e0	-0.0010215901
15	0x3e136148	0.14392579
16	0xbde57745	-0.112043895
17	0xbe351764	-0.17684704
18	0x3d25f775	0.040519197
19	0xbd39035f	-0.04516923
20	0xbd539300	-0.051653862
21	0xbe16bb43	-0.14719872
22	0xbe1441bd	-0.14478202
23	0xbc8aaaa1	-0.016927065
24	0xbe30cc72	-0.1726549
25	0x3d839cdd	0.06426404
26	0xbd7f28fe	-0.062294953
27	0x3a61fe46	0.00086209585
28	0xbdde4078	-0.1085214
29	0xbe252c02	-0.16130069
30	0x3cce5789	0.025188224
31	0xbe5cb863	-0.21554713
32	0xbc7a61f3	-0.015282142
33	0xbd9eab52	-0.077475205
34	0xbd8afbf9	-0.06786341
35	0xbe50401b	-0.20336954
36	0xbd488ed3	-0.048964333
37	0xbe414f1c	-0.18877834
38	0xbdfd5cac	-0.123711914
39	0xbcc17693	-0.02361611
40	0xbd6a1f2c	-0.057158634
41	0x3e1702c0	0.14747143
42	0xbdc8a33c	-0.097967595
43	0x3e17a2b8	0.14808166
44	0x3d8cc192	0.06872858
45	0x3d7de1af	0.061982807
46	0x3e334ef6	0.1751059
47	0xbcf5511c	-0.029945903
48	0x3e1a5195	0.15070184
49	0xbe5f5736	-0.21810612
50	0xbe6f5f77	-0.2337626
51	0xbd8a8b4d	-0.06764851
52	0x3da8929f	0.08231091
53	0xbd5fcc70	-0.054638326
54	0xbe4b1eee	-0.19836017
55	0xbd06ea7f	-0.032938477
56	0x3d9f6166	0.07782249
57	0xbb98fabf	-0.004668563
58	0x3e097d75	0.13426764
59	0xbd835918	-0.06413478
60	0x3e1f3410	0.15547204
61	0xbe1833e8	-0.1486355
62	0x3d8b1a98	0.06792182
63	0x3e0470d0	0.1293366
64	0x3d7173e0	0.058948398
65	0xbe1a6fb9	-0.15081681
66	0xbdfe3cd2	-0.12413944
67	0x3bed5025	0.00724222
68	0xbd6d5e8c	-0.057951495
69	0xbc94a1f0	-0.018143624
70	0x3b7d025b	0.003860614
71	0xbe55880d	-0.2085268
72	0xbce9d2d4	-0.028542913
73	0xbe37bc2b	-0.17942874
74	0x3c2abed6	0.010421475
75	0x3e1162af	0.14197801
76	0xbe4ae642	-0.19814399
77	0x3deca45c	0.115547866
78	0xbe2d24af	-0.16908525
79	0xbe097dca	-0.13426891
80	0xbe7148d3	-0.23562936
81	0xbd93ebb8	-0.07222694
82	0x3d4b6a0b	0.049661677
83	0x3d0dc8ff	0.034615513
84	0xbd12ee94	-0.035872057
85	0x3d077a03	0.033075344
86	0x3dac6f4d	0.084196664
87	0x3d767a7c	0.060175404
88	0xbe469932	-0.19394377
89	0x3dcac88e	0.09901534
90	0xbe14d489	-0.145342
91	0xbd7f048d	-0.0622602
92	0xbcd3b17e	-0.02584147
93	0xbb3825ee	-0.002809878
94	0xbd3f417d	-0.046693314
95	0xbd53dcf5	-0.051724393
96	0xbd4969e6	-0.04917326
97	0x3cde0ffc	0.027107231
98	0xbdfbf65f	-0.12302851
99	0xbe4b15b5	-0.198325
100	0xbe19d8ea	-0.15024152
101	0xbe710098	-0.23535383
102	0x3cab6a98	0.020924851
103	0x3d5f70cc	0.05455093
104	0x3d897271	0.06711281
105	0xbe21cfc9	-0.1580192
106	0xbe433917	-0.19064747
107	0xbe05e08e	-0.13073942
108	0x3e36cf56	0.1785253
109	0xbe03f571	-0.12886597
110	0x3d881212	0.06644072
111	0xbdf0342c	-0.11728701
112	0xbd092e51	-0.033491436
113	0x3da9216d	0.082583286
114	0xbe9f96b9	-0.3116968
115	0xbd5861da	-0.052827694
116	0xbddaf3ae	-0.106910095
117	0xbe994500	-0.29935455
118	0xbd88ff79	-0.066893525
119	0xbd4b56f9	-0.04964349
120	0x3d128b5b	0.03577743
121	0xbe596727	-0.21230756
122	0x3e315383	0.17317013
123	0x3c9f86e5	0.019473502
124	0xbbf6a964	-0.007527517
125	0xbd1e4762	-0.038642295
126	0xbe7de9d4	-0.2479623
127	0xbd4f0f75	-0.05055185

action_model._continuous_distribution.mu.weight f4 [2, 128]
0	0xbd2af7a4	-0.041740075
1	0x3d9d0831	0.07667578
2	0xbd9323b4	-0.07184544
3	0xbe03837a	-0.12843123
4	0xbe4d08f6	-0.2002295
5	0x3e05c3e1	0.13063003
6	0x3ebc160e	0.36735576
7	0x3e7d351c	0.24727291
8	0xbec47e72	-0.3837772
9	0xbecd251e	-0.4006738
10	0x3d98bf21	0.0745833
11	0x3e9413ad	0.2892126
12	0xbd9bd9ee	-0.07609926
13	0x3e07a677	0.13247095
14	0x3d9138c6	0.07090907
15	0x3e13def3	0.14440517
16	0xbcdbed46	-0.02684654
17	0xbe3ae197	-0.18250118
18	0xbe3bf3dc	-0.18354744
19	0x3d5ba19c	0.05362092
20	0x3e90cce3	0.28281316
21	0xbe0423df	-0.12904309
22	0x3e016bce	0.1263878
23	0xbdff1db5	-0.12456838
24	0x3d9d8cac	0.07692847
25	0x3e820e6f	0.25401637
26	0xbe5785e7	-0.21047173
27	0x3cd4b919	0.025967168
28	0x3aee26a4	0.0018169475
29	0x3e989943	0.2980443
30	0xbe2b832d	-0.16749258
31	0xbee84c36	-0.45370644
32	0x3e565abe	0.20933053
33	0x3e897494	0.26846755
34	0xbd70bf2e	-0.058776073
35	0x3e1349b2	0.14383581
36	0xbe00cb98	-0.12577665
37	0x3d085632	0.033285327
38	0xbe03bc67	-0.12864839
39	0xbe376d96	-0.17912897
40	0xbe196dc6	-0.14983281
41	0xbd713cad	-0.058895756
42	0x3d98063f	0.07423066
43	0xbd8275dc	-0.06370136
44	0xbdd9e009	-0.106384344
45	0x3cb2cea3	0.021827048
46	0x3d887504	0.06662944
47	0xbe5648d8	-0.20926225
48	0xbe843568	-0.25821996
49	0xbe66b2ac	-0.22529095
50	0x3e234a7a	0.1594638
51	0xbe0177bf	-0.12643336
52	0x3d3fbd21	0.046811227
53	0x3e599465	0.21248014
54	0xbe317505	-0.17329796
55	0x3e6824a8	0.22670233
56	0xbdfe2845	-0.124100246
57	0x3c6541ef	0.013992771
58	0x3e4136f1	0.18868615
59	0xbe940253	-0.28908023
60	0x3dbca143	0.09210446
61	0xbe1e5a70	-0.15464187
62	0xbd8ff199	-0.07028503
63	0x3d8537a3	0.065047525
64	0xbe0d54e8	-0.1380192
65	0x3caf7701	0.02141905
66	0x3df6f238	0.12057918
67	0xbd9a311b	-0.075288974
68	0x3dc7431b	0.09729596
69	0x3e18a7f7	0.14907824
70	0xbe116b20	-0.14201021
71	0x3e9a6892	0.30157906
72	0x3e5a940f	0.21345542
73	0xbd0172de	-0.031603687
74	0x3e55dbd3	0.20884638
75	0xbe29f568	-0.16597521
76	0x3e43a309	0.19105162
77	0x3e1362ca	0.14393154
78	0xbc8f1c36	-0.017469507
79	0xbe702b78	-0.23454082
80	0x3e12409a	0.14282456
81	0x3a947d0e	0.0011328773
82	0x3e1530c8	0.1456939
83	0xbdf40b7f	-0.11916255
84	0x3e3acae7	0.18241464
85	0xbe058626	-0.13039455
86	0x3d5b2dea	0.053510584
87	0x3e6415bf	0.2227392
88	0x3e9486ab	0.29008994
89	0x3e8f1b85	0.27950683
90	0xbe7445f2	-0.23854807
91	0xbe0519b9	-0.12998094
92	0xbe191763	-0.14950328
93	0x3e9c052a	0.3047269
94	0x3ddf0f43	0.10891583
95	0x3e6053a9	0.21906914
96	0xbcca996f	-0.024731366
97	0xbddfd25f	-0.10928797
98	0xbe1e3059	-0.1544813
99	0x3e2a7a3a	0.16648188
100	0x3d1fa051	0.03897125
101	0xbd5d3a62	-0.054010756
102	0xbe5db6e8	-0.21651804
103	0xbdaebbbc	-0.08531901
104	0x3bf492ee	0.0074638044
105	0x3df83fec	0.12121567
106	0xbea7220e	-0.3264317
107	0xbd845c61	-0.064629324
108	0x3dc70193	0.09717097
109	0xbe033d91	-0.12816454
110	0x3e087905	0.13327415
111	0x3e4a71f0	0.19770026
112	0xbd25d51e	-0.040486448
113	0x3db9c195	0.09070126
114	0xbbd6e3a4	-0.0065578986
115	0x3eb44ca2	0.35214716
116	0xbcba9f43	-0.02278102
117	0x3ca652c1	0.020303132
118	0xbe2037cb	-0.15646283
119	0xbd014745	-0.03156211
120	0xbd0b4157	-0.03399786
121	0xbe803395	-0.25039354
122	0x3e360e43	0.17778878
123	0xbdaa4306	-0.08313565
124	0x3dabde62	0.083920255
125	0xbd371b9e	-0.044704072
126	0x3e8eb71b	0.27874073
127	0x3eaf894c	0.34284437
128	0x3d070a25	0.03296866
129	0xbdbf2b92	-0.09334482
130	0xbe9af03b	-0.30261406
131	0x3ea9f780	0.3319664
132	0x3e6367ea	0.22207609
133	0x3ea31bd2	0.31857163
134	0xbd79c7d3	-0.060981583
135	0x3d9422f1	0.07233227
136	0xbde81ff5	-0.1133422
137	0x3e1505c9	0.14552988
138	0x3e073eb6	0.13207516
139	0xbc1dd70d	-0.009633792
140	0x3ea7f997	0.3280761
141	0xbd920f05	-0.07131771
142	0xbdac8fa9	-0.084258385
143	0xbeb2a790	-0.34893465
144	0xbe8c524c	-0.27406538
145	0xbe50074e	-0.20315287
146	0xbbb54e23	-0.0055329963
147	0xbdb4a1a9	-0.08819897
148	0xbca272b0	-0.019830078
149	0xbde42e98	-0.111416996
150	0x3de21c9b	0.11040612
151	0x3c8fd8e9	0.017559486
152	0x3dc37101	0.09543038
153	0x3d35bf7b	0.044372063
154	0x3e40d112	0.18829754
155	0xbe09516d	-0.13409968
156	0x3e8b812b	0.27246985
157	0xbdc73713	-0.097273014
158	0xbd0e1444	-0.034687296
159	0x3dad3b27	0.08458548
160	0x3e3482d0	0.17628026
161	0xbebb3532	-0.36564022
162	0xbe09dfd0	-0.13464284
163	0x3e2cde55	0.16881688
164	0x3d06400e	0.03277593
165	0xbdf4d939	-0.119554944
166	0x3ed1d74a	0.40984565
167	0xbcfb7f2a	-0.030700285
168	0x3e0be101	0.13660051
169	0xbe4f063e	-0.20217225
170	0xbe2a435f	-0.16627263
171	0xbd972dc4	-0.07381776
172	0x3e33c7b7	0.17556654
173	0x3e0e039b	0.13868563
174	0xbd99149d	-0.07474635
175	0x3e80b394	0.25137007
176	0xbdbf1e6b	-0.09331974
177	0xbe5b66ea	-0.21425977
178	0xbda33ef9	-0.079709955
179	0xbe81d54f	-0.25358054
180	0x3e093989	0.13400854
181	0x3ea02a8e	0.31282467
182	0x3e9aa930	0.30207205
183	0x3bb1b69d	0.0054233805
184	0xbe7a96ce	-0.2447159
185	0xbe09867f	-0.13430212
186	0x3e892fb8	0.2679422
187	0xbc8ab5cd	-0.016932392
188	0xbe8dd771	-0.2770343
189	0xbd72f2fb	-0.059313755
190	0xbe208af8	-0.15678012
191	0x3ddbc9c8	0.10731846
192	0x3c079be8	0.008276917
193	0x3e652f32	0.22381285
194	0xbe0a8634	-0.13527757
195	0xbd8e1ba8	-0.06938869
196	0xbce9d275	-0.028542737
197	0xbe0fc028	-0.14038146
198	0xbce80e54	-0.028327145
199	0xbe17f88e	-0.1484091
200	0x3bb204b0	0.0054326877
201	0xbe347044	-0.17620951
202	0x3df5c454	0.12000337
203	0x3ce94e1a	0.028479625
204	0x3e8157d8	0.25262332
205	0xbde137d0	-0.109969735
206	0x3d8195c9	0.063273974
207	0xbd9948f2	-0.07484616
208	0x3d5185ac	0.05115287
209	0x3e328b04	0.17435843
210	0x3ebf7602	0.3739472
211	0xbd8c0007	-0.06835943
212	0x3dd05495	0.10172383
213	0xbdefc7a5	-0.11708001
214	0xbde686e9	-0.11256201
215	0x3e7477e5	0.23873861
216	0x3e0f343a	0.13984767
217	0xba03f37e	-0.00050335366
218	0xbd054943	-0.03254057
219	0xbc42aaad	-0.011881513
220	0x3d5e0672	0.054205365
221	0x3c325235	0.0108838575
222	0xbd17f6c1	-0.037100557
223	0x3ca534bd	0.02016675
224	0xbe911ad0	-0.2834077
225	0xbc8038d4	-0.015652098
226	0x3c6056f7	0.013692609
227	0xbd9118df	-0.07084822
228	0x3e608b67	0.21928178
229	0xbdc5e706	-0.09663205
230	0x3db93c4f	0.09044706
231	0xbe2697ee	-0.16268894
232	0x3d9f59d9	0.07780809
233	0xbe89e2e2	-0.2693091
234	0xbb80ae38	-0.0039270185
235	0x3de32998	0.11091918
236	0x3e384429	0.17994751
237	0xbea3f7e5	-0.32025066
238	0xbe36effe	-0.17864987
239	0xbb7c1d84	-0.003846974
240	0xbdb2bfe0	-0.087280035
241	0x3cdf5fd2	0.02726737
242	0xbe5178e3	-0.20456271
243	0xbd8346cf	-0.0640999
244	0xbe33c09a	-0.1755394
245	0xbd31ea9c	-0.04343663
246	0x3e45d10d	0.19318028
247	0x3dcae613	0.099071644
248	0xbe093101	-0.133976
249	0xbdd69e6f	-0.104794376
250	0xbe371bd4	-0.1788171
251	0x3eb0e7be	0.34551805
252	0x3e74a358	0.23890436
253	0x3e032428	0.12806761
254	0xbce12033	-0.027481174
255	0x3cca7c99	0.024717616

action_model._continuous_distribution.mu.bias f4 [2]
0	0x3d010778	0.031501263
1	0x3c84bcf6	0.016203385

action_model._continuous_distribution.log_sigma.weight f4 [2, 128]
0	0xbd9d3b6d	-0.0767735
1	0x3d3ea9b5	0.046548564
2	0xbce8f99c	-0.028439336
3	0x3d72bb50	0.059260666
4	0xbd3d3636	-0.046194278
5	0x3d4b427b	0.049623948
6	0x3e74aa14	0.23893005
7	0x3d303afb	0.043025
8	0xbb87e7e4	-0.0041475166
9	0xbd5e6e75	-0.05430456
10	0xbc06461d	-0.008195427
11	0x3d802640	0.062572956
12	0x3d0eb0c1	0.034836534
13	0x3d7271f0	0.05919069
14	0xbd2f2551	-0.042760197
15	0x3d3950e0	0.045243144
16	0x3ce69d12	0.028151069
17	0xbda1c452	-0.07898773
18	0x3c5748da	0.013139928
19	0x3d84a8b4	0.0647749
20	0xbc0241db	-0.0079502715
21	0xbc32436a	-0.010880331
22	0x3cfe90fd	0.031074995
23	0x3b8aecd0	0.004239656
24	0x3f12e645	0.57382613
25	0x3d264484	0.040592685
26	0xbbbbf4e3	-0.00573598
27	0xbd60ff40	-0.054930925
28	0x3ef4bf6c	0.47802293
29	0x3e5573f6	0.20845017
30	0xbd94ca3a	-0.07265134
31	0xbd5b82fd	-0.053591717
32	0x3d511d10	0.051053107
33	0x3e228959	0.15872706
34	0xbd3594f3	-0.044331502
35	0xbd6ec774	-0.058295682
36	0xbdabbe43	-0.08385899
37	0x3c0cbd14	0.008590002
38	0x3c609614	0.013707656
39	0x3d01a709	0.031653438
40	0x3ca1ddf1	0.01975915
41	0x3c9847ab	0.018588861
42	0x3d9397f6	0.072067186
43	0xbda68e1d	-0.08132575
44	0x3c831d83	0.016005283
45	0x3d829ec9	0.06377942
46	0xbd4efe09	-0.050535236
47	0x3c71652c	0.014733594
48	0x3e66f996	0.22556147
49	0x3e29bde6	0.16576347
50	0x3e198d94	0.14995414
51	0x3d2f9125	0.04286303
52	0xbcaeba87	-0.021329178
53	0x3df52c9e	0.11971401
54	0xbb6e5eb1	-0.0036372358
55	0xbd5eac18	-0.05436334
56	0x3dc7adcf	0.09749948
57	0x3c166267	0.009178734
58	0x3e28651c	0.1644482
59	0x3ebbd7d8	0.36688113
60	0xbd534122	-0.051575787
61	0x3d6ebf2c	0.058287784
62	0x3cf63653	0.0300552
63	0xbcba6a57	-0.022755785
64	0x3da0610a	0.07831009
65	0xbd348a91	-0.04407746
66	0x3cda8813	0.026676213
67	0x3c2154db	0.009846891
68	0x3ce7146f	0.028207986
69	0x3d4e0d02	0.050305374
70	0xbcd67767	-0.026179982
71	0x3e8f36fe	0.27971643
72	0x3da4e771	0.080519564
73	0x3db5cfb0	0.08877504
74	0x3d1e51d2	0.03865225
75	0x3dad48d1	0.08461154
76	0x3e276be6	0.16349754
77	0x3da9dbeb	0.08293899
78	0x3d1472aa	0.036242165
79	0x3d38d1a8	0.04512182
80	0x3e26daeb	0.16294448
81	0xb84f8d78	-4.94844e-05
82	0xbccc2e1c	-0.02492433
83	0x3cba7b03	0.022763735
84	0xbcce7c49	-0.025205748
85	0x3e81ab5a	0.25326043
86	0xbdc54e1a	-0.09634037
87	0x3c621e86	0.013801223
88	0x3eaff169	0.3436387
89	0x3da9f994	0.082995564
90	0xbdcb5796	-0.09928815
91	0xbc990300	-0.018678188
92	0x3dad201a	0.084533885
93	0xbd816aa6	-0.0631917
94	0xbc57d579	-0.013173454
95	0x3e57936a	0.21052328
96	0x3ca70964	0.02039022
97	0xbc79b797	-0.015241525
98	0xbcc51638	-0.024058446
99	0x3e8a7267	0.27040407
100	0x3d3995e7	0.045308974
101	0xbccb9d95	-0.024855414
102	0xbc0f39fe	-0.008741854
103	0xbdad7a36	-0.084705755
104	0xbcee8b99	-0.0291193
105	0x3ea1c157	0.3159282
106	0x3d93b0f5	0.07211486
107	0x3c19ab5c	0.009379234
108	0xbd20733c	-0.039172396
109	0x3ceee13a	0.02916013
110	0xbd9565ed	-0.072948314
111	0x3e24f897	0.16110454
112	0xbcb40d19	-0.021978902
113	0x3c189012	0.009311693
114	0xbc14c158	-0.0090793
115	0x3e0b875e	0.13625857
116	0xbc2a2d4d	-0.010386777
117	0x3f1d3e3b	0.6142308
118	0x3d0f6a90	0.035013735
119	0xbd2e5400	-0.042560577
120	0x3cdfeba2	0.027334038
121	0x3e9df3de	0.30850118
122	0x3d150910	0.036385596
123	0x3d9bdb86	0.0761023
124	0x3e1aa0d4	0.15100414
125	0xbcc9d437	-0.024637325
126	0x3d7984c3	0.060917627
127	0x3da019e6	0.0781744
128	0x3c3f85b5	0.011689593
129	0xbd31be00	-0.04339409
130	0x3df9156e	0.121622905
131	0x3e77b7b3	0.2419117
132	0x3de4893a	0.111589864
133	0x3d656ae7	0.056010153
134	0x3dd10101	0.102052696
135	0xbd45b792	-0.04827077
136	0x3e3e5c91	0.18589999
137	0xbdc2517b	-0.094881974
138	0x3c2fb740	0.010724843
139	0x3d7ce911	0.061745707
140	0x3bb43414	0.0054993723
141	0x3db453fa	0.0880508
142	0xbd9ebf55	-0.077513374
143	0x3da01d25	0.07818059
144	0x3e5ed38d	0.21760388
145	0x3cb8aa3b	0.02254211
146	0xbcd146b8	-0.025546417
147	0xbd8a97fc	-0.0676727
148	0x3cf08c23	0.029363697
149	0xbd210cc9	-0.039318834
150	0x3c9f364f	0.019435076
151	0xbd9840c4	-0.07434228
152	0x3f0ae6a5	0.54258186
153	0x3e043493	0.1291068
154	0x3d3b454f	0.045720395
155	0xbd3a4f48	-0.045485765
156	0x3f2fc8a0	0.68665504
157	0x3cef917f	0.029244183
158	0xbce3e1cb	-0.027817627
159	0xbd090ffc	-0.03346251
160	0xbce7d61e	-0.028300341
161	0x3e741b93	0.23838644
162	0x3dcde938	0.100542486
163	0x3d8d3401	0.068946846
164	0xbdb1d7a6	-0.0868371
165	0x3d0a42b8	0.033755034
166	0xbded9890	-0.116013646
167	0x3ceb5d21	0.02873093
168	0x3d161dfe	0.036649697
169	0x3d03b48f	0.032154616
170	0xbd8888c3	-0.0666671
171	0xbd55acec	-0.052166864
172	0xbdd132de	-0.1021478
173	0x3d878686	0.06617455
174	0x3becd668	0.0072277077
175	0x3dc37ed7	0.09545677
176	0x3de0fb3b	0.109854184
177	0x3e0e267f	0.13881873
178	0x3d9531ca	0.07284887
179	0x3c8b0cf1	0.016973944
180	0x3c8bb82a	0.01705559
181	0x3da387cc	0.079848856
182	0xbddc2539	-0.10749287
183	0x3ce2b22e	0.027672853
184	0x3df0fef1	0.11767376
185	0x3e1c965a	0.1529173
186	0x3cee89d0	0.029118448
187	0x3dd5755b	0.104227744
188	0xbd45261b	-0.048132043
189	0x3c1bbe41	0.009505809
190	0x3dd4ae73	0.10384836
191	0xbae77d2f	-0.0017661209
192	0xbd6f0018	-0.0583497
193	0xbdb0d1c8	-0.086337626
194	0x3d777615	0.060415346
195	0xbdf8c8a8	-0.12147647
196	0x3dc486fe	0.0959606
197	0xbcdd01d1	-0.026978405
198	0x3d0f8e9c	0.035048112
199	0x3e959302	0.2921372
200	0x3c0e8895	0.008699556
201	0x3e906dc3	0.28208742
202	0x3dd5e0c8	0.10443264
203	0xbd8db170	-0.06918609
204	0x3e3f947d	0.18708988
205	0x3af2f85a	0.0018537149
206	0x3d974b87	0.073874526
207	0x3ccc8300	0.02496481
208	0xbb277d1a	-0.0025556744
209	0xbd0babd3	-0.03409941
210	0xbdb865a9	-0.09003765
211	0xbccad23d	-0.024758453
212	0xbb88368c	-0.004156893
213	0x3dc9756c	0.098368496
214	0xbd8d2464	-0.068917066
215	0xbd0e86a6	-0.03479638
216	0x3ebfef59	0.37487295
217	0x3cad455b	0.021151235
218	0x3d8ade79	0.067807145
219	0x3b0cc969	0.0021482354
220	0x3d96aa8e	0.073567495
221	0x3ca6263b	0.020281902
222	0x3a8c6109	0.0010710071
223	0x3d5309af	0.051522907
224	0x3dfea740	0.12434244
225	0xbe05ce17	-0.13066898
226	0x3ba12e89	0.0049188775
227	0x3d9bf3a7	0.07614832
228	0x3bed64cf	0.0072446833
229	0xbd844fbd	-0.06460521
230	0x3e28b5ea	0.16475645
231	0x3d6a4bbe	0.05720114
232	0x3e030e84	0.12798506
233	0x3eb3211a	0.34986192
234	0x3d9f4048	0.077759326
235	0xbbc509ec	-0.0060131457
236	0x3bf1a1c1	0.007374019
237	0x3dc956e6	0.09831028
238	0x3cddf023	0.027092045
239	0xbbcfa10a	-0.006336336
240	0x3c14d238	0.009083323
241	0xbd623c95	-0.055233557
242	0xbc94a1bc	-0.018143527
243	0x3c4000c2	0.011718931
244	0xbdabc3e5	-0.08386973
245	0x3f010168	0.5039277
246	0xbd0ea3ba	-0.03482411
247	0x3dcb08f1	0.09913815
248	0x3d4afaf5	0.049555738
249	0xbd458d9d	-0.048230756
250	0x3c7290bc	0.014805015
251	0x3d82c4f0	0.06385219
252	0xbd301be2	-0.04299534
253	0x3dae7416	0.085182354
254	0x3ce5e45c	0.028062992
255	0x3de8603e	0.11346482

action_model._continuous_distribution.log_sigma.bias f4 [2]
0	0xbf0c45fb	-0.5479428
1	0xbf20303e	-0.6257361

onnx::Div_66 f4 [20]
0	0x3e2bd93d	0.16782089
1	0x3e8cefca	0.27526695
2	0x3d641ad8	0.055689663
3	0x3de2caee	0.11073862
4	0x3e12d283	0.14338116
5	0x3ecd5e3a	0.40110952
6	0x3d9923db	0.07477542
7	0x3e1d21ba	0.15344897
8	0x3e0e6510	0.1390574
9	0x3eea1129	0.45716217
10	0x3da55516	0.080728695
11	0x3e14630c	0.14490908
12	0x3dff3ab2	0.12462367
13	0x3efa8d9e	0.4893617
14	0x3df23454	0.11826387
15	0x3e3f8023	0.18701224
16	0x3debe9b8	0.11519188
17	0x3efdc2e0	0.4956274
18	0x3e096f75	0.13421424
19	0x3e53d766	0.20687637

onnx::Div_69 f4 [12]
0	0x3d61f788	0.055167705
1	0x3e6d6eb0	0.23186755
2	0x3c57dd0b	0.013175259
3	0x3cd44961	0.025913896
4	0x3d509f39	0.050933097
5	0x3e6d12eb	0.23151748
6	0x3c598d22	0.013278278
7	0x3cd4db14	0.02598337
8	0x3d71ae3e	0.05900406
9	0x3e6eefa8	0.23333609
10	0x3c58fd91	0.013244049
11	0x3cd495fc	0.025950424

onnx::Div_72 f4 [3]
0	0x3f3a4f48	0.72777224
1	0x3ccba35e	0.024858173
2	0x3f670e3f	0.9025611
