Experimentos/results/sac7/KartAgent/KartAgent-1199939.onnx (onnx, 93578 bytes, 14 tensors)

network_body.observation_encoder.processors.0.normalizer.running_mean f4 [20]
00000000: 7fa5 e33c 4af2 9e3d c523 403b 21f0 953d
00000010: 91fe a03c 0304 483e 8081 b43b 1193 073e
00000020: 2bac 983c 087d 983e d88b c53b 9359 f93d
00000030: 1929 703c 4d32 1e3f 45a0 8d3c 3ca4 a13e
00000040: 1fd9 4d3c bdf6 163f 5054 8a3c aa27 843e
0.027788876 0.07761057 0.0029318195 0.073211916 0.019652637 0.1953278 0.0055086017 0.13239695
0.018636784 0.2978289 0.0060286336 0.12175288 0.014658236 0.617955 0.017288337 0.31570613
0.012563973 0.5897024 0.016885906 0.2581151

network_body.observation_encoder.processors.1.normalizer.running_mean f4 [12]
00000000: 6d74 373b 19e4 593d 6d08 2639 b4fb 123c
00000010: d04f 1c3b 1c37 593d 8aa7 2839 8be6 133c
00000020: b4e3 513b 41c8 5c3d bfc7 2739 15ac 123c
0.002799298 0.053196047 0.00015834133 0.0089711435 0.0023851283 0.053031072 0.00016084142 0.009027134
0.003202659 0.053901915 0.00016000772 0.00895216

network_body.observation_encoder.processors.2.normalizer.running_mean f4 [3]
00000000: dbbc 30bd fefb 183d ad09 ee3e
-0.043148857 0.037349693 0.46491757

network_body._body_endoder.seq_layers.0.weight f4 [128, 35]
00000000: cb68 8ebd 0805 e3bd 7c88 08bf fe77 aebc
00000010: 5862 0a3d e11b 373e a98f 9fbe d8c4 ae3e
00000020: cc62 6fbe 325d 073d 9ce1 763e f7e8 b4be
00000030: 3b08 213e 1e72 433d 713c 2d3d 5ce3 9d3e
00000040: 2520 8bbe 933f abbd edd9 b73d 8b0e b8bc
00000050: b4ac 95bd 6aba b63d 873a 2e3e 9efc 5a3e
00000060: 94b5 1cbe 516c d13d e39a 9bbe ef15 8fbe
00000070: a0e0 cd3b 0fb3 0f3d 59d3 8fbe c739 8fbe
00000080: 3336 853f 9604 02bf 5c7a 403d 08c0 b63d
00000090: b19e 86be af30 8a3e a961 5cbd 638d 91bd
000000a0: 09c1 133e bd5a 97be 59da abbe c339 093e
000000b0: 9b66 e8bd 6d82 983e fe16 2e3e bcd0 63bd
000000c0: f8a0 6b3d 7310 4d3e ea4b d03e 27d3 4b3c
000000d0: 79e0 8cbe 2f73 d7bd 1266 09bd f8ef 83be
000000e0: 8801 74be 7274 6abd 8701 dbbd 850e 01bd
000000f0: b8f0 3c3d 921c 8fbe 4275 183c 0e41 153e
00000100: dcc2 303e d332 84be f22c 443e 50aa dd3d
00000110: 159e 353f c0e3 5cbf 8fb1 dfbc b543 4c3d
00000120: 526b 603e 518f 1abe f1e0 1d3e 12ea fdbe
00000130: 7d73 fd3d 29b7 b7be 1481 8f3d 30e6 df3c
00000140: eb5f 153e 7fe7 9cbe 86b5 77bc 3445 2abd
00000150: a0cf 1b3d 1988 b53d 02c1 b43d f04f be3d
00000160: d606 e6be 2b0f 80be 373d 133d 8ed2 d0ba
00000170: 7ca1 d63d 8ae3 c1be 7edc a1bb 2abf d3bc
00000180: 765a 22be 5c65 5c3d 9884 2e3d e6db d93c
00000190: 0a80 f13e 0907 ddbd 6fc1 2b3f 476e b1be
000001a0: ef2a 2cbe 8e22 ed3a e631 ffbd f40a d8be
000001b0: 92c1 8cbc 6c6f 6ebe 0377 efbe 53d5 b93d
000001c0: c23c 193e d3ee 1d3e 5ebd ff3c 162f 54bc
000001d0: 6fc2 64be 53b7 22bd a913 013d c4e1 3cbd
000001e0: 31d2 4e3e 3a8d c5bc 1112 5ebe f3a3 913b
000001f0: 0f1b 4e3e e016 f73e 4b1f 983d 7152 09be
00000200: 844c 00bf 6a42 a7be fb36 823b fdb1 6cbe
00000210: c5c3 183e 7c35 8c3e 3050 b9bd 1cc8 50be
00000220: 5474 a0be 0520 203e 5322 053e cfaa d0be
00000230: 3316 273d b7be 31be 6670 a6be 5590 8dbe
00000240: 3dbb 183e d024 323d fd0f a23d 592b 963e
00000250: ba91 273e a442 cc3c 8e05 35bd fbed b03d
00000260: 2a7e c83d 4231 96be ef57 31be 5728 163e
00000270: 2724 953e e3ea 253e e219 b33e 69c3 3f3e
00000280: a64d 99be 2dfb 333e c103 99bd a23e 16be
00000290: 0259 31be 4fc0 f63d 65c6 203e ef19 353e
000002a0: 2783 98be 8fcd ea3d d9d3 c3bd 2f6b 41be
000002b0: d4ef 953e 32e8 5abf 6dff 493f 286a 1d3e
000002c0: 00ef 2b3e 3f96 86be 677c a6bc 71e4 ff3b
000002d0: a766 21be 268a 7f3e cc66 aa3d d4b4 c73d
000002e0: bf20 033e b470 a33e c3e0 e33d 4290 b0be
000002f0: 28db 2abc f322 44be 3c2a 5d3d 2641 55bc
00000300: d974 c5bc 45ca b1be a74d 413e c559 0fbe
00000310: f402 193d cbd3 61be 4527 35be 981a 8ebe
00000320: 9929 8dbd b881 253c 8755 8c3e 6795 a4be
00000330: a421 233d f151 68be 5fde 0a3e 67d2 493f
00000340: c605 053f 81b6 32bf fdb4 2cbb 1052 f33b
00000350: 73f5 1b3d 609e 51bd 561b e93d 7912 743e
00000360: 23a4 7cbd 9a81 633e 5711 1ebd 6364 c8bd
00000370: c22d 663e 56af f3be c44e 943d 7592 333d
00000380: 8297 2b3e b8f6 343e 0af9 3ebe 15a4 0a3e
00000390: 91bd b53e 9d9b adbe 2f7b b0bb 31f5 5f3e
000003a0: 5ad6 a63d 068a 78bd a9a6 763e 4f0c dabd
000003b0: 0f33 cfbd 455a 0fbe d8e1 3abe d724 bcbc
000003c0: fa96 77be b431 853e 39cd 69be 8e6b 04bf
000003d0: fdfd 513e be83 ac3d df6c 51bf 7a01 48be
000003e0: 1998 423e e4af 10bc 7a56 a23d a1c5 bf3a
000003f0: 7518 0b3f 7ebe 073d d616 2a3d 995c d63c
-0.069535814 -0.11084944 -0.5333326 -0.021297451 0.033785194 0.17881729 -0.31164292 0.34134555
-0.23377532 0.033047862 0.241095 -0.35333988 0.15725796 0.047716253 0.04229397 0.30837524
-0.27172962 -0.08361735 0.08977113 -0.022467872 -0.07308331 0.089222744 0.17014514 0.21385428
-0.15303642 0.10225738 -0.30391607 -0.27946422 0.006282881 0.035082873 -0.28090933 -0.27973768
1.0407165 -0.5078825 0.04699169 0.08923346 -0.26292947 0.26990268 -0.053804073 -0.071070455
0.14429106 -0.29561415 -0.33565024 0.1340094 -0.113476954 0.29787007 0.17000958 -0.055618986
0.05752656 0.20025806 0.40682918 0.012440479 -0.2751501 -0.105200164 -0.033544607 -0.2576902
-0.23828709 -0.057239957 -0.10693651 -0.031507988 0.046128005 -0.27951485 0.0093053 0.14575598
0.17261833 -0.25820026 0.1915777 0.108235 0.7094434 -0.8628502 -0.027306346 0.049869258
0.2191594 -0.15093733 0.1541784 -0.49592644 0.12375543 -0.35881928 0.070070416 0.027331442
0.14587371 -0.30645368 -0.015118962 -0.041569903 0.038039804 0.08863849 0.08825876 0.092925906
-0.4492709 -0.25011572 0.03594705 -0.0015931891 0.104800195 -0.3786891 -0.004939615 -0.02584799
-0.1585482 0.0538076 0.04260692 0.026594114 0.47168 -0.107923575 0.6709203 -0.34654447
-0.16813253 0.0018091963 -0.12460689 -0.42195857 -0.017182145 -0.23284692 -0.46770486 0.090738915
0.14964584 0.15423135 0.031218227 -0.012950679 -0.22339796 -0.039725613 0.03151289 -0.046113744
0.20197369 -0.024115194 -0.2168658 0.004444593 0.2012751 0.4825964 0.07427844 -0.13410355
-0.50116754 -0.32667857 0.0039738393 -0.23114772 0.1491843 0.27384555 -0.09048498 -0.20388836
-0.3133875 0.15637214 0.13001375 -0.40755317 0.040792655 -0.17357908 -0.32507628 -0.2764918
0.14915176 0.04349214 0.07913206 0.29329947 0.16364184 0.02493412 -0.04419475 0.08639141
0.09789689 -0.29334456 -0.173187 0.14663826 0.29129145 0.16202883 0.34980685 0.18726887
-0.29942054 0.17576285 -0.07471419 -0.1467233 -0.1731911 0.12048399 0.15700682 0.17685674
-0.2978756 0.114649884 -0.09561891 -0.18888544 0.29284537 -0.8551055 0.78905374 0.15372527
0.1679039 -0.26286504 -0.020322992 0.0078092148 -0.15761815 0.24955043 0.08320388 0.09751287
0.1280546 0.31921923 0.11126854 -0.3448506 -0.0104282275 -0.19153957 0.053995356 -0.013016021
-0.024103569 -0.34724632 0.18877278 -0.13999088 0.037356332 -0.22053449 -0.17690761 -0.27754664
-0.068927 0.010101728 0.27409002 -0.32145235 0.039827004 -0.22687508 0.1356139 0.78836673
0.51961935 -0.6980973 -0.0026352995 0.007425554 0.038075875 -0.05117643 0.11382167 0.23835172
-0.06167997 0.22217408 -0.038590755 -0.09784772 0.22478393 -0.47594708 0.07241586 0.043840844
0.16757014 0.1767224 -0.18649688 0.13539155 0.3549619 -0.33907786 -0.0053857784 0.21870877
0.08146353 -0.060678504 0.24087013 -0.10646879 -0.101171605 -0.13999279 -0.18250215 -0.022966785
-0.24178687 0.26014483 -0.22832192 -0.51726615 0.20507045 0.08423565 -0.8180675 -0.19531813
0.19003333 -0.008830998 0.0792665 0.0014631042 0.54334193 0.033140652 0.041525684 0.0261672

network_body._body_endoder.seq_layers.0.bias f4 [128]
00000000: f7ab 953e 9353 15bd fd0c cdbd aa86 6dbd
00000010: a452 3a3e c1b5 6d3e b5a6 9e3d 285f 0d3e
00000020: 688f 50bc bb9f 0fbe 0283 be3b 049c 573e
00000030: f3e2 663d e30b 44be f85e 773d a46f d7bc
00000040: 6da6 f83d 442e 003e 306a 693e 15e3 cb3d
00000050: 8131 10be 275f 723e 6e2c cb3d 4c78 5d3d
00000060: 02e2 9bbd 8d5d 73bd 7c18 89bd ae5f c8bd
00000070: 15fc eb3d 00d7 f3bc 2a4a 9bbd e71f 813d
00000080: 1c90 703e 8bd6 12be 96a4 6fbe b756 693e
00000090: 6282 a13e b8c7 63bc 476e a13e edd4 aabd
000000a0: 1870 aabd abf3 3fbe 36e0 8d3e fc92 56bd
000000b0: 0620 d2bd 0645 cc3d ed7a cd3d 84b0 be3d
000000c0: baf8 803e caab 033e 0e07 35bd e03a 933e
000000d0: 994b 6f3c 5a92 1b3e 6d0e b0bd c716 2a3e
000000e0: 527f 2abe 7884 293e 9a9d d53c 5782 a83a
000000f0: 51f1 81bc e052 40be a0f8 7e3e 7cf4 963d
00000100: ed7e 57be f360 2c3e e6e9 7f3e 9ee7 cf3e
00000110: fb10 bb3d 2b25 b33e 4f50 413e 9406 23be
00000120: b6a0 f9bd b9a2 063e a670 dd3e fb14 1a3e
00000130: 927a 343e c99b 40be bf8f 14be ba12 6c3e
00000140: c9a2 4c3e bf84 673e 1290 873d 4e6c b03d
00000150: 4bda 783e 4f34 38bd ff9b 13bd 9130 513e
00000160: d264 303d ef3d 953d 6b01 24be bbe9 c23d
00000170: 985e 9f3d 8423 0b3e 5e62 853e 9fb5 3c3d
00000180: 719a e83d 8a9e 913e d7c4 9f3b b2a2 6ebd
00000190: b5cb 1a3d 61a4 c53d f723 c43d edfe 963c
000001a0: 264b 373e 0d2b c83e 2c78 fcbc adfd 4bbe
000001b0: c72a f93d 0eb4 3d3d 4e7c 7bbc 42f4 073d
000001c0: 367e ad3d 6f93 f4bc b01b 263e 1e77 683d
000001d0: 3fd5 9f3e b3e1 bcbd 9578 943e 2443 853e
000001e0: 13aa 3c3e ecd8 993e c26c a23d ce39 7cbd
000001f0: 9621 693c b8cc 9b3e 649e b13e c195 2b3e
0.2923276 -0.036456656 -0.10012243 -0.057989754 0.18195587 0.23213865 0.077466406 0.1380583
-0.012729503 -0.14025776 0.005813957 0.21055609 0.05636878 -0.1914516 0.060393304 -0.026298352
0.12141118 0.12517649 0.22794414 0.09955422 -0.14081384 0.2366911 0.09920584 0.054069802
-0.07611467 -0.05941539 -0.06694123 -0.097838745 0.1152269 -0.029765606 -0.07582505 0.06304913
0.23492473 -0.14339654 -0.23402628 0.22786985 0.31544787 -0.013902597 0.31529447 -0.083413936
-0.083221614 -0.18745296 0.27710122 -0.05238627 -0.10260014 0.09974103 0.10033212 0.093110114
0.25189763 0.12858501 -0.04419618 0.28755856 0.014605426 0.15192547 -0.085965015 0.16610251
-0.16650131 0.16554439 0.026076127 0.0012856227 -0.015862139 -0.18781614 0.2489953 0.073708504
-0.21044512 0.16833858 0.24991569 0.40606397 0.09134098 0.34989294 0.18878292 -0.15920478
-0.12188856 0.13148011 0.43250006 0.15047066 0.17624882 -0.18809427 -0.1450796 0.23054019
0.19983973 0.22609232 0.06619276 0.086144075 0.24302022 -0.04497176 -0.03603744 0.20428683
0.0430649 0.072872035 -0.16016166 0.09517237 0.07781714 0.13587767 0.2605161 0.046071645
0.11357582 0.28441268 0.00487576 -0.058260627 0.037791926 0.096504934 0.09577172 0.018432105
0.1789976 0.39095345 -0.030819021 -0.19920988 0.12166362 0.04631429 -0.015349461 0.033191927
0.084713385 -0.029855458 0.162215 0.056754224 0.3121738 -0.09222736 0.28998247 0.26027787
0.18424253 0.3004831 0.079309 -0.061578564 0.014229199 0.30429626 0.34691155 0.16756345

network_body._body_endoder.seq_layers.2.weight f4 [128, 128]
00000000: 89d6 bf3c 16f5 3b3d 8345 68bd 796f d33d
00000010: e093 433e 32ce e73c ec17 f53d 4679 b03e
00000020: f884 f73d 3ab7 f13d bed9 3fbe 579e fabd
00000030: 3295 00be 1b7e 2a3e 8b1d 933d 1cfc 89be
00000040: 4dc7 20be 0136 1a3d e248 b3bb 895f 813d
00000050: 48e9 4e3e 0eb2 803d fabb 09bc e961 993d
00000060: 37cc f6bd 5855 313d 1513 9f3d d6db 19be
00000070: 3e37 9b3d 53fc 423e 569e 823e 9624 9ebc
00000080: 08bf 71bd 7fe5 cf3d b30a 62bd 609c 123d
00000090: 34aa 0e3d 96d1 35bd 89e3 9dbd ab68 113e
000000a0: 6d8e 0f3d 266c a9bc c2c0 2b3e c3f9 7a3e
000000b0: cea8 d0bd a7aa f7bd 233e 8ebd 7d60 78be
000000c0: c911 3ebd b2f7 babd 7cbf 94bd 7362 28be
000000d0: 1656 6d3e 70d1 81be 725a 903d 39ad e7bd
000000e0: 04e5 303e 7c60 c3bc 8acb 99bd 6f0c 9cbe
000000f0: e6ae 503e 5c4c 633d 8379 2d3e 27ca d7bd
00000100: b2a1 593e bd93 f33d 596d ed3b 1a3f 403d
00000110: 4d9c 3e3d 40f8 0ebe 2ddd 523e 9640 f73c
00000120: abf4 f0bd 0f2b 923d db69 00be dfe4 adbe
00000130: 8323 03be d89d bebd c8e6 35bd cc30 81be
00000140: aad4 27be 9216 9bbd 998c 183e 5c20 723d
00000150: 42fe a0bd f043 6b3d 6b30 2dbd e93b 30bd
00000160: bb29 143c 0320 2cbe 53f2 a63d 9290 89be
00000170: 9f76 babe 7fc9 833e f5e3 403e 1f56 88be
00000180: 046d b1bd fe19 883d dfa8 c0be 2138 c33d
00000190: 3913 03be 0a49 10be 48c5 a3be ac9c 0d3d
000001a0: 8989 18be 80cf d73d 12df 803d a9af b2bd
000001b0: bd28 083c f767 d2bd ef94 e63d aee6 8d3d
000001c0: 3099 f13c 9ea3 823d 1227 de3d 066b 7e3e
000001d0: ff6c 4fbd ca9b c8bd 0f2b 433e 34d1 81be
000001e0: 5098 593d 87ae c63d fc3b 38be 2103 31be
000001f0: 50ba 073e 33be f03d c954 023e 5830 5cbd
00000200: 3ad5 5dbd 9061 833e 3663 b53d 198a 613c
00000210: 8e3e 76be a2de 0b3d dd26 bbbd 0bd2 aebe
00000220: 7ccf fe3c 5b67 d23c 5f96 883d 5b8a 7a3d
00000230: e99c 6fbc 2668 adbd 1f0a d7bd 017b c13e
00000240: 5704 db3d 945b 5abe 6735 1b3e 2139 acbc
00000250: ca9c 0abe f0bb 8f3e 7f97 7f3b f95c be3d
00000260: 2f0c 603d 5a81 313e c477 f3bd ecc0 b83d
00000270: 8253 f1bc 82fc bbbd 4466 383d a3d2 d83d
00000280: d17b 88bd c435 ea3d 8dec a2be 0896 eabd
00000290: 777e 5a3e 81c7 423e 5633 813d 7fdd dd3d
000002a0: d6fc afbc 93a7 c63d 6946 873d 8cb9 4cbd
000002b0: 5692 343e 454f b33c 53fa d23d 615f d23d
000002c0: 78fa 6abd d58b 8abe 224e 2d3d 63b4 d6bb
000002d0: 0088 0cbb 2bb7 adbe ee1e cd3d 3e95 80bd
000002e0: 1e65 01be 0531 b4be 0574 273d 8f70 7c3e
000002f0: 71bd abbe 2c02 433e c4b0 f83d ad81 583d
00000300: 078d 23be f8c0 11bc 617a b7bc 8952 0bbe
00000310: 1eeb 143e ffba b3be 3180 e4bd 3543 a4be
00000320: aea0 6d3d 63d2 46bd 83c1 a5be 791c 5d3e
00000330: cab1 d4bd e250 98bc b5b1 cfbd 783f 563e
00000340: a21e 7bbe c0f8 2b3e 7af6 cabd b75e 65be
00000350: 15be 5d3d 6806 b13d 5781 993d 9ec5 48be
00000360: f2bc 8cbe 901a 83bd cc1c b13c 25d8 61bd
00000370: 84fe 4dbe c933 053e db12 c33d d2ae 193d
00000380: 3f01 51bd 7f00 e63d 7683 41bd d846 2cbe
00000390: 3e0f 87be c232 ba3d 71e6 eabd 2688 753d
000003a0: c4f1 00be fd85 85bd 02ac 7d3e 6979 a6be
000003b0: 10ac 02be 0733 81be ff83 2fbd ddea e5be
000003c0: 00d9 393e 94c9 44bd 2a0b b7be abfa 44be
000003d0: 7a00 85be 4f15 c13d 9eb0 bbbd cee0 bb3c
000003e0: bd3e b7bd 2b5e e5bd 3fc3 0fbd d326 d4ba
000003f0: c7ea a83d 2a80 12be 1ec2 663e f4c2 e2bd
0.023417728 0.04588803 -0.056706917 0.10323996 0.19099379 0.028296564 0.11967453 0.34467524
0.12085909 0.11802526 -0.18735406 -0.12237232 -0.12556913 0.16649668 0.07183369 -0.26950157
-0.15701027 0.03764916 -0.005471335 0.0631705 0.20206177 0.06283961 -0.0084066335 0.07489378
-0.1205067 0.04329428 0.077673115 -0.15025267 0.07578896 0.19041567 0.25511426 -0.019304555
-0.059020072 0.10151195 -0.055185985 0.035793662 0.034830287 -0.04438933 -0.077094145 0.14200084
0.035047937 -0.020681452 0.1677275 0.24509339 -0.10188447 -0.12093096 -0.069454454 -0.24255557
-0.04640368 -0.091292754 -0.07263085 -0.16443805 0.2317737 -0.253551 0.07048501 -0.113123365
0.17274863 -0.023849718 -0.07509525 -0.30478236 0.20379218 0.055492744 0.16940884 -0.105366044
0.21253088 0.11893413 0.0072457013 0.04693518 0.04653578 -0.13961887 0.20592184 0.030182164
-0.11765417 0.07137119 -0.1254038 -0.33963677 -0.12806515 -0.0930745 -0.044409543 -0.25232542
-0.16389719 -0.07572664 0.14897384 0.05911289 -0.07860996 0.057437837 -0.042282503 -0.043025885
0.009043152 -0.16809087 0.081516884 -0.2686811 -0.36418626 0.25739667 0.18836959 -0.26628205
-0.08663371 0.066455826 -0.37628838 0.0953219 -0.12800302 -0.14090362 -0.3198645 0.034573242
-0.14896215 0.10537624 0.06292547 -0.08724911 0.008310494 -0.10273736 0.112588756 0.06928764
0.02949199 0.06378864 0.10847296 0.24845514 -0.050641056 -0.097953394 0.19059394 -0.25354922
0.053123772 0.09701257 -0.17991632 -0.1728635 0.13254666 0.117550276 0.12727655 -0.05375704
-0.054158427 0.25660372 0.088568136 0.013765835 -0.240473 0.034147866 -0.09138272 -0.34144625
0.031104796 0.02568405 0.06669306 0.061167102 -0.014624813 -0.0846713 -0.10499977 0.37789157
0.10694187 -0.21323997 0.1515709 -0.021023335 -0.13536373 0.28073072 0.003900021 0.09295077
0.05469912 0.173345 -0.11888078 0.09021172 -0.029458765 -0.091790214 0.045019403 0.10587051
-0.06664241 0.11436036 -0.318211 -0.114543974 0.21337305 0.19021417 0.0630862 0.10833263
-0.021482866 0.09699931 0.066052265 -0.04998164 0.17633948 0.021888385 0.10301652 0.10272098
-0.057367772 -0.27059808 0.04231084 -0.0065522655 -0.0021443367 -0.3392881 0.10015665 -0.06278466
-0.1263623 -0.3519365 0.04088213 0.24652313 -0.3354297 0.19043797 0.1214309 0.052858043
-0.15971766 -0.008896105 -0.022397222 -0.13605703 0.14542815 -0.35103604 -0.11157263 -0.32082525
0.058014564 -0.048540484 -0.323742 0.21592893 -0.10385473 -0.018593255 -0.10141317 0.20922649
-0.24523404 0.1679411 -0.09910293 -0.22399412 0.054136354 0.086438 0.07495373 -0.19606635
-0.27487904 -0.06401551 0.021620177 -0.055137772 -0.20116621 0.13008036 0.09525081 0.037520237
-0.05102658 0.11230563 -0.04724451 -0.168239 -0.26378816 0.090917125 -0.114697345 0.059944294
-0.12592226 -0.06519697 0.24772647 -0.32514504 -0.12760949 -0.25234243 -0.04285049 -0.4490575
0.18149185 -0.048043802 -0.35750705 -0.19236247 -0.25976926 0.094278924 -0.091645464 0.022934344
-0.08947513 -0.11199602 -0.03509831 -0.0016185887 0.08247905 -0.14306703 0.22534987 -0.110723406

network_body._body_endoder.seq_layers.2.bias f4 [128]
00000000: ab10 06bd bb0d bdbc 679a 013d 3531 e13c
00000010: 31c1 7bbd 648c d9ba e180 8abd 27e7 653d
00000020: 8c81 8cbe bd17 bdbe 9ea5 883b cbef 60be
00000030: 5443 d1bd b7be 10be da85 48bc bbae f23d
00000040: d409 dfbd 2760 29be bfe8 823d ffa5 54bd
00000050: 4edb 6dbd 4814 29be 6504 14be 9b18 99bc
00000060: eaae 32be 631b b23d 9258 1bbd d8b3 40bc
00000070: fb45 fdbd 8bb0 00be 224e ec3c 28a1 62be
00000080: 797b acbc c649 94bd 8a3b ccbd 8e0a 51be
00000090: ed15 2dbd 3bda 5abe 2934 eabd bc02 1fbb
000000a0: 7d3c 5fbd 789e 003e 240e f3bd 6698 193e
000000b0: 67cc b13d ccb9 d23c 3be6 223e 148c 23bc
000000c0: e069 3a3e b75f 4fbe 0ee9 5abe 745a cabd
000000d0: affe 7d3d 8188 bebd 90fe 58be def9 fcbd
000000e0: 3c51 073e deb8 b4bb e16b 9c3d 57b2 c5bd
000000f0: 154f 0c3e 8af9 10be 768a 8f3d 9067 ca3d
00000100: 6722 a73d 38b8 18be b330 b8bd aea6 2bbc
00000110: a7db 5cbc 10fc 5dbd ba12 103d 069c 4bbe
00000120: f3b1 d3bc 2929 21be cb73 0c3c 2dcc 1f3e
00000130: 6231 51be 671f b73d 182d 33be 0a98 c8bd
00000140: 3dd1 4dbe 1341 9dbd 2014 873d 0797 173d
00000150: b934 7dbc df89 bf3d df53 833d 4e37 383d
00000160: f7da 41be 8d68 3c3d d269 cbbd ea05 abbc
00000170: 2e3b a4bc e459 9fbc 4cea 51bd 3f71 24bd
00000180: 0436 4abd febc b43c 4828 f5bd a9b3 4cbe
00000190: bd38 3bbe c4b5 5ebe 702a 7e3d 010e 373d
000001a0: 03b2 7e3d ac61 3abe 4e54 4cbe 2277 e5bd
000001b0: 6e47 253e 3602 15be 7b77 a83c 5eab 02be
000001c0: 1775 4dbd 0177 b93d ce07 8bbe c8bc 81bd
000001d0: 1e0a 34bd f065 8fbe f657 c7bc e0d9 63bd
000001e0: 98c8 ea3c ce2f 27be 7fb6 2c3e 61e7 503c
000001f0: 9efd 9fbc a44f 59bd 434b 90be a56b 76bd
-0.03273074 -0.023077836 0.03164139 0.027489284 -0.06146354 -0.0016597626 -0.06762863 0.056128647
-0.27442586 -0.36932173 0.0041701337 -0.21966474 -0.1021792 -0.14135252 -0.012238944 0.118497334
-0.108905464 -0.16540585 0.06392049 -0.05191612 -0.058070473 -0.16511643 -0.14454801 -0.01868849
-0.17449537 0.0869663 -0.037926264 -0.011761628 -0.12366863 -0.12567346 0.02884585 -0.22131789
-0.02105497 -0.07240634 -0.09972294 -0.20414183 -0.04225724 -0.21372311 -0.1143573 -0.0024263104
-0.054501045 0.12560451 -0.118679315 0.14999542 0.08681565 0.02572336 0.15908138 -0.009982128
0.1820445 -0.20251356 -0.21377966 -0.09880534 0.062010463 -0.0930338 -0.21190858 -0.12352346
0.13214582 -0.005515202 0.07637764 -0.09653156 0.13702042 -0.14157692 0.07008831 0.09883034
0.081608586 -0.14914024 -0.08993664 -0.010476751 -0.013480104 -0.054195464 0.03517411 -0.19883737
-0.025841689 -0.15738358 0.008572529 0.1560523 -0.20428994 0.089415364 -0.1749767 -0.09794624
-0.2009935 -0.076784275 0.065956354 0.037009265 -0.015454465 0.09352469 0.064124815 0.044974618
-0.18931185 0.045998145 -0.09932293 -0.020876843 -0.02004775 -0.019452043 -0.051248834 -0.040147062
-0.04936792 0.022062775 -0.11970574 -0.1999041 -0.18283363 -0.21749026 0.06205219 0.04469109
0.062181484 -0.18201321 -0.19954035 -0.112043634 0.1614053 -0.14551625 0.020564785 -0.12760684
-0.050160494 0.09055901 -0.27154392 -0.06334835 -0.04395496 -0.2800746 -0.024333935 -0.055627704
0.028660104 -0.1632683 0.16866492 0.0127504775 -0.019530114 -0.053054467 -0.2818242 -0.06016125

action_model._continuous_distribution.mu.weight f4 [2, 128]
00000000: 9ada 7fbd a8da 823d 37b8 acbd 13e2 f3bd
00000010: 7f4e 4fbe 2a8a 1d3e 2e16 bc3e 6fa9 7a3e
00000020: 519a a1be 6787 babe d47e de3d b9c1 933e
00000030: 14dc 45bd 1a8a 213e 6ab6 9f3d 2bdc 263e
00000040: 9fb7 2cbd 66c9 41be 13c8 23be 33af 4f3d
00000050: 2fa4 8f3e 5a29 1cbe 9b92 123e 0825 97bd
00000060: d529 a53d 9c89 813e 590a 6fbe 7557 f23c
00000070: 1c43 d7bb 4e13 a33e 312e 2cbe e29d e8be
00000080: 301e 2b3e 6c2c 983e 7134 31bd e771 303e
00000090: dccc f9bd 503e 893d 5067 fabd 52ae 28be
000000a0: dc4e 17be 6408 83bd fc02 c43d 8999 3ebd
000000b0: ab48 bbbd b18f c63c e30c 4a3d 3d48 2dbe
000000c0: bf63 97be 0061 90be 084a 473e 0d1a 0fbe
000000d0: d04c 3f3d ecb7 4d3e 21b3 15be 43ae 693e
000000e0: 7bdf 29be a5df 5f3d 0535 193e b1df 8cbe
000000f0: 0ab3 ba3d ade3 24be accd b2bd 24ea 803d
00000100: a3a7 29be 3095 b83c c931 db3d 3f01 ddbc
00000110: b2aa 153e ae6e 043e db03 16be c50a a13e
00000120: 894f 423e b5fc 17bc 9865 3f3e 2af6 1dbe
00000130: 544b 543e 9281 173e 974c 65bb b33c 74be
00000140: 96fe 233e 1a78 583b d286 163e 59b7 08be
00000150: d225 4d3e 8921 4cbe 146d 7e3d 1b90 413e
00000160: 1b7f 973e e699 ae3e 9e88 7ebe 46c9 e0bd
00000170: da3b 2cbe 4742 8b3e 5164 b43d f0f3 7d3e
00000180: 1236 723c c53b 50bd 48ba 2bbe a507 333e
00000190: 9f24 913d 9d64 86bd 989b 5fbe f00e debd
000001a0: 1773 e33c 4c6f e93d c8f6 9dbe 806a 69bd
000001b0: 4fe8 993d eef1 c3bd e9ee bb3d 137f 4e3e
000001c0: 8d31 2bbd d285 db3d 567a e1bc 164e 983e
000001d0: e675 c0bb 50d8 983b 9c93 1dbe 7f26 09bd
000001e0: 921c b5ba ee10 95be 3131 1f3e 6fad 92bd
000001f0: 8a2c b73d adb2 02bd d759 a83e 06b1 c83e
00000200: 0f56 433d 929d 79bd 3dc1 9dbe b858 9f3e
00000210: 7980 5b3e b2ab 983e 0282 88bd 4a55 533d
00000220: 9f61 31be 24f1 c73d b72e d93d 285e 0bbd
00000230: 924e a73e 64fc 87bd 56f0 65bd bcec a1be
00000240: 4cc7 87be 9d6d 1ebe 2901 1d3d 6e1a bcbd
00000250: 88eb 13bc 5c37 ffbd 36b1 b83d 0cc5 f23c
00000260: 3bf1 b83d 267b 073d 7e0c 1c3e d98a c4bd
00000270: 7096 893e 61a5 8ebd aa62 dc3b 7c21 ad3d
00000280: 85dc 1a3e b970 bebe 5eaa 28be f1d1 243e
00000290: fbfe 3f3d 638c e5bd 43e7 be3e 93b4 6abd
000002a0: 54e1 363e fe7a 62be 2175 1cbe f0e4 40bd
000002b0: af8e 343e 16d7 f93d 4443 1abd 4d06 843e
000002c0: d84a acbd c8c1 83be 5b9c 9fbd 96cc 5fbe
000002d0: e87e fc3d 0e67 913e 5f95 9d3e ae4f f4bb
000002e0: e94c 80be 4322 12be 926f 8a3e f666 26bd
000002f0: 296f 78be b318 81bd 7e84 1dbe bc76 d43d
00000300: 195d bf3c 9cd4 5a3e 08cb 9abd ed5b 3fbd
00000310: d4ab 19bd 0dce d6bd d2a8 9bbc 6851 06be
00000320: fc83 4b3d bf6b 5abe bc9e f93c 427d 0e3d
00000330: d8a8 7a3e bdb1 4fbd 1299 923d f7ea 0cbd
00000340: 31d8 4e3d 6a50 343e f65e b43e ed31 22bd
00000350: 8488 bc3d b214 ddbd 6113 c6bd 2c9b 673e
00000360: 4257 0e3e a96a 5b3d b41b 57bd 3f7f 0bbc
00000370: 4dfb 013d 5b95 0d3d a980 c5bc ff25 1f3d
00000380: a94c 90be c94e 2b3c 7cfc 033d 4e69 44bd
00000390: 5f1d 5c3e 68d2 13be e1ce a23d ab64 23be
000003a0: 4f5e b13d e2f3 97be c716 0e39 2e30 dd3d
000003b0: f8cf 2e3e 436f a0be 2e3a 3bbe b99a 15bc
000003c0: 4dcf adbd 6884 1a3d a4e2 63be 9b1a 3abd
000003d0: 5c1b 2fbe 313b 7abd 4fa6 453e dd4e 0a3e
000003e0: bbfa f8bd 9a26 d3bd 2395 38be bcbf ae3e
000003f0: 7d59 663e 2ebc 113e 8da1 a3bc 1834 2e3d
-0.062464334 0.063893616 -0.08433574 -0.119083546 -0.20244788 0.15384737 0.36735672 0.24478696
-0.31563047 -0.3643143 0.10864034 0.28858736 -0.048305586 0.15775338 0.077984646 0.16294925
-0.042167302 -0.18924484 -0.15994291 0.050704192 0.2805495 -0.1525015 0.14313738 -0.0738011
0.080646195 0.253003 -0.23343791 0.029582718 -0.0065692794 0.31850666 -0.16814496 -0.45432955
0.16710734 0.2972139 -0.043262903 0.1723095 -0.12197277 0.06701338 -0.122267365 -0.16472748
-0.14776176 -0.06398085 0.09570882 -0.04653314 -0.0914472 0.02423844 0.049328696 -0.16922088
-0.29568288 -0.28199005 0.19461834 -0.13974781 0.046704113 0.20089692 -0.14619114 0.22820382
-0.16589157 0.054656643 0.14961632 -0.27514413 0.0911618 -0.16102476 -0.08730635 0.06294659
-0.16567855 0.022532076 0.10702855 -0.026978133 0.14615896 0.12932846 -0.14649908 0.3145353
0.18975653 -0.009276559 0.18691099 -0.15425935 0.2073186 0.14795521 -0.0034988278 -0.2385128
0.16015086 0.003303057 0.14699867 -0.13351192 0.20033959 -0.19934668 0.062115744 0.18902628
0.2958916 0.3410179 -0.24856803 -0.1097589 -0.16819707 0.27199003 0.08808196 0.24800086
0.014783399 -0.05083825 -0.1677028 0.17483385 0.07087063 -0.06562159 -0.21836698 -0.10842693
0.02776484 0.11398181 -0.30852342 -0.056986332 0.075150125 -0.09567629 0.09176428 0.20165662
-0.041795302 0.107188836 -0.027524155 0.29747075 -0.0058734296 0.0046644583 -0.1538834 -0.03348398
-0.0013817719 -0.2911448 0.15546109 -0.07161986 0.08944042 -0.03190868 0.32881042 0.39197558
0.047689494 -0.060941286 -0.30811492 0.31122375 0.21435727 0.29818493 -0.06665422 0.05159501
-0.17322396 0.09762791 0.10604613 -0.03402534 0.32677132 -0.066399366 -0.056137405 -0.31625926
-0.2651924 -0.15471502 0.038331185 -0.091847286 -0.009028323 -0.12461731 0.09018175 0.029634975
0.09030386 0.033076428 0.1523914 -0.095967956 0.26872587 -0.06965137 0.006725629 0.08453652
0.15123184 -0.37195376 -0.1647124 0.16095711 0.046874028 -0.11208417 0.37285814 -0.057301115
0.17859393 -0.2211723 -0.15279056 -0.04709333 0.17632554 0.121992275 -0.037661806 0.25786057
-0.08412713 -0.2573378 -0.07793494 -0.21855387 0.12328893 0.28398937 0.30778024 -0.0074557876
-0.25058678 -0.14270882 0.27038246 -0.040625535 -0.24261154 -0.06303539 -0.15382573 0.10374209
0.023359822 0.21370167 -0.075582564 -0.046718527 -0.037517384 -0.1048852 -0.019001398 -0.13116992
0.049686417 -0.21330164 0.030471198 0.034787424 0.24478471 -0.050706614 0.07158102 -0.034403767
0.050499145 0.176088 0.352287 -0.039598394 0.09205726 -0.10794963 -0.09671665 0.22617787
0.13900474 0.053568516 -0.052516654 -0.008514225 0.0317338 0.034566265 -0.024109202 0.038854595
-0.28183487 0.010455796 0.03222321 -0.04795199 0.21495579 -0.14435732 0.07949615 -0.1595637
0.08660566 -0.29678255 0.0001355066 0.10800205 0.17071521 -0.31334886 -0.18283913 -0.009131127
-0.08486805 0.03772393 -0.22254425 -0.04543553 -0.1710028 -0.061091606 0.19301723 0.13506646
-0.12157198 -0.10310097 -0.18025641 0.34130657 0.22495075 0.14231941 -0.019974494 0.04253015

action_model._continuous_distribution.mu.bias f4 [2]
00000000: 820d da3c 706a 923c
0.02661777 0.017873019

action_model._continuous_distribution.log_sigma.weight f4 [2, 128]
00000000: b001 95bd 96de 1e3d 69e9 99bd d056 833d
00000010: 104f 33bd 2bda aa3c 0081 833e 5471 d3ba
00000020: 19ea 1ebd c844 a1bd 87f2 3fbd 0c69 0e3d
00000030: e91e c73b 887e d43c 6aca adbb e221 983d
00000040: bc1b 36bd df4c 5cbd 4563 9b3b 2391 253d
00000050: 7908 9dbd 78c0 dfbc 1748 303d 5723 5e3d
00000060: 04e6 153f b850 913d 2fdd 9d3c ced8 85bd
00000070: a218 e03e 3e5f 453e 5056 60bd b87d 28bd
00000080: b324 c63d e373 053e 4bf3 0dbd b4ef b7bc
00000090: 6c66 0abe cc55 80bb 967c 6bbc 9642 dc3d
000000a0: e2ac 9fbb 58fe 243d 92e3 a83d 219e ccbd
000000b0: c434 c83b a306 e33d 2d01 02be b835 383d
000000c0: e466 5e3e 4ec1 073e 5745 f03d 2413 0e3d
000000d0: a679 28bd ca19 b43d 57a7 57bd 5b07 76bd
000000e0: dbcd bf3d 2ebc 0e3d 0955 4e3e 1dd6 e93e
000000f0: fa46 e3bd 42ca 5d3d fca9 633d ca30 b1bc
00000100: 3220 db3d 1509 093d 7c47 063d b093 663d
00000110: ef23 733d c2fa 5a3c 6bd4 9f3c 44d9 853e
00000120: d4f2 3b3d cc62 993d 25da 9c3d 5924 d93d
00000130: 51dc 113e 0540 ab3d a1c8 b0ba 9724 243d
00000140: 16d7 0b3e 725e 623c e582 37bc 1e7d 143d
00000150: ea26 1cbb 7a73 833e 5eda dfbd 22de c4bc
00000160: 81c5 be3e 4010 343d 8bfa b4bd f636 bebb
00000170: a1cb fe3d 6d31 25bd 3bca 27bd 26bf 203e
00000180: 0ac9 31bc c287 39bd 79f5 2dbd 0658 453e
00000190: 7c18 c53c 218d d0bc 512e 01bc a2e5 66bd
000001a0: 5572 b5bd b3c3 843e 3161 f33d d4e0 51bd
000001b0: b95a afbb b8b6 893d 29a7 23bd 2c0a 1c3e
000001c0: e291 91bd 8c69 34bc d526 a4bc cf12 ce3d
000001d0: e9ef 763b 860b 283f 513b 953c 4c54 7fbd
000001e0: a492 2a3d 44ca ab3e 1f20 8c3c eaad 723c
000001f0: c7aa f13d b09d 03bd fae8 943c 6fcf 0f3d
00000200: 5d95 853c c51f 88ba 1fd3 aa3d 9a29 8b3e
00000210: 3e49 fb3d c7c1 523d 3696 0f3e f13a 593d
00000220: a3a1 153e 0f92 ccbd da45 923c ea74 ff3d
00000230: 9b69 f8bb 123b 753d fb8d 9bbd f934 d23d
00000240: e0ba a33e 31f0 003d 5f97 e3bc dee3 96bd
00000250: 714e 6c3d e18e 45bd 8d7c 543d 199b 0cbe
00000260: 0948 0d3f 5b52 813d 7a0c 593d ad99 27bd
00000270: 35a3 3c3f caab 0f3d 3840 ffbc 258f 80bd
00000280: a8be c7bc bce8 7e3e 9fa8 b83d bfb5 c93d
00000290: 2b63 12bc 3fb4 263d 9237 f6bd 11d4 5d3c
000002a0: 2c8e cb3c 74d8 613d a175 2cbd 2a8b 55bd
000002b0: cd68 84bd a36c 393d 6cc8 33bd 95f3 883d
000002c0: aa88 d73d db33 bd3d c30d c7bc 4141 003d
000002d0: 4732 d73c 1156 b73d bdc9 39bd 50af 9bbc
000002e0: a2ce 823d 9984 373e 0927 c23d feaa c73d
000002f0: 4770 afbd e189 693c d8ff d43d 4e7f 9fbc
00000300: 2873 a23c f10e 63bd 22d4 623d 6bf1 00be
00000310: 3a86 9f3d 03f6 3b3b b363 883d 0174 a73e
00000320: c076 afbb 1be4 903e cd5c f43c 4449 e6bd
00000330: 36c9 693e f7b0 94bb d0ba 943d 5858 d23c
00000340: b5b4 6bbd 8aa2 2fbd 4547 cfbd 2a7d 28bd
00000350: 786f da3c 9fd3 353d 2a1e f0bc 5dd7 163d
00000360: 3b7c c63e 784f c43c 8322 a33c 0a36 e7bc
00000370: d0ac 703d b7e7 313d b68e 57ba 30e3 e7bc
00000380: 79ec 3e3e b82f 23be 81de 0ebd c362 d13d
00000390: 3570 19bd 5cf3 4fbd 7f5f fd3d 1bfb 273d
000003a0: b3fe 1f3e 08a6 b03e b7d0 e63d ff1f b9bd
000003b0: 568e 7dbd 1344 d53d a6c8 af3d d95e e0bc
000003c0: ff65 083d 2a12 bbbd b0f5 bd39 03fe ce3c
000003d0: 4999 94bd ea13 e13e 4d98 3ebd a47f dd3d
000003e0: ac3b b93d dfee 6a3d 2ab4 89ba 2cea c03d
000003f0: 7beb 94bb 6791 953d edbf 263d e0de c13d
-0.072757125 0.038786493 -0.075152226 0.064130425 -0.04377657 0.020855984 0.25684357 -0.0016131797
-0.03879747 -0.07874447 -0.04686215 0.03476815 0.006076683 0.025939241 -0.0053036707 0.07428338
-0.044460043 -0.053784247 0.0047420585 0.040421616 -0.07667632 -0.027313456 0.0430375 0.05423292
0.585541 0.07095474 0.019270508 -0.06535493 0.43768793 0.19274613 -0.054769814 -0.04113552
0.096749686 0.13032489 -0.03465585 -0.022453167 -0.13515633 -0.003916478 -0.014372965 0.10754888
-0.004872904 0.040281624 0.082465306 -0.09991098 0.006109806 0.1108525 -0.12695761 0.044973105
0.21718937 0.13257334 0.117319755 0.034686223 -0.041131638 0.087939814 -0.052649822 -0.06006561
0.09365436 0.03484743 0.20149626 0.45671168 -0.11097522 0.054147966 0.05558203 -0.02162971
0.106995 0.033455927 0.032783017 0.05629319 0.05936044 0.013365449 0.019510468 0.26142323
0.045885876 0.07489547 0.07658795 0.10602636 0.142442 0.0836182 -0.0013487526 0.040073957
0.13656268 0.013816463 -0.011200641 0.036252134 -0.0023826906 0.2567404 -0.10930322 -0.024031702
0.3726006 0.04396081 -0.0883685 -0.0058048917 0.12441183 -0.04033034 -0.040964346 0.15697917
-0.010851154 -0.045295484 -0.04247043 0.1927186 0.024059527 -0.02545792 -0.007884578 -0.05637134
-0.08859698 0.25930557 0.11883772 -0.051239803 -0.005351391 0.06724304 -0.03995434 0.15238255
-0.07107903 -0.011011492 -0.020038048 0.10062181 0.0037679619 0.65642583 0.01821676 -0.06233625
0.041643754 0.33552754 0.01710516 0.014811972 0.11800151 -0.032132804 0.018177498 0.035109933
0.016306574 -0.0010385445 0.083410494 0.27180177 0.12269829 0.05145433 0.14022145 0.053034727
0.14612441 -0.09988796 0.017855573 0.124734715 -0.0075809485 0.059870787 -0.0759544 0.1026401
0.31978512 0.031479064 -0.02778214 -0.07367681 0.057691995 -0.048231963 0.051876593 -0.1373104
0.5518804 0.06314536 0.052990414 -0.04091804 0.73686534 0.03507594 -0.031158552 -0.06277303
-0.024382904 0.24893469 0.09016537 0.098491184 -0.008934776 0.04069924 -0.12022318 0.01353933
0.024848066 0.055138066 -0.042104367 -0.05213467 -0.06465302 0.04526962 -0.04389231 0.066870846
0.105241135 0.09238406 -0.024298554 0.03131223 0.026269091 0.08951963 -0.04535841 -0.019004494
0.06387068 0.17921676 0.094801016 0.09749411 -0.08566337 0.014254064 0.10400361 -0.019469883
0.019830301 -0.05543417 0.055378087 -0.12592094 0.077892736 0.002868057 0.06659641 0.3270569
-0.0053547323 0.2829903 0.029829407 -0.11244443 0.22830662 -0.0045376974 0.07262194 0.025676891
-0.057545383 -0.04287962 -0.101210155 -0.04113499 0.02666448 0.04439127 -0.029311258 0.03682648
0.38766655 0.023963675 0.019913917 -0.02822401 0.058758557 0.04343387 -0.00082228647 -0.028306574
0.18644895 -0.15936172 -0.034880165 0.102239154 -0.037460525 -0.050769195 0.1237173 0.041010957
0.15624504 0.34501672 0.11270278 -0.09039306 -0.06190332 0.10413375 0.085831925 -0.027388977
0.033300396 -0.09134324 0.0003623194 0.025267607 -0.07255799 0.43960506 -0.046531964 0.10815361
0.09044585 0.05735671 -0.0010505964 0.09419665 -0.004544673 0.07303124 0.04071038 0.09466338

action_model._continuous_distribution.log_sigma.bias f4 [2]
00000000: 8c6c 10bf b989 23bf
-0.5641563 -0.63882023

onnx::Div_66 f4 [20]
00000000: 8f50 283e 87fd 883e 607d 5d3d 280c dc3d
00000010: a723 0e3e f5fb ca3e 9d98 973d 9260 193e
00000020: 0c7d 0a3e d623 ea3e ea8b 9e3d 61e0 0f3e
00000030: 7922 f63d 75c6 f83e 9579 053e 6b10 423e
00000040: 3b1e e43d bed8 fb3e 62f0 033e 76fd 4f3e
0.1643698 0.26755926 0.054074645 0.10744506 0.13880788 0.39645353 0.074021555 0.14978245
0.13524264 0.45730466 0.0774153 0.14050438 0.12018294 0.4858891 0.13034661 0.18951575
0.111385785 0.491888 0.12884668 0.20311531

onnx::Div_69 f4 [12]
00000000: 7970 583d 04d0 653e 44ad 4e3c 9335 cd3c
00000010: e4d6 473d 9079 653e f74a 503c 41be cd3c
00000020: b075 673d f23e 673e 81c1 4f3c fa86 cd3c
0.052841637 0.22442633 0.012614552 0.02504996 0.04878892 0.22409654 0.0127131855 0.025115134
0.05650872 0.22582605 0.012680412 0.025088776

onnx::Div_72 f4 [3]
00000000: 8e52 333f 93ed c33c 57d0 5e3f
0.70047843 0.023916995 0.8703665
