Experimentos/results/sac6/KartAgent/KartAgent-1849997.onnx (onnx, 90702 bytes, 8 tensors)

network_body._body_endoder.seq_layers.0.weight f4 [128, 35]
0	0xbda17d7f	-0.078852646
1	0xbeb9f0bf	-0.36316487
2	0xbef72c6a	-0.48276073
3	0xbdb8839c	-0.090094775
4	0xbd691358	-0.056903213
5	0xbe15b198	-0.14618528
6	0xbf06a6df	-0.52598375
7	0x3db79ac8	0.08965069
8	0xbd16690d	-0.036721278
9	0x3e94c604	0.29057324
10	0x3e9299e2	0.28633028
11	0x3df45b5a	0.119314864
12	0x3da694c1	0.08133841
13	0xbe95dbc9	-0.29269245
14	0x3c288514	0.010285635
15	0x3c2bbc01	0.010481835
16	0xbd968193	-0.07348933
17	0xbb513a14	-0.0031925486
18	0xbe5c46d2	-0.21511391
19	0x3e675d92	0.22594288
20	0xbddc01ba	-0.10742517
21	0x3ecf8aae	0.40535492
22	0xbe48ae24	-0.1959768
23	0x3f1233ac	0.57110095
24	0x3d1a9549	0.037740026
25	0x3c8aa6c9	0.016925232
26	0xbe3a5724	-0.18197304
27	0x3f6a8e1b	0.91623086
28	0xbd0088f3	-0.031380605
29	0x3d83ef74	0.064421564
30	0xbc639969	-0.013891556
31	0x3ea81280	0.32826614
32	0x3fe51e99	1.7899963
33	0x3ef98fe1	0.48742583
34	0xbe8f6ab4	-0.28011096
35	0x3e919e70	0.2844119
36	0xbee9a8a4	-0.45636475
37	0x3eb7a4c5	0.35867897
38	0xbe00ba89	-0.12571158
39	0xbce6c9ba	-0.028172363
40	0xbe566f5e	-0.2094092
41	0xbf4ed5af	-0.80794805
42	0xbc4c33ce	-0.012463523
43	0x3e5c8c58	0.21537912
44	0x3e1d7b73	0.15379123
45	0x3de02367	0.109442525
46	0x3e3df409	0.18550123
47	0x3e92d213	0.286759
48	0x3e389d61	0.18028785
49	0xbde3f6cf	-0.111310594
50	0xbdafeb3d	-0.0858979
51	0x3e07b306	0.13251886
52	0x3ef028b9	0.4690607
53	0xbedb4639	-0.42827013
54	0xbcaf298e	-0.02138212
55	0x3e86ddbe	0.2634105
56	0x3e0a361b	0.13497202
57	0x3f24e81b	0.64416665
58	0x3e4fb5c6	0.20284185
59	0x3e575255	0.21027501
60	0xbe31d736	-0.17367253
61	0x3f6c2351	0.9224139
62	0x3ed7e199	0.42164305
63	0x3f3caa91	0.73697764
64	0x3e6bc4b4	0.23024255
65	0x3ef9bf43	0.48778734
66	0x3eb2608b	0.3483928
67	0x3e11f748	0.14254487
68	0xbe8c451c	-0.27396476
69	0x3dbd75f1	0.09251011
70	0xbc72ca31	-0.014818714
71	0xbec674a2	-0.3876086
72	0x3f48c522	0.784258
73	0xbf94bfe0	-1.1621056
74	0x3e1710f0	0.14752555
75	0x3ee60028	0.44921994
76	0x3f3c9658	0.73666906
77	0xbf8f4987	-1.1194314
78	0xbea071b0	-0.31336737
79	0x3f114081	0.5673905
80	0x3eeaf3c7	0.45889112
81	0xbfe89e09	-1.8173229
82	0x3d26f7ea	0.040763773
83	0xbca609d9	-0.020268368
84	0xbeab5806	-0.33465594
85	0xbe67e221	-0.22644855
86	0x3e0daff3	0.1383665
87	0x3e31df7f	0.17370413
88	0xbee0cda6	-0.43906897
89	0xbdca45be	-0.098765835
90	0x3eadcd64	0.33945763
91	0x3dcec0a8	0.1009534
92	0xbeb7bfca	-0.3588851
93	0xbf4b49f9	-0.7940975
94	0xbf0140fd	-0.5048979
95	0x3e029ff8	0.12756336
96	0xbed83623	-0.42228803
97	0xbee3d40a	-0.4449771
98	0xbb8b145a	-0.0042443695
99	0x3e22e7fc	0.15908808
100	0xbf156b16	-0.58366525
101	0xbf2c790a	-0.6737219
102	0xbd9fda8f	-0.078053586
103	0xbf922985	-1.1418921
104	0xbf6f031d	-0.93364125
105	0xbd84fb69	-0.06493265
106	0xbe5ba66d	-0.21450205
107	0x3eb30f4f	0.34972617
108	0x3f3717ed	0.7152088
109	0xbe1e7c77	-0.15477167
110	0xbe7c8523	-0.24660163
111	0xbf0b6d4f	-0.54463667
112	0xbe1c53a7	-0.15266286
113	0xbe6c71df	-0.23090313
114	0xbdf061e1	-0.11737419
115	0xbe416872	-0.18887499
116	0x3e947cb1	0.29001382
117	0xbdf8ef6f	-0.12155043
118	0x3d4bc41c	0.04974757
119	0xbd2584f3	-0.040409993
120	0x3ddd95b8	0.10819572
121	0x3e1a07ef	0.15042089
122	0x3bad5f57	0.0052909064
123	0x3cd69c1a	0.026197482
124	0xbd128f70	-0.035781324
125	0xbc9b5fee	-0.018966641
126	0xbcebb1c5	-0.02877129
127	0xbf089b98	-0.5336242
128	0x3e7551b0	0.23956943
129	0x3e31c0a0	0.17358637
130	0xbdcb57e2	-0.09928872
131	0xbedfd498	-0.43716884
132	0x3e80c900	0.2515335
133	0xbe1bc6fa	-0.15212622
134	0xbe52245b	-0.20521681
135	0xbdd82881	-0.105546005
136	0x3ee70da5	0.45127597
137	0x3f82362c	1.0172782
138	0x3f9063ea	1.1280491
139	0xbeeea508	-0.46610284
140	0x3e0b22cc	0.13587493
141	0x3cff59f3	0.03117082
142	0xbe801964	-0.25019372
143	0xbcf1349d	-0.029444033
144	0xbc17a949	-0.009256669
145	0xbd57d24d	-0.052690793
146	0xbf4c92de	-0.799116
147	0x3f10a3f5	0.5650018
148	0x3d68f533	0.056874465
149	0x3be3cb37	0.0069517153
150	0x3de5ae77	0.11214917
151	0xbf2db4a6	-0.6785377
152	0x3d6405a4	0.05566944
153	0x3cfb7055	0.030693213
154	0xbecf9c5b	-0.40548977
155	0x3eb4e692	0.3533216
156	0xbe8021d5	-0.25025812
157	0xbd2eeacd	-0.042704392
158	0xbc99bdbb	-0.018767228
159	0xbe2cb18f	-0.16864608
160	0x3ee77f55	0.45214334
161	0xbe2a8e41	-0.16655828
162	0x3dac3860	0.0840919
163	0xbe944a38	-0.28962874
164	0x3dae9684	0.08524802
165	0xbd8f8e22	-0.070095316
166	0xbd629d48	-0.055325776
167	0x3dc9b308	0.098486006
168	0x3ea7c884	0.3277017
169	0x3e15bc46	0.14622602
170	0x3d68dd1c	0.05685149
171	0xbe32e08d	-0.17468472
172	0xbf4a9131	-0.79127795
173	0x3ec8f73f	0.39251134
174	0x3e58278a	0.21108833
175	0xbf0486c6	-0.5176815
176	0x3e75ae28	0.23992217
177	0xbb980d51	-0.0046402593
178	0x3e4768de	0.19473597
179	0xbe46b34b	-0.19404332
180	0xbe12f80f	-0.1435244
181	0xbe50cb41	-0.20390035
182	0xbeb1ab42	-0.34700972
183	0xbdb2491e	-0.08705352
184	0xbe626dd6	-0.22112212
185	0xbf6449fa	-0.8917538
186	0x3e4220ef	0.18957876
187	0xbec0c157	-0.37647507
188	0xbdb10d55	-0.08645121
189	0xbe713b10	-0.23557687
190	0xbe20edf8	-0.15715778
191	0xbe277684	-0.16353804
192	0x3e290520	0.16505861
193	0xbf5d4f7a	-0.86449397
194	0x3f1fd142	0.6242868
195	0x3ece28c0	0.40265465
196	0xbdec7cfa	-0.11547275
197	0xbe4cc998	-0.19998777
198	0x3c879afd	0.016553396
199	0x3e9b638a	0.3034938
200	0xbd94919e	-0.07254337
201	0xbe9d0675	-0.3066899
202	0xbec2f619	-0.38078383
203	0x3cfe16c1	0.03101671
204	0xbbcfbc17	-0.0063395607
205	0xbec69919	-0.3878868
206	0xbe9af2a7	-0.30263254
207	0x3f60ca60	0.878088
208	0x3f8e6c7a	1.1126854
209	0xbed845ba	-0.42240697
210	0xbddeaaae	-0.10872398
211	0x3edd3e72	0.43211704
212	0x3ed069f7	0.40705845
213	0x3d63957b	0.055562478
214	0x3e5a44e9	0.2131535
215	0xbed76d67	-0.42075655
216	0x3f8d83aa	1.1055806
217	0xbf32cc70	-0.69843197
218	0xbe3033f0	-0.17207313
219	0xbf6b68c4	-0.91956735
220	0x3ed97a25	0.42476
221	0xbe4582ba	-0.1928815
222	0x3cfbeabd	0.03075158
223	0xbe0c4dc9	-0.13701548
224	0x3dff6b3a	0.12471624
225	0xbe44b8db	-0.19211142
226	0xbdfa7a03	-0.12230303
227	0xbea7d715	-0.32781282
228	0x3de94d2b	0.11391672
229	0xbea8a072	-0.3293491
230	0x3dd5f761	0.104475744
231	0x3e15e669	0.14638676
232	0x3e0978de	0.13425013
233	0x3ea8e1ba	0.32984716
234	0x3e06885c	0.13137954
235	0xbd7369f6	-0.059427224
236	0x3da777fa	0.081771806
237	0x3f175c7a	0.59125483
238	0xbe802a53	-0.2503229
239	0xbe514a89	-0.20438589
240	0xbde65bd8	-0.112479866
241	0x3f15af6a	0.58470786
242	0xbec9781a	-0.39349443
243	0xbe8426d7	-0.25810882
244	0xbecea136	-0.4035737
245	0x3ee013ca	0.43765098
246	0xbd4d65d5	-0.050145943
247	0x3ea0332c	0.3128904
248	0xbef238ed	-0.47309056
249	0x3d90865b	0.07056876
250	0x3d6171c7	0.055040147
251	0x3ea29ec0	0.31761742
252	0x3e9cc3d7	0.30618164
253	0x3db53373	0.08847704
254	0xbe423a62	-0.18967584
255	0xbea34802	-0.31890875

network_body._body_endoder.seq_layers.0.bias f4 [128]
0	0x3e82fecd	0.25585023
1	0x3da0b302	0.07846643
2	0xbeed07f0	-0.46295118
3	0x3e21514d	0.1575367
4	0x3e5f9e79	0.21837796
5	0x3e57a456	0.21058783
6	0xbef3d1bc	-0.47620952
7	0x3cfeaa1c	0.031086974
8	0xbe014493	-0.12623815
9	0x3e3ab372	0.18232515
10	0x3d4b0cab	0.049572628
11	0x3e3c62f7	0.18397127
12	0x3ed5dd9e	0.41770643
13	0xbdd550b5	-0.10415784
14	0x3eaf6a60	0.34260845
15	0x3e3afa64	0.18259579
16	0xbdeb4472	-0.11487664
17	0x3e629e43	0.22130685
18	0xbddbe1d9	-0.107364364
19	0xbd90343a	-0.070412114
20	0xbd086be1	-0.033306006
21	0x3ddb16b6	0.10697691
22	0x3eb67ead	0.3564352
23	0xbccc0126	-0.024902891
24	0x3e97de06	0.29661578
25	0x3ed22ab6	0.4104821
26	0x3d08a8d3	0.03336413
27	0x3e4f98f9	0.20273198
28	0x3ea605d9	0.32426336
29	0x3e48cb75	0.19608863
30	0x3ecbfc20	0.39840794
31	0x3e8a4fcd	0.27014008
32	0xbe2f8d22	-0.17143682
33	0x3e66d34f	0.22541545
34	0x3ec65047	0.38733122
35	0x3e1fd5de	0.15608928
36	0xbd07ed42	-0.03318525
37	0x3e849524	0.25895035
38	0x3e1f9a2b	0.15586154
39	0x3e578caf	0.2104976
40	0x3f08e1d1	0.5346957
41	0x3d3c9110	0.04603678
42	0xbdf94f5d	-0.121733405
43	0x3e7c0fb2	0.24615362
44	0x3c65ac3b	0.014018114
45	0x3bbefd60	0.0058285445
46	0x3e24e1b8	0.1610173
47	0x3f0bb3d0	0.5457125
48	0xbe4fb85d	-0.20285173
49	0x3d1390ac	0.03602664
50	0x3e8dc94d	0.27692643
51	0xbe5d4987	-0.2161008
52	0xbc0382af	-0.008026763
53	0xbda95332	-0.08267821
54	0xbdac3092	-0.084077016
55	0xbf24f80c	-0.6444099
56	0xbd583fd2	-0.05279524
57	0x3eace91b	0.33771595
58	0xbc3e59e9	-0.011618116
59	0x3e944799	0.28960875
60	0x3c93fd01	0.018064978
61	0x3e82a673	0.25517616
62	0xbe066dd4	-0.13127834
63	0x3eeb0a00	0.45906067
64	0xbe77de6e	-0.24205944
65	0x3e440877	0.19143854
66	0x3e52ae6c	0.20574349
67	0x3da4aaf0	0.08040416
68	0x3e13f0fc	0.14447397
69	0xbd84bf57	-0.06481808
70	0xbb0545a9	-0.002033571
71	0xbd21bce6	-0.03948679
72	0x3e922ea7	0.28551218
73	0xbe171d04	-0.14757162
74	0xbd059401	-0.03261185
75	0x3ce5a814	0.028034247
76	0x3ef7ae4a	0.4837516
77	0x3df35c1f	0.11882805
78	0x3e468c5c	0.1938948
79	0x3def32ab	0.11679586
80	0x3d4df282	0.0502801
81	0x3eeec4c7	0.46634504
82	0xbda90aa2	-0.08253981
83	0x3e08d7fb	0.1336364
84	0xbdb54bcd	-0.088523485
85	0x3f1123ec	0.5669544
86	0x3e4f9c70	0.2027452
87	0xbdbdd8b3	-0.09269848
88	0x3e8d7d59	0.27634695
89	0xbea418df	-0.32050225
90	0x3e087f79	0.13329877
91	0x3ea52a55	0.3225886
92	0xbe198caa	-0.14995065
93	0x3edfbebb	0.43700203
94	0x3e7626c8	0.24038231
95	0xbebe0c86	-0.3711893
96	0x3d3c7821	0.046013
97	0xbe4c1ebe	-0.19933602
98	0xbef7fa82	-0.4843331
99	0x3e36b005	0.17840584
100	0x3de296cf	0.11063921
101	0xbdab275c	-0.083571166
102	0x3e48cc07	0.1960908
103	0x3e0ee380	0.13953972
104	0x3a7e420e	0.0009699174
105	0x3d5b53c5	0.053546686
106	0x3e8bdd04	0.2731706
107	0x3eb10b51	0.34578946
108	0x3ec71595	0.38883653
109	0x3f12dda0	0.5736942
110	0x3e24b02b	0.16082828
111	0x3dc79445	0.09745077
112	0x3d9a7115	0.075411
113	0x3e130500	0.14357376
114	0x3eb39836	0.35077065
115	0x3eab7a0a	0.33491546
116	0x3eabe015	0.335694
117	0x3ee4bc37	0.44674847
118	0xbd7cc88b	-0.06171469
119	0x3dd046cf	0.10169756
120	0x3efb81da	0.49122506
121	0x3f23d318	0.6399398
122	0x3d9fc476	0.07801144
123	0x3e90115f	0.28138253
124	0x3e6b8a9b	0.23002093
125	0x3e229d85	0.15880401
126	0xbe21fc85	-0.15818985
127	0x3e193afb	0.14963906

network_body._body_endoder.seq_layers.2.weight f4 [128, 128]
0	0xbe60c631	-0.21950604
1	0x3abc7bd8	0.001438017
2	0x3e75f86f	0.24020551
3	0xbe5e96ea	-0.21737257
4	0x3e196f3d	0.1498384
5	0xbd5a107d	-0.05323838
6	0xbcd9a620	-0.026568472
7	0x3ecd3888	0.40082192
8	0x3d908697	0.07056921
9	0xbf005af3	-0.5013878
10	0x3d9932b6	0.074803755
11	0xbe4e5417	-0.20149265
12	0x3e2a5b38	0.1663636
13	0xbd64ebff	-0.055889126
14	0xbee8728b	-0.4539989
15	0xbd72be89	-0.05926374
16	0x3eecf29b	0.46278843
17	0xbedf8f32	-0.43663937
18	0x3f12a4ca	0.572827
19	0x3d093cb7	0.033505168
20	0x3e63a888	0.22232258
21	0xbe8f67f3	-0.28008994
22	0x3db4085c	0.08790657
23	0xbf209a31	-0.6273528
24	0xbddcd35c	-0.10782501
25	0xbedf7f54	-0.4365183
26	0xbcf43c6b	-0.029813966
27	0x3db169b6	0.08662741
28	0x3d61c475	0.055118997
29	0x3d828084	0.06372169
30	0x3dd97353	0.106176995
31	0xbe2ab84c	-0.16671866
32	0xbd372067	-0.044708636
33	0xbe3ade08	-0.1824876
34	0xbe26a647	-0.16274367
35	0xbdce561d	-0.100750186
36	0x3e1d9e2f	0.15392374
37	0xbf0d9508	-0.5530553
38	0xbeb4167a	-0.35173398
39	0xbf327cc2	-0.69721615
40	0xbcc677b2	-0.024226997
41	0x3d8c1447	0.06839805
42	0xbd202433	-0.039097022
43	0x3ea42d50	0.3206582
44	0x3bf0e92d	0.0073520155
45	0xbba03ea0	-0.004890278
46	0x3d138110	0.036011755
47	0xbd8379d1	-0.06419719
48	0x3e4db5f3	0.2008894
49	0x3e13040c	0.14357013
50	0xbeb92c4f	-0.36166617
51	0xbf101998	-0.5628905
52	0xbce22f25	-0.02761037
53	0xbe57bfa8	-0.21069205
54	0x3b850c5f	0.0040603126
55	0x3e8e85f7	0.27836582
56	0xba34606a	-0.0006880822
57	0x3deb488a	0.11488445
58	0xbdcc8acf	-0.09987413
59	0x3ebcfcf7	0.36911747
60	0x3cb8bcd7	0.022550983
61	0x3da12fbe	0.07870434
62	0x3f5cbac5	0.8622249
63	0x3e8fb35c	0.28066528
64	0x3cd4f336	0.025994878
65	0x3db18880	0.086686134
66	0xbe89e671	-0.26933625
67	0x3e86bbe0	0.26315212
68	0x3d04a1c6	0.03238084
69	0xbd31dab5	-0.043421466
70	0xbd3a2cdc	-0.045452937
71	0xbe01a328	-0.12659895
72	0xbead107b	-0.33801636
73	0xbbacb817	-0.0052709687
74	0xbe45aa1e	-0.19303176
75	0xbe3ea396	-0.1861709
76	0xbdeb37ba	-0.114852384
77	0x3e2bd633	0.1678093
78	0x3e2d78ad	0.16940565
79	0x3eb12941	0.34601787
80	0x3e9860e9	0.29761437
81	0xbd1fe50d	-0.0390368
82	0x3cf463ba	0.02983271
83	0xbd3c8da2	-0.04603351
84	0xbe70c37c	-0.23512071
85	0xbd608d0a	-0.054822005
86	0x3e23e347	0.16004668
87	0xbd4743f0	-0.048648775
88	0x3b419e24	0.0029543722
89	0x3ea98354	0.33108008
90	0xbe5b6e86	-0.2142888
91	0xbe078e15	-0.13237794
92	0xbe8330e2	-0.25623232
93	0x3d472c5e	0.048626296
94	0xbce34b3d	-0.027745837
95	0x3e28be1e	0.16478774
96	0x3ea87ce5	0.32907787
97	0x3ec7f7e9	0.39056328
98	0x3dd68fd9	0.104766555
99	0xbbdf00e2	-0.006805525
100	0xbe48157d	-0.19539447
101	0x3e8338ef	0.25629374
102	0xbec087c1	-0.37603572
103	0x3e8bfb69	0.27340248
104	0xbda44b03	-0.0802212
105	0x3e8db137	0.27674267
106	0x3e2cb49d	0.16865773
107	0xbc396206	-0.0113148745
108	0xbed232a0	-0.4105425
109	0x3e80a56f	0.25126216
110	0x3d178154	0.03698857
111	0x3daf7630	0.08567464
112	0xbea11320	-0.31459904
113	0xbe577452	-0.21040466
114	0x3da2961e	0.07938789
115	0xbdf4982a	-0.119430855
116	0xbe07a0b6	-0.132449
117	0xbe6f588e	-0.23373625
118	0xbe521e2d	-0.20519324
119	0xbe52637a	-0.2054576
120	0x3d113cfd	0.035458554
121	0x3e481714	0.19540054
122	0x3c211def	0.009833797
123	0xbea817ad	-0.32830563
124	0xbcc67008	-0.024223343
125	0xbe2298b1	-0.1587856
126	0xbe45307a	-0.19256774
127	0xbe60fea9	-0.21972145
128	0x3e9d6f10	0.30748796
129	0x3e1a61d3	0.1507638
130	0x3dc3901b	0.0954897
131	0x3e087cac	0.13328809
132	0xbd9dd9bb	-0.077075444
133	0x3e0d1a13	0.13779478
134	0x3e0e86f2	0.13918665
135	0x3e4af7c5	0.19821079
136	0x3e858306	0.26076525
137	0x3e165da2	0.14684156
138	0xbb357514	-0.0027688192
139	0x3e272271	0.16321732
140	0xbd423da0	-0.04742205
141	0xbeb607d8	-0.3555286
142	0xbebd69f5	-0.369949
143	0x3ce12b3a	0.027486432
144	0xbc830f89	-0.015998619
145	0xbb81256d	-0.003941229
146	0x3d466bb5	0.04844256
147	0x3e15ea87	0.14640246
148	0xbed16355	-0.40896097
149	0x3dfc2fe8	0.12313825
150	0xbcaeb620	-0.021327078
151	0x3e1ce12c	0.15320271
152	0x3d15b49c	0.036549196
153	0xbd7fbf5b	-0.06243835
154	0xbf2488ea	-0.64271414
155	0xbe1544d6	-0.1457704
156	0xbd87db8a	-0.06633671
157	0x3e5212ea	0.20515028
158	0xbe854d29	-0.2603543
159	0x3d3c09c8	0.045907766
160	0xbe28b2cd	-0.16474457
161	0xbd513912	-0.051079817
162	0x3d8b4630	0.068004966
163	0xbe6ca1ca	-0.23108593
164	0x3d950930	0.07277143
165	0xbdee3019	-0.11630268
166	0xbda563e3	-0.080756925
167	0x3df867f0	0.121291995
168	0x3e87f21c	0.26551902
169	0x3d8acd11	0.067773946
170	0xbea052de	-0.31313223
171	0x3d6336f1	0.055472318
172	0x3de145ab	0.10999616
173	0x3dfb87d8	0.122817695
174	0x3b97f1f3	0.004636997
175	0x3e17fa2e	0.1484153
176	0xbe54029b	-0.20704119
177	0xbea85fb2	-0.3288551
178	0x3e203433	0.15644912
179	0xbe7ca945	-0.24673946
180	0xbd30b883	-0.043144714
181	0xbd9932e9	-0.074804135
182	0xbd71ed56	-0.05906423
183	0x3d14f596	0.03636702
184	0xbe0e8a9d	-0.13920064
185	0x3e674489	0.22584738
186	0x3e4344ba	0.19069186
187	0x3e7dd709	0.2478906
188	0xbdf6b7f3	-0.12046804
189	0xbc713fd7	-0.014724693
190	0x3e1ff95f	0.15622471
191	0x3dd6e5c8	0.10493046
192	0x3d8c49e8	0.06850034
193	0xbd9eb44b	-0.07749232
194	0x3ecfd37b	0.40591034
195	0xbdcc60b1	-0.0997938
196	0x3e0c8067	0.13720857
197	0xbee3bb0f	-0.44478652
198	0x3e063509	0.13106169
199	0x3c2752df	0.010212629
200	0xbe61de64	-0.22057492
201	0x3de6a704	0.112623245
202	0xbdcc9797	-0.09989851
203	0xbc9a0142	-0.018799428
204	0xbe5a6db2	-0.21330908
205	0xbdc61159	-0.096712776
206	0x3e9c5449	0.30533054
207	0xbdd2f9e5	-0.1030157
208	0x3e36c04f	0.17846797
209	0xbe7e9e81	-0.24865152
210	0xbe2dfcfc	-0.16991037
211	0xbd5036d9	-0.050833557
212	0x3eaee9ca	0.34162742
213	0x3e90f953	0.2831522
214	0x3d0c4f8b	0.034255546
215	0x3e1e5e75	0.1546572
216	0x3ec19eed	0.37816563
217	0x3e18ecb9	0.14934053
218	0xbeaecc49	-0.34140232
219	0xbe464ce9	-0.19365276
220	0x3d438cf0	0.04774183
221	0xbd813f39	-0.06310887
222	0x3d8be9b3	0.06831684
223	0x3da88b42	0.08229686
224	0x3ea7fb5f	0.32808968
225	0x3eba8330	0.36428213
226	0xbe695e22	-0.22789815
227	0xbe9ebb6c	-0.31002367
228	0x3e8d446a	0.27591258
229	0x3ebdd73d	0.37078276
230	0x3e3f7cba	0.18699923
231	0x3e15623c	0.14588255
232	0x3e3646ec	0.17800492
233	0xbe2b8f40	-0.16753864
234	0xbdd5a673	-0.10432138
235	0xbd290529	-0.041264687
236	0xbe9eed5a	-0.3104046
237	0x3e89a0ae	0.268804
238	0xbd02ee8b	-0.031965774
239	0x3dbd32d1	0.09238208
240	0x3d947431	0.07248724
241	0xbddde43c	-0.10834548
242	0xba565831	-0.00081765937
243	0xbd0d19be	-0.034448378
244	0xbe275769	-0.16341938
245	0x3e415bc4	0.18882662
246	0xbdfeb3d0	-0.1243664
247	0x3e001f2f	0.12511896
248	0x3e01047c	0.12599367
249	0x3e02eb7d	0.12785144
250	0xbda5b643	-0.08091404
251	0x3e15df9a	0.14636078
252	0x3dc5e92c	0.09663615
253	0xbe1c9b4e	-0.15293619
254	0x3bc6b187	0.0060636434
255	0xbebcd385	-0.36880127

network_body._body_endoder.seq_layers.2.bias f4 [128]
0	0xbe1601f4	-0.14649183
1	0xbe393ee3	-0.18090396
2	0x3eacda9e	0.33760542
3	0xbcc3f04b	-0.023918292
4	0xbf160eaf	-0.58616155
5	0xba5c11cc	-0.0008394986
6	0x3e4e2f8f	0.2013533
7	0xbdc3c353	-0.095587395
8	0xbc85f764	-0.016353317
9	0x3daa6d4e	0.083216295
10	0x3d4fbfbc	0.05071996
11	0xbdf378b2	-0.11888255
12	0xbd645320	-0.055743337
13	0x3eaf6883	0.34259424
14	0x3d310310	0.04321581
15	0xbcab7b12	-0.020932708
16	0xbe965bd6	-0.2936694
17	0x3e515e9f	0.20446251
18	0xbe270ade	-0.16312739
19	0xbd2cfdef	-0.042234357
20	0xbe1f3105	-0.15546043
21	0x3e6e1869	0.23251499
22	0xbe5e2fbe	-0.216979
23	0x3d9a719d	0.07541201
24	0xbe7eedaa	-0.24895349
25	0x3d440dd4	0.04786475
26	0xbdcde12a	-0.10052712
27	0x3dd5955b	0.10428878
28	0x3cf86ae7	0.030324413
29	0xbe11e330	-0.14246821
30	0xbe587b3c	-0.2114076
31	0xbc167a15	-0.00918438
32	0xbd1d8761	-0.038459186
33	0xbebca35f	-0.36843392
34	0x3d3c6c2c	0.0460016
35	0xbd398323	-0.045291077
36	0xbd939c57	-0.07207554
37	0xbdbad90a	-0.09123428
38	0xbe1c5487	-0.1526662
39	0x3c47b9f1	0.012190328
40	0xbe29aff3	-0.16571026
41	0x3dd63588	0.10459429
42	0xbd791042	-0.06080652
43	0x3a56a002	0.0008187295
44	0xbe2df86f	-0.16989301
45	0x3e385698	0.18001783
46	0xbe806e1c	-0.25084007
47	0xbe27c760	-0.1638465
48	0xbe25d59f	-0.16194771
49	0xbe506e46	-0.20354566
50	0xbe11f903	-0.14255147
51	0xbeab5a60	-0.33467388
52	0x3e10fd9b	0.14159243
53	0x3e3998d8	0.18124712
54	0x3e167837	0.14694296
55	0xbe8b572d	-0.27214947
56	0xbe8d3b52	-0.2758432
57	0xbe6ed119	-0.23321952
58	0x3ea5c712	0.3237844
59	0xbe7e38c3	-0.2482634
60	0x3e69f4e6	0.22847328
61	0xbe1d1e07	-0.15343486
62	0xbdb25798	-0.087081134
63	0xbc282fbf	-0.01026529
64	0x3d3912a0	0.045183778
65	0x3de88b48	0.11354691
66	0xbe7f858d	-0.2495329
67	0x3e682341	0.22669698
68	0x3db39104	0.08767894
69	0xbec85f0d	-0.39135018
70	0x3cd06efd	0.025443548
71	0xbe6aae47	-0.22918044
72	0x3c914db1	0.017737241
73	0xbda4e0ba	-0.08050676
74	0xbc4cbd12	-0.01249625
75	0xbe553e18	-0.20824468
76	0xbeede288	-0.46461892
77	0x3e218baf	0.15775941
78	0x3dd0bc2a	0.101921394
79	0xbdca8c56	-0.09890048
80	0x3e47c035	0.19506915
81	0xbee3f6f5	-0.4452435
82	0xbd5025b0	-0.05081719
83	0x3dbcd1be	0.09219693
84	0xbd09dfe1	-0.033660773
85	0x3e82a325	0.25515094
86	0xbdb51342	-0.08841564
87	0x3dc37825	0.095444
88	0xbe223eb9	-0.1584424
89	0x3d43cc4c	0.047802255
90	0xbd629b51	-0.055323903
91	0xbe0c6837	-0.1371163
92	0xbdad2655	-0.08454577
93	0x3e9aa8c0	0.3020687
94	0xbd809650	-0.0627867
95	0x3e622213	0.22083311
96	0xbc824dd8	-0.01590626
97	0x3e2fe9d5	0.17179044
98	0x3de0c6b6	0.10975401
99	0xbcfea710	-0.031085521
100	0xbe72f706	-0.23727044
101	0xbe8225a8	-0.25419354
102	0xbd5a61e2	-0.053316005
103	0x3dbdbd82	0.09264661
104	0x3d282565	0.041051287
105	0xbe0304ed	-0.12794848
106	0x3db6e9d6	0.089313194
107	0xbd4b18b4	-0.049584106
108	0xbd870343	-0.06592419
109	0x3e66a80c	0.22525042
110	0xbeab1bd9	-0.33419684
111	0xbdd495bc	-0.10380122
112	0xbeac6ed6	-0.3367831
113	0xbe4612a9	-0.19343056
114	0xbe575968	-0.210302
115	0xbe333538	-0.1750077
116	0xbd71b18d	-0.059007216
117	0xbf165dfd	-0.58737165
118	0xbdbae161	-0.09125019
119	0xbe8f88dd	-0.28034106
120	0x3d0443b5	0.032291133
121	0x3d101fe7	0.035186674
122	0x3ec0a322	0.3762446
123	0xbcd128b7	-0.02553211
124	0x3e640a28	0.222695
125	0x3e2b9150	0.16754651
126	0x3e57e0f4	0.21081907
127	0x3e4b98b7	0.19882475

action_model._continuous_distribution.mu.weight f4 [2, 128]
0	0x3e2ffb9d	0.17185827
1	0x3e0578be	0.1303434
2	0x3f39003d	0.7226599
3	0x3e909f5e	0.28246588
4	0x3e08c534	0.13356477
5	0xbe1d4fa8	-0.15362418
6	0xbebcac84	-0.3685037
7	0x3e58e036	0.2117928
8	0xbec7e96c	-0.39045274
9	0x3e0555bc	0.13020986
10	0x3e9d4b1d	0.3072137
11	0x3e862061	0.26196578
12	0x3e38051f	0.17970704
13	0xbe12154a	-0.14265934
14	0x3ebfddc3	0.37473878
15	0x3eaab993	0.33344707
16	0x3c871c9e	0.016493138
17	0xbd4aca52	-0.049509354
18	0x3dd827f6	0.10554497
19	0xbe147374	-0.14497167
20	0xbe746f86	-0.23870668
21	0xbd07548e	-0.033039622
22	0x3e9aa90b	0.30207095
23	0x3db1bb63	0.08678319
24	0xbda8a150	-0.08233893
25	0x3e0d8605	0.13820656
26	0x3e34fb1e	0.17673919
27	0xbebfa8a9	-0.37433365
28	0xbe059a22	-0.13047078
29	0xbd9485ef	-0.07252108
30	0x3b052d32	0.0020321128
31	0x3e5814a7	0.21101628
32	0x3c7e90b3	0.015537429
33	0x3ea62058	0.3244655
34	0xbd4c9bd3	-0.049953293
35	0x3cd2f2e2	0.025750581
36	0x3e38d48c	0.1804983
37	0xbdcd8ff9	-0.10037226
38	0x3df8cd81	0.12148572
39	0xbe060030	-0.13086009
40	0x3eef6e3a	0.46763784
41	0xbeaf58ea	-0.34247524
42	0xbeabd6b5	-0.33562246
43	0xbd684690	-0.05670792
44	0xbe90cf45	-0.28283134
45	0xbd9e2942	-0.07722713
46	0xbe2211c2	-0.15827087
47	0x3d9ec794	0.0775291
48	0x3ed1c64c	0.409716
49	0xbe0a5823	-0.13510184
50	0x3d6ffcb0	0.05859059
51	0xbe058a16	-0.13040957
52	0xbe1f2df2	-0.1554487
53	0xbc3282b1	-0.010895417
54	0xbd3de8a6	-0.04636445
55	0x3e780553	0.24220781
56	0x3d3b63b9	0.0457494
57	0x3dbb1fca	0.09136923
58	0xbf2e8251	-0.681676
59	0x3dea83fe	0.11450957
60	0xbe040231	-0.12891461
61	0xbe85c5f7	-0.26127598
62	0x3e10b764	0.14132458
63	0xbe75ce25	-0.24004419
64	0xbd46a710	-0.048499167
65	0xbf1d1d7b	-0.6137311
66	0xbe6d6520	-0.23183107
67	0xbefe6f7a	-0.49694425
68	0x3e544782	0.20730403
69	0x3f360949	0.7110792
70	0xbe1d4f18	-0.15362203
71	0x3d57b4cf	0.052662667
72	0xbc989dff	-0.018630026
73	0x3ed635cb	0.41837916
74	0x3e252c66	0.16130218
75	0xbd084688	-0.03327039
76	0xbcd6bdc9	-0.026213543
77	0xbd93bc79	-0.07213683
78	0xbe795f6d	-0.24352808
79	0xbebf5f99	-0.37377623
80	0x3da42857	0.08015507
81	0xbd0807bd	-0.033210505
82	0x3d148b1b	0.036265474
83	0xbeaca837	-0.33722088
84	0xbdc708d0	-0.09718478
85	0xbe1efb22	-0.15525487
86	0xbe3eb002	-0.18621829
87	0x3e4e575f	0.20150517
88	0x3e03d364	0.12873608
89	0x3c96a5fd	0.018389696
90	0xbe35c11c	-0.17749447
91	0x3e46c79b	0.19412081
92	0x3c5c2e19	0.013438725
93	0xbd06688d	-0.03281455
94	0x3e922350	0.28542566
95	0x3e1956bc	0.14974493
96	0x3dcd17f0	0.10014331
97	0xbe25051f	-0.16115235
98	0xbd0c17db	-0.034202438
99	0x3e1630df	0.1466708
100	0x3e3b1517	0.18269764
101	0xbe7b3f07	-0.24535762
102	0x3e3aa34a	0.18226352
103	0xbc722bbd	-0.014780936
104	0x3ea1cf71	0.31603578
105	0xbb364226	-0.0027810424
106	0xbba0b849	-0.004904781
107	0xbe9725ee	-0.29521126
108	0xbd34faca	-0.044184484
109	0xbf0e86e1	-0.5567456
110	0x3ec729df	0.38899133
111	0xbf2be8bb	-0.67151994
112	0x3f511e35	0.8168672
113	0x3e5ccb37	0.21561895
114	0xbeeb2666	-0.45927733
115	0x3dcb939f	0.09940266
116	0xbdd220f6	-0.10260193
117	0x3f01fd7f	0.5077743
118	0xbebc8427	-0.36819574
119	0xbec36eda	-0.3817051
120	0xbcf44363	-0.029817289
121	0x3edd3e59	0.4321163
122	0xbce479ac	-0.027890049
123	0xbc88b0f9	-0.01668595
124	0xbea7cca4	-0.32773316
125	0x3e2eb4c7	0.17061149
126	0xbe3c9d83	-0.18419461
127	0x3d03f757	0.032218304
128	0xbcf13179	-0.029442536
129	0x3d879a18	0.06621188
130	0xbeafd85f	-0.34344766
131	0x3d45c36a	0.048282064
132	0x3e4ecc60	0.2019515
133	0xbe20cf0e	-0.15703985
134	0x39fb2e1b	0.00047908802
135	0xbd9abc97	-0.07555502
136	0xbdd07ba2	-0.10179831
137	0x3f23e512	0.6402141
138	0x3ea1a796	0.3157317
139	0x3e00763c	0.12545103
140	0xbd9480cb	-0.07251128
141	0xbe27647b	-0.16346924
142	0x3e2733b6	0.1632832
143	0x3ac644b3	0.0015126675
144	0x3de63610	0.1124078
145	0x3e814260	0.25245953
146	0xbde6b085	-0.11264137
147	0xbd82bc73	-0.063836
148	0xbe4e6b9b	-0.20158236
149	0x3ca61209	0.020272272
150	0xbea06a2a	-0.31330997
151	0x3e5879d2	0.21140221
152	0x3ed2558f	0.410809
153	0x3ef160ad	0.4714407
154	0xbe9875a0	-0.2977724
155	0x3dba82c9	0.091069765
156	0xbc12c903	-0.008959058
157	0xbe12bd59	-0.14330043
158	0xbdfbf177	-0.12301915
159	0xbe6cdb1d	-0.2313046
160	0xbe0d3c1b	-0.1379246
161	0xbdd1ea88	-0.102498114
162	0xbd23127f	-0.03981256
163	0x3eb2e96f	0.3494372
164	0x3e1ef4ad	0.15523024
165	0xbdb47040	-0.088104725
166	0xbd9bf064	-0.0761421
167	0xbe28823b	-0.16455929
168	0x3c7c23fc	0.015389439
169	0xbe99701d	-0.29968348
170	0xbcd593b7	-0.026071412
171	0x3cf0d6de	0.029399332
172	0x3ddfd039	0.10928387
173	0xbe249b63	-0.160749
174	0x3ebbef77	0.36706135
175	0x3bac1aac	0.005252203
176	0xbeb08b57	-0.34481308
177	0xbd6a9cff	-0.05727863
178	0x3e1378d4	0.14401561
179	0x3eba8469	0.36429146
180	0x3d9682cd	0.07349167
181	0x3cecedb0	0.028921932
182	0xbe81bad2	-0.25337845
183	0xbf1306bb	-0.57432145
184	0x3e7c7e7c	0.24657625
185	0xbe9f1800	-0.31072998
186	0x3e08bb33	0.13352661
187	0xbd2da180	-0.042390347
188	0xbbee2834	-0.007267976
189	0x3c80a567	0.01570387
190	0x3dc8c1df	0.09802603
191	0xbd18bc33	-0.037288856
192	0x3e108cdd	0.14116235
193	0x3c4bcec6	0.012439435
194	0xbec0b4ea	-0.37638026
195	0xbdeceb0a	-0.11568268
196	0x3dcc62ea	0.09979804
197	0xbe87f75e	-0.26555914
198	0xbe1f083f	-0.1553049
199	0xbe2d366c	-0.16915292
200	0xbe4a0c23	-0.19731192
201	0x3d2c98fb	0.04213808
202	0x3e016138	0.12634742
203	0x3e9f3db7	0.31101772
204	0xbf01aa6a	-0.50650656
205	0x3d46c8fa	0.04853151
206	0x3d3fda13	0.04683883
207	0x3e0b084b	0.13577382
208	0xbe8bde7d	-0.27318183
209	0x3e904c22	0.28183085
210	0x3d08a80f	0.0333634
211	0xbd6ac6fd	-0.057318676
212	0xbe019ad4	-0.12656718
213	0x3d8c915c	0.068636626
214	0x3ec3c7bc	0.38238323
215	0xbddcb98d	-0.107775785
216	0xbdc57e6c	-0.09643254
217	0x3eec77de	0.461852
218	0xbd5dd82d	-0.05416124
219	0x3d9e83ad	0.07739959
220	0x3defafc1	0.11703444
221	0x3d097302	0.033556946
222	0x3da34608	0.07972342
223	0xbd04009b	-0.03222714
224	0xbe3f7179	-0.1869563
225	0xbdb0a082	-0.086243644
226	0xbda5b938	-0.08091968
227	0x3c3e1e21	0.011603863
228	0xb92897bd	-0.00016078255
229	0x3d839d68	0.06426507
230	0x3e9ba369	0.3039811
231	0x3d9d76b2	0.07688655
232	0x3eca33cb	0.3949264
233	0x3e8c5916	0.27411717
234	0x3dc75958	0.09733838
235	0x3ca9f5fd	0.02074718
236	0x3e0815dc	0.13289589
237	0xbdb7de36	-0.0897793
238	0x3dd8f0da	0.10592814
239	0x3e97dd80	0.2966118
240	0x3da14ded	0.07876191
241	0xbdba71c7	-0.091037326
242	0x3eb76544	0.35819447
243	0xbf19713b	-0.599384
244	0xbc3be123	-0.011467251
245	0x3d537c3e	0.05163216
246	0xbe1c08ef	-0.15237783
247	0x3d9f0577	0.07764714
248	0xbe7a81ce	-0.24463579
249	0x3d002a41	0.031290296
250	0xbc52fbc8	-0.012877412
251	0xbe9115f0	-0.2833705
252	0x3eb5141a	0.353669
253	0xbe81f103	-0.2537919
254	0x3e721945	0.23642452
255	0xbe8eb496	-0.2787215

action_model._continuous_distribution.mu.bias f4 [2]
0	0xbce17aad	-0.027524317
1	0xbca51916	-0.020153563

action_model._continuous_distribution.log_sigma.weight f4 [2, 128]
0	0x3dba74bc	0.091042966
1	0xbd715dbb	-0.05892728
2	0xbd3bed7e	-0.045880787
3	0xbd6d5074	-0.057938054
4	0xbc679a13	-0.014135855
5	0x3d3602b0	0.044436157
6	0x3d9751ae	0.07388626
7	0xbd1133d0	-0.035449803
8	0x3e2aa679	0.16665067
9	0xbd8bdc41	-0.068291195
10	0xbdc69fd0	-0.096984506
11	0xbd882257	-0.06647175
12	0xbdbc66c7	-0.09199291
13	0x3dff1dee	0.124568805
14	0xbdcf2166	-0.10113792
15	0x3d585094	0.05281122
16	0x3e3b6d14	0.18303329
17	0xbe11f968	-0.14255297
18	0xbd0581ce	-0.032594495
19	0xbba6dc85	-0.005092206
20	0x3dfc6d62	0.123255506
21	0xbdf562ec	-0.119817585
22	0x3e363067	0.17791902
23	0xbd44c89c	-0.04804288
24	0x3c13ddd5	0.009025057
25	0xbd5a219e	-0.053254716
26	0xbe0ad1d3	-0.13556604
27	0x3e6cc5a9	0.23122276
28	0x3e5dad6e	0.2164819
29	0xbdd75f32	-0.10516204
30	0xbd676a9e	-0.056498162
31	0xbda9035e	-0.08252595
32	0xbd1d2adb	-0.03837095
33	0x3eeb6c61	0.45981124
34	0xbc5c39dc	-0.013441529
35	0xbd2b10d9	-0.041764114
36	0xbd09901a	-0.03358469
37	0x3bd2bb59	0.006431025
38	0x3dc5c65d	0.096569754
39	0x3cfa1e73	0.030532097
40	0x3e3c13cb	0.18366925
41	0x3e3c6c2e	0.18400642
42	0xbe59c33c	-0.21265882
43	0x3d8179e7	0.06322079
44	0x3ece24d3	0.4026247
45	0x3e0bcc52	0.13652161
46	0x3cb7fd1a	0.022459555
47	0x3c85a339	0.016313182
48	0x3dd45b5d	0.10368989
49	0xbd9ef754	-0.07762018
50	0xbab6d429	-0.0013948727
51	0xbd4dfe0d	-0.05029111
52	0x3dac0cde	0.08400892
53	0xbe286266	-0.16443786
54	0xbe11cde4	-0.14238697
55	0xbc41e332	-0.011833953
56	0x3db639d3	0.08897748
57	0x3c5bd97c	0.013418552
58	0x3e85de79	0.26146296
59	0x3d2049db	0.039132934
60	0xbbffb9b2	-0.007804119
61	0xbe98ec45	-0.2986776
62	0xbd160ecb	-0.0366352
63	0xbdb0e8bb	-0.0863814
64	0x3cfe1a9e	0.031018551
65	0x3e6d918c	0.23200053
66	0xbdddb36e	-0.10825239
67	0x3ee9c9d0	0.45661783
68	0xbd5d1be9	-0.053981695
69	0xbc5b427c	-0.01338255
70	0x3e8ac89a	0.27106172
71	0xbde9e492	-0.114205495
72	0xbd8e192e	-0.069383964
73	0x3d344161	0.044007663
74	0xbe275357	-0.16340385
75	0x3d915c73	0.070977114
76	0xbc9b2fbc	-0.01894366
77	0xbe25c6d2	-0.16189125
78	0xbc47915c	-0.0121806525
79	0xbc2d680a	-0.010583887
80	0x3a24f44d	0.0006292507
81	0x3d8e53a8	0.0694955
82	0xbe53ada9	-0.20671715
83	0x3da28ad0	0.07936633
84	0x3d1d2466	0.03836479
85	0x3d3c0932	0.045907207
86	0x39dca758	0.0004208635
87	0xbdb10584	-0.0864363
88	0x3d8319e6	0.06401424
89	0x3bace270	0.005276017
90	0x3edea852	0.43487793
91	0xbd808ba5	-0.06276635
92	0xbc6b75e4	-0.014371369
93	0xbe57be6b	-0.21068732
94	0xbe071b23	-0.13193946
95	0xbddc8685	-0.10767845
96	0xbd9759ef	-0.073902
97	0xbe0543ba	-0.13014117
98	0xbe64497a	-0.22293654
99	0x3e3d1d8d	0.18468304
100	0xbccad735	-0.024760822
101	0x3df50e99	0.11965675
102	0xbe30ead8	-0.17277086
103	0xbd5ef4f8	-0.05443284
104	0x3ddce784	0.107863456
105	0xbc8cc172	-0.017182086
106	0x3d789847	0.060692098
107	0x3de7ef51	0.11324943
108	0x3d6aa8ce	0.05728989
109	0x3ead33b9	0.33828524
110	0xbd3bfa9a	-0.04589329
111	0x3db93cfd	0.09044836
112	0x3e63de5b	0.2225279
113	0x3f1db9d3	0.6161167
114	0x3e669b7b	0.22520249
115	0x3c9da661	0.019244375
116	0xbdae6a4c	-0.08516368
117	0xbdc66602	-0.09687425
118	0x3df7004a	0.12060602
119	0x3d350f9b	0.044204336
120	0xbd1f46b6	-0.038885795
121	0xbdfc2baf	-0.123130195
122	0xbe7f5fb5	-0.24938853
123	0x3e00aed1	0.12566687
124	0x3d3982a1	0.045290593
125	0x3dffb1a6	0.124850556
126	0x3e6849b6	0.22684368
127	0x3d58078e	0.05274158
128	0x3df5e24f	0.120060556
129	0xbd08a75b	-0.033362728
130	0x3e33a8ca	0.17544857
131	0xbe1c4b6d	-0.15263148
132	0x3cd0bf53	0.025481855
133	0xbe8b4f11	-0.2720876
134	0x3dae280c	0.08503732
135	0x3c865f27	0.016402794
136	0xbde3132d	-0.11087642
137	0x3e5784bf	0.21046732
138	0xbd24de06	-0.0402508
139	0xbc0880ea	-0.008331517
140	0xbe4b45ac	-0.19850796
141	0x3d0a910b	0.03382973
142	0x3c770574	0.015076984
143	0x3e0546c3	0.13015275
144	0x3e094384	0.13404661
145	0x3e0696a3	0.13143401
146	0xbda6d0ce	-0.08145295
147	0x3d03a589	0.03214029
148	0x3e8a23d1	0.2698045
149	0xbe8f4f8a	-0.2799037
150	0x3ed4c234	0.41554415
151	0x3c54a608	0.012979038
152	0xbd9eca39	-0.07753415
153	0x3dc473cb	0.09592398
154	0x3ecaa377	0.3957784
155	0x3e251b91	0.16123797
156	0x3cd82bdb	0.0263881
157	0x3d69c656	0.057073914
158	0x3e7400b3	0.23828392
159	0xbcf5631d	-0.029954487
160	0x3db09e77	0.08623975
161	0x3e050686	0.1299077
162	0xbdefd2bf	-0.117101185
163	0x3e074691	0.13210513
164	0xbe21804a	-0.15771595
165	0xbc13ff13	-0.009032982
166	0xbdb4e10a	-0.08831985
167	0x3e0391b8	0.12848556
168	0x3c6f2882	0.01459706
169	0x3efe4588	0.49662423
170	0xbe063241	-0.13105108
171	0x3d4774eb	0.048695486
172	0x3d4edac7	0.05050161
173	0xbdbef82d	-0.093246795
174	0xbe9f4a3e	-0.3111133
175	0xbc5d3bc3	-0.013503018
176	0x3e8b87f1	0.27252153
177	0x3ddf6d7f	0.109095566
178	0x3dd2b2c5	0.10288004
179	0x3e232adb	0.15934317
180	0x3e3f33c5	0.18672092
181	0xbe0946bb	-0.13405888
182	0x3de09bc1	0.10967208
183	0xbe066a00	-0.13126373
184	0xbe159c17	-0.14610325
185	0xbd9f5ea0	-0.0778172
186	0xbc98012f	-0.018555252
187	0xbdb28563	-0.08716848
188	0x3d8068e3	0.062700056
189	0x3d410623	0.047124993
190	0x3d95ff2b	0.0732406
191	0x3d8a1d01	0.06743813
192	0x3cbeb6bb	0.023280492
193	0x3e83d34a	0.25747138
194	0x3f02b5ae	0.5105847
195	0xbc7adf7d	-0.015312073
196	0x3d543527	0.051808503
197	0xbe2b554e	-0.1673176
198	0x3e5a4603	0.2131577
199	0x3d87865e	0.066174254
200	0xbc9bbb0a	-0.019010086
201	0x3da154e6	0.07877521
202	0x3ec7ed9c	0.3904847
203	0xbdf32332	-0.11871947
204	0x3f009077	0.50220436
205	0xbdbaf0f1	-0.09127987
206	0x3c357099	0.011074209
207	0x3c3e4210	0.01161243
208	0xbe2e4ad9	-0.1702074
209	0x3dd75690	0.10514557
210	0xbdcad51f	-0.09903931
211	0x3e344187	0.17603122
212	0xbbbc13bd	-0.0057396577
213	0xbdb5de31	-0.0888027
214	0x3da7fa59	0.08202047
215	0xbe4a250e	-0.19740698
216	0x3cb6e482	0.022325758
217	0x3c862a01	0.01637745
218	0x3e4cd093	0.2000144
219	0x3cd486c0	0.02594316
220	0xbd7a974c	-0.061179444
221	0x3b45978d	0.0030150146
222	0xbdbc7f3a	-0.09203954
223	0xbe14f678	-0.14547145
224	0x3dd3dbe3	0.103446744
225	0x3e1f4683	0.15554242
226	0xbdd8dd15	-0.10589043
227	0xbe403295	-0.18769296
228	0xbd37d877	-0.04488417
229	0x3c9b9c4b	0.018995425
230	0xbe88728e	-0.26649898
231	0xbe261f54	-0.16222888
232	0x3d591e04	0.05300714
233	0xbeb587a3	-0.35455045
234	0xbd943bec	-0.07237992
235	0x3dac4380	0.08411312
236	0x3dc23062	0.094818845
237	0xbe28a8b5	-0.16470607
238	0x3c66514a	0.014057467
239	0x3e9fce51	0.31212094
240	0x3ec61d39	0.3869417
241	0x3c84a9f6	0.016194325
242	0x3eb85f0a	0.3601001
243	0xbef16401	-0.4714661
244	0x3c0613f7	0.008183471
245	0xbe6b078c	-0.22952098
246	0x3c1e73a2	0.009671124
247	0x3bc8b031	0.0061245193
248	0xbdc47738	-0.09593052
249	0x3e9c7c98	0.30563807
250	0xbe988428	-0.29788327
251	0x3db09f22	0.08624102
252	0x3e96f7a4	0.2948581
253	0xbdf9b3ce	-0.12192498
254	0xbe10b097	-0.14129864
255	0xbcb18941	-0.021671893

action_model._continuous_distribution.log_sigma.bias f4 [2]
0	0xbf3bb0f1	-0.73316866
1	0xbf84be23	-1.0370525
