Experimentos/results/ppo5/KartAgent/KartAgent-849960.onnx (onnx, 309439 bytes, 13 tensors)

network_body.observation_encoder.processors.0.normalizer.running_mean f4 [20]
0.54030263 0.41963106 0.0129794115 0.21758056 0.686507 0.26768857 0.0040884153 0.21574351
0.7315422 0.19130161 0.0029424925 0.15043949 0.6270377 0.3171394 0.008105046 0.2471997
0.6665376 0.2594452 0.005913217 0.18899022
00000000: 4651 0a3f e2d9 d63e 99a7 543c 70cd 5e3e
00000010: ecbe 2f3f 7a0e 893e 1df8 853b deeb 5c3e
00000020: 5a46 3b3f 92e4 433e d5d6 403b cf0c 1a3e
00000030: 8b85 203f 1860 a23e 07cb 043c eb21 7d3e
00000040: 35a2 2a3f 00d6 843e a9c3 c13b a786 413e

network_body.observation_encoder.processors.1.normalizer.running_mean f4 [12]
0.24759807 0.45603114 0.24106823 0.3042358 0.24751803 0.47057503 0.23119175 0.29620612
0.2499089 0.43787816 0.2515038 0.31298727
00000000: 598a 7d3e ea7c e93e 97da 763e cbc4 9b3e
00000010: 5e75 7d3e 36ef f03e 88bd 6c3e 54a8 973e
00000020: 1ee8 7f3e 9131 e03e 1bc5 803e de3f a03e

network_body.observation_encoder.processors.2.normalizer.running_mean f4 [3]
0.08462913 0.046063308 -0.0371873
00000000: 0a52 ad3d e1ac 3c3d b651 18bd

network_body._body_endoder.seq_layers.0.weight f4 [256, 35]
-0.10303868 -0.047560018 0.0649253 0.0005492191 -0.21534735 0.11601933 -0.32601413 0.010130672
-0.2899456 -0.36287513 0.15162547 0.1324374 0.13467875 0.093958326 -0.0012336632 0.0019116583
-0.11944897 -0.16832852 0.043900408 0.09477875 0.08416721 0.32064155 0.3549851 0.00792812
0.156867 0.05771384 -0.12294047 0.10646829 0.19348225 0.12924175 -0.2669455 -0.030280612
0.15239179 0.016751563 -0.26394263 -0.14555989 0.22963603 0.03309068 0.12917455 -0.28742996
-0.21625885 -0.2228491 0.05057338 0.39784873 -0.055073846 0.25510952 -0.1822428 0.43713742
0.007128728 0.083433606 -0.05126864 -0.015588044 0.08495221 -0.19601756 0.28577906 0.08696736
0.20510435 -0.29155084 0.2990963 0.19715615 0.13485914 0.019171908 -0.09124655 -0.23986459
-0.033627864 0.14448254 0.20193358 -0.3865699 0.072372854 0.10692445 -0.18627468 -0.06572876
-0.1956325 -0.07373082 -0.27353868 0.36893594 0.010456699 0.05408008 0.20091933 0.086315274
-0.34627223 -0.0893863 -0.19693927 0.21197943 -0.15849371 0.25939816 0.13507023 -0.34352237
-0.28444308 -0.013588065 0.09317203 -0.31150112 -0.01763846 0.05671581 0.16760243 0.25966606
0.28687018 0.11456843 -0.34477958 -0.03601175 0.045223653 -0.16870855 -0.19945385 -0.09341879
-0.003857089 0.18701416 0.119547985 0.028037116 -0.1795906 -0.0981527 0.112992935 0.21858552
0.12580101 0.17057538 -0.25565273 0.022890097 -0.42539203 0.04762195 0.20204405 -0.0015127358
-0.08783897 0.13823839 0.048392866 0.059373185 -0.17799495 0.16360861 0.023583364 -0.46945232
0.10923149 0.307849 -0.26055086 0.11858912 0.089475505 0.32275462 -0.027310768 -0.0045864186
-0.19666566 -0.26489452 0.08765541 -0.08715167 0.109413855 0.24065435 -0.28783858 -0.026509423
-0.07900256 0.21957086 -0.036744032 0.052465305 0.014075486 -0.089056775 0.024985777 0.03070209
-0.047108717 0.11759895 0.028039463 -0.20182362 0.2754676 0.19602476 -0.12084098 0.22691643
0.10976357 -0.23898716 -0.07411294 -0.0727239 -0.23540105 0.057333317 -0.110811986 0.07875368
-0.0157899 0.1499655 -0.19445832 0.036359463 0.22719267 -0.09109079 0.06000275 -0.007756715
0.41324833 -0.2178176 -0.057867385 -0.42165044 -0.12937559 0.2200111 0.064690575 -0.048059233
-0.009104127 -0.097215705 -0.104109064 0.1774326 0.30616722 0.12719527 -0.08191958 -0.34405285
-0.11450322 -0.24950449 -0.13380934 -0.21130177 -0.09828336 -0.052943587 0.14546567 0.1311935
-0.355521 0.16052085 -0.068200245 -0.09914138 0.13191527 -0.08179174 -0.13367629 0.3868944
0.122341044 0.1572362 -0.012578123 -0.047389384 0.2385206 -0.01840378 -0.12202239 0.08694668
-0.24353671 0.027080473 0.07692987 -0.14367633 0.12483053 0.28552294 0.17022963 -0.15830626
-0.05585859 -0.16763687 0.14975204 0.04460272 -0.33904007 0.049468007 -0.10758853 -0.18730128
-0.20080942 0.12909606 -0.11618261 0.13645063 0.043241274 -0.08310542 -0.23197055 -0.10587308
-0.13256115 -0.26268038 0.0980182 0.17457521 -0.09359658 -0.108685516 -0.059814133 -0.13805911
0.045690995 -0.11780974 -0.24119669 -0.08100225 -0.41771778 -0.23480934 0.2497724 0.23656578
00000000: f205 d3bd 4bce 42bd 8ef7 843d 78f9 0f3a
00000010: 0484 5cbe 8b9b ed3d 53eb a6be 1efb 253c
00000020: c073 94be c5ca b9be b543 1b3e ab9d 073e
00000030: 3ae9 093e 396d c03d deb2 a1ba 9c90 fa3a
00000040: a9a1 f4bd 505e 2cbe ead0 333d 5c1b c23d
00000050: dc5f ac3d 212b a43e 9bc0 b53e f2e4 013c
00000060: bea1 203e 5965 6c3d 37c8 fbbd 0c0c da3d
00000070: 3620 463e f357 043e 15ad 88be 0c0f f8bc
00000080: 980c 1c3e 933a 893c 7d23 87be a70d 15be
00000090: b525 6b3e 188a 073d 5546 043e 052a 93be
000000a0: f672 5dbe 8e32 64be 0826 4f3d d4b2 cb3e
000000b0: 1d95 61bd b79d 823e db9d 3abe 7ad0 df3e
000000c0: 1b98 e93b 3ddf aa3d 11ff 51bd ff64 7fbc
000000d0: 6dfb ad3d d4b8 48be a251 923e f11b b23d
000000e0: e006 523e 2746 95be 2623 993e 4de3 493e
000000f0: 8418 0a3e 680e 9d3c 79df babd 109f 75be
00000100: 5fbd 09bd 3bf3 133e adc7 4e3e 7dec c5be
00000110: 3838 943d 35fb da3d cabe 3ebe cd9c 86bd
00000120: e353 48be 2f00 97bd 430d 8cbe 2ce5 bc3e
00000130: 9352 2b3c 1383 5d3d ccbd 4d3e 10c6 b03d
00000140: 984a b1be 2a10 b7bd 73aa 49be 2311 593e
00000150: 2d4c 22be d6cf 843e da4f 0a3e 2ae2 afbe
00000160: 86a2 91be 7aa0 5ebc fad0 be3d 137d 9fbe
00000170: 887e 90bc d64e 683d f99f 2b3e f3f2 843e
00000180: a6e0 923e daa2 ea3d f386 b0be 0f81 13bd
00000190: 703c 393d efc1 2cbe a13d 4cbe 5a52 bfbd
000001a0: 37c7 7cbb a480 3f3e 93d5 f43d 18ae e53c
000001b0: 99e6 37be 4804 c9bd d768 e73d e2d4 5f3e
000001c0: fbd1 003e 50ab 2e3e eae4 82be 0384 bb3c
000001d0: fccc d9be 3c0f 433d a3e4 4e3e fe46 c6ba
000001e0: ebe4 b3bd 5d8e 0d3e 9937 463d 4c31 733d
000001f0: 4f44 36be 0489 273e e631 c13c 0e5c f0be
00000200: c2b4 df3d 629e 9d3e ec66 85be dade f23d
00000210: ef3e b73d 1840 a53e d5ba dfbc ab49 96bb
00000220: b962 49be 41a0 87be ae84 b33d 937c b2bd
00000230: 5f14 e03d 186e 763e 945f 93be 4a2a d9bc
00000240: 18cc a1bd 2fd7 603e e980 16bd dce5 563d
00000250: de9c 663c 6663 b6bd f9ae cc3c f382 fb3c
00000260: 12f5 40bd b8d7 f03d 04b3 e53c daaa 4ebe
00000270: 170a 8d3e b7ba 483e 7a7b f7bd c85c 683e
00000280: b9cb e03d 0db9 74be 86c8 97bd 45f0 94bd
00000290: f90c 71be 57d6 6a3d 65f1 e2bd 9c49 a13d
000002a0: d259 81bc 8e90 193e 1520 47be a9ed 143d
000002b0: 32a5 683e cf8d babd 72c5 753d 0b2c febb
000002c0: 4995 d33e 940b 5fbe 5a06 6dbd 91e2 d7be
000002d0: 097b 04be 974a 613e 7e7c 843d c2d9 44bd
000002e0: 7a29 15bc 0719 c7bd 2237 d5bd e4b0 353e
000002f0: f3c1 9c3e 7a3f 023e 74c5 a7bd b227 b0be
00000300: aa80 eabd 1b7e 7fbe 5105 09be 7e5f 58be
00000310: c948 c9bd 60db 58bd f4f4 143e 9757 063e
00000320: d906 b6be 945f 243e 92ac 8bbd a30a cbbd
00000330: cc14 073e 6e82 a7bd 70e2 08be 0617 c63e
00000340: f18d fa3d 8702 213e 7914 4ebc 5f1b 42bd
00000350: bf3e 743e 86c3 96bc e0e6 f9bd 1a11 b23d
00000360: b061 79be ded7 dd3c 688d 9d3d e31f 13be
00000370: 26a7 ff3d 1030 923e ad50 2e3e 091b 22be
00000380: facb 64bd 00a9 2bbe 9958 193e 57b1 363d
00000390: a996 adbe f79e 4a3d 6057 dcbd e8cb 3fbe
000003a0: fca0 4dbe c231 043e 26f1 edbd b7b9 0b3e
000003b0: c31d 313d 2d33 aabd b089 6dbe fcd3 d8bd
000003c0: 1cbe 07be 0b7e 86be c4bd c83d d8c3 323e
000003d0: 90af bfbd 8396 debd aaff 74bd 5e5f 0dbe
000003e0: 7b26 3b3d 3c46 f1bd 44fc 76be 82e4 a5bd
000003f0: 1bdf d5be dc71 70be 56c4 7f3e 4d3e 723e

network_body._body_endoder.seq_layers.0.bias f4 [256]
-0.037355762 -0.03691285 -0.056164175 -0.034402713 -0.0028335778 0.0015699061 0.0028586918 -0.028372446
-0.013836095 -0.003985277 -0.022614287 0.013514445 -0.017656254 0.010109743 -0.012550884 -0.0073900614
-0.037364595 -0.011892266 -0.0035862091 0.030679535 -0.023207707 -0.013932328 -0.022629892 -0.040026937
-0.0055003427 -0.03357754 -0.020524679 -0.029784996 -0.049964663 -0.0036024814 0.042106606 0.016612332
-0.023241023 -0.01877467 0.03122056 -0.033484165 -0.035039645 -0.04135514 -0.020686151 -0.016990867
-0.0074512796 -0.0051542735 -0.0059322603 -0.016733214 -0.007795062 0.039115064 -0.017021596 -0.024023622
-0.045485318 -0.00823851 -0.058453843 -0.023188043 -0.014511978 -0.008487905 0.01045241 -0.013700829
0.0082292 0.0031717687 0.008598222 -0.068519235 -0.021962859 0.038622905 -0.021185048 0.010012972
-0.03627705 -0.026338682 -0.02208724 -0.04533836 -0.0071297465 -0.0059368317 -0.024016859 0.013801431
-0.01114328 -0.014598774 0.013010639 -0.011950448 -0.016097665 0.015617278 -0.040334463 0.0069015846
-0.052981384 -0.02545806 0.01774925 -0.0035161185 -0.042757142 -0.015406641 -0.045596294 -0.001906879
-0.01899272 -0.019923594 -0.043495487 -0.023344535 -0.03316357 0.025831765 -0.035049498 0.017710246
-0.014050677 -0.018333953 -0.031346466 0.01967329 -0.027547322 -0.006566688 -0.0071598277 -0.0045607165
-0.02555521 -0.0008436693 0.009783098 0.017604133 -0.032665573 0.012752533 0.015870603 1.8119623e-05
-0.028451052 -0.036243048 -0.0052162954 -0.03897672 -0.010439573 -0.025372477 0.014275306 -0.017561523
-0.04611906 -0.034022726 -0.009367055 -0.0018157995 -0.0166908 -0.018127922 0.0172698 -0.038300198
-0.0066190534 -0.035957143 -0.029483063 0.004034274 -0.039230652 0.009512983 -0.013967 -0.035153564
-0.038997035 -0.017533345 -0.038049538 0.007626735 -0.014077913 -0.013348456 -0.025141453 -0.016180035
-0.021103615 -0.058991835 -0.03137614 -0.06170461 0.03920899 -0.04287475 0.022860015 -0.022751672
-0.030762784 -0.013688655 -0.016785957 -0.022878783 -0.012113454 -0.00020221891 -0.036730774 0.014653622
0.0062946705 -0.027818061 -0.019514896 -0.03258022 -0.048302636 -0.013517345 -0.02343498 0.00724339
-0.041838367 0.048680514 -0.016338585 -0.024879524 -0.03595514 -0.00069318333 -0.01662578 -0.03003982
-0.0077143535 -0.0059631825 -0.041105356 -0.037633386 0.003951269 -0.026524141 -0.029009707 -0.02635872
-0.01981492 -0.018425219 -0.033525825 -0.0067538256 0.0033021187 -0.0033952228 -0.05021393 -0.032955047
-0.04470469 -0.011992673 -0.030625017 0.010688019 -0.012171061 -0.01293367 -0.033419926 -0.035214745
0.0039733774 -0.05521126 -0.005232949 0.01878906 -0.011571117 -0.056426656 -0.0012357776 -0.011433095
-0.006272941 0.005087875 -0.009709382 -0.0015344732 -0.00493889 -0.023001954 -0.011534529 -0.017113835
-0.0004605093 -0.011027646 -0.0026729312 -0.048580118 -0.008478432 -0.007354429 -0.0093349125 0.022654593
-0.0036181936 -0.006023633 -0.03490883 -0.038188197 -0.015733948 -0.020390524 -0.023361959 -1.9364075e-05
-0.004794923 -0.029331628 -0.046941668 -0.031933263 -0.022907363 -0.029145518 0.005064117 0.004886718
-0.022510484 -0.02295959 -0.028671991 -0.031162318 -0.010644412 -0.009732378 -0.012433174 -0.010012138
-0.025513705 -0.048341 -0.02122596 0.0072124377 -0.031788304 -0.010785041 0.041179772 -0.01466072
00000000: 5b02 19bd ee31 17bd 680c 66bd dce9 0cbd
00000010: 8cb3 39bb 4fc5 cd3a e458 3b3b 556d e8bc
00000020: cab0 62bc ed96 82bb 9941 b9bc b16b 5d3c
00000030: d9a3 90bc 56a3 253c 39a2 4dbc 5428 f2bb
00000040: 9e0b 19bd c7d7 42bc 9b06 6bbb a653 fb3c
00000050: 171e bebc 6b44 64bc 5362 b9bc 49f3 23bd
00000060: 383c b4bb 9a88 09bd 5f23 a8bc aaff f3bc
00000070: bfa7 4cbd 9c17 6cbb fa77 2c3d 9616 883c
00000080: f563 bebc 56cd 99bc 43c2 ff3c b126 09bd
00000090: bb85 0fbd 0264 29bd 0176 a9bc 6e30 8bbc
000000a0: dd29 f4bb 2ee5 a8bb 6863 c2bb 1814 89bc
000000b0: b86d ffbb 1e37 203d e070 8bbc 30cd c4bc
000000c0: d04e 3abd d1fa 06bc 4c6d 6fbd daf4 bdbc
000000d0: a6c3 6dbc db10 0bbc 9640 2b3c 7179 60bc
000000e0: c4d3 063c 73dd 4f3b 8fdf 0c3c d053 8cbd
000000f0: 74eb b3bc 0d33 1e3d 448c adbc 730d 243c
00000100: 3e97 14bd 38c4 d7bc 4df0 b4bc b7b4 39bd
00000110: a6a0 e9bb c189 c2bb 01bf c4bc 661f 623c
00000120: 4e92 36bc b22f 6fbc 932a 553c d0cb 43bc
00000130: 40df 83bc 9ddf 7f3c c035 25bd b026 e23b
00000140: 0203 59bd 6c8d d0bc e066 913c ae6e 66bb
00000150: 1d22 2fbd 236c 7cbc 2ec3 3abd 3ef0 f9ba
00000160: 9f96 9bbc ce36 a3bc 5328 32bd 0a3d bfbc
00000170: 86d6 07bd 239d d33c 1090 0fbd 1415 913c
00000180: d034 66bc 1631 96bc 2765 00bd e129 a13c
00000190: ecaa e1bc 5f2d d7bb fd9c eabb 1072 95bb
000001a0: 2959 d1bc b029 5dba 4949 203c 8b36 903c
000001b0: 56cc 05bd 00f0 503c 1103 823c 98ff 9737
000001c0: 2e12 e9bc 9773 14bd 75ed aabb 0ea6 1fbd
000001d0: be0a 2bbc f1d9 cfbc f9e2 693c 2fdd 8fbc
000001e0: 57e7 3cbd 6a5b 0bbd 4778 19bc 1f00 eeba
000001f0: 25bb 88bc 0281 94bc 6579 8d3c abe0 1cbd
00000200: a5e4 d8bb cc47 13bd 7786 f1bc f131 843b
00000210: 52b0 20bd 58dc 1b3c d8d5 64bc 2ffd 0fbd
00000220: 5bbb 1fbd 17a2 8fbc d5d9 1bbd b1e9 f93b
00000230: 0ca7 66bc 7bb3 5abc 73f5 cdbc fe8b 84bc
00000240: 7de1 acbc 6ca1 71bd 4484 00bd f9bd 7cbd
00000250: 9b99 203d 6f9d 2fbd ed44 bb3c b761 babc
00000260: 3c02 fcbc 6146 60bc b482 89bc 496c bbbc
00000270: 8277 46bc ba0a 54b9 0273 16bd bf15 703c
00000280: 8643 ce3b b4e2 e3bc b4dd 9fbc d672 05bd
00000290: fcd8 45bd db77 5dbc b7fa bfbc f659 ed3b
000002a0: b55e 2bbd 3865 473d 7fd8 85bc 25d0 cbbc
000002b0: b245 13bd bfb6 35ba ca32 88bc 1216 f6bc
000002c0: b0c8 fcbb cd66 c3bb 175e 28bd 7725 1abd
000002d0: a679 813b 2849 d9bc c4a5 edbc 3eee d7bc
000002e0: e652 a2bc 7cf0 96bc 6052 09bd 324f ddbb
000002f0: 5c68 583b 6382 5ebb 1fad 4dbd dffb 06bd
00000300: 441c 37bd eb7c 44bc 51e1 fabc cd1c 2f3c
00000310: 2169 47bc bee7 53bc 55e3 08bd 563d 10bd
00000320: 1b33 823b 3425 62bd 2879 abbb 84eb 993c
00000330: c894 3dbc a31f 67bd d1f9 a1ba e051 3bbc
00000340: 3e8d cdbb 30b8 a63b 1a14 1fbc 6020 c9ba
00000350: 6ad6 a1bb 986e bcbc 52fb 3cbc 5032 8cbc
00000360: 8370 f1b9 4dad 34bc 582c 2fbb f2fb 46bd
00000370: 1fe9 0abc 6cfd f0bb 76f1 18bc 2096 b93c
00000380: 371f 6dbb e561 c5bb 90fc 0ebd 3a6b 1cbd
00000390: 7be4 80bc 070a a7bc 9461 bfbc 0970 a2b7
000003a0: bb1e 9dbb e248 f0bc e845 40bd 74cc 02bd
000003b0: 39a8 bbbc 95c2 eebc e4f0 a53b c320 a03b
000003c0: e867 b8bc c015 bcbc 86e1 eabc 1e48 ffbc
000003d0: e665 2ebc 8d74 1fbc 83b4 4bbc f309 24bc
000003e0: 1e02 d1bc 3601 46bd 11e2 adbc 5056 ec3b
000003f0: 7434 02bd beb3 30bc 1fac 283d 8433 70bc

network_body._body_endoder.seq_layers.2.weight f4 [256, 256]
0.069772795 -0.18902634 0.0014472004 0.14697808 -0.013486446 0.022269843 -0.05193062 -0.10829532
0.0003281235 -0.05072017 0.06615653 0.09035063 -0.04925656 -0.096003234 0.11202988 0.0032533163
0.002521986 -0.08385365 0.0916305 -0.076193064 -0.054249533 0.0058323564 -0.028993858 0.009104752
-0.0042493264 -0.01239984 -0.09650103 0.006426505 -0.03776129 -0.02235598 -0.04515107 0.02336654
0.09822824 0.0023385445 -0.07327476 -0.09605279 0.04701659 -0.0635283 0.106733896 -0.051320937
-0.06925561 0.032511942 -0.05689506 0.047529534 -0.07617422 0.06281431 -0.0006428327 0.007643309
-0.07420765 -0.0030223473 0.1547207 0.016851405 0.043498088 -0.0011769584 -0.033587996 0.037072677
-0.16947123 -0.06042296 -0.14952771 -0.0696881 0.10295017 0.054892443 -0.0035865055 0.05405292
-0.07571957 0.10625309 -0.120129064 -0.07249635 -0.09363116 0.09784351 -0.07952576 0.031438533
0.030181943 0.10509801 0.034034934 -0.057053104 -0.032754358 -0.09173372 -0.023101375 0.0020850147
0.04173623 0.028129127 -0.029192029 -0.12381635 -0.024451435 0.03261378 0.041133024 -0.023262208
-0.12345796 -0.05767652 -0.102638245 0.022968369 0.009511556 -0.11239517 -0.066667706 0.014168597
0.07900493 -0.058446147 -0.15240698 0.035142627 -0.11694198 0.037404858 -0.15713112 -0.04521742
0.03481469 0.08231423 0.07035068 0.048523176 -0.006848338 0.008153061 -0.010334672 0.021878691
0.03530863 0.021183198 0.072417945 0.021482712 -0.020163344 -0.11337128 0.11793188 -0.014112827
-0.07309035 -0.10273323 0.071143344 -0.033734076 0.030232428 0.010743556 -0.04380798 -0.048341714
-0.020091357 0.029533906 -0.037930857 -0.012135101 -0.07678891 0.08576923 0.090799406 -0.049786218
-0.020865535 -0.15032865 0.018833093 -0.12445787 -0.06633682 -0.08517928 -0.14751609 0.030711487
0.089426324 -0.13867946 0.089862026 -0.010143567 -0.117548935 -0.026816327 0.026015293 -0.079596005
-0.04057408 0.034895778 0.110729456 -0.029766899 0.11069677 0.02004039 -0.07056454 -0.14830363
0.060304236 -0.08240884 -0.034173757 0.08705595 -0.036902443 0.01338409 0.040852495 0.019551862
-0.033771213 -0.025682108 0.07568675 -0.12232489 -0.051235378 -0.17657867 0.057696942 -0.21370074
-0.00022378204 -0.05839528 -0.019656187 0.014092604 0.18510145 0.109284855 -0.037505303 0.00618324
0.042747043 -0.11283776 0.085857645 0.02107631 -0.024649648 -0.099281795 0.03553644 -0.06271208
-0.040075026 -0.03912051 -0.1268478 -0.0020388367 -0.029143015 0.058581557 -0.020297464 -0.08590847
-0.08570865 0.097321026 -0.015649587 -0.115126796 0.020154431 0.021116754 -0.08411877 0.09983163
-0.043352664 0.07794026 -0.065223314 0.10442855 -0.042095214 0.02379778 -0.04513909 -0.09522801
-0.05772896 0.029346865 0.10681761 -0.07361446 -0.05712885 -0.010234337 0.04895043 0.09723948
0.05780866 0.014568945 -0.09203405 -0.027179262 0.023512173 0.06652248 -0.052147944 -0.026968729
-0.04315562 0.06027504 0.04439364 -0.027330749 0.049142044 0.036546834 -0.038226932 0.003974244
-0.03283455 -0.03334473 0.062278498 -0.05395158 0.0013978316 -0.032985218 0.021889832 0.17009708
-0.02293253 -0.058763802 -0.19776693 0.0020291684 -0.09767098 0.07009239 -0.065317616 -0.010755256
00000000: 0ae5 8e3d 1f90 41be fdaf bd3a 6c81 163e
00000010: 41f6 5cbc 3f6f b63c 34b5 54bd f0c9 ddbd
00000020: fe07 ac39 f4bf 4fbd 137d 873d c009 b93d
00000030: 3fc1 49bd 589d c4bd ec6f e53d 9735 553b
00000040: e747 253b 76bb abbd c6a8 bb3d 1c0b 9cbd
00000050: c234 5ebd 5a1d bf3b 8784 edbc 192c 153c
00000060: ef3d 8bbb b328 4bbc 55a2 c5bd 6e95 d23b
00000070: 95ab 1abd e323 b7bc 54f0 38bd 306b bf3c
00000080: e32b c93d 4442 193b 1411 96bd 53b7 c4bd
00000090: 7894 403d 201b 82bd 4d97 da3d e735 52bd
000000a0: e3d5 8dbd 3e2b 053d cb0a 69bd 54ae 423d
000000b0: 3b01 9cbd caa4 803d c683 28ba b974 fa3b
000000c0: 2efa 97bd 9312 46bb 1a6f 1e3e f50b 8a3c
000000d0: 0d2b 323d 2c44 9aba 9193 09bd 85d9 173d
000000e0: de89 2dbe 117e 77bd cb1d 19be a2b8 8ebd
000000f0: 8ad7 d23d e6d6 603d 940b 6bbb 9866 5d3d
00000100: dd12 9bbd 389b d93d 3a06 f6bd f778 94bd
00000110: b2c1 bfbd 2e62 c83d 67de a2bd b1c5 003d
00000120: 1f40 f73c a03d d73d 3768 0b3d 84b0 69bd
00000130: 6f29 06bd e3de bbbd 183f bdbc bea4 083b
00000140: 9cf3 2a3d 0e6f e63c 1f24 efbc 6d93 fdbd
00000150: 604e c8bc 0796 053d 1a7b 283d 6390 bebc
00000160: 87d7 fcbd 373e 6cbd 0034 d2bd 2928 bc3c
00000170: 5bd6 1b3c 702f e6bd 1489 88bd 6723 683c
00000180: 56cd a13d 3a65 6fbd 9310 1cbe b7f1 0f3d
00000190: 477f efbd d635 193d fbe6 20be e735 39bd
000001a0: d999 0e3d 5d94 a83d 0414 903d 3dc0 463d
000001b0: 0668 e0bb 6b94 053c c252 29bc f13a b33c
000001c0: c89f 103d 6388 ad3c dc4f 943d 83fc af3c
000001d0: 992d a5bc 342f e8bd 4586 f13d 7d39 67bc
000001e0: 65b0 95bd cd65 d2bd 9ab3 913d be2c 0abd
000001f0: ffa9 f73c bd05 303c ff6f 33bd f601 46bd
00000200: a196 a4bc 17f1 f13c 635d 1bbd 4dd2 46bc
00000210: 8143 9dbd c7a7 af3d 0af5 b93d a2ec 4bbd
00000220: 33ee aabc c1ef 19be dc47 9a3c c5e3 febd
00000230: 99db 87bd 7972 aebd 750e 17be a896 fb3c
00000240: 2625 b73d fd01 0ebe 9509 b83d 3431 26bc
00000250: 7fbd f0bd eaad dbbc 061e d53c 3b03 a3bd
00000260: 0231 26bd e0ee 0e3d 20c6 e23d b6d9 f3bc
00000270: fdb4 e23d be2b a43c 2484 90bd e8dc 17be
00000280: 9301 773d f7c5 a8bd c8f9 0bbd 644a b23d
00000290: 0427 17bd f148 5b3c f254 273d 3a2b a03c
000002a0: af53 0abd 4963 d2bc a801 9b3d 7985 fabd
000002b0: 30dc 51bd 0ad1 34be a153 6c3d 5ed4 5abe
000002c0: 09a7 6ab9 e42f 6fbd 0306 a1bc aae4 663c
000002d0: 3c8b 3d3e bdd0 df3d 299f 19bd c79c ca3b
000002e0: 8617 2f3d 7c17 e7bd 22d6 af3d 3aa8 ac3c
000002f0: 0fee c9bc 4154 cbbd a88e 113d 316f 80bd
00000300: b625 24bd d43c 20bd 64e4 01be 019e 05bb
00000310: 55bd eebc 37f3 6f3d de46 a6bc c8f0 afbd
00000320: 0488 afbd 3f50 c73d 9033 80bc 99c7 ebbd
00000330: e81a a53c 0bfd ac3c 7646 acbd 8774 cc3d
00000340: 9092 31bd 259f 9f3d cd93 85bd a3de d53d
00000350: 086c 2cbd 90f3 c23c c4e3 38bd e706 c3bd
00000360: 3475 6cbd d668 f03c 31c3 da3d 2ec3 96bd
00000370: f1ff 69bd ecad 27bc 3f80 483d 7e25 c73d
00000380: c6c8 6c3d 96b2 6e3c 597c bcbd 0ba7 debc
00000390: 9a9c c03c f03c 883d 1599 55bd 86ed dcbc
000003a0: f3c3 30bd f6e2 763d 1bd6 353d bce4 dfbc
000003b0: 2b49 493d 22b2 153d d893 1cbd 603a 823b
000003c0: 857d 06bd 7c94 08bd bd17 7f3d 55fc 5cbd
000003d0: 7237 b73a 821b 07bd 4e52 b33c ee2d 2e3e
000003e0: 00dd bbbc 50b2 70bd 6a83 4abe ccfb 043b
000003f0: b907 c8bd 998c 8f3d 3ec5 85bd d036 30bc

network_body._body_endoder.seq_layers.2.bias f4 [256]
-0.009953333 -0.009707819 0.0053795283 -0.009092312 -0.027096074 -0.02333648 -0.022930508 -0.012168129
-0.027558526 -0.012801506 0.0061368346 -0.036722768 -0.0076224967 -0.02422708 -0.036000904 0.01877269
-0.020441907 -0.0051577226 -0.015190642 -0.0059513124 0.020235632 -0.015967516 -0.013298585 -0.0147269545
-0.022108424 -0.023451958 -0.018065605 -0.0008389612 0.02207611 -0.0032818515 -0.019568946 -0.012474593
0.0061242175 -0.008471541 -0.0027448614 -0.009055969 -0.013785358 -0.013831385 -0.013657674 0.0023042206
-0.009089036 -0.018312281 -0.020090662 -0.0060293227 -0.02323011 -0.015196709 -0.010153079 -0.0203592
0.003929821 -0.00681811 -0.029604424 -0.03402286 0.005635436 -0.02205643 0.001470557 0.0010947961
0.0061311917 -0.013937924 -0.023818633 -0.0055706087 -0.018125825 -0.012167335 0.0013055195 -0.021406604
-0.02154552 -0.014917081 0.0028516063 -0.024967028 -0.008032956 -0.008218028 0.0013253106 -0.019019432
0.000341388 -0.012391365 -0.004890717 0.0052348333 -0.012285282 -0.00819456 -0.014315546 -0.021615751
0.005114987 0.019180894 -0.0301703 -0.02367125 -0.016370837 -0.012390504 0.027393185 -0.0067823017
-0.011435126 -0.026977552 -0.0036187654 -0.009822796 -0.0045763967 -0.013136599 -0.027462438 -0.019374896
-0.018110612 -0.013036434 -0.0092244 -0.009219251 -0.012855449 -0.0007161113 -0.008382266 0.0016462923
-0.0117374305 -0.0051875603 0.013358088 -0.032203916 -0.010293632 -0.013598602 -0.020844074 0.00027106042
-0.018584289 0.0075750975 -0.03241852 0.004351637 -0.032796767 -0.0080995755 -0.011525129 -0.015232191
-0.008152543 -0.0037027933 -0.0110463705 -0.00058371073 -0.021383105 -0.009006156 0.014754839 0.029138152
-0.022399215 -0.021667048 0.016365442 -0.0054131933 -0.016888158 -0.0059234356 -0.02293332 -0.03774588
-0.0040721884 -0.031253017 -0.018522464 -0.021928085 -0.0040290994 -0.022616122 -0.009825623 -0.015067633
0.018686693 0.0031441273 -0.003904301 -0.003589877 -0.0061532976 0.009474277 -0.021394556 -0.029598337
-0.021440154 -0.012808646 -0.01195847 0.011303562 -0.008304704 -0.028825741 -0.011002564 0.0070992657
-0.009112248 -0.0071443967 -0.0044741016 -0.022493498 -0.010403887 -0.006128618 0.008866019 0.0028709744
-0.027906645 -0.030823104 -0.007032617 -0.021703262 -0.0010324233 -0.011823489 0.03148754 -0.011261738
-0.010489825 -0.0012268702 -0.03068059 -0.0044142166 -0.023309743 -0.026331706 -0.008055397 0.006576632
-0.015394641 -0.02213458 -0.012244219 -0.018840771 -0.014520572 -0.021293877 -0.003124826 0.019459689
-0.032625735 -0.015961286 -0.014750532 -0.014216236 -0.011697186 -0.018767292 -0.017901069 -0.037644755
-0.013999242 -0.0014916627 -0.014253312 -0.018960286 -0.0018349758 -0.0065274085 -0.052084226 -0.00323975
-0.022929342 -0.005216211 -0.0065695676 -0.0051013688 0.007008639 -0.018142898 -0.02189427 -0.009228706
-0.029338328 -0.005666145 -0.035463423 0.022597669 0.017498616 -0.015529443 -0.014520876 0.012254419
0.0052499333 -0.01322135 -0.012467776 -0.022356976 -0.025400665 -0.012284282 -0.013602694 -0.005431764
-0.004325746 -0.007279803 -0.032365505 0.014555661 -0.023696119 -0.018106936 -0.0041301223 -0.014452073
-0.012496311 0.014890854 0.005455646 -0.014903006 0.020196332 -0.025048554 0.0059129545 -0.021344785
-0.022038165 -0.018650718 -0.009163164 0.007644687 0.009017001 -0.010159808 -0.013756832 0.01359342
00000000: 4e13 23bc 8b0d 1fbc c146 b03b ecf7 14bc
00000010: 96f8 ddbc 252c bfbc c3d8 bbbc d55c 47bc
00000020: 6bc2 e1bc 68bd 51bc 8017 c93b 9d6a 16bd
00000030: 23c6 f9bb df77 c6bc af75 13bd 2fc9 993c
00000040: c975 a7bc 1d02 a9bb 2ce2 78bc 3a03 c3bb
00000050: 32c5 a53c 4fce 82bc 4fe2 59bc 5349 71bc
00000060: ba1c b5bc 521e c0bc 52fe 93bc bced 5bba
00000070: f5d8 b43c 5514 57bb 0e4f a0bc 3c62 4cbc
00000080: a9ad c83b 38cc 0abc 22e3 33bb 7d5f 14bc
00000090: fbdb 61bc 099d 62bc 70c4 5fbc 6802 173b
000000a0: 2eea 14bc a303 96bc 2c95 a4bc a091 c5bb
000000b0: 124d bebc 9efb 78bc 1a59 26bc 56c8 a6bc
000000c0: bac5 803b 746a dfbb fa84 f2bc 8e5b 0bbd
000000d0: 77a9 b83b b0af b4bc b4bf c03a 437f 8f3a
000000e0: 2ae8 c83b e45b 64bc 4b1f c3bc a789 b6bb
000000f0: 9c7c 94bc 8059 47bc f71d ab3a e75c afbc
00000100: 3b80 b0bc c666 74bc 04e2 3a3b a787 ccbc
00000110: a99c 03bc e8a4 06bc 0bb6 ad3a a4ce 9bbc
00000120: 52fc b239 2705 4bbc 4f42 a0bb f788 ab3b
00000130: 3548 49bc 7a42 06bc c08b 6abc 8413 b1bc
00000140: 9f9b a73b 4021 9d3c b427 f7bc 36ea c1bc
00000150: 221c 86bc 8a01 4bbc ac67 e03c 123e debb
00000160: 655a 3bbc 0700 ddbc cf28 6dbb cbef 20bc
00000170: 99f5 95bb e43a 57bc e8f8 e0bc 1ab8 9ebc
00000180: b55c 94bc c496 55bc f021 17bc 570c 17bc
00000190: a99f 52bc 6ab9 3bba c655 09bc 67c8 d73a
000001a0: 5a4e 40bc 69fc a9bb e2db 5a3c 41e8 03bd
000001b0: 9fa6 28bc accc 5ebc 31c1 aabc 1d1d 8e39
000001c0: 143e 98bc 8638 f83b 48c9 04bd 2d98 8e3b
000001d0: e755 06bd 15b4 04bc e5d3 3cbc 7190 79bc
000001e0: 3e92 05bc 90aa 72bb d6fb 34bc 2a04 19ba
000001f0: 9f2b afbc 8e8e 13bc 48be 713c 22b3 ee3c
00000200: 8f7e b7bc 187f b1bc d210 863c 2861 b1bb
00000210: 0959 8abc 6119 c2bb a8de bbbc 6d9b 1abd
00000220: fe6f 85bb 2a03 00bd 6cbc 97bc 87a2 b3bc
00000230: 8906 84bb 7245 b9bc a6fb 20bc 3cde 76bc
00000240: d614 993c b40d 4e3b 4ddf 7fbb 2444 6bbb
00000250: 9aa1 c9bb ff39 1b3c a343 afbc 3678 f2bc
00000260: 43a3 afbc 5bdb 51bc 75ed 43bc 9332 393c
00000270: 7410 08bc f623 ecbc 1944 34bc f5a0 e83b
00000280: 8a4b 15bc 8b1b eabb 7c9b 92bb 4944 b8bc
00000290: 1175 2abc 93d2 c8bb c742 113c f526 3c3b
000002a0: 7a9c e4bc bc80 fcbc de71 e6bb 0acb b1bc
000002b0: 6152 87ba 4fb7 41bc 14f9 003d 2783 38bc
000002c0: 84dd 2bbc efce a0ba dc55 fbbc 22a5 90bb
000002d0: 13f4 bebc 97b5 d7bc c9fa 03bc ca80 d73b
000002e0: ce39 7cbc 9453 b5bc fa9b 48bc f657 9abc
000002f0: b1e7 6dbc 7f70 aebc e1c9 4cbb ed69 9f3c
00000300: 90a2 05bd 3ec1 82bc 37ac 71bc 37eb 68bc
00000310: 8ea5 3fbc ddbd 99bc 43a5 92bc 6331 1abd
00000320: 145d 65bc e583 c3ba b986 69bc 9a52 9bbc
00000330: 9283 f0ba dfe3 d5bb 4556 55bd fc51 54bb
00000340: 51d6 bbbc c0ec aabb 8745 d7bb 6229 a7bb
00000350: baa8 e53b 6aa0 94bc 9d5b b3bc 0034 17bc
00000360: ef56 f0bc 12ab b9bb 1842 11bd bf1e b93c
00000370: 4259 8f3c 346f 7ebc f8e8 6dbc c2c6 483c
00000380: a207 ac3b 5c9e 58bc a545 4cbc fa25 b7bc
00000390: 0e15 d0bc 0344 49bc d5dd 5ebc f0fc b1bb
000003a0: fdbe 8dbb 6a8b eebb b191 04bd de7a 6e3c
000003b0: 5d1e c2bc ff54 94bc fa55 87bb 63c8 6cbc
000003c0: 54bd 4cbc c5f8 733c 47c5 b23b bd2b 74bc
000003d0: c772 a53c a032 cdbc 75c1 c13b 42db aebc
000003e0: 6289 b4bc 64c9 98bc 1821 16bc 4880 fa3b
000003f0: 0bbc 133c 5375 26bc 5664 61bc f0b6 5e3c

action_model._continuous_distribution.log_sigma f4 [1, 2]
-0.1183845 -0.023009464
00000000: 9373 f2bd 587e bcbc

action_model._continuous_distribution.mu.weight f4 [2, 256]
-0.04275423 -0.020125376 -0.044440683 -0.030940667 0.038788855 0.011440537 -0.015198288 -0.001529983
-0.019207783 0.031261586 0.08485831 -0.0042756433 -0.0006660946 -0.042014237 0.012447704 -0.07140641
-0.021414634 0.028278267 -0.0125567885 -0.045623917 0.06605802 0.009055558 -0.03176098 0.030796606
-0.04789303 0.015712796 -0.009833473 0.018580269 -0.09060634 0.021102304 0.0051357895 -0.030471884
-0.06543238 0.015974894 -0.037382524 -0.021959854 0.02197237 0.00800807 0.010845128 -0.033497304
0.03235889 -0.024038415 -0.004304303 -0.0349825 -0.026323313 -0.0373184 0.0021378442 -0.0018404583
0.010458105 0.03964385 0.0057434705 0.015414201 0.021303708 0.008680641 0.004065089 -0.029553011
-0.05711121 -0.026093522 -0.021270849 -0.017588397 0.032695483 -0.004977973 0.011842362 0.0017229394
-0.0415333 -0.033238675 0.030757235 -0.013038856 0.008630886 -0.037668563 -0.04480621 0.02050402
0.0076311445 -0.022953253 -0.008067631 0.033794057 -0.032067183 0.055288024 0.013624328 -0.021290304
-0.04150957 -0.07961272 0.000988175 0.022429943 0.024340238 -0.047813598 0.017220598 -0.059646145
0.0024467031 -0.009453615 0.012492855 -0.010723448 0.007181379 -0.020632578 0.011291544 -3.71941e-05
-0.04035595 -0.040950526 -0.029420728 -0.00293218 -0.0034636513 -0.04558933 0.01795683 -0.061547082
0.00013828752 -0.043962114 -0.018173985 0.0033255992 -0.00041977034 -0.042586647 -0.013561417 -0.030227946
0.016846756 -0.0020912096 -0.0115577 -0.0054156026 -0.02255524 0.035397742 -0.02053243 -0.0145522505
-0.022167802 -0.064932644 0.022831004 -0.023939444 0.0028682374 -0.0125716 -0.016675632 -0.084575325
-0.022588715 -0.018331233 -0.028448427 0.019616622 0.009993497 0.02331551 -0.006576937 9.786224e-06
0.047830783 -0.006370428 -0.034859784 -0.012094853 -0.029751388 0.02896177 -0.0019830286 -0.04155433
-0.06593849 0.01793787 -0.033548668 -0.025887357 0.05844015 -6.683783e-05 0.00243792 0.002535695
-0.041389406 0.013555548 -0.04770842 -0.03281573 0.0045743007 -0.01597611 0.030640187 0.017593998
-0.025142845 0.025127437 0.024415795 0.019014088 -0.018317392 -0.014098521 -0.061065674 0.005068259
0.0077078305 -0.002357137 -0.064623855 -0.019786445 0.02442972 -0.0144225685 -0.05437071 0.025048122
-0.037278585 -0.0478696 0.008570411 -0.032651823 0.013386993 -0.02228944 -0.053706557 -0.031340882
-0.02138893 -0.0130904075 -0.028037138 -0.017046811 -0.019591203 0.002095984 0.04106309 0.058634233
-0.01945581 0.01870151 -0.0050882106 0.020576006 0.0415901 -0.005443497 -0.04904974 -0.0033892575
0.011067219 -0.036242876 0.028713277 -0.0020413068 -0.0018848304 0.042076822 -0.0017929053 -0.0079533765
-0.020347254 -0.0301776 -0.05124568 -0.03971577 0.028851055 -0.01013838 -0.013078372 0.050363634
-0.003913275 -0.014759529 0.0057330243 0.024587877 -0.032886274 0.012171058 0.028058402 0.046629455
0.0415762 0.029845487 -0.046168547 -0.033650275 0.0082915565 -0.02409345 -0.034849897 -0.028758178
0.0029113153 -0.040633865 -0.027497813 -0.0026584035 0.0063186972 -0.002782032 -0.020201791 0.008776688
0.0012637366 0.053622335 -0.0063550533 0.009596477 -0.054913156 -0.0051455665 0.03843962 0.03911562
-0.037892114 -0.013788548 0.024609188 0.018291002 0.03836565 0.010367275 0.005345842 -0.08423543
00000000: 0f1f 2fbd f9dd a4bc 6f07 36bd 4877 fdbc
00000010: 10e1 1e3d 1771 3b3c 3d02 79bc b689 c8ba
00000020: a459 9dbc 260c 003d 32ca ad3d b21a 8cbb
00000030: da9c 2eba 1f17 2cbd 74f1 4b3c 863d 92bd
00000040: be6d afbc d3a7 e73c fdba 4dbc 25e0 3abd
00000050: 6d49 873d c35d 143c cd17 02bd 2a49 fc3c
00000060: 7b2b 44bd 1fb8 803c 931c 21bc a635 983c
00000070: d18f b9bd bdde ac3c 204a a83b 2ca0 f9bc
00000080: 6901 86bd c8dd 823c 6b1e 19bd 27e5 b3bc
00000090: 66ff b33c 4834 033c c4af 313c 7834 09bd
000000a0: c18a 043d 36ec c4bc 1c0b 8dbb cf49 0fbd
000000b0: fda3 d7bc 2edb 18bd 131b 0c3b 883b f1ba
000000c0: 7958 2b3c 9761 223d b933 bc3b d88b 7c3c
000000d0: 1d85 ae3c 3f39 0e3c 7034 853b 2819 f2bc
000000e0: 72ed 69bd 15c2 d5bc 3440 aebc 8b15 90bc
000000f0: b3eb 053d 441e a3bb 7706 423c 41d4 e13a
00000100: d21e 2abd 4725 08bd 99f6 fb3c eda0 55bc
00000110: 8f68 0d3c 5a4a 1abd b786 37bd 0cf8 a73c
00000120: ae0e fa3b 7608 bcbc 192e 04bc a36b 0a3d
00000130: e158 03bd b275 623d 9338 5f3c 0169 aebc
00000140: f005 2abd fe0b a3bd a785 813a 00bf b73c
00000150: 2e65 c73c 31d8 43bd 3612 8d3c 844f 74bd
00000160: de58 203b 56e3 1abc d5ae 4c3c 67b1 2fbc
00000170: c651 eb3b a705 a9bc 2b00 393c dc00 1cb8
00000180: 484c 25bd bdbb 27bd bd03 f1bc d129 40bb
00000190: 6dfe 62bb e1bb 3abd 341a 933c cb18 7cbd
000001a0: 4601 1139 9e11 34bd 9ce1 94bc 4cf2 593b
000001b0: 9f14 dcb9 566f 2ebd b530 5ebc 99a0 f7bc
000001c0: 3502 8a3c ad0c 09bb 825c 3dbc 5e75 b1bb
000001d0: c4c5 b8bc 39fd 103d a033 a8bc 906c 6ebc
000001e0: 4099 b5bc 68fb 84bd 1608 bb3c a71c c4bc
000001f0: 0af9 3b3b 1df9 4dbc 569b 88bc d435 adbd
00000200: f80b b9bc 622b 96bc ad0c e9bc 0ab3 a03c
00000210: c4bb 233c 2b00 bf3c 5983 d7bb 832f 2437
00000220: 36ea 433d 06bf d0bb 22c9 0ebd 7e29 46bc
00000230: 2fb9 f3bc 3c41 ed3c b3f5 01bb e034 2abd
00000240: c20a 87bd 71f2 923c 546a 09bd b911 d4bc
00000250: f05e 6f3d 492b 8cb8 83c5 1f3b e72d 263b
00000260: f087 29bd 1718 5e3c e769 43bd c969 06bd
00000270: 04e4 953b 55e0 82bc 2101 fb3c 4a21 903c
00000280: 5ef8 cdbc 0ed8 cd3c a203 c83c 6fc3 9b3c
00000290: 5b0e 96bc 7cfd 66bc 0020 7abd a313 a63b
000002a0: f891 fc3b 327a 1abb 8359 84bd 2f17 a2bc
000002b0: d620 c83c a34c 6cbc d2b3 5ebd b831 cd3c
000002c0: 6eb1 18bd ea12 44bd e96a 0c3c ebbd 05bd
000002d0: 1e55 5b3c 5898 b6bc 68fb 5bbd 4c5f 00bd
000002e0: d637 afbc 2679 56bc 24ae e5bc c1a5 8bbc
000002f0: bb7d a0bc c75c 093b c531 283d 732a 703d
00000300: ca61 9fbc e933 993c 01bb a6bb 038f a83c
00000310: 615a 2a3d 5d5f b2bb 61e8 48bd 4e1e 5ebb
00000320: 4853 353c 6973 14bd 1b38 eb3c 72c7 05bb
00000330: 6a0c f7ba bf58 2c3d ebff eaba e14e 02bc
00000340: 49af a6bc 0437 f7bc fde6 51bd 01ad 22bd
00000350: 0c59 ec3c 731b 26bc ab46 56bc 194a 4e3d
00000360: ee3a 80bb f4d1 71bc 18dc bb3b 846c c93c
00000370: c2b3 06bd 1e69 473c bcda e53c 87fe 3e3d
00000380: ce4b 2a3d 867e f43c 3b1b 3dbd dfd4 09bd
00000390: 4fd9 073c a05f c5bc c4be 0ebd 4596 ebbc
000003a0: c4cb 3e3b b26f 26bd 1843 e1bc 9c38 2ebb
000003b0: 130d cf3b c052 36bb 3a7e a5bc 19cc 0f3c
000003c0: f7a3 a53a 18a3 5b3d 0d3e d0bb 8b3a 1d3c
000003d0: 9eec 60bd 249c a8bb dd72 1d3d b337 203d
000003e0: c334 1bbd 5de9 61bc 3599 c93c 03d7 953c
000003f0: 4d25 1d3d 81db 293c 2c2c af3b a083 acbd

action_model._continuous_distribution.mu.bias f4 [2]
0.008375883 -0.0049857474
00000000: 003b 093c 7b5f a3bb

onnx::Div_71 f4 [20]
0.49837404 0.4934996 0.11319071 0.20244706 0.4639139 0.44275495 0.06381958 0.1592847
0.44315955 0.39332736 0.054175213 0.14418004 0.4835936 0.4653627 0.089669324 0.16289973
0.47145075 0.4383315 0.07667811 0.16905455
00000000: e22a ff3e fbab fc3e 88d0 e73d 484e 4f3e
00000010: 1f86 ed3e c7b0 e23e d7b3 823d 871b 233e
00000020: cfe5 e23e 3462 c93e d4e6 5d3d efa3 133e
00000030: 9599 f73e 0544 ee3e 8da4 b73d 30cf 263e
00000040: fe61 f13e fd6c e03e 6a09 9d3d a31c 2d3e

onnx::Div_74 f4 [12]
0.4316174 0.49806392 0.42773244 0.40129694 0.4315717 0.499135 0.42159566 0.395401
0.43296018 0.49612716 0.43387854 0.40717512
00000000: f5fc dc3e 3c02 ff3e bfff da3e cb76 cd3e
00000010: f7f6 dc3e 9f8e ff3e 63db d73e 0072 ca3e
00000020: f5ac dd3e 6104 fe3e 5425 de3e 4279 d03e

onnx::Div_77 f4 [3]
0.7182879 0.060703192 0.8636804
00000000: b7e1 373f e9a3 783d 291a 5d3f
